outputs/centerSquare_2a_PPO/best_status.pt (torch, 39253 bytes, 42 tensors)

actor.0.weight f4 [64, 4]
00000000: 1298 8dbd 952d 4ebe 0355 683e 7130 7cbd
00000010: 5312 f3bd e6a9 673e 862e 783d ce88 d03e
00000020: 12f3 973d 4ea5 393e 9837 7b3e f0d7 1dbd
00000030: a91e 60bc f109 7a3e 1167 b6be 5ce0 4cbd
00000040: d43e d13c 1350 8abe 2026 9b3d d85f 7fbd
00000050: fc84 883d 0971 993e b281 72bd 673f c6bd
00000060: b685 4dbe d4d6 813e 7b1f 2dbd d453 943e
00000070: 5281 50be a94b 6dbe 5590 7fbe e2ab 8abe
00000080: 2e97 07bf 899b f4bd 781d 8a3e 1d35 9b3e
00000090: be53 8c3c c63b cd3d f771 8bbc ec6f d03e
000000a0: d7fc 2e3e 5408 9ebc 2a0d 333e 0829 cd3d
000000b0: 89e8 843d faa1 d4bc d36f 70bc 3c6e 863e
000000c0: f21c c23d e884 6a3e 28a7 cb3c 156a 6ebc
000000d0: 42c0 72bd e37e 083e b951 263e dfac cdbe
000000e0: 9d5f e73d becb 1fbe 946e a33d c799 c6bd
000000f0: 5fb4 2abe 3167 643e eb70 fcbe e557 2f3e
00000100: 9e3d a93e 660b 30be 7f55 c43e cfee 04ba
00000110: 14d7 05be ba07 223d 9cbd 6b3e fb09 383e
00000120: 1df5 8abe 9661 563e 3e02 be3e 5b5b fbbd
00000130: 580d 253e e8af f33d 6c85 9cbe 92f6 463e
00000140: b046 efbe aeff f0bd 1835 0a3c beb9 28bd
00000150: 5c30 a83d afa5 e33d 78c2 24bd 6d16 e23d
00000160: 7e0f bbbb 17d1 423e c2eb d73e 9013 6a3d
00000170: 7553 52be 3645 da3d 23bc 33be c183 2fbe
00000180: 49fd 13be 7e72 113f c6e0 633d ab64 873d
00000190: 0a18 81be be84 5e3e 6059 aabe 7a6d af3d
000001a0: 1519 b6be c543 7dbe a69a ffbd 42fe 46be
000001b0: 2ab2 083e da6a d7bd 4f3b a7be 2a00 043f
000001c0: 1b75 e7bd 0618 ab3d c7be a33e f64c 45be
000001d0: 8b79 c63d 22f2 24be b6f5 e93e e8d3 ac3e
000001e0: 58fa 17be 7f48 4dbe dcf0 99be 935a 83be
000001f0: 77eb 91be 9763 173d 17dc a9bd e4d0 3dbe
00000200: df5b 593b 1545 613d 0877 16be 9c95 413e
00000210: 8952 22bf e481 2ebe 222e 903d 0a8a b93d
00000220: af2f e0bd d420 3d3e d2dd 023e b632 eebd
00000230: 0541 ac3d d16f 8cbc 4dab 7abe c591 9bbe
00000240: f783 40be 4244 d1bd f935 1cbe d33b 233d
00000250: b67d 93bd 2598 d5bd 6189 edbc 816b 80be
00000260: 708b efbd 722b 49be 79a0 a5bd ebdf 4dbd
00000270: c645 b33d dd7f 1abf c352 bcbd 9f86 053e
00000280: 06e7 0e3e e46a 5cbc d5c0 68bd aeaa aebd
00000290: c6b9 223e fb93 033d 9bf1 123e c239 55bc
000002a0: 333f a7bc 1340 a1be 333a 6b3e 2c2a 84be
000002b0: a42b c93c 7855 29be 2b1a b4bc dc1a 1c3e
000002c0: c709 203e 520e 063e 15fb 023e 3972 bebe
000002d0: 67d6 92be 3ced 8dbd eb42 353c 070e 89be
000002e0: 347d 773e 07bd 83be 8966 0cbe e70f bfbd
000002f0: 8047 8a3e 4fa1 b33d 33ef 873e 87b3 0dbd
00000300: e96a ad3e 82b3 85be f282 77be 2c32 cf3d
00000310: a77d 933e 8edd 853d 7299 85be f2b7 19be
00000320: d383 cc3d 8627 7b3e bba6 62be b9a4 973e
00000330: b1c1 0c3e 1868 29be 5673 343e 5d79 9cbd
00000340: 026c d43d 5d17 ea3d f81a 1abe 199c acbc
00000350: 9cdf 9e3d 69fb e03e 0551 28bd 4cac 2abe
00000360: 6371 cebd bcd4 c6bd ce86 1a3e 3bd0 aa3d
00000370: 72da 7abe 30b4 6ebd c6e5 4dbd 4da8 f33d
00000380: 6af0 f6bd 04a3 663d 04a0 d93e b36a 353e
00000390: a493 053e faf8 24be 2a4f 533e d5c6 33be
000003a0: 7b7a 1dbe a060 aa3c 485c 58be 9e63 d9bd
000003b0: 0d30 0b3e d06b 1dbe cb18 283e 54f8 ee3e
000003c0: c304 b63e a90b f5bd 91c9 65bc df43 193c
000003d0: b54c c13e 1af4 073e c182 62bd 202f 3fbe
000003e0: 924b 2ebe 6e4e 09bf 5e06 14be 1bad 623e
000003f0: a4b1 69bd e26d b9bd e1e3 83be 26ef a7be
-0.06913771 -0.20134576 0.2268868 -0.061569635 -0.118687294 0.22623405 0.060591243 0.40729374
0.07419409 0.18129465 0.24532926 -0.038536012 -0.013679185 0.24417855 -0.35625508 -0.050018653
0.025542654 -0.27014217 0.07575631 -0.062347263 0.0666599 0.2996905 -0.05920572 -0.09680062
-0.20070538 0.25359213 -0.04226635 0.28970206 -0.20361832 -0.23173393 -0.24957402 -0.2708426
-0.52965057 -0.119437285 0.26975608 0.3031396 0.017129775 0.100211665 -0.017022116 0.4071039
0.17088638 -0.01929108 0.1748549 0.10017592 0.06489665 -0.025956143 -0.0146750985 0.26255977
0.09478177 0.22902262 0.02485998 -0.014551659 -0.059265383 0.13329653 0.16242112 -0.40170953
0.11297534 -0.15605065 0.079800755 -0.096972995 -0.16670369 0.2230499 -0.493049 0.17123373
0.33054823 -0.17191848 0.38346478 -0.00050709856 -0.13070327 0.03955815 0.23021549 0.17972557
-0.27140132 0.20935664 0.37111086 -0.12273284 0.16118371 0.11898786 -0.30570543 0.19429997
-0.46733618 -0.11767517 0.00843551 -0.041192763 0.08212349 0.11115586 -0.040224522 0.11039434
-0.005708634 0.19025074 0.42172056 0.057147563 -0.20539649 0.10657732 -0.17552237 -0.17140104
-0.1445209 0.56815326 0.055634283 0.06610998 -0.25213653 0.21730325 -0.33271313 0.08565803
-0.3556601 -0.24732883 -0.12480669 -0.19432929 0.13349214 -0.10518427 -0.32662436 0.5156275
-0.11301633 0.083541915 0.3198149 -0.1926764 0.09691151 -0.16107991 0.45695275 0.33755422
-0.14841592 -0.20047186 -0.30066574 -0.2565504 -0.28499958 0.03696021 -0.08293932 -0.18536717
0.0033166332 0.054997522 -0.14693844 0.18904728 -0.6340719 -0.17041737 0.07040049 0.09059532
-0.10946595 0.18469554 0.1277993 -0.11630766 0.08410839 -0.017143162 -0.24479409 -0.3038465
-0.1880034 -0.10218097 -0.15254964 0.039851975 -0.07201712 -0.1042941 -0.028996171 -0.2508202
-0.116965175 -0.1964548 -0.08087248 -0.050262373 0.087535426 -0.60351354 -0.09195473 0.13039635
0.13955316 -0.013453219 -0.056824524 -0.08528648 0.1589118 0.032123547 0.14349978 -0.013014259
-0.020415878 -0.31494197 0.2297142 -0.25813425 0.024556942 -0.1653651 -0.021985134 0.15244621
0.1562873 0.130914 0.12791093 -0.3719652 -0.286792 -0.069300145 0.011063318 -0.26768515
0.24168855 -0.25730154 -0.13710989 -0.09329205 0.27007675 0.087710015 0.26549682 -0.03459504
0.33870628 -0.26113516 -0.24171045 0.101169914 0.28806803 0.06536399 -0.26093632 -0.15011576
0.09986081 0.24526796 -0.22133915 0.2961786 0.13745762 -0.16543615 0.17622122 -0.07640336
0.10372163 0.114302374 -0.1504935 -0.021070527 0.07757494 0.4394181 -0.04109289 -0.16667289
-0.100802206 -0.097085446 0.15090486 0.08340498 -0.24497393 -0.05827731 -0.050267957 0.11897335
-0.12057574 0.056307808 0.42504895 0.17716484 0.13044602 -0.16110602 0.20635667 -0.17556317
-0.15378754 0.020798028 -0.21128953 -0.106147036 0.13592549 -0.15373158 0.16415708 0.46673834
0.35550508 -0.119651146 -0.014025108 0.009354561 0.37753835 0.13276711 -0.055300478 -0.1867032
-0.17021015 -0.536353 -0.14455554 0.22136347 -0.057054177 -0.090541616 -0.25759795 -0.32799643

actor.0.bias f4 [64]
00000000: 044c f7ba b5d9 073c 27fe 813c e6c7 a3bc
00000010: a69b ae3d 766b 73bd a32c db3c 0ecb 1cbd
00000020: 20b8 5d3d ec93 623c ea27 213d 546a 94bc
00000030: cf71 a13c 0ce4 6ebc d5a4 853d b00d 11bd
00000040: 1d04 423c 71f1 403d 746a afbc acb5 1ebd
00000050: fefd 38bb dca0 1a3b 3748 27bd 33ce 903c
00000060: 42af 00bd 7ed9 e1bc 20be 82bc 4a37 9d3a
00000070: 1550 3b3d 6258 d53b 0d51 85bc 15b3 18bd
00000080: 802c ebbc e856 5cba 3fe4 2d3d 5b2f 023d
00000090: a2f0 a13d b8b4 b4bc 390e 49bd e2b7 233d
000000a0: 0640 703c 31f0 c43c 71fe d83c d710 7e3d
000000b0: 3f5b 0e3d c24f 8f39 0e63 59bd cf53 233d
000000c0: 8d7c 393d a08d cdbc 33c1 b23d 25a9 2ebd
000000d0: 39f7 83bd bc3f 833c 2b51 85bd 69ca 3b3b
000000e0: 4ecb e13c 7c2e d03c 825c e1bc 6336 173c
000000f0: f0da 2cbd aa57 0a3d e809 a5bd 8257 1dbc
-0.0018867259 0.0082916515 0.01586826 -0.01999278 0.08525781 -0.059428655 0.026754683 -0.038279586
0.054130673 0.013829213 0.039344706 -0.018117107 0.019707588 -0.014580738 0.0652558 -0.035413444
0.011841801 0.047105256 -0.021413065 -0.038747475 -0.0028227563 0.0023594415 -0.040840354 0.017676448
-0.03141714 -0.027569529 -0.0159598 0.0011994627 0.04573067 0.00651078 -0.016274 -0.03728016
-0.028707743 -0.0008405284 0.042454 0.031783443 0.07907225 -0.02205883 -0.04908583 0.039970286
0.014663702 0.024040313 0.026488515 0.06202778 0.034754988 0.0002733451 -0.05307298 0.039874848
0.045284797 -0.025091946 0.08728256 -0.042641778 -0.06443638 0.016021602 -0.06509622 0.0028654581
0.027562764 0.02541279 -0.027509931 0.009229275 -0.042200983 0.03377501 -0.0805853 -0.009603383

actor.2.weight f4 [5, 64]
00000000: 4927 bbbc cd05 57be 615e 983e 75bb d9bd
00000010: a2b6 973e 3b82 593e bd34 ec3e 764a 713e
00000020: f6b6 16be 6957 e7bc 3636 e7bd 2e94 d53e
00000030: 067f 3dbe 3c91 5dbe 7ea4 61bd d889 29bd
00000040: f3d7 d13c 89ee 82bd 325c 443e 7dbf f73d
00000050: bfdc 28be 89a0 ca3e 2046 c8bc f5b8 a63d
00000060: d56e 03bf c46b c23d 3c93 a23d 320f 873e
00000070: 2a57 1e3d ca1a f0bc 8a25 b33d e189 05be
00000080: 8a42 5c3e dafb c5be 2685 efbc 60b3 e63d
00000090: a6e1 2fbd b6c4 1dbe 7a21 8dbe 34cd 483e
000000a0: 4dd0 573e 81d4 ce3e c1f7 53be c8de 03be
000000b0: 6cae b63d 49c9 533d 7122 12be c785 20bd
000000c0: 45ea 67be 8131 993e 9f17 efbb d688 d1bd
000000d0: 6186 fe3c 754a e33e df2e 1c3e cde1 c2bd
000000e0: fa83 ac3e 4007 93be 126b 213e aad9 fc3d
000000f0: 79d3 633e ee65 373e 6207 bebd 3b27 05be
00000100: ab5d 0cbd 6d79 8f3e a808 58bc 7cb9 0f3f
00000110: a248 b6bd d5fc 8f3e 9ed4 1fbe 36e6 7b3e
00000120: fb11 e2bd 2e58 4cbe e556 15bf 535f 02bf
00000130: 473a f8bd e200 3cbe 5c9c d73e 15b1 2a3d
00000140: 3ac8 93bd 4460 babd 2c0a 203e d902 22bd
00000150: 5417 073e 4cef f0be d752 a53d 180e 0e3e
00000160: 5b25 e2be 16b1 923e 2c9f a7bd 32d6 70be
00000170: e233 883e 81e6 11be 4ab8 17bd a121 33bb
00000180: e3ee 54be 352e 23be 3151 81be 1379 143e
00000190: c1a3 f3bd 1196 b4bd 2bcb a93e 5002 143e
000001a0: ee12 3b3d fb57 63bc bb77 0ebd e5fb 743c
000001b0: 8622 1fbe 0126 3cbe 1c8c 9b3c 5f86 85be
000001c0: 2c24 06be a500 5c3e a55c 62be 11ff 5f3d
000001d0: c512 f8bb 20b4 533e 090b 96bc 7d90 a13e
000001e0: c9fe 1fbe d3b1 fe3a c7cd 523e b56b 49bd
000001f0: 9c50 6ebe f88e a8bd 94ea 1dbe 7896 853c
00000200: 73d4 253e 1f26 b63e 2250 83bd b02e 71be
00000210: f22e b43e bece 993a 6e46 373e 578c 013e
00000220: 9de4 9a3e c4a6 123e 7752 703e c007 09be
00000230: 5054 5c3e 7668 863c c484 a33d 254c 3ebd
00000240: 8d51 1a3c c473 e33c 0b45 3e3c 6293 ddbd
00000250: 878e 10bc 44e6 623d 8b17 053e a653 1a3d
00000260: e2da 56be 74e6 1e3d 4ea1 483d 214b 5a3c
00000270: dce4 df3e a6ee a43e 8da1 c63d 4cb5 d9be
00000280: 7729 e5bd bb21 4abe ed16 1e3e 5b3f 09be
00000290: 2de5 ca3e 14df d6bd 7ca4 d3be 6c14 d53b
000002a0: 3898 92be 4f46 543e acc0 aa3e b391 78bd
000002b0: e981 363e 6382 2bbe 5697 72be d22d 043c
000002c0: ef48 613e 7578 8cbe bff7 bc3d b952 9cbd
000002d0: 0485 ecbc 3369 57bb 68f8 96be 7d00 ca3e
000002e0: 087d 4a3e 59fd bc3e ac41 45be 11d3 de3d
000002f0: 5090 a5be 3552 dc3e 63fe 203d a3dd fd3d
00000300: 9758 3abd 2f62 cbbe 32be 883e 7810 163e
00000310: b7ed bfbd f1a7 a73d 5394 75be 6df1 c23e
00000320: 4dfc f03d d862 e23e 0c79 423e 0303 b1be
00000330: 87e3 353e 93c9 c03d 29e5 6fbd 9d71 97bd
00000340: 1ecb 713e 8dc7 32bc 59f3 48be 2ac6 773d
00000350: 535b cc3c 9779 35be d084 b3be c2ed e7bd
00000360: 6ce0 713e 9702 2f3e 4507 23be 5894 c43c
00000370: 5041 e63e 18a4 103e b2e3 9a3e 3dde b9bc
00000380: 0c2c 67bd fe12 59be efcb 24be a903 203e
00000390: 15fc b4bc e0b6 58be 77bf 7f3d b6fe 1abd
000003a0: ea84 703e 1d42 653e 0e91 00be 5214 0dbd
000003b0: 7b70 b23e a391 1fbd 0090 223e 0f5a 14bd
000003c0: b233 2c3e 04a3 a5be 20c7 203c 00e6 33be
000003d0: cb8d a2bd c807 c23d f407 57be 728f b6be
000003e0: 86c8 363e bca7 db3d 9ab8 153d 5d30 853d
000003f0: ac1d f23e 5de9 113b 47c6 89be e46f 98be
-0.022845881 -0.20998307 0.29759505 -0.10631458 0.29631525 0.21241085 0.46133986 0.23563561
-0.14718232 -0.028239923 -0.11289637 0.41714615 -0.18505487 -0.21637434 -0.055088513 -0.041391224
0.025615668 -0.06393153 0.19175795 0.1209707 -0.16490458 0.39575604 -0.0244475 0.081407465
-0.5134099 0.09493211 0.07938239 0.2637878 0.038657345 -0.029309649 0.087473944 -0.13040878
0.21509758 -0.3866871 -0.029238295 0.11264682 -0.042939804 -0.1540707 -0.27564603 0.19609529
0.21075554 0.40396503 -0.2069998 -0.12877953 0.08919987 0.051705632 -0.14270951 -0.03919008
-0.2264796 0.2992058 -0.007296517 -0.102311775 0.031069936 0.44392744 0.15252255 -0.09515724
0.3369444 -0.2871647 0.157635 0.123462036 0.22248639 0.17909977 -0.09278752 -0.13003246
-0.034269016 0.28022328 -0.013185658 0.561424 -0.08900572 0.28122583 -0.15608451 0.24599537
-0.11038586 -0.19955513 -0.58335716 -0.50926703 -0.121204905 -0.18359712 0.4211148 0.041672785
-0.072159246 -0.091003925 0.1562888 -0.039553497 0.13192493 -0.4705757 0.08072441 0.13872564
-0.44169125 0.2865073 -0.081846565 -0.23519209 0.26602083 -0.14248087 -0.037040986 -0.0027333277
-0.20794253 -0.15935595 -0.25257257 0.14499311 -0.11896468 -0.088176854 0.33162817 0.14454007
0.04567235 -0.013875957 -0.034782153 0.014952634 -0.15540513 -0.18373872 0.018987708 -0.2607908
-0.13099736 0.21484621 -0.22105654 0.05468661 -0.007570597 0.20674181 -0.018315809 0.31555548
-0.15624537 0.0019431658 0.2058631 -0.049174983 -0.23272938 -0.08230394 -0.15421516 0.0163071
0.16194324 0.3557596 -0.064117685 -0.23552966 0.35192066 0.0011734588 0.1789796 0.12651192
0.30252543 0.14321429 0.23468958 -0.13381863 0.21516538 0.016407233 0.079843074 -0.046459336
0.009418857 0.027765162 0.011613141 -0.10819127 -0.008823044 0.05539538 0.12997262 0.03767743
-0.20981935 0.038793996 0.048981957 0.013323576 0.43729293 0.32213324 0.09698782 -0.4252113
-0.111895494 -0.1973943 0.15438433 -0.13403074 0.39627972 -0.104917675 -0.4133643 0.0065026786
-0.2863176 0.20729946 0.33350122 -0.060685825 0.17822994 -0.16748957 -0.23690543 0.008067565
0.22000478 -0.2743565 0.09226941 -0.076329656 -0.02887202 -0.00328691 -0.29486394 0.39453498
0.19774258 0.3691204 -0.19263333 0.108801015 -0.32336664 0.4303147 0.039305102 0.123957895
-0.045494642 -0.39723346 0.26707608 0.1465472 -0.093715124 0.08186329 -0.23982362 0.38074818
0.117668726 0.44216037 0.18991488 -0.3457261 0.17762576 0.09413447 -0.058568154 -0.07394717
0.2361264 -0.010911834 -0.1962408 0.06049172 0.02494589 -0.17722164 -0.35062265 -0.113246456
0.23620766 0.17090832 -0.15920742 0.023996517 0.44971704 0.14125097 0.30251843 -0.02268898
-0.05643849 -0.21198651 -0.1609342 0.15626396 -0.022092858 -0.21163511 0.062438454 -0.037840568
0.23488203 0.22388501 -0.12555334 -0.034443207 0.3485144 -0.03895725 0.15875244 -0.0362187
0.16816595 -0.32350934 0.0098131 -0.17568207 -0.07937201 0.094741404 -0.20999128 -0.35656315
0.17849931 0.10725352 0.036553003 0.06503365 0.47288263 0.002226434 -0.26909086 -0.29772866

actor.2.bias f4 [5]
00000000: 9da0 383c b8c4 0bbd 668b 3a3d 8dc7 293d
00000010: 9bd8 a6bd
0.011268762 -0.034123152 0.045543097 0.041450072 -0.08146783

critic.0.weight f4 [64, 4]
00000000: ed9d 98be 64db f2bd a953 ce3e cfa9 76be
00000010: 09ee 57be e0bc 193e 79a1 c4bd ff51 453d
00000020: 35d6 083e 85d3 19be f472 953e 06af ce3c
00000030: 25ef 8ebe 3349 6b3d dd3f 0e3e 0002 9b3d
00000040: e45d 04be 5e01 83bc 6303 823e e1cd 863b
00000050: cbb3 22bf ef26 6dbe b02f 2d3d 8678 b1bd
00000060: ab08 0abf 9cb4 09bd 0a04 103d af42 84bd
00000070: 88d3 c13d 3084 3d3e e981 e338 6b9a 023c
00000080: f070 803d 1622 39be 0622 c5be 458a 003f
00000090: 5f57 bf3d baf7 ed3d 2880 ed3d b0c0 143e
000000a0: e1e7 593e d259 123c 94cf 113e 8509 203e
000000b0: d229 ac3c c677 7ebe 869e 91bd 01f3 acbe
000000c0: ec40 283e ba23 84bd 5b29 13be bc41 e63d
000000d0: d7b8 50be 7451 2c3e 5d3c 91bc 39e6 99bd
000000e0: 0c5a a43d 5fa8 273e bfa5 d73e bcc9 afbd
000000f0: a475 b8be d9d1 5abd df02 f13d bd5c 76bb
00000100: 37b0 a1be 08f9 4abd d3c3 ce3d ccc9 a7bc
00000110: 87c0 b3be 5473 db3d cae7 97bd 8091 c9be
00000120: 3fba ba3d 7bb9 ff3c dce4 86bb feb4 39be
00000130: 01c8 ff3e 297a 7d3e 2033 723e b6c6 80be
00000140: 632e 903c 2a9c 61bd c5c7 c8bd eebc 80bd
00000150: ac3b 903e 8698 60bd 49f4 013f 5333 d3bd
00000160: af3c 08be a48b 79be fc2a c53d 65c3 113e
00000170: 8319 023e 40ed 06bf da45 88be f636 303e
00000180: 7bcf 23be 16da 8fbe a842 02be c566 6c3b
00000190: b555 bbbd e20c c33d 0414 cbbd 8c4e 6ebd
000001a0: b954 57be af35 6a3e e905 9dbe 5441 973c
000001b0: 5a2b a53c eac9 0abf 8513 783e e5bf f4bb
000001c0: 187d 503e c120 613d b0ea 28bd f540 adbd
000001d0: a327 f0bd c76f a9be ef84 8c3e c439 993e
000001e0: 0bd3 aebd 87e9 313c e8d1 af3d 2274 89bd
000001f0: ed16 39be 577b 1f3e 2714 0a3e 3a72 463e
00000200: 8dd4 4b3d cf0d d0bc 990a 0fbd f31e 46be
00000210: b6a8 6e3e cd43 11bd 6234 84be 26d7 993c
00000220: 1f05 143e fdcc bbbd 56d3 49be 9506 27be
00000230: 04a5 58be dc91 45be 8d24 8ebd 3cd1 013e
00000240: a621 e1bc c6f8 383e 61ae f43d 7e04 b23d
00000250: ba07 983e a5d1 b4be 26e0 7b3e d097 d8bd
00000260: afa3 6b3d 0a78 46be a602 003e 4a99 023f
00000270: 9348 5ebe 7b4b 0abe a610 1f3d ab9a 34be
00000280: 2369 99bc 8d84 943d 08ac 9c3c 59b6 343e
00000290: 86c6 1b3d 5050 b2bd 7d3d f23d 88bc 943d
000002a0: 879a 6cbd 7bf7 9bbd e922 02bf 6696 c7bd
000002b0: 35d2 243e 9f0d a1bd e7e8 39be 3716 683b
000002c0: d758 f53d 8f26 b7bd 43dc 8a3e bc43 293e
000002d0: 5979 d33d 0b3e adbe 4fd7 01be 9c97 8abb
000002e0: a9fd c8bd 47b4 853e 375c cfbe 25cf 3f3e
000002f0: a9df c9be f01f 2d3e eb4c b63d 24c2 9abe
00000300: 4d60 68bd 5774 f7bc 1003 82bd c137 353e
00000310: 17f3 fcbd 894b 44be 1f27 8bbd 18ad d6be
00000320: 6fd6 a3be 0fcd 51be f5f1 71be 8e36 97bc
00000330: 21f0 c5bd 0f45 29be d785 413e 675f d33d
00000340: 3f59 93be 3b6d c6bd 8fd3 74be 2839 bc3d
00000350: faa1 76bd 6854 003e 804a 443d ea28 ae3c
00000360: 6187 2d3e 6cdf 013f 578f 85bb 5337 fabd
00000370: 71bc 8f3e 62d9 48bd 90a6 ab3d 1ba4 e2be
00000380: d1a4 0b3d 0516 8d3e e937 5c3d e13d 5cbd
00000390: fd0e 7e3e 53e4 c5bc 0c65 afbb dbea f7be
000003a0: b382 bf3d ad74 dc3d d4f6 50bd 8ca4 34be
000003b0: 143a 993e 894c d0be 964b 053e 5d5f 633e
000003c0: 7c22 d63e dca4 3539 810c a2be aa3c 003e
000003d0: aa19 933e 5744 453e dc77 8abd a498 ac3e
000003e0: 8167 b23c c7fc c3bd a235 d9bd c421 5a3e
000003f0: 3483 86bd 7b82 d23e abec 0e3e 3401 983e
-0.29807988 -0.11858252 0.40298203 -0.24088214 -0.21086897 0.15013456 -0.09601111 0.0481739
0.13362963 -0.15022095 0.29189265 0.025229942 -0.27916828 0.057442855 0.1389155 0.07568741
-0.12926441 -0.015991863 0.2539321 0.004113898 -0.6355559 -0.23159383 0.042281806 -0.08665566
-0.53919476 -0.03361951 0.035160102 -0.064580314 0.094641745 0.18507457 0.00010848401 0.007971386
0.06271541 -0.18079409 -0.3850252 0.5021098 0.093428366 0.11619516 0.115967095 0.1452663
0.21279861 0.008932548 0.14239341 0.15628631 0.021016035 -0.24850377 -0.07110314 -0.33779147
0.16431016 -0.06452127 -0.14371245 0.112430066 -0.20383011 0.16827947 -0.017728979 -0.075146146
0.080249876 0.16372822 0.42118642 -0.085834 -0.36027253 -0.053422783 0.11768126 -0.0037591897
-0.31579754 -0.0495539 0.10095944 -0.020481966 -0.35107824 0.107153565 -0.07417257 -0.3936882
0.09117555 0.031216374 -0.0041166376 -0.1813545 0.49957278 0.24753632 0.23652315 -0.25151604
0.017600244 -0.05508057 -0.09803728 -0.062860355 0.28170526 -0.054832958 0.50763375 -0.10312524
-0.13304399 -0.24369675 0.09627339 0.14234693 0.12705044 -0.52705765 -0.26615793 0.17208466
-0.15997116 -0.28096074 -0.1272074 0.0036071998 -0.09147207 0.095239416 -0.09915927 -0.058180377
-0.21028413 0.22872041 -0.30668572 0.018463768 0.020162273 -0.54214346 0.24226196 -0.0074691647
0.2036022 0.054962877 -0.04123944 -0.08459655 -0.1172631 -0.33093092 0.2744517 0.29926884
-0.08536347 0.0108589 0.08584958 -0.06711604 -0.18075152 0.15574394 0.1348425 0.19379511
0.04976325 -0.02539721 -0.034922216 -0.19347744 0.23306546 -0.03546505 -0.25821215 0.018779349
0.14455079 -0.09169958 -0.19709525 -0.16311105 -0.21156698 -0.19293922 -0.06940565 0.12677473
-0.027481865 0.1806365 0.11947323 0.08692263 0.29693395 -0.35316196 0.24597225 -0.10575831
0.057529148 -0.19381729 0.1250101 0.5101515 -0.21707372 -0.13505356 0.038834237 -0.17637126
-0.01872689 0.072518446 0.019125 0.17647685 0.038031124 -0.08706725 0.11828134 0.07262522
-0.057764556 -0.076155625 -0.5083452 -0.09745483 0.16095813 -0.07863926 -0.18155251 0.0035413632
0.119798355 -0.08942901 0.2712117 0.16529745 0.103258796 -0.33836398 -0.1267979 -0.004229499
-0.09814007 0.26114103 -0.40500042 0.18731363 -0.39428452 0.16906714 0.0890139 -0.30226243
-0.056732465 -0.030206842 -0.063482404 0.1769705 -0.12351053 -0.1916944 -0.06794571 -0.41928935
-0.31999537 -0.2048838 -0.23627456 -0.01845863 -0.096649416 -0.1653025 0.18898712 0.10320931
-0.28779027 -0.09688803 -0.23908828 0.09190589 -0.060213067 0.12532198 0.04792261 0.021259744
0.16946174 0.5073154 -0.0040759253 -0.122175835 0.28073457 -0.049035437 0.08381379 -0.44265828
0.034092728 0.27555862 0.053764258 -0.05376995 0.24810405 -0.024156725 -0.005352622 -0.48421368
0.09351101 0.10764442 -0.051016644 -0.17640895 0.29927123 -0.40683392 0.13017115 0.22204347
0.41823184 0.0001732292 -0.31650165 0.12523142 0.28730518 0.19264351 -0.067611426 0.33710206
0.02177787 -0.09569698 -0.10605933 0.21301943 -0.06567994 0.41115174 0.13957469 0.29688418

critic.0.bias f4 [64]
00000000: c232 31bd 4198 773d 4263 f13c 3934 85bd
00000010: 429d a83c c287 09bd 28d9 b4bb 6500 353d
00000020: a178 68bd 3089 073d f97f 82bd e5d2 22bd
00000030: d495 2ebd ff34 743d f552 80bd a996 4dbd
00000040: 6a8c 4bbd a5c5 e6bc 2045 08bd 29db 1a3d
00000050: 7bc7 00bd 7d05 1c3d faaf 5dbd 138e 7a3d
00000060: 7b40 363d 4883 0e3d 5cd7 86bb 9bd2 053d
00000070: bb8e 723d 8528 2c3d cf8e 4ebd 4433 0d3d
00000080: 04ea 9d3d 7d6a 8a3d efda 0abd 18f7 42bd
00000090: 20d8 3ebd 88cd 063d 43ed 163d abd0 04bd
000000a0: d109 90bd c55b 09bc 8005 f4bc 4b85 adbc
000000b0: f8dc 1a3d 7a83 733d 609f edbc f92e 803d
000000c0: d4ea 51bd 3615 0dbd 3d08 e9bc 0d23 b0bd
000000d0: 46d2 01bd 6b5a 093d c570 603d a3c4 383d
000000e0: 698a 243d 7c84 a83d 0612 09bd 2b8f 323d
000000f0: 2d74 5a3e 7271 fe3c 2e03 1f3d 56a4 213d
-0.043261297 0.060447935 0.029466275 -0.06504101 0.020582799 -0.033576734 -0.005519051 0.04418983
-0.056755666 0.033089817 -0.06372065 -0.039751906 -0.042623356 0.059620854 -0.06265823 -0.05019251
-0.049694456 -0.028170416 -0.033269048 0.037806664 -0.03144024 0.03809117 -0.054122902 0.06117065
0.044495087 0.03479317 -0.0041150283 0.032671552 0.05921815 0.04203083 -0.05042916 0.03447272
0.077106506 0.06758592 -0.033900198 -0.04759893 -0.04659283 0.032910854 0.036847364 -0.032425564
-0.07033122 -0.008383696 -0.029787779 -0.021181723 0.03780839 0.059451558 -0.02900666 0.06258959
-0.05124934 -0.034444056 -0.028446311 -0.086004354 -0.031694673 0.033533495 0.054795045 0.045109402
0.04017106 0.082283944 -0.033464454 0.043593567 0.2133338 0.031059954 0.03882139 0.039463364

critic.2.weight f4 [1, 64]
00000000: 37cd 8abd 1531 b3be a5ca b0be 92d7 dc3d
00000010: d86a 35be 8815 d13e fc17 4f3c 32a3 8cbd
00000020: 1647 ff3d 3022 debd 8956 f33d 021c 063e
00000030: 4b68 633e 9006 f7bd 3247 cd3d 3e2e ebbb
00000040: a0ce 623e f79b 843e 839f ab3e 44cc c5be
00000050: 081b 453e 9c7f 60bd 6d41 833c 6e5f 713c
00000060: 149b 00bd 0424 41bc 3a84 673c 37ff bebd
00000070: 100a 14be 87ea 39be c9c8 683e b3ee 5cbe
00000080: 4557 68be eb2c 5dbd 6245 f93d 8b31 ca3e
00000090: 972b 9b3c f35e 05be 1f96 aebe 963e 2e3e
000000a0: 4034 f23d 7f9a 14bc 61b5 f03e 6f25 633e
000000b0: 4a98 70bd ec42 94bd 0e3f e93e 6acb 87be
000000c0: 1110 cb3d e68a 073e ba23 d43e 8eac a83e
000000d0: 278b 1e3e c8c9 e3be 3d94 87bd dea9 95be
000000e0: 6f50 bcbd 7250 49bd 980e 953e ae81 01bd
000000f0: 67bf 853c 76d4 e7bd 10c9 9abe 5082 26be
-0.06777423 -0.34998384 -0.34529606 0.10783304 -0.17716539 0.4083674 0.012639996 -0.068670645
0.124647304 -0.108463645 0.1188174 0.13096622 0.22207753 -0.120617986 0.10023345 -0.0071771434
0.22149134 0.25900242 0.33520135 -0.38632405 0.19248593 -0.054809198 0.016022408 0.014732225
-0.031397894 -0.011788372 0.014130646 -0.09326022 -0.14456964 -0.18155871 0.22732843 -0.21575432
-0.2268954 -0.053997915 0.12171437 0.39490923 0.018941684 -0.13024502 -0.34098908 0.17016062
0.11826372 -0.009070038 0.4701338 0.22182249 -0.058738984 -0.07239327 0.4555592 -0.2652238
0.09915174 0.1323658 0.41433507 0.3294415 0.1548277 -0.44489884 -0.06620071 -0.2923116
-0.09195029 -0.049148984 0.29112697 -0.031617813 0.01632662 -0.113198206 -0.30231524 -0.16260648

actor.0.weight f4 [64, 4]
00000000: 669b 58bc 6f77 97be 63ab 873e 398f d1be
00000010: ef38 8dbd e295 af3e a4d3 213e 3d98 82bd
00000020: 75af 8abe 1132 d1be 3b44 9f3d 1f08 fc3d
00000030: 3d39 58be ab45 92be b322 89be 139c 203e
00000040: d4b7 6e3d 55da d3bd 7d78 6b3e bd9e 24be
00000050: 8163 acbe 72ca 97bd 3746 9b3e 1e76 963e
00000060: 9b42 6a3c 73c9 b13e 43bf 53bd 3436 7d3d
00000070: 6830 3a3d 7225 f43e d353 48be e418 d6bd
00000080: b896 f63d c35d 87bd 113d 593e d83f 29be
00000090: 6fe2 c53b d01a 52bd 7372 863d cbe7 9d3e
000000a0: e931 a13d adbb b43d e31b d23c 7613 c53e
000000b0: 871f 1abe 6526 fcbd d526 143e 9864 e5bd
000000c0: 5d8f f03d d4fe b5bd c094 733e b606 903e
000000d0: 3612 02bd 3a43 0e3e 53ca 053e db89 d93e
000000e0: 677c 62be d0b1 573e 0210 0f3d c866 87bd
000000f0: 984c 0ebe 95e7 87be 7509 7a3e fdf6 d93d
00000100: f34f 31be 0473 b7bd 1dfb adbd afd2 c5be
00000110: 3d5b c53d eaf5 8cbe 6e1e 7fbe 5837 90bc
00000120: 0c77 82be a68e f6bd ff94 9abd 4aae 9fbe
00000130: 5d94 4c3c 623e 94bc 3e71 70be 3560 0f3d
00000140: dcf1 9f3e 837f 473e c12d 7abe 99d1 be3d
00000150: 351c 35bd a0bc 513e 68da 35be 5f29 923e
00000160: e2e1 9d3d 3bbe 59bd f3de 9dbb 9c3f cdbe
00000170: 680f b6be 9811 073e 4df2 863e 52ef 44be
00000180: dbfc cb3d 59bf ffbd 4c58 0f3e cf5f 383e
00000190: 67e9 253e 0ae3 9abe 6f48 a7bc 322d 003d
000001a0: 629a 583e 887b a6be 9c06 533e 24fa d53d
000001b0: a614 59be 8e2a c0bd cf0b 6a3c 8b72 953a
000001c0: 91a8 32be 320b f83c 3ffc 88be 6b3e 4c3d
000001d0: bb15 033e aa12 4dbe 0eeb 3dbc ca9a cb3c
000001e0: 21e0 e73e d633 0dbd 7ce4 923d 8819 51be
000001f0: e0e7 73bd 2f98 4dbe 3e07 aabe 09cc 44be
00000200: 5f40 163b 93fa a1be e70d e2bd ba5c d53d
00000210: ec5a 52be 981c 17be a662 d0bd ce49 cc3d
00000220: 1964 3abe 0954 1e3e f56b ef3c d7f2 acbd
00000230: 4f36 fe3c 03f7 b43e 90c2 eebd 5e5e 9a3c
00000240: 41b1 8cbe a477 6c3e 2e5d 24be a1ae 723d
00000250: f826 423e f447 933e 8a5d 2d3e 071b 2abe
00000260: 7ab2 8c3e 61e0 24bd 66c7 9e3d 7109 f43d
00000270: ea9e 90be 7171 adbd d80b 983e 3c1e 37bf
00000280: c73e ef3d b4ea 053e 84cb 883e bec3 1c3d
00000290: 00fa 56be 0831 5e3c 4e57 ca3e 8303 32be
000002a0: f515 cc3d f107 f5bc 9d0a 64be 66d0 a03d
000002b0: 91d9 993e 6f46 08bd bee5 0dbd 4347 f63b
000002c0: 1260 adbe a422 4abe 75d8 bebd b38a b93d
000002d0: 477a c0bc 4493 81bd 0bf0 a4bb b87a 943e
000002e0: 3653 b33e 6c3d 09be 62d1 59bb 4c05 463d
000002f0: e7fe 05be 3010 bd3d 4f9d c83e a468 1ebe
00000300: 7588 463d 727f 6d3e 752e 903e d849 b63c
00000310: 3c53 ff3b d3fb af3e 715e 153e 607d 7abd
00000320: 2bbb 06bf 7e85 843e 6077 ae3d dcc2 28be
00000330: 02b2 6b3d 4515 42bc 430b 5bbe 0563 91be
00000340: 0f57 f5be 5245 553e 3f8f 02be 2b33 023d
00000350: b6ab c23e 9e96 e33e 4a66 dbbd 055a 78bc
00000360: fb77 d83e 25be 343e d82c 5c3e 33f7 e43b
00000370: ee59 d3bd 6918 22bd feaf 82bb 9c02 903e
00000380: d816 2e3e cfd2 bcbe a467 ff3d 172b a0bd
00000390: c51c e83c cca7 5c3e 1224 a8be e6fe 95be
000003a0: 8089 b43d 3f15 ecbd 9f79 58be da81 37bd
000003b0: 554c 3a3e 76c2 053e dea7 363e c856 5a3e
000003c0: d91b 47be 3fb8 7d3d 3fda 8a3e 286a 053e
000003d0: ea51 663e 7220 9dbd 9d45 6fbe e898 59be
000003e0: 8640 cb3e db67 933d f672 b53e 1c6a 3cbe
000003f0: 7d57 00bd a07a 873d 6e23 c93d 6305 ab3e
-0.013220644 -0.29583308 0.26497945 -0.40929583 -0.06895625 0.3429404 0.1580339 -0.063766934
-0.27086988 -0.4085851 0.07776686 0.123062365 -0.21115585 -0.28568777 -0.26784286 0.15684538
0.05828078 -0.10344378 0.22995181 -0.16076179 -0.33669665 -0.0741166 0.30327007 0.2938699
0.014298107 0.34724006 -0.051696073 0.06181927 0.04545632 0.47684819 -0.19563226 -0.10453966
0.12040466 -0.066096805 0.21214701 -0.1652826 0.006038956 -0.0512951 0.06564798 0.30840907
0.07870848 0.08824859 0.025648063 0.3849141 -0.15051089 -0.12312011 0.14467938 -0.11200827
0.117460944 -0.08886495 0.23787212 0.2813012 -0.03175565 0.13892832 0.13065462 0.42487988
-0.22117768 0.21063924 0.034927376 -0.06611401 -0.13896406 -0.2654387 0.2441767 0.106428124
-0.17315654 -0.08957484 -0.08495162 -0.386373 0.09636543 -0.27531368 -0.24913952 -0.017604515
-0.2548145 -0.12038927 -0.0754795 -0.3118766 0.012486544 -0.018096153 -0.23480698 0.03500386
0.31239212 0.19482236 -0.24431516 0.09317321 -0.044216353 0.20482111 -0.17759097 0.2854719
0.07709099 -0.053159934 -0.0048178374 -0.40087593 -0.3555863 0.13190305 0.26356736 -0.19231918
0.09960338 -0.124876685 0.13998526 0.18005298 0.16202317 -0.30251342 -0.020420281 0.0312931
0.21152642 -0.32516122 0.2060799 0.10448101 -0.21199283 -0.09383117 0.014285042 0.0011401934
-0.17447115 0.030278776 -0.26754948 0.049864214 0.12801258 -0.20026651 -0.011591686 0.024854083
0.45288184 -0.034473263 0.07172486 -0.20419896 -0.059547305 -0.20077585 -0.3320865 -0.19218458
0.0022926552 -0.31636485 -0.11037808 0.10418077 -0.20542496 -0.14757001 -0.10175066 0.099750146
-0.18202247 0.15461744 0.029226283 -0.084447555 0.031031756 0.35344705 -0.116582036 0.018843826
-0.27478984 0.23092514 -0.1605117 0.05924857 0.18960178 0.28765833 0.16930214 -0.16611873
0.27479917 -0.040253047 0.07752876 0.11915863 -0.28246242 -0.08468903 0.29696536 -0.7153051
0.11681896 0.13077813 0.2671777 0.03827261 -0.20993805 0.013561495 0.39519733 -0.17384152
0.099651255 -0.029911013 -0.22269674 0.07852249 0.30048802 -0.033270296 -0.034642927 0.0075158193
-0.33862358 -0.19739777 -0.0931863 0.09059658 -0.023495806 -0.06326917 -0.005033498 0.28999877
0.35024422 -0.13402337 -0.0033236374 0.048344895 -0.13085519 0.09231603 0.39182517 -0.15469605
0.04846998 0.23193148 0.28160444 0.022252008 0.0077919047 0.34371814 0.14586808 -0.061154723
-0.52629346 0.25883096 0.08518863 -0.16480583 0.05754281 -0.011845891 -0.21391015 -0.28395858
-0.47917983 0.20827225 -0.12749957 0.03178708 0.3802163 0.4445085 -0.107128695 -0.015158181
0.42279038 0.1765066 0.21501482 0.0069874763 -0.10319887 -0.03957406 -0.003988265 0.2812699
0.17000902 -0.36879584 0.1247094 -0.07820719 0.02833403 0.21548384 -0.3284002 -0.29296035
0.088152885 -0.1152749 -0.21140145 -0.04480157 0.18193181 0.13062462 0.17837474 0.21322167
-0.19444217 0.06194329 0.27119634 0.13028777 0.22492185 -0.07672204 -0.23366399 -0.21249735
0.39697665 0.07197543 0.3543927 -0.18399853 -0.031333435 0.06615186 0.09821211 0.33402547

actor.0.bias f4 [64]
00000000: 82bd c6bc 3cca 673d e1de 67bc 5646 3e3c
00000010: 6115 d13d 2f37 96bc f532 9dbc 2c08 b2bc
00000020: ac3b 16bd b4cb b33c 7d3e be3c 278c 13be
00000030: ee51 633c 5df5 8f3c a292 dc3c 8881 c33c
00000040: b8b8 c03c 0a78 42bd d755 07bd 873c 5c3d
00000050: 2c7c 1d3e f17e 9ebd 48cd bdbc 7277 0abc
00000060: 1968 013d a1f5 15bd c01f b73c c510 4cbd
00000070: 1a31 6bba cc9a ba3d d647 1a3d 9dc9 8abc
00000080: c937 ca3d 97ec 203d cff9 25bd 47fd 353d
00000090: 60dd df3c f6a4 a63c 464f 19ba 1e3c 3a3b
000000a0: a808 083d 5c20 18be 393c b03d 20ed 5e3d
000000b0: cdf0 febc b19c ecba 1909 5cbc 0430 bbbd
000000c0: ae14 aa3c ee5c 923d 7512 3fbd a928 11bd
000000d0: fa55 e83b c667 40bc 7c0c 4abd 425e d1ba
000000e0: 2b40 993b 82ca 07bd e595 6a3d 231a 063d
000000f0: f822 803d 5e34 593c 2adf 1f3d 369e e3bc
-0.024260286 0.05658935 -0.01415226 0.011613449 0.10209156 -0.01833686 -0.019189337 -0.021732412
-0.036678 0.02194772 0.023223156 -0.14408933 0.013874514 0.017573053 0.026925389 0.023865476
0.02352558 -0.04747776 -0.033040848 0.05376866 0.15379399 -0.07739056 -0.023169175 -0.00845133
0.031593416 -0.036611203 0.022354007 -0.04982068 -0.0008971855 0.091115564 0.037666164 -0.01694184
0.098739214 0.03928813 -0.04052144 0.044430997 0.02732724 0.020342331 -0.00058482995 0.002841718
0.03321138 -0.14856094 0.086052366 0.05442536 -0.031120682 -0.0018052069 -0.013429903 -0.09140018
0.020761814 0.07146631 -0.04664846 -0.035439167 0.0070903273 -0.0117434915 -0.049328312 -0.0015973526
0.004676839 -0.03315211 0.057271857 0.03273977 0.0625667 0.013257114 0.039031185 -0.027785402

actor.2.weight f4 [5, 64]
00000000: f21e 80bd c5fc a23e 17b4 bbbc f772 a4bd
00000010: 89a4 a63d b38f 443e 13e8 9fbc 31f0 513c
00000020: 3f50 bc3d f856 843e 8f20 5dbe 82fa 6bbe
00000030: 74ac 56bd 37e8 533e a108 69bd 0f25 cbbb
00000040: 02e4 ddbd 785a 57be b7c9 d0bd fd07 983e
00000050: 5bee 0b3e 5e0c 413e 7487 c03e b11c a73e
00000060: e12c 89be f34f 3cbd 681a bebd 5f30 01bf
00000070: 573c edbe 1567 9bbd f139 453d 023c 02be
00000080: 8bd7 c53b 379c 84be bdb5 76be d4a5 1a3e
00000090: 978f 3c3e 5c8c dcbd 797e 363e 2cf8 9dbe
000000a0: 24d3 af3e 82ff 97be 9ef7 a13d 4989 83be
000000b0: 123b cabd 6f94 7e3e 01a4 7dbe 9908 a13e
000000c0: 335b 5f3d 8b04 bc3c 48e9 3dbd c7de 143d
000000d0: 8e8b 9dbe d8ad 99be 33f0 01bf 680e 293e
000000e0: 7091 433e 0af8 1ebe b18b 0c3e f361 01be
000000f0: 7007 5f3a 7a36 b8bc 9425 0e3d e6de 343e
00000100: f4e6 623e 132d c03d 7ea8 abbd 01ea 0fbe
00000110: 05d0 9c3d 6c4c 9a3e 27d7 a43e fc10 213e
00000120: 7df8 123e ea23 a13d 3cc5 9e3e 0c69 5abd
00000130: 2f09 9f3e 522a 403e fe11 863d e3bf c23d
00000140: 4e87 9c3d 0922 bbbe 86a6 98be 5451 82bd
00000150: e627 883d 8645 30bc 5f40 fbbe 73b9 453e
00000160: 516f 153e 00b3 863e 2bdc e03e 1ef5 87bd
00000170: ed9e a23e a81e cc3d 3f5c 933e 10b0 0ebe
00000180: f164 e73e 6147 f6bb 61b6 debb c982 8ebd
00000190: 1113 173e 6d8a 883c 1e41 a43e b09a d23d
000001a0: e1bd a3bc 02c4 ecbd 58ef 5e3e fb37 1c3d
000001b0: 0cc8 87bc 744d 8c3e ca97 69be 3e1f 90be
000001c0: 1bec 57bd 02a3 9d3e d489 93be 3a6e 6cbe
000001d0: 573f 0d3c 021d 83bd 1e1c 0abe 0d1e 173e
000001e0: 0abc fdbd 132c babe e959 6c3e 4831 613e
000001f0: daf2 623e d6c3 4c3e 32d4 a03e 5bbc 5abe
00000200: 549f d1bd ef2d 9ebe e1c0 45be bbb1 01be
00000210: fec9 36bb c761 ebbd 58e6 7cbd f0de e53d
00000220: 65c7 ffbd f206 543e e919 93be 74f2 ed3d
00000230: 1b0a f73c 928a 83bd 1b76 1fbe 02ec 9b3d
00000240: 670f fabc 3e94 a4be ab7c 06be fb50 b03e
00000250: 9c5e b33d 19df d3bc 3e6d a5bd 43d5 92be
00000260: 8caa 0b3e 7f20 d8be efaf af3e 22a8 203e
00000270: e861 713c 38cb 89bd 1d66 b83e 89b8 77be
00000280: 8d31 883e 96b3 0f3c 6c53 19be 7106 00be
00000290: a150 9abd ed39 b73e 3063 bf3c da42 48be
000002a0: a051 dabd f2fd 953c 8380 3cbe 23c0 8bbd
000002b0: 29e8 c1be 397f c7be 52ad 943e 3b6f e03d
000002c0: 122e ed3e c6c3 463e 6df7 02be 0f27 fc3d
000002d0: c275 d7be b4e9 03bd 1900 e03d 3805 df3e
000002e0: 7a0f b33e 2ea3 5dbd e5ae 273e eff1 323e
000002f0: 9a82 93bd 4051 313d 72b8 d03d 34de 12be
00000300: 647a a43d d9aa e5bd 782f 04be 600e aabd
00000310: a475 9fbd 2ce5 c53d 9ba1 15bb d039 0cbe
00000320: 0e79 123b d926 bfbc bda7 37bc 8fdf fe3d
00000330: 8ec9 f8bd 1bc5 35be 5c11 233f 304b 9fbc
00000340: 7f58 a1bd b4ab 9abe bb55 553e 637a 883e
00000350: a3d8 81bc 251f 813d 5774 023f feb9 b73d
00000360: f59e 543c b460 18be 7964 86bc 7321 7dbe
00000370: 70d4 ce3e e2c4 c03e 7c39 95bd af18 163e
00000380: 9337 2d3e 6ace f33d 1321 b43e c5da 18be
00000390: 9fd8 173e daa5 da3d eb1f 993d 1ec7 223e
000003a0: 5ca4 ee3d f121 e3bd b0ab 673e b42b b9bd
000003b0: 76c5 ed3d 5359 b3bd 364c 76be 22a5 8a3e
000003c0: d654 77be ff45 233e 8607 61bb 88b8 413c
000003d0: c07c 89be ff93 d63e ee81 b23e c8a3 1f3d
000003e0: 4e40 8fbd e2c0 073e c0ae e0bd a4bc aabd
000003f0: 36fb 8dbd 3a57 0cbf 8b31 a7bc 0836 48be
-0.06255902 0.31833473 -0.022913022 -0.0802974 0.08136851 0.19195442 -0.019519841 0.012813614
0.09194993 0.25847602 -0.21594451 -0.2304478 -0.052410558 0.20694052 -0.056892995 -0.006199486
-0.10834505 -0.21030605 -0.10194724 0.29693595 0.13665144 0.18852374 0.37603343 0.32639077
-0.26792052 -0.045974683 -0.0928238 -0.50464433 -0.46335098 -0.07588021 0.04815096 -0.12718204
0.0060376576 -0.25900432 -0.24092765 0.15102321 0.1841415 -0.10768959 0.17821683 -0.30853403
0.34340775 -0.29687124 0.07908557 -0.25690678 -0.09874548 0.2486131 -0.24769594 0.31451872
0.054530334 0.022951385 -0.046365052 0.03634527 -0.30770534 -0.30015445 -0.5075714 0.16509402
0.19098449 -0.15524307 0.13725163 -0.12635021 0.0008507883 -0.022486914 0.034703806 0.17663154
0.22158414 0.09383597 -0.08381747 -0.14054109 0.07656864 0.3013643 0.32195398 0.15729135
0.14352603 0.07868178 0.31009853 -0.053322837 0.31061694 0.18766144 0.065464005 0.09509256
0.07642995 -0.36549404 -0.29814547 -0.06363168 0.06648235 -0.010758763 -0.4907255 0.19309025
0.14593245 0.2630844 0.43917975 -0.06638549 0.31761876 0.09966785 0.28781316 -0.1393435
0.451942 -0.0075158332 -0.0067966436 -0.06958539 0.14753367 0.016667569 0.3208093 0.102834105
-0.019988002 -0.11560823 0.2177099 0.038139325 -0.016574882 0.27402842 -0.22811809 -0.28148836
-0.052715402 0.30788428 -0.28816092 -0.23088923 0.008621058 -0.06402017 -0.13487288 0.14757557
-0.12389381 -0.3636175 0.23081173 0.21991456 0.22162953 0.1999658 0.31411892 -0.21360914
-0.102354676 -0.3089442 -0.19311859 -0.12665455 -0.0027891393 -0.11493259 -0.06174311 0.112241626
-0.12489203 0.20705774 -0.28730705 0.1161851 0.030156186 -0.064229146 -0.15572397 0.07613374
-0.030524923 -0.3214435 -0.13133495 0.34436783 0.0875828 -0.025863217 -0.08077477 -0.2867833
0.13639277 -0.42212293 0.34313914 0.15689138 0.014732815 -0.06728214 0.36015406 -0.24191488
0.26600304 0.008770844 -0.14973229 -0.12502457 -0.0753491 0.3578638 0.023362726 -0.19556752
-0.106601 0.018309567 -0.18408398 -0.068237565 -0.37872437 -0.3896425 0.29038483 0.109587155
0.4632421 0.19410619 -0.12789698 0.12312137 -0.4208203 -0.0322053 0.109375186 0.4355867
0.34972745 -0.0541107 0.1637531 0.17475103 -0.07202645 0.043290377 0.1019143 -0.14342576
0.08031157 -0.11214227 -0.12908733 -0.08303523 -0.0778611 0.09662852 -0.002283192 -0.13693929
0.0022349986 -0.023333954 -0.0112094255 0.12444984 -0.121478185 -0.17750971 0.63698363 -0.019445032
-0.078782074 -0.30209124 0.20833485 0.26655874 -0.01585037 0.063047685 0.5095877 0.08971022
0.012977351 -0.1488064 -0.016405331 -0.24719791 0.40396452 0.3765021 -0.07286355 0.14657854
0.16915731 0.11904605 0.35181484 -0.14927204 0.14828728 0.10676165 0.07476791 0.1589627
0.11652443 -0.11090458 0.22624087 -0.09041539 0.11609928 -0.087572716 -0.2405251 0.2707911
-0.24153456 0.1594467 -0.003433676 0.011823781 -0.2685299 0.41909787 0.34864753 0.038974553
-0.06994687 0.13257173 -0.10970831 -0.083367616 -0.0693268 -0.548206 -0.020409366 -0.19551861

actor.2.bias f4 [5]
00000000: 0471 023d 5c2b 7f3d f234 833c 65fa 41bc
00000010: f8d1 9cbd
0.03184606 0.06229721 0.016016457 -0.011839484 -0.07657236

critic.0.weight f4 [64, 4]
00000000: 183e aabd 3ff1 ce3d 663e a93e 8575 493e
00000010: 76e0 95bc 0e0d 89bb eea6 e3be 9cd3 68be
00000020: 5aac 943d 7ce8 a03e 51dd f93d 8878 47be
00000030: cd41 72be dc80 65be c41b 5ebd f7be bdbd
00000040: 3eb9 d23e 9497 8d3c 72d8 2b3e 4845 843d
00000050: 907a 7dbe bf3b c63e 0798 c03d 162f c4be
00000060: e3e5 da3c c5fb c93c 36a5 99be 1af6 b63c
00000070: a008 153e b317 7b3d 293a e3be 0aeb a7bd
00000080: 04bc b0be 3f2d e23d f220 d73e ab9a 6ebe
00000090: 0f9e 50be 3296 c3be d6c4 28be 25a0 a1bd
000000a0: 87b4 0bbe 4bf0 d7bc cce7 b73e 655e 5abe
000000b0: 6b79 11be 8211 7dbd 916a c1bd 3553 643d
000000c0: 38f8 383d 48ce 97be 7e5c 0bbd e813 6dbe
000000d0: 3337 eebd 4d35 3fbe acce 14be 9e7e d2be
000000e0: a23b 0c3e b164 6f3e 4875 84be f75e 1e3e
000000f0: 8f85 683d 6daa 3fbe ae71 083e cd23 4abe
00000100: 358e 5cbe 44a5 0d3e 2140 a2be b366 88be
00000110: 25d6 56be 4e29 1bbe 4564 923e 66e4 a13d
00000120: 816c bc3e a2aa c33e 7a3f 8bbe 64e8 53be
00000130: 00bb 57be 593e 7fbe e645 13be 69c9 e63d
00000140: e305 c43c 7c16 d63d 71b7 e5bd da42 b0bd
00000150: 04bc 1fbe 8ed5 89bd 4bc0 90be 02bb 26be
00000160: 35b4 7c3d d913 c23e 68de 883e a4cc 38be
00000170: 1b78 65be d676 1abe 7cf1 2dbc b440 0f3e
00000180: 7407 18be 8a86 09be d9dd bfbd 337c aebc
00000190: c07a 35be 612c ecbd 80df c1bd 7d66 b2bd
000001a0: d79d 063f a218 5abe ba4a 5f3e d1e4 f8bd
000001b0: be61 24be ac6c 79bd 5271 c93d b782 e6bc
000001c0: 5282 013e 9925 6b3e eb00 043e d23f 823e
000001d0: 793f 4f3d c7a2 d0be 5b9e b53e 1cfb 72be
000001e0: 9a58 a83d cb18 03be 8832 793e 4d42 0fbf
000001f0: 17ce b53d b514 11be ab52 84be 7dc3 91bd
00000200: e994 c03e bc88 c8bd 37aa 2cbe 8687 3a3e
00000210: bcb7 4f3e bfc7 25be b9d5 d23d 9751 643e
00000220: fa7a 49be c438 713e ce14 2cbc a26a e43d
00000230: 1c3c 423e a344 663e 7640 f0bc 6803 92be
00000240: ef9e cf3e e06f 613e b5d7 433d bcbe 3cbe
00000250: 35eb ce3d b374 d8be 6be0 a73e 84fd 843d
00000260: a8c3 1dbe 58d7 fa3c 79ea 98be 3cd6 86bd
00000270: ac05 963e 4ad3 14be 0123 38be f216 8ebe
00000280: fe16 21be 0434 f7bd 11e5 5cbc af4e f83e
00000290: e3d7 a23e 588a 8dbe 2fcc 89bb fa3d 60bd
000002a0: f719 763e 8870 43be 7c8e e8bd d92a 9b3e
000002b0: 79f4 8d3e 9f1e 0dbe 1cf9 9cbb 58fb 0dbe
000002c0: f36e a8be 5b7a c53d cfb7 773d 7731 f1bd
000002d0: 7e1c e13d f0e2 473d 7a4b 02be e2dd bb3c
000002e0: 7c77 3d3e ba05 3a3e 8243 2fbe e56f 963e
000002f0: 5d65 3d3e 4e5c 4b3d 2396 943e 2657 85bd
00000300: 64f4 33bb 3533 80be e5ce 903d d45e 53be
00000310: b2a7 e23e 33d2 c6be 00b3 163c 675a 903b
00000320: 0d8e 9f3e 2b68 9bbd 450d 02bd eb0f 933d
00000330: 1471 f23e 035b f03e 8d3d 5e3e 4132 753e
00000340: baee c43d 1d1a eb3d e306 be3d 61e5 adbe
00000350: da59 ab3d 2f17 a13c ac30 2ebe a33e 823d
00000360: 4b57 a1be 9ae9 a6bd 09d6 95bd f5f8 8dbc
00000370: bfef 983d cc36 013e 059d 013e 62e6 e33d
00000380: c013 e7bd 4d51 0c3e 238d 173e bf99 9fbe
00000390: fbf5 bd3d f16d 9d3d 1c45 5f3e a6fa 9f3c
000003a0: 6799 063e a991 f83d 1157 5b3e 1f7d 2dbe
000003b0: a1da 3bbc 733d a83d 606a 75bc 2682 e3be
000003c0: ba49 88be 227e 3ebd eefd cd3d eafe c53d
000003d0: ee32 193e 26d0 9b3c b339 6e3d e9db 40bb
000003e0: 4c1f a43d 5da3 b03c f21e df3e 7205 953e
000003f0: b8e6 f4bb 09fa 8abe fd7d 063e 3480 50bc
-0.08312625 0.10104608 0.3305542 0.19673736 -0.018295508 -0.0041824644 -0.44463295 -0.22736973
0.07259436 0.31427372 0.12200416 -0.19479573 -0.23657914 -0.22412437 -0.054225698 -0.09264939
0.41156954 0.017284192 0.16781786 0.06458527 -0.24753785 0.38717458 0.09403997 -0.38317174
0.026720947 0.024656186 -0.30008858 0.022334147 0.14554071 0.0613019 -0.4438031 -0.08199127
-0.34518445 0.11043786 0.42017323 -0.23301189 -0.20372795 -0.38200527 -0.16481337 -0.07891873
-0.13643084 -0.026359698 0.35919034 -0.21325071 -0.14206474 -0.061784275 -0.09444154 0.055743415
0.045158595 -0.29649568 -0.034023754 -0.23152125 -0.11631622 -0.18672676 -0.14531964 -0.41112226
0.13694623 0.23378254 -0.25870728 0.15465914 0.056767996 -0.18717356 0.13324615 -0.1974022
-0.21538623 0.13832575 -0.3168955 -0.26640853 -0.20980127 -0.15152475 0.28592125 0.07904892
0.36801532 0.3821612 -0.27196866 -0.20694119 -0.21067429 -0.24926127 -0.14382133 0.11268885
0.023928588 0.10453507 -0.11216629 -0.08606501 -0.15599066 -0.067301854 -0.28271708 -0.16282275
0.061695296 0.37905768 0.26732183 -0.18046814 -0.22409098 -0.15084395 -0.010616656 0.13989526
-0.14846593 -0.13430229 -0.09368486 -0.021299457 -0.17722607 -0.11531902 -0.09466457 -0.08710954
0.52584594 -0.21298459 0.2180585 -0.12153018 -0.1605291 -0.060894653 0.09836067 -0.028138502
0.1264737 0.22963561 0.12890975 0.25439316 0.05059764 -0.4074919 0.35472378 -0.23728603
0.082200244 -0.12802427 0.24335682 -0.5596054 0.08877199 -0.14168055 -0.2584432 -0.071173646
0.3761361 -0.09791705 -0.16861807 0.1821576 0.20284933 -0.16189478 0.102946706 0.22296749
-0.19675818 0.2355681 -0.010503007 0.11153151 0.18968242 0.2248712 -0.029327612 -0.28518224
0.40550944 0.22015333 0.047813136 -0.18432134 0.10103456 -0.42276534 0.32788405 0.06493667
-0.15406668 0.030620262 -0.29866388 -0.06583831 0.29301202 -0.14533725 -0.17982103 -0.2775188
-0.15731427 -0.12070468 -0.013482348 0.4849753 0.31805333 -0.2764461 -0.004205249 -0.054746605
0.24033342 -0.19085896 -0.11355302 0.30306128 0.2772558 -0.13781212 -0.0047904383 -0.13865411
-0.32897148 0.09642478 0.060478028 -0.11777013 0.109917626 0.04880041 -0.12724105 0.02293295
0.18502611 0.18166247 -0.17115596 0.29382244 0.18495698 0.049648575 0.29020795 -0.06510763
-0.00274589 -0.25039068 0.07070712 -0.20641643 0.44268566 -0.38832244 0.00919795 0.004405308
0.31163064 -0.07588228 -0.031750936 0.071807705 0.47351897 0.46944436 0.21703167 0.23944952
0.09615846 0.1147959 0.09278657 -0.33964065 0.08366747 0.019664375 -0.17010754 0.06359603
-0.31511912 -0.08150025 -0.073162146 -0.017330626 0.07467603 0.1261856 0.12657554 0.111279264
-0.11283064 0.13702889 0.14799933 -0.31171986 0.09275433 0.07686985 0.21803707 0.019528698
0.13144456 0.121371575 0.21419932 -0.16942261 -0.011465699 0.082148455 -0.014978975 -0.44435233
-0.2661875 -0.04650701 0.10058199 0.096677616 0.14960834 0.019020151 0.058160495 -0.0029427952
0.08013782 0.021562273 0.43578297 0.29105717 -0.007473793 -0.27143887 0.13133998 -0.0127258785

critic.0.bias f4 [64]
00000000: 4be5 383d 5780 57bd 1020 313d 3042 f9bc
00000010: 707d 0c3d 65f7 823d 4e77 e8bc 1945 c6bc
00000020: 7a25 93bd bbcf f0bc 3935 0a3b bce5 1bbd
00000030: f449 0bbd 9f59 2b3d 7db0 983d 0e30 d13c
00000040: 250f f5bc c327 9ebd 4045 18bd f44b 693d
00000050: 89fc f6bc 14f8 bf3c 7544 023d 28e2 60bd
00000060: ddcb 05bd 2166 fcbc d81c fd3c 4fd4 67bd
00000070: c560 f83c 496d fa3c 2a23 3cbd 48ea bd3d
00000080: 71ec 263d 3dc4 cbbc 7ac0 5ebd d05f 7c3d
00000090: 2355 493d 1c47 fa3c 1e02 f5bc a2f9 8e3d
000000a0: a1e6 4c3d a84a 383d 20bb 113d 9b92 cdbc
000000b0: 2c7d 2ebd ed1f dbbc a690 163d df14 003d
000000c0: a799 7c3d a72e 2dbd 5da6 60bd df92 ee3c
000000d0: 9370 293d b2af e6bc 63a5 00bd 03d4 1c3d
000000e0: 5766 12bd 720b 083d 006c 34bd 9d75 23bd
000000f0: 0dc2 c13c 91c2 233d d276 043d 7612 4ebd
0.045140546 -0.05261263 0.043243468 -0.030427068 0.034299314 0.06394843 -0.028377201 -0.02420287
-0.071848825 -0.029395929 0.0021088852 -0.03806089 -0.034006074 0.041833516 0.074555375 0.02553561
-0.029914448 -0.07722428 -0.037175417 0.0569572 -0.030149715 0.023433723 0.031803567 -0.05490318
-0.032665122 -0.030810418 0.030897543 -0.056598958 0.03031958 0.03056969 -0.045931973 0.09273201
0.04075283 -0.024873847 -0.05438278 0.06161481 0.04915346 0.030551486 -0.029908236 0.069812074
0.050024632 0.044993073 0.035578847 -0.025094321 -0.042599842 -0.026748622 0.03675904 0.031269904
0.06166997 -0.04228082 -0.054846156 0.029122768 0.041367125 -0.02815995 -0.031407725 0.038288128
-0.03574213 0.03321404 -0.04404831 -0.039907087 0.023652101 0.039980475 0.03233988 -0.050310574

critic.2.weight f4 [1, 64]
00000000: 99af 2cbd 9b67 143d 72f5 02be 22c5 843e
00000010: 9346 8fbd 1036 62be 3453 a33d 69b7 343e
00000020: 01ac 213d dbd3 773e 022d eebd f626 993e
00000030: c290 fb3e df06 9cbc 44c4 043c 1394 62b9
00000040: 29b0 473e 58da 093f aeb7 783d fc4b 07bf
00000050: 1522 7f3e 88a3 86bb 0ed5 33be 8404 b43d
00000060: bc10 493e 143e 3f3e 3856 f8be 65f0 663e
00000070: f9f8 a5be e83b 24be b501 733e 1231 3dbe
00000080: bf94 42be 4ca2 c53b 4840 7b3e b33a 82be
00000090: 7e57 8dbd 3dd5 48be e752 4f3e 1b16 63bd
000000a0: a18d eabe bd4a a6be b38c 9cbd f89a 0a3e
000000b0: a630 ad3d 7c57 403e beec f6bd b589 01be
000000c0: 7015 8dbe de61 843d e453 2b3e be9a 09be
000000d0: 8e9a 2fbc 01c3 843d afc8 d63e cb0c ecbc
000000e0: 433c 2b3e 48ed aabd 01c0 813d 88de 4f3e
000000f0: c001 fcbd b9b4 16be 50f6 87be 8d85 523d
-0.04215965 0.03623162 -0.12788942 0.2593165 -0.06995883 -0.22090936 0.07974854 0.1764809
0.039470676 0.2420191 -0.11629678 0.29912537 0.4913388 -0.019046245 0.008103434 -0.00021608201
0.19500794 0.5384879 0.060722046 -0.5285032 0.24915345 -0.00410885 -0.17561743 0.08789924
0.1963529 0.18676025 -0.4850328 0.2255264 -0.32416514 -0.16038477 0.2373112 -0.1847575
-0.19002055 0.00603131 0.2453624 -0.2543541 -0.069014534 -0.19612594 0.20246468 -0.055441003
-0.4581118 -0.32478896 -0.07644024 0.13535678 0.084565446 0.18783373 -0.12056874 -0.12650187
-0.27555418 0.06463979 0.1673122 -0.13437936 -0.010718001 0.064825065 0.41949984 -0.028814694
0.16722207 -0.08346039 0.0633545 0.20299733 -0.12305021 -0.14717378 -0.2655511 0.051396895
