outputs/centerSquare_2a_PPO/last_status.pt (torch, 39253 bytes, 42 tensors)

actor.0.weight f4 [64, 4]
00000000: 46e3 bfbd 44f2 75be c28a 5d3e 204c 90bd
00000010: 722d 0cbe 2596 523e c500 433d 4609 cd3e
00000020: 7517 d43d baef 5e3e e6c0 713e ae1b 30bd
00000030: 4e83 5cbc b966 763e 13e9 c1be 44ea 94bd
00000040: ac98 923c d55c 73be 7bca b13d 23cd 61bd
00000050: f420 a23d 403b c23e 0ff7 7cbd 536b e4bd
00000060: bd26 40be f570 a93e 5c2f ddbc 7fbd 963e
00000070: edb6 77be a9a0 65be 6fc6 a3be f8e6 afbe
00000080: 199f 08bf 6374 27be f038 853e f9f1 973e
00000090: 237e 52bc 5018 743d de9d 6bbd aaae c53e
000000a0: e5d7 383e 3587 4ebd a1c2 6c3e 3b84 293e
000000b0: 0779 f33d 0a19 6e3d b314 8e3c d750 873e
000000c0: 54d8 a93d 8aed 173e cfa3 483d 283b 5e3c
000000d0: 2262 e7bd e4e1 9f3d d645 fa3d dddd d7be
000000e0: 7309 ca3d 6a6f 4ebe 1cbf d53d 98bf 9bbd
000000f0: 9b48 41be 17eb 5a3e 3b07 04bf c9eb 173e
00000100: 59df 9f3e ea30 23be 108a c83e b584 763c
00000110: 2f7f 13be 8a9c 463c 0593 5e3e 637b 3d3e
00000120: fc2a 94be e9f3 903e f00d b63e 4738 14be
00000130: d39f 473e d1ab 403e 3ec8 94be 6ece 523e
00000140: 915b dabe b607 19be f956 5b3d d62c dfba
00000150: a63a f73d 20d0 453e 20cb f0bc b7a4 d63d
00000160: f6fc 26bd 37e8 5b3e f446 cb3e 4de8 033d
00000170: 5aee 3dbe d4e3 003e e83a 12be 07e8 1cbe
00000180: 9c9e 19be e708 fb3e e64f 533d 6de8 8f3d
00000190: 26e4 98be f6d3 6f3e 95a5 bcbe ef98 653d
000001a0: ad23 a5be dd04 82be 3bac e1bd 1a4a 4bbe
000001b0: a612 223e 2f43 4abd cd5a aabe c55a fb3e
000001c0: 4898 f8bd 402e 013b 7063 a43e e97f 43be
000001d0: d2f1 563d ed97 26be cb79 e33e f74e b33e
000001e0: c277 3cbe 02ef 51be e101 b5be f7d6 97be
000001f0: 1d35 b3be c679 663d 02c8 23be 16d5 80be
00000200: 48f1 ff3c 196a 163e 824b 16be 339c 3d3e
00000210: f4c0 17bf 90b5 6abe 6ead f93d 5f24 083e
00000220: 84b8 0bbe 9ee6 223e b7d1 063e 4478 e2bd
00000230: 38ac 063e 21d5 193c b6fa 4ebe 2f3f 8bbe
00000240: 80b2 34be bb95 23be 3b5b c7bd f559 b23d
00000250: c51c bcbd d7c2 fdbd 2262 b7bc cdd1 7cbe
00000260: ab32 0dbe 38e2 3fbe a6db 04be fd4e bfbd
00000270: 5197 0e3e 1a51 03bf 40dc 91bd 5c7b 093e
00000280: e826 323e d4d4 0a3d a3a6 38bd ae34 95bd
00000290: 8ae8 383e 16f8 733d ceb5 043e e522 c8bc
000002a0: bf7c 39bd dc85 c0be 7c64 6f3e ef5a 83be
000002b0: 553e b93c 4ef0 68be b407 d9bb 9645 3a3e
000002c0: 20d2 313e 99d2 453d 2a0e 183e cf79 b0be
000002d0: 9c5a 90be aa1f f2bc d7b9 a8bc 213b 9fbe
000002e0: 2c9c 863e 4114 97be bfc8 fabd 8055 92bd
000002f0: 130f b63e a460 963d b0d7 a83e 9955 be3c
00000300: b89a 9d3e dc93 b6be bbe4 7ebe 0106 d33d
00000310: aabc 953e ed6d 003e 36b1 7fbe e943 19be
00000320: 3224 ef3d 0976 5a3e 45f0 2abe 92d0 be3e
00000330: 1e36 683d 9816 17be 68e8 dd3d e673 17be
00000340: 8105 b43d 25ca 3e3e 11a8 2bbe bd8c 36bd
00000350: fbbf d93d 22f1 093f 0b10 aabc 081e 20be
00000360: ee40 9fbd a0bc 20bc eed9 2e3e acdc ba3d
00000370: b4e8 82be afbe c4bd d2d6 ecbc 8976 073e
00000380: 60f4 9bbd 0645 a73d 2d5e f43e 47fc 5b3e
00000390: f903 f73d 0db2 69be 7edd 6d3e 21e8 1ebe
000003a0: e663 16be 0899 863d d9d2 83be 58e2 25be
000003b0: ab7c 423e dbfe 1abe 1c40 673e db16 073f
000003c0: 1a6c a43e 16db 9ebd 2736 85bd 835c 03bd
000003d0: 19a8 ac3e 9c2a e73d 703d b1bd 7075 67be
000003e0: 44f3 43be 9b45 0ebf 4461 16be e15d 5a3e
000003f0: 107b 92bd f459 ecbd 0437 7abe 3cd9 a2be
-0.09369521 -0.24018198 0.21634963 -0.0704577 -0.13689211 0.20565088 0.047608156 0.40046138
0.103560366 0.21771136 0.23608741 -0.042995147 -0.01345904 0.24062623 -0.37873134 -0.07271245
0.017895065 -0.23765881 0.08681198 -0.055127274 0.079164416 0.3793583 -0.06175905 -0.11153283
-0.18764777 0.33093992 -0.027000122 0.2944145 -0.24190874 -0.22424568 -0.3198733 -0.34355903
-0.53367764 -0.16352992 0.26020002 0.29676798 -0.012847456 0.0595935 -0.0575236 0.3860982
0.18051107 -0.050421912 0.2312112 0.16554348 0.118883185 0.058129348 0.017343855 0.26428863
0.082932144 0.14836708 0.048984345 0.013563909 -0.11298014 0.07806757 0.122203514 -0.42161456
0.098650835 -0.20159689 0.10436842 -0.07604903 -0.18875353 0.21378742 -0.5157353 0.14836039
0.31225088 -0.15936628 0.39167833 0.015046288 -0.14403985 0.012122283 0.21735771 0.185041
-0.28939044 0.2831109 0.35557508 -0.14474593 0.19494562 0.18815543 -0.29059023 0.20586559
-0.42647985 -0.14944348 0.05354974 -0.0017026912 0.12071733 0.19317675 -0.029393733 0.104806356
-0.040768586 0.21475302 0.3970257 0.03220396 -0.18547955 0.1258691 -0.14280283 -0.15322886
-0.15001911 0.4903023 0.05158987 0.070267536 -0.29861563 0.234207 -0.3684508 0.056054052
-0.3225378 -0.25394335 -0.110191785 -0.19852486 0.15827426 -0.049380478 -0.332724 0.4909269
-0.1213842 0.0019711405 0.32107115 -0.19091763 0.05247671 -0.16268893 0.44428858 0.35021183
-0.18405059 -0.2050133 -0.35352996 -0.29656193 -0.3500146 0.056268476 -0.15994266 -0.25162572
0.031242982 0.1468891 -0.14677241 0.18516617 -0.592788 -0.22920823 0.12191282 0.13295124
-0.13644606 0.15908286 0.13165937 -0.11058095 0.13151634 0.009389193 -0.20212826 -0.27196643
-0.17646217 -0.15975086 -0.09734198 0.08708564 -0.09185175 -0.123906784 -0.02238566 -0.24689408
-0.1378886 -0.1873864 -0.12974414 -0.09341238 0.1392491 -0.51295626 -0.071220875 0.13425964
0.17397654 0.033894375 -0.045080792 -0.072854385 0.18057457 0.059562765 0.12959978 -0.024430702
-0.045284983 -0.37602127 0.23378175 -0.25655314 0.02261273 -0.22747919 -0.0066232327 0.18190607
0.17365313 0.048296545 0.14849153 -0.34467933 -0.2819413 -0.029556114 -0.020596428 -0.310998
0.26291025 -0.2950764 -0.122453205 -0.07145214 0.35558376 0.073426515 0.32977057 0.023234176
0.30782104 -0.35659683 -0.24891941 0.103038795 0.29245502 0.12541933 -0.24969944 -0.14967312
0.116768256 0.2133409 -0.16693218 0.37268502 0.056692235 -0.14754713 0.108353436 -0.14790305
0.08790112 0.186318 -0.16763331 -0.044567812 0.106323205 0.53883564 -0.020759603 -0.15636456
-0.07776056 -0.009810597 0.17075321 0.09124121 -0.25568163 -0.096066825 -0.028911028 0.13228811
-0.0761497 0.08167462 0.477281 0.21482955 0.120613046 -0.22821827 0.23229024 -0.15518238
-0.14686546 0.06572157 -0.25746801 -0.16199625 0.1899287 -0.15136282 0.2258305 0.5276925
0.32113725 -0.07756631 -0.06504469 -0.032070648 0.33721998 0.11287424 -0.086542964 -0.22603393
-0.19135767 -0.5557496 -0.14685541 0.21324874 -0.071523786 -0.11540595 -0.2443505 -0.31806362

actor.0.bias f4 [64]
00000000: 9313 4cbc 6428 9abb 4772 d93b dfb8 2dbd
00000010: 7941 c53d c2c8 7dbd c73d 2c3d d568 dabd
00000020: be30 363d 53e9 d9bc a8d8 c33d ea83 613c
00000030: 6c97 333d 4905 60bd 56fc b73d 4756 6ebd
00000040: becb a53c 840f 0c3d 1662 17bd 6f91 c1bc
00000050: 84e2 2c3d 6a47 573c 0026 86bd 2907 4e3d
00000060: d827 11bd cb3e 81bd a06c b6ba 0569 a4bb
00000070: dd29 403d 57b3 edbb c3f7 89bd 29d8 e9bd
00000080: 46b0 e9bc 7acb 4f3d 70ca 3d3d ca6e 983d
00000090: 7275 093e 6f45 7cbc dd88 c8bd 6b86 783d
000000a0: fa47 d83c 6622 273c b93b fa3c 2a8e 9e3d
000000b0: 6689 623d 7189 00bd e764 1dbd 9b72 d43d
000000c0: f461 1c3d 837a 61bc c214 113e 8946 e2bd
000000d0: 4f06 a7bd 21f6 143d bd21 39bd faeb c63c
000000e0: a4b1 a23d 4b5c 523d 08d3 96bd b778 883d
000000f0: efd4 bebd 2b52 2b3b 26a4 a9bd 2aad 723b
-0.012455839 -0.004704522 0.0066359374 -0.042412635 0.096316285 -0.061959036 0.042051103 -0.106645264
0.044480078 -0.026600515 0.09562808 0.013764361 0.04384558 -0.05469254 0.08983676 -0.05818775
0.020238753 0.034194484 -0.036958776 -0.023628918 0.04220821 0.013139585 -0.06550217 0.050299797
-0.03543839 -0.06310805 -0.0013917871 -0.005017402 0.046914924 -0.007254045 -0.0673671 -0.114181824
-0.028526437 0.05073116 0.046335638 0.07443006 0.13423708 -0.015397414 -0.097917296 0.060675066
0.026401509 0.010201072 0.030546056 0.077419594 0.055306815 -0.031381074 -0.038426306 0.10373422
0.038179353 -0.013762119 0.14168075 -0.1104861 -0.081555 0.03636754 -0.04519819 0.024282444
0.079440385 0.05135755 -0.0736447 0.066636495 -0.093179576 0.0026141505 -0.08283262 0.0037029483

actor.2.weight f4 [5, 64]
00000000: ee96 8fbc 0608 57be 642e 9d3e 9c0e ecbd
00000010: 4b58 9b3e ad80 573e 65c8 dd3e e51e 683e
00000020: d098 1dbe 0a38 e6bc d3ae d4bd 347c d93e
00000030: 8f5c 23be d078 5dbe 47cf e0bc e055 4ebd
00000040: c2aa 0d3d da16 65bd 5e1a 283e ade7 163e
00000050: 0822 3fbe c9a5 d03e 0042 7ebc 0a23 943d
00000060: 5d4b 0cbf 4ccc af3d 4504 903d 50ba 813e
00000070: ab20 4d3d b6c0 a6bc fdce a03d 1bd4 0ebe
00000080: 7342 4b3e ad60 dfbe 037d 6dbd 14e3 d63d
00000090: c386 73bd c9f3 25be 0c46 92be 4e14 543e
000000a0: 7b10 813e e878 d43e db93 51be 0d44 fbbd
000000b0: ddb5 fc3d d9ad 2d3d 3578 cebd 6f86 f6bc
000000c0: 082f 25be a6aa 963e 9fb2 5abb 9d36 9ebd
000000d0: f93f ae3c 8685 e73e 9cf8 1f3e 669c 0bbe
000000e0: 6218 b13e 3854 8abe 8e30 183e 9a96 073e
000000f0: ad2b 843e 509f 6e3e febe fdbd 024a 0ebe
00000100: 4f28 09be 3298 3c3e 3316 eabd 9086 293f
00000110: 3efb 34be 6330 c33e fa50 5dbe c58d b13e
00000120: 7666 4abe 5c95 97be e32d 2fbf 16f8 1bbf
00000130: c038 63be be8a b2bd 0986 b13e 3df3 113e
00000140: 0d1b 31be 0e1f 44be be42 903d 6f9e 773b
00000150: 32e6 6b3e 2ea6 11bf a423 a4bc d83b 753e
00000160: 3fca f1be 295f c63e 514f 9b3c cdd9 a0be
00000170: 0f5f 283e ad1a 79be f78c 823d da0c c93d
00000180: 4707 81be ec6a a9bd a167 35be 5f34 7b3e
00000190: e81c 9dbc 929f 473c 1c0a de3e 7e56 353d
000001a0: 680c 6f3d 16a3 ecbd 3ae6 463b fb24 b1bd
000001b0: 35c0 e8bd 590f aabd dea1 883d 1949 b9be
000001c0: 3e5e 27be fdc0 a03e 266c a3be c20d 8abc
000001d0: 6308 c83d adfb 963e 16e7 f0bd ef7e ce3e
000001e0: e099 83be 88ec c9bd e505 9d3e 758e 19be
000001f0: fd31 a7be 5721 9bbd e54a 7dbd d7c7 ef3d
00000200: 408a 2e3e 4469 bd3e b3ed 75bd a1d4 75be
00000210: b0de b23e b07f 18bc 74ce 513e 8fcb f93d
00000220: a414 a43e 3894 213e ccd5 743e 5539 04be
00000230: 5037 4b3e 9b0c e93b d4c3 633d aec5 50bd
00000240: ec7d 643c e4f8 083d 228c 803d 7bd2 2ebe
00000250: 467e b53a 73ed 573d f5c1 093e f378 083d
00000260: d613 15be a6f2 0c3d 0a9d 363d 04f7 b73c
00000270: a81e e63e 3242 a73e 7d54 bd3d 1af2 dbbe
00000280: 8a7c e2bd 0860 1bbe eed0 3d3e be07 0fbe
00000290: 6be5 cc3e cb86 e1bd 6d19 d5be fe0a 3a3b
000002a0: bcfe abbe e37b 563e cb48 b33e 89a9 5fbd
000002b0: dbf2 213e bd6d 2fbe 1be8 94be d133 4c3c
000002c0: 08c1 083e 7a2e 92be ab9b c53d c55c d1bd
000002d0: c57a 0dbd 7c35 bebc a3fa 91be 3c2d da3e
000002e0: 9826 4f3e 5180 b93e abd0 49be c522 e83d
000002f0: 8f5c b2be eb20 ba3e 6590 6e3d 7c7d f43d
00000300: d927 cfbc f646 c2be 5933 933e 9520 013e
00000310: aa15 8abd f795 743d c476 56be 617b b83e
00000320: e269 0b3e 2746 eb3e f272 573e 0eea a5be
00000330: 6fd1 4e3e 4752 8f3d cc6e 0abd 9647 c1bd
00000340: c05a 833e 8706 173c a87c 57be c0ef d73d
00000350: 1c28 953b dad5 1bbe 6b0e a9be dcf7 08be
00000360: cff8 523e b818 1a3e b3fe 37be 5e41 683d
00000370: dc45 eb3e 1c8f 253e af6d 903e dfe9 30bd
00000380: 52e0 64bc c02f 70be 03da 46be 6823 0b3e
00000390: a7fb 2ebd 7ee8 6dbe 4058 293d b480 2bbc
000003a0: 179f 723e 5e43 7a3e 5e46 28be bbc9 48bc
000003b0: 1455 9f3e 0b37 75bd 20ac 203e 8363 81bc
000003c0: 1f31 5b3e be44 aebe f0b1 123d d550 16be
000003d0: 5cac cdbd 5f84 9c3d 994d 42be ba9c c0be
000003e0: 81b4 4b3e 5efe 033e 4cbd 833c 8a08 af3d
000003f0: bc2e fd3e 8bd2 cb3c 791b 92be f5e4 a2be
-0.017528024 -0.20999154 0.30699456 -0.11526224 0.303408 0.2104518 0.4331695 0.22668035
-0.15390325 -0.028102893 -0.103849076 0.42477572 -0.15953277 -0.21628118 -0.027442588 -0.050374866
0.034586675 -0.055929996 0.16416308 0.14736815 -0.18665326 0.40751484 -0.015518665 0.07233246
-0.54802495 0.085838884 0.07032064 0.25337458 0.050079983 -0.020355564 0.0785198 -0.139481
0.19849567 -0.43628445 -0.05798055 0.104925305 -0.05945469 -0.16206278 -0.28569067 0.2071087
0.25207886 0.41498494 -0.20466559 -0.12268839 0.12339375 0.042402122 -0.100815214 -0.0300934
-0.16131222 0.2942707 -0.0033370627 -0.077252604 0.021270739 0.45219058 0.1562218 -0.1363388
0.34588915 -0.2701738 0.14862272 0.13241044 0.25814572 0.2330296 -0.123899445 -0.13895419
-0.13394283 0.18417433 -0.114300154 0.6622095 -0.17673966 0.38122854 -0.21612921 0.34678474
-0.19765648 -0.2960614 -0.6842939 -0.60925424 -0.22189617 -0.08717869 0.34672573 0.14252944
-0.17295475 -0.19152471 0.0704398 0.0037783643 0.23037031 -0.56894195 -0.020036526 0.2394861
-0.47224614 0.38744476 0.01895872 -0.3141617 0.16442512 -0.24326582 0.06374543 0.09816904
-0.25200865 -0.08272347 -0.17715313 0.24531697 -0.019178823 0.012184041 0.43367088 0.04427194
0.05836144 -0.11554544 0.0030349628 -0.086496316 -0.113647856 -0.083037086 0.06671499 -0.36188582
-0.16344544 0.31397238 -0.31918448 -0.016852263 0.09767225 0.29488888 -0.11762826 0.40331218
-0.25703335 -0.09859568 0.3066856 -0.1499575 -0.32655326 -0.075747184 -0.061839003 0.11708038
0.17044926 0.36994374 -0.06004114 -0.24006893 0.34935522 -0.009307787 0.20488912 0.12197029
0.32046998 0.15779197 0.23909682 -0.12912495 0.19845319 0.0071120984 0.055606678 -0.050969772
0.013946038 0.033440486 0.06276728 -0.1707248 0.0013846837 0.052716684 0.13452895 0.03331847
-0.14558348 0.034411095 0.044583358 0.022456653 0.44945264 0.3266769 0.092446305 -0.42958146
-0.1105891 -0.15173352 0.18536732 -0.13967797 0.40018782 -0.11012038 -0.4162096 0.00283879
-0.33592784 0.20945697 0.35016474 -0.05460504 0.15815298 -0.17131706 -0.29083332 0.012463526
0.13354886 -0.28551084 0.09648832 -0.102227725 -0.03454091 -0.023218863 -0.28511533 0.42612636
0.20229566 0.3623071 -0.19708507 0.11334757 -0.34836242 0.3635324 0.058243174 0.11937997
-0.025287556 -0.37944764 0.28750113 0.12610085 -0.06742413 0.05971333 -0.20943743 0.3603163
0.1361461 0.4595196 0.21039942 -0.32405132 0.2019708 0.06998115 -0.03379707 -0.09437482
0.25655174 0.009217865 -0.21043646 0.105437756 0.0045519006 -0.15218297 -0.33018813 -0.13375801
0.20602725 0.15048492 -0.17968254 0.056702964 0.45951736 0.16167873 0.28208682 -0.043191787
-0.013969498 -0.23455715 -0.19419102 0.13587725 -0.042720463 -0.2323322 0.041343927 -0.010467697
0.236935 0.24439761 -0.16433093 -0.012255128 0.31119597 -0.059866946 0.1569066 -0.015794521
0.21405457 -0.3403682 0.035814226 -0.14679272 -0.100426406 0.07642435 -0.18974914 -0.37619573
0.19893076 0.12890002 0.016081475 0.085465506 0.49449718 0.024880668 -0.28536585 -0.31815305

actor.2.bias f4 [5]
00000000: 99ab a53c 6625 0abe 6927 4d3d 5073 7d3d
00000010: e040 20be
0.020223426 -0.13490829 0.050086413 0.06187755 -0.15649748

critic.0.weight f4 [64, 4]
00000000: b604 d6be ffd8 bfbd d343 313e 6904 debe
00000010: 608d 91be 6a97 323e d4c8 f0bd 1175 493d
00000020: 86af f83d 42df ffbd 6d9f 8e3e 124b b93c
00000030: 42ab 61be 06c5 fc3c 9057 303e 6673 fa3d
00000040: d798 9fbe d11f 723c 24e7 373d 1765 33be
00000050: f978 fbbe d8cd 73be 7687 163d 8c0a e0bd
00000060: e473 39bf b653 ccbc 14b0 0c3d 1144 2cbd
00000070: 15e6 983d 1693 573e f968 64bc 814e f7bb
00000080: 689e f83d ba1c 58be c5e3 9cbe 32a1 0e3f
00000090: e80c b83d 9f49 163e 1fb9 b93d 5649 033e
000000a0: d686 a33e 6766 16bc b13f 6e3e 20a0 603e
000000b0: 4fb3 ce3d 7048 8fbe 7268 b83b 685c a0be
000000c0: 4c2e 3d3e 5d7f c2bd 1bee d2bd bcaf 0f3e
000000d0: 82b2 96be 0c48 433e d5fe 9fbd 9552 e2bd
000000e0: 4b87 d53d 887f 0e3e 811a df3e cff6 a5bd
000000f0: bc5b fcbe 8b1a 07bd af0f 0d3d 2a5e 5ebd
00000100: f079 abbe 52b6 9dbd 13ba f73d b2ed 33bc
00000110: bddf 62be 07af 983d 75c2 cc3d 104a 6cbe
00000120: c387 0c3e d4c4 4c3b 094e 313d 9658 febd
00000130: 1b15 e33e e299 803e 2b64 6d3e 15cb 75be
00000140: baad 913d 202f afbd 868e 76bd bfe4 8fbc
00000150: ca63 823e fbe8 52bd 48ba 053f c733 a4bd
00000160: 2132 d7bd 4659 8cbe 24a5 f53d e542 343e
00000170: 05cb 7c3e 4ab0 11bf b235 91bd 1030 b13e
00000180: e6ea 68be caea 82be 8df7 23be 63af fabb
00000190: 6e44 04be 6cb8 fd3d 65a0 12be 8b72 b5bd
000001a0: ce8a 6fbe c2d4 7a3e eec7 9abe 8bdb 173d
000001b0: dfc6 fcbc 1602 04bf 4448 5f3e 909e 22bd
000001c0: 3cac 303e 73ae aa3d ec36 6ebd f05e e6bd
000001d0: 4346 82be 2101 9bbe c41a 1c3e 43ba 843e
000001e0: 9499 27bd c450 7bbc 2aa9 e63d 6cf1 08bd
000001f0: 2ee1 a8be b7d2 413e 7c85 1fbd 4391 1e3d
00000200: bf9d 323d d289 d33b 3a68 51bd 3f2d 5abe
00000210: bd86 2d3e f96d 68bc 7d57 9bbe 3eab 2ebd
00000220: f1e2 ba3e 235d ffbd aac0 703c 2cba be3c
00000230: 8cb1 48be 8e8f 5fbe 2d3b 18bd bd9d 263e
00000240: bbf3 16bc a19c 183e 303d 143e 5741 ed3d
00000250: 3bd4 863e 46b9 b0be 4b2e 863e 5c10 a3bd
00000260: 1ca6 94bd 39d4 1fbe cb15 adbd 817a ce3e
00000270: 50a7 46be cbb0 28be 53b5 a93d 286b 1bbe
00000280: d21a 58bc 697d 243d 2c00 233d 1898 4b3e
00000290: 56bb fa3c 01dc f0bd e804 043e 1885 a43d
000002a0: 1bad 50bd 23d4 d1bd 49a1 fbbe aa96 adbd
000002b0: fe6e 533e 399d e7bd 2bbc dcbd 0134 853d
000002c0: cdb4 eb3d eb48 80bd af4b 773e 027c 143e
000002d0: a15d 7c3d 6f26 a0be a9fb 1fbe 3d31 32bd
000002e0: c3d5 1bbd 5eac 763e 81bb cebe 278a 3c3e
000002f0: b417 1bbf 7705 383e 0590 f0bb f299 babe
00000300: efde 03bd f4ca 77bd 1569 1dbd 601a 4d3e
00000310: d6d5 55bd 05c4 6bbe e7c4 e23d 7f9b aabe
00000320: ae37 85be e2a7 61be 9905 6fbe 1dbc ffbc
00000330: 10d9 b1bd 7546 47be 62a7 4a3e b8cf fc3d
00000340: 389c 80be 2ab3 d8bd e742 81be 521a 8a3d
00000350: e348 bebd b706 1e3e 0eb2 9c3c 5652 ecbb
00000360: 7ef2 073e 3cc1 083f b1d2 d0bc ec3d 1bbe
00000370: 314e 5d3e 609a a0bc aa2a 1f3d 79a9 eabe
00000380: e43a 21bb f543 9b3e b9b9 e33c 6d47 aabd
00000390: 9914 553e 193d 1b3a 28f2 81bd 5f2c 0fbf
000003a0: c624 0d3e 8368 9f3d 5fda 0fbc dca4 f7bd
000003b0: 79ab 853e 3896 c9be aa02 c03d 67a7 4d3e
000003c0: ae54 103f 87e7 eebc 48c7 9ebd 44cf 9e3e
000003d0: 171a 643e afa8 663e 5bcb 30be 4f52 813e
000003e0: eab2 513c 1a81 8cbd 43d7 efbd 5b09 4c3e
000003f0: 4e10 21be 365f e13e 4b74 703d 3ede 8b3e
-0.4180047 -0.093675606 0.17311029 -0.4336274 -0.28428173 0.17440572 -0.11757055 0.04918391
0.121428534 -0.12493755 0.27856007 0.022618804 -0.22037986 0.030855667 0.17220902 0.12229042
-0.31171295 0.014778093 0.044898167 -0.17519031 -0.49115732 -0.23808992 0.03675028 -0.10939512
-0.7244246 -0.02494226 0.03434761 -0.0420571 0.0746576 0.21052203 -0.013941043 -0.0075472
0.121395886 -0.21104708 -0.30642524 0.55714715 0.08986837 0.14676522 0.09068512 0.12820944
0.3193881 -0.009179688 0.23266484 0.21936083 0.10092794 -0.27984953 0.005627685 -0.313205
0.18474692 -0.09496949 -0.10299321 0.14031881 -0.29433066 0.19070452 -0.07812277 -0.110509075
0.10426196 0.13915837 0.43574908 -0.08103716 -0.49288738 -0.032984298 0.034438785 -0.05428902
-0.33491468 -0.077007905 0.12096038 -0.010981964 -0.22155662 0.07455259 0.09998027 -0.23075128
0.13723664 0.0031245248 0.04328731 -0.1241924 0.4435204 0.25117403 0.23182742 -0.24003251
0.07113214 -0.0855391 -0.060194515 -0.01756513 0.25466758 -0.05149172 0.5223737 -0.08017688
-0.10507608 -0.2741186 0.11994389 0.17603643 0.24686821 -0.5690962 -0.0709032 0.3460698
-0.22745857 -0.25569755 -0.16012402 -0.0076503023 -0.12916729 0.12388691 -0.14318998 -0.08859738
-0.23392794 0.24495223 -0.3023066 0.037074607 -0.030856548 -0.5156568 0.21804911 -0.039702
0.17253202 0.08334055 -0.058157846 -0.11248577 -0.2544423 -0.302743 0.15244585 0.25923356
-0.040917948 -0.01533908 0.11262734 -0.033433363 -0.32984298 0.18928038 -0.03894566 0.03871275
0.04360747 0.0064556384 -0.05112479 -0.21306323 0.1694593 -0.014186376 -0.30340186 -0.042643778
0.36501268 -0.12468936 0.014694372 0.023282133 -0.19598979 -0.21832106 -0.03716581 0.1627111
-0.009213383 0.14903499 0.14476466 0.11584728 0.26333794 -0.34516352 0.26207194 -0.07962105
-0.07258245 -0.156083 -0.08451422 0.40327838 -0.19399762 -0.16473691 0.08286538 -0.15177596
-0.013189988 0.040158663 0.039795086 0.19882238 0.030606907 -0.117607124 0.12892497 0.08033198
-0.050946336 -0.1024554 -0.49146488 -0.084760025 0.20647809 -0.11309285 -0.10778078 0.065040596
0.115090944 -0.06263908 0.24149965 0.1450043 0.06161273 -0.31279323 -0.15623344 -0.04350399
-0.038045656 0.2408919 -0.4037743 0.18412076 -0.60583043 0.17970835 -0.007341387 -0.36445576
-0.032195028 -0.060496286 -0.038430292 0.20029593 -0.052205883 -0.23023994 0.110727124 -0.3332176
-0.26019043 -0.22036698 -0.23341979 -0.03121763 -0.086839795 -0.19460471 0.19790414 0.12344307
-0.25119185 -0.10581048 -0.25246355 0.067433015 -0.09291246 0.15432249 0.019127872 -0.0072119636
0.13276097 0.5341985 -0.02549109 -0.1516034 0.21611859 -0.019604862 0.038859047 -0.45832422
-0.0024601752 0.30325285 0.02779852 -0.08314405 0.20808639 0.0005921885 -0.06345016 -0.5592708
0.13783559 0.07783606 -0.008780091 -0.12091991 0.26107386 -0.3937242 0.09375508 0.2008339
0.5637921 -0.029163135 -0.07752854 0.31017506 0.22275577 0.22525285 -0.17265074 0.2525811
0.012799004 -0.06860562 -0.1171098 0.19925444 -0.15728876 0.44017953 0.058704656 0.27317995

critic.0.bias f4 [64]
00000000: 5da5 8bbe 87cb 1f3d 14e4 843c 9e50 02bd
00000010: 2770 40be bf17 20bd 6906 d0bb 8755 f73c
00000020: 96f0 b13c cba9 013c 1642 d43c c38c 163d
00000030: 774b 05bb 93a8 10ba 6d65 45bd 915c 08be
00000040: 3df7 f3bc 7c2f 153e e58a 653c ccd7 073d
00000050: 6fae cc3b fea7 543d f011 fabc b6f7 823e
00000060: 1bac 403c 0607 14bc 0b69 4439 7ef3 0c3c
00000070: 8c7d 2d3d be3d a3bd b375 c2bc 6150 0ebe
00000080: 719a 793d ef2d b83c acc3 353e 3f1a 7dbc
00000090: cc5b afbc 2384 483d 5270 30be 1a2a 3c3c
000000a0: 0c9b 4bbd 7dc0 0f3b cdb1 56bc db69 563d
000000b0: e468 083c 6581 f63c 435c e4bc b0da 08bd
000000c0: da36 d7bc e22d 133e 32ce d1bc 96e7 9dbd
000000d0: 6c6e 38bd acc5 9e3b 12fa 083d 672a 5c39
000000e0: c23c 6a3c 29d3 c63c 338b 0d3c 1b17 023c
000000f0: 2186 e73e 8819 97bd dbee e33c 73ad 28bd
-0.272746 0.03901246 0.016222037 -0.031815164 -0.18792783 -0.039085146 -0.0063484204 0.03019215
0.021721166 0.007914017 0.025910418 0.036755335 -0.002033917 -0.00055182836 -0.04819243 -0.13316561
-0.029780978 0.14568895 0.014010166 0.033164784 0.00624638 0.051918022 -0.030526131 0.25579613
0.011759783 -0.009034878 0.00018731148 0.008602975 0.04235606 -0.07970761 -0.023737764 -0.1389785
0.060938302 0.02248284 0.17750424 -0.015448152 -0.021406077 0.04895414 -0.17230347 0.011484647
-0.04970841 0.00219348 -0.013103914 0.052347045 0.008325789 0.030090997 -0.027876025 -0.03341168
-0.026271272 0.14372972 -0.025611017 -0.07710187 -0.04502718 0.0048453417 0.03344161 0.00020996631
0.014296712 0.02427061 0.008639145 0.007940079 0.4521952 -0.073779166 0.027823856 -0.04118104

critic.2.weight f4 [1, 64]
00000000: 5abc acbd 4c33 c1be a22c a3be afec df3d
00000010: 1d5a 37be 9b8e bf3e 2d54 cbbc 03d9 1cbd
00000020: 916b 093e 39e0 a7bd cbcb 143e 1f60 cf3d
00000030: dc7b 753e 68ea 15be fdcd 013e 044d 55bd
00000040: 40d8 5c3e 5f17 703e 8e95 9f3e dff5 abbe
00000050: 77ac 2d3e 5d7d e7bc cbc6 363d 56cf 0f3d
00000060: 5db6 6dbd a6e8 1cbd 0477 4dbc 8735 88bd
00000070: 9ac9 18be 2d90 1bbe 5a9a 603e 975d 50be
00000080: 0b2d 82be 1c71 94bd 8be8 e83d 07af c03e
00000090: 5e94 3c3d 973f cfbd 205c a0be d459 163e
000000a0: 1774 143e 7e50 923c cf20 e33e d5d1 583e
000000b0: a0f6 03bd da60 c2bd 0254 db3e b14c 95be
000000c0: 3acd 023e 333e d83d 1a74 c63e 0f50 b63e
000000d0: 4a4f 013e c76a e8be af05 adbd 7035 99be
000000e0: a315 d4bd bf8c a9bd 8542 853e b450 a6bb
000000f0: 3f0e 263d 19cb bdbd 2b27 85be e34a 08be
-0.08434363 -0.3773445 -0.3186999 0.10933816 -0.17905469 0.37413487 -0.024820412 -0.038292896
0.1341994 -0.08197064 0.14530866 0.101257555 0.2397303 -0.146402 0.12676235 -0.0520754
0.21566868 0.23446415 0.3116879 -0.33586022 0.16960321 -0.02825802 0.044623177 0.03510984
-0.058035243 -0.03830781 -0.012540583 -0.066508345 -0.14920655 -0.15191717 0.2193388 -0.20348202
-0.2542499 -0.072481364 0.11372479 0.37633535 0.04603993 -0.10119551 -0.31320286 0.14682704
0.1449741 0.017860647 0.44360968 0.21173795 -0.03221762 -0.09491129 0.4283753 -0.29160073
0.127736 0.105587386 0.38760453 0.35607955 0.12627903 -0.45393965 -0.0844835 -0.29923582
-0.103556894 -0.08278798 0.26027313 -0.0050755385 0.04054093 -0.092672534 -0.26006445 -0.13309817

actor.0.weight f4 [64, 4]
00000000: 0e37 d2bc 93e7 9abe 9941 873e 240d d9be
00000010: b248 56bd 2b98 9e3e 8aac 323e d2a3 56bd
00000020: 2561 87be eaff e5be 0edf a73d 196c fe3d
00000030: 34a1 66be 1e23 97be a04d 9cbe 3dc1 f73d
00000040: b1e3 943d 06b7 08be 373b 813e 1989 13be
00000050: 5e19 94be 234e b5bd 71f6 b33e 9dc1 9d3e
00000060: 766a 003b e107 af3e 9b94 60bd a3f0 223d
00000070: 377f a13d 2d06 ff3e 5615 22be 3765 f9bd
00000080: 6a73 cb3d 9fa4 bbbd a965 4c3e 88f3 3bbe
00000090: e557 b2bd 45e8 5cbd 180f ccbc 25f4 953e
000000a0: c4df 443e 3287 a23d 21f1 ff3d 8d8a e83e
000000b0: b030 33be 642c 9cbd 12fd f63d 053a 0cbe
000000c0: 8787 623e d4a5 b5bd e170 a13e 88f8 a63e
000000d0: 3d81 0b3d dac5 fb3d 2e8e 4c3e 0f88 f53e
000000e0: 461d 6bbe ec41 583e 68c8 223d 9562 8ebd
000000f0: f3d9 cebd e220 72be 16af 913e bbd1 c83d
00000100: 097b 4bbc 54a8 aebd 7d7b 703d eaa8 9abe
00000110: a1d6 c13d e656 99be 547c 83be a0d1 4f3b
00000120: c4b0 b0be dd8e f4bd dfde 0abe fea6 b6be
00000130: c5ac ec3c 2c78 34bc 16a3 67be 4019 793d
00000140: 7f67 b23e 6fdc 273e 66fa 4ebe 3fd4 123e
00000150: d09a fbbb bf20 313e d2ba 2cbe 6b33 9a3e
00000160: 8d4e 62bd c2e2 64bd c900 09be f9a1 f7be
00000170: f8dd aebe aeeb cf3d c88e 893e bdf1 4abe
00000180: c8a2 223e 14fd c7bd ed07 463e 83bb 513e
00000190: a7b2 263e d2a4 a5be 9944 8fbc 640f a53c
000001a0: c359 7d3e 88cf 9cbe 0ef2 723e a0a6 043e
000001b0: 4876 75be eaef 73bd 60bd d33a 3c7c 13bc
000001c0: b9cb 58be b1e1 4e3d 318b 83be 3103 763d
000001d0: a869 183e d302 4abe b3ad 8a3c 4a8e 1e3d
000001e0: bb49 f53e 7dfe 5dbc c216 f73d fbd5 1bbe
000001f0: bdf0 c2bc f1b7 58be 395e a0be 0aaf 58be
00000200: 98d8 cebc 73f6 95be 9312 edbd 2b4a b73d
00000210: c1b9 74be 1bcf f2bd 4d6d d5bd 71e4 ca3d
00000220: e2c1 4bbe 6f58 2c3e 6fff b83c 802e ccbd
00000230: 6d3d 8d3d 4b0f a03e 85fb bdbd ad31 4f3d
00000240: 9809 91be ea00 583e 0e61 30be ba09 333d
00000250: 5fd6 543e abf3 a03e a54c 483e 8d21 0bbe
00000260: d36d 9f3e 60b8 37bd 023e ca3d dd83 0a3e
00000270: 3fa5 21be 3789 b1bd 4502 c33e 8922 2cbf
00000280: 3c67 143e 8349 d03d 3f96 8c3e af02 3e3d
00000290: 8f35 81be 0f14 6b3d aeb9 b63e 41ba 5cbe
000002a0: ac15 ac3d 8b57 5bbd 918c 72be d971 483d
000002b0: 252f a33e 3682 66bc 9abc 57b9 7114 243d
000002c0: 5a76 b8be a21e 53be 1bf0 dfbd f46f 923d
000002d0: b5f3 993c 8a4d b7bd 2443 2b3d 247b a13e
000002e0: 168b b13e 5aad eebd 7fdb a0b9 19f6 633d
000002f0: cc5a babd 78ec af3d e171 d93e 359e f2bd
00000300: 9523 6c3d 2aea 813e bf1f 963e 133b 543d
00000310: 9c4a 11bc 6b69 ba3e c490 193e 9ec4 8ebd
00000320: 4464 0dbf 6380 843e 6909 3f3d f5ba 4ebe
00000330: 1501 1cbd c627 9bbb 00de 9fbe ffca adbe
00000340: 2c5a f5be 5379 543e 77e5 d7bd d2ee 543d
00000350: 074e ae3e c1e9 f33e ee14 03be 70c0 1abd
00000360: 1657 d23e a0de 463e 9718 673e b1bf 983c
00000370: c56d e4bd 8366 b5bc 49bb 94bc f9e8 953e
00000380: 4d43 4b3e 5e12 bebe c4b5 fe3d 40a7 97bd
00000390: d790 95bd a2bf 5e3e 716c ddbe 9bfc b8be
000003a0: 2ab2 df3d 6196 e8bd 86f7 3bbe a1c0 64bd
000003b0: f0ce 823e df2b 113e 0f2d 6f3e 1180 7e3e
000003c0: 5228 13be 4e31 523d b10d a63e 92b8 0d3e
000003d0: 71ec 8a3e 2180 99bd b1bb 3abe 1ac0 5abe
000003e0: a2ce d13e 758e 8d3d f213 c23e 345a 25be
000003f0: 6a0e f3bd 3300 253d 9ad1 243c 6f9a 9c3e
-0.025661018 -0.30254802 0.26417235 -0.42392838 -0.05231542 0.3097547 0.17448631 -0.052402325
-0.26441303 -0.4492181 0.08196841 0.12422962 -0.22522432 -0.2951898 -0.30527973 0.12097404
0.07269991 -0.13351068 0.2524049 -0.14407767 -0.28925604 -0.08852794 0.35148957 0.30811778
0.0019594706 0.341857 -0.05482922 0.03978027 0.078855924 0.498094 -0.15828452 -0.12177508
0.09934123 -0.09162258 0.19960655 -0.18354619 -0.08708171 -0.053932447 -0.024909541 0.2928783
0.19225985 0.07935943 0.124971636 0.45418206 -0.17499042 -0.07625654 0.12059988 -0.13694008
0.22122012 -0.0886952 0.31531432 0.3261149 0.034058798 0.122935966 0.19976112 0.47955367
-0.22960386 0.21118897 0.039741904 -0.06952397 -0.10100164 -0.23645356 0.28453892 0.09805628
-0.012419471 -0.085282 0.058711518 -0.30206996 0.09464765 -0.2994911 -0.25680792 0.003171064
-0.3450986 -0.119413115 -0.13561581 -0.3567428 0.028890977 -0.011014979 -0.22620806 0.060815096
0.34844586 0.16392682 -0.20212707 0.14338778 -0.007678367 0.17297648 -0.16868141 0.30117354
-0.055250693 -0.055880316 -0.13379206 -0.48365763 -0.34153724 0.10152374 0.26866746 -0.19818778
0.15882409 -0.09765068 0.19338961 0.20481686 0.16279088 -0.3235231 -0.017488765 0.02014894
0.24741273 -0.30627084 0.23725149 0.12954187 -0.23970902 -0.05955497 0.0016154461 -0.009001788
-0.21171464 0.050508205 -0.25692132 0.060061637 0.14884055 -0.1972764 0.01692853 0.038709916
0.47907814 -0.013549444 0.120648876 -0.15218346 -0.023796434 -0.21163918 -0.31321886 -0.21160522
-0.025249764 -0.29289588 -0.115758084 0.08949693 -0.23898984 -0.118559085 -0.10421238 0.09906853
-0.19898179 0.1683061 0.022582738 -0.09969807 0.06896482 0.31261668 -0.09276489 0.050584484
-0.28327632 0.21094099 -0.17224523 0.043710448 0.20784901 0.31435904 0.19560488 -0.13587017
0.31138477 -0.044853568 0.09875108 0.13526864 -0.15785693 -0.0866875 0.3808767 -0.67240196
0.14492506 0.10170271 0.2745838 0.046389278 -0.25236174 0.057392176 0.35688537 -0.21555425
0.08402571 -0.053550284 -0.23686434 0.0489367 0.31871906 -0.014069131 -0.00020574257 0.040058557
-0.36027795 -0.20617154 -0.10934468 0.071502596 0.018792966 -0.08950336 0.041812077 0.3153926
0.34676427 -0.11654158 -0.00030681115 0.05565462 -0.090993494 0.08590025 0.42469695 -0.11846582
0.05765112 0.25373966 0.29321095 0.05181415 -0.008867886 0.36408553 0.1499663 -0.069710955
-0.5523112 0.258792 0.046639834 -0.20188506 -0.03808697 -0.004734966 -0.3122406 -0.33943936
-0.47920358 0.20749407 -0.10541814 0.05198557 0.34043905 0.47639278 -0.12800953 -0.03778118
0.41082066 0.19420862 0.22567974 0.018646093 -0.111537494 -0.022143608 -0.01815571 0.29279307
0.19849892 -0.37123388 0.12437013 -0.07404947 -0.07303017 0.2175279 -0.43246797 -0.36130223
0.10922654 -0.113568075 -0.18356141 -0.055847768 0.25548506 0.14176892 0.23357032 0.24853541
-0.1437085 0.051316552 0.3243232 0.13839939 0.27133515 -0.07495142 -0.18235661 -0.21362343
0.4097796 0.06911937 0.37905842 -0.16147691 -0.11867984 0.040283393 0.0100597385 0.30586573

actor.0.bias f4 [64]
00000000: 8d7a cebc 2414 943d 4c3c 2dbc 41a2 d5bc
00000010: 51b4 fd3d 4a38 f13c de20 b8bc 48ae 823c
00000020: 11df 4bbd a072 8cbd b69c fa3d d2b9 2bbe
00000030: f3ec b93d e8f8 b03d 8e74 013d 5986 843d
00000040: ee1e 2b3e 7485 63bd 8c97 bebd d23d 803d
00000050: 6771 483e 7c47 8dbd e3d1 1bbe ba82 70bb
00000060: 72a8 ae3d 9a37 0bbd 8d37 5c3d f42a 7ebd
00000070: 73df 233c a1e9 f43d 210f b23d 935a b13a
00000080: bac0 bf3d 41b2 183d eee9 40bd fbfe 893d
00000090: 5f3c 7a3c ea31 413d 7401 a83c cba9 b13d
000000a0: d5d0 233d 05a5 3ebe 6a39 923d 2755 b63d
000000b0: 3c45 42bd 94f4 363d 1e29 27bc a178 70bd
000000c0: 1f11 073d f968 9b3d f78f aebd bfa7 08be
000000d0: 02ca ee3c 2b06 04bd 5b45 1dbd 2978 7cbc
000000e0: 91ff 933b b4e6 0abe 0a44 ae3d 4c3f b43d
000000f0: 1a51 ec3d 7717 843d bfb2 823d 9ff5 edbd
-0.025204921 0.07230404 -0.010573458 -0.026078345 0.12387908 0.029445786 -0.02247661 0.015952244
-0.04977328 -0.068578005 0.122369215 -0.16770104 0.090783976 0.08641225 0.031605296 0.06470937
0.16711017 -0.055547193 -0.09306249 0.06261791 0.1957451 -0.068984 -0.15216784 -0.0036699013
0.08528222 -0.033988573 0.053763915 -0.062052682 0.010002005 0.11958624 0.08694292 0.0013531022
0.093629315 0.03727937 -0.047098093 0.06738087 0.015273183 0.047166742 0.020508505 0.086749636
0.03999408 -0.18617637 0.07139857 0.0890296 -0.04742931 0.04466684 -0.010202674 -0.05870879
0.032975312 0.07588381 -0.08523553 -0.1334524 0.02914906 -0.032232445 -0.03839622 -0.015409508
0.00451655 -0.13564569 0.08509071 0.088011354 0.115389064 0.06449788 0.06381749 -0.11619114

actor.2.weight f4 [5, 64]
00000000: 6074 f6bd 88e9 a83e 4cd0 05bd 6fa4 cfbd
00000010: e1b7 d13d 485c 5d3e 7c18 223c 2b4a 08bc
00000020: cfb4 ec3d 60bb 953e bcc0 48be bcef 89be
00000030: 6ff7 05bd 2f4a 683e 68cd b1bd f281 683c
00000040: 1e1b 09be afb7 6bbe d031 f9bd 7659 8e3e
00000050: 5998 323e 23d3 6c3e 7673 b53e beb1 8e3e
00000060: be08 7ebe 55f2 14bc c1a0 95bd 64ac 08bf
00000070: 1f82 f7be b1da 3fbd e49e ba3d 946b 16be
00000080: acb5 413d ef3b 94be 30ac 87be ea3e 083e
00000090: e878 243e 581f 9dbd 4311 4b3e f91f b5be
000000a0: 6cf0 b93e 9a81 a4be 712b 8c3d e758 66be
000000b0: b055 03be 7dca 8c3e a0f0 5fbe 1e0d aa3e
000000c0: 5d2b 983d c116 2e3d 20f0 8bbd 1dbd 873c
000000d0: 01da a9be 36e3 86be a87b f9be caf4 553e
000000e0: 2a57 5f3e b324 33be c91d f03d d660 dabd
000000f0: 2eb7 ad3c 7251 60bd 287c 603d 289e 563e
00000100: 1056 8a3e a90d e73d 3b57 b0bd 602f 1abe
00000110: de90 b43d 881b 9c3e d31c 723e 28d6 173e
00000120: a1c8 1e3e a7f3 8c3d 7c32 a43e 9e68 0dbd
00000130: 629f a43e 6609 4b3e a77f 7b3d 6941 d73d
00000140: c21d 993d 0c9e c0be 9137 9ebe ae2d 9abd
00000150: ad39 533d afc2 85bd 154d ffbe b338 5e3e
00000160: c972 203e 8268 813e 276a e63e eef7 8cbd
00000170: 730b 9d3e 0090 cc3d 34af 903e ead9 19be
00000180: 1d37 c33e cfa4 85bc b61f 5dbc c8d5 c1bd
00000190: c0d6 0d3e 9ef8 c43c 9e89 a93e c5cc 043e
000001a0: b25e 15bc 02e1 47bd ed03 453e 406d 173d
000001b0: 6acd b8bc 68bd 8c3e 1ac9 64be 91ba 88be
000001c0: 0559 2bbd 0d2b a43e c1a5 97be bf7c 77be
000001d0: 6a9f 1eba fefa 95bd b0d0 febd 0ae2 003e
000001e0: f808 eabd e7c2 bfbe e2d6 603e 2c59 6c3e
000001f0: 62fa 6c3e 9741 533e 243b a63e 799c 64be
00000200: 2ce3 0bbe 91ed 9abe a886 32be 91fd 06be
00000210: 129e 013b f474 d7bd a6ab 93ba 84e7 d83d
00000220: d0fb fdbd dbce 633e 8837 90be df24 c73d
00000230: 7ee1 113d c014 70bd ded3 22be 702d a83d
00000240: 90f2 28bd 7887 a7be 5818 0cbe 9898 ad3e
00000250: 66b2 c53d cf67 a63c 2af9 b3bd 5911 99be
00000260: 894e 113e df15 d2be ba7c b23e e65d 1b3e
00000270: d1d8 1c3c 9f3f 71bd be17 b73e de50 7dbe
00000280: dc6f 9c3e 9809 393c 4777 1fbe d931 e0bd
00000290: 1ba4 a2bd 65e9 b63e 172b ee3c 32f1 5fbe
000002a0: bb20 cfbd e9f9 68bc f2ac 3abe 4438 7ebd
000002b0: 68af c2be eb02 c2be 0569 963e 2153 e93d
000002c0: 7af7 ef3e 44fd 4a3e bc4d 09be 36d7 f03d
000002d0: f913 d9be 2e47 21bd da0e eb3d cdeb e83e
000002e0: aa37 b33e 81ff 73bd 7e07 233e 4c8a 383e
000002f0: a8aa 86bd c3fc fb3c f3e8 db3d 8361 02be
00000300: d706 373e 6a34 6cbe 4703 0abe c7a3 d73c
00000310: 5874 47be 8cf4 3cbc e29b 893d faec e8bc
00000320: ed44 e0bd d194 05be e376 f5bd 4be5 653e
00000330: a3aa 6bbe 3284 92be 06aa 3e3f 1e7d 03be
00000340: e124 f23c 5e60 45be 174e a23e a93c c03e
00000350: 9e17 aabd 0c71 fa3b 6f3d 1e3f 978d 293e
00000360: e8f7 c3bd bcdb 6ebe c616 00be 5605 15be
00000370: 1e43 033f 1e49 893e e5d2 20be 19af 823e
00000380: 7ad9 663e 5e32 5e3e b480 ec3e cf49 9abd
00000390: 5f82 833e 0408 f6ba 285d 0bbd d642 883e
000003a0: 7406 003c f895 26be 961c aa3e 6d16 4abe
000003b0: 27a5 673e 2015 48be 8bab b2be 1a92 243e
000003c0: 9051 b3be 6577 3a3d 1d52 d93d 0cc4 f63d
000003d0: dfa6 22be 0df5 c13e c4cc 753e 4c66 85bd
000003e0: bd48 37be 1f07 773e 50c3 2fbb fea4 44be
000003f0: 95e9 36be ab05 e3be c3a9 04be e4fd 9abe
-0.120339155 0.3299067 -0.03266935 -0.10138785 0.1024015 0.21617234 0.009893533 -0.008318464
0.11557924 0.29244518 -0.19604772 -0.26940715 -0.032706674 0.22684549 -0.08681756 0.014191138
-0.1338925 -0.23019288 -0.12167704 0.27802628 0.17440929 0.23127417 0.35439652 0.27869982
-0.24808022 -0.00909098 -0.07306052 -0.5338805 -0.48341462 -0.04683942 0.09112337 -0.14689475
0.047292396 -0.28951976 -0.26498556 0.1330525 0.16061747 -0.07671994 0.19830804 -0.35375956
0.3631624 -0.32130128 0.06844223 -0.22494851 -0.12825656 0.27498236 -0.21869135 0.33213133
0.07430146 0.04250217 -0.068329096 0.016569668 -0.33174136 -0.26345223 -0.48727155 0.20894161
0.21810594 -0.17494468 0.11724431 -0.10663001 0.021205511 -0.054765172 0.054805905 0.2095877
0.27018785 0.11281902 -0.08610388 -0.15057135 0.08816694 0.30489755 0.23643808 0.14827788
0.15506221 0.068824105 0.32069767 -0.0345236 0.3215285 0.19827804 0.061401036 0.10510523
0.07476379 -0.3762058 -0.3090177 -0.07528244 0.051568676 -0.065312736 -0.49863496 0.21701317
0.15668787 0.25275046 0.45002863 -0.06883226 0.30672798 0.09988403 0.2825867 -0.15024534
0.38127986 -0.016313938 -0.01349633 -0.09464604 0.13851452 0.024044331 0.33112806 0.12968738
-0.009116815 -0.04879857 0.19239779 0.036969423 -0.022558887 0.27488256 -0.22342339 -0.2670484
-0.041832943 0.32064095 -0.29618648 -0.2416868 -0.0006050976 -0.073232636 -0.12442148 0.12586227
-0.11427492 -0.37453386 0.21956971 0.23080891 0.23142388 0.2063049 0.32466996 -0.22325315
-0.13660878 -0.30259374 -0.1743418 -0.13182665 0.0019778055 -0.10520354 -0.0011266365 0.10591033
-0.12401545 0.22246878 -0.28167367 0.097238295 0.035615437 -0.05861354 -0.15901133 0.082117915
-0.04124695 -0.32720542 -0.13681161 0.33905482 0.096531674 0.020313172 -0.08787759 -0.29896048
0.14190115 -0.4103231 0.34860784 0.15172538 0.009573177 -0.058898564 0.357603 -0.2473788
0.30554092 0.011293791 -0.15572844 -0.10947008 -0.07941457 0.3572494 0.029073281 -0.21869352
-0.10113665 -0.0142197395 -0.18230036 -0.062065378 -0.3802445 -0.3789285 0.29377 0.11392809
0.46868497 0.19823176 -0.1340856 0.11759798 -0.4239805 -0.039374523 0.11477442 0.45492402
0.35003406 -0.05956984 0.15920827 0.18021506 -0.06575519 0.030760175 0.10737791 -0.1273251
0.17873703 -0.2306687 -0.13477813 0.026323212 -0.19477975 -0.011532914 0.067191854 -0.028433312
-0.109506465 -0.1304505 -0.119855665 0.2245075 -0.23014311 -0.28616482 0.74478185 -0.12840697
0.0295586 -0.19275042 0.31700203 0.3754628 -0.08305286 0.007642871 0.6181249 0.16557918
-0.09568769 -0.2332601 -0.12508687 -0.14552817 0.5127429 0.26813596 -0.1570545 0.25524214
0.22543898 0.21698901 0.46191943 -0.07533609 0.25685403 -0.0018770699 -0.034024388 0.26613492
0.007814039 -0.16268146 0.33224934 -0.19735117 0.22621594 -0.19539309 -0.34896502 0.16071358
-0.35023165 0.04552402 0.10611365 0.12049112 -0.15883969 0.3788227 0.24003893 -0.06513652
-0.17898841 0.2412381 -0.0026819296 -0.19203565 -0.17862542 -0.44340262 -0.12955384 -0.30271828

actor.2.bias f4 [5]
00000000: 221e 533d a3f4 953d d3e3 af3c 4fcc f6bd
00000010: 6f1a 15be
0.05154241 0.073220514 0.02147094 -0.120506875 -0.14560865

critic.0.weight f4 [64, 4]
00000000: 6807 aebe ca9b c43d 5684 99bc 5854 1bbe
00000010: 3a5c 8bbb 0605 83bb cab2 debe ce2a 58be
00000020: 83ea b13c 6e34 9b3e 312c ad3d 8957 72be
00000030: 28c4 62be f8e5 63be 28d5 fbbc 67d8 99bd
00000040: 041e c33e 20f9 8c3c c71e 1f3e e4d0 6b3d
00000050: 45ac 87be 45fb c13e 2166 573d b6a1 e4be
00000060: 0bdd 613e fda7 213d 52e7 acbd dcb2 7a3e
00000070: 7b80 cc3e 2b05 dd3d 695b c8bd 24d7 823e
00000080: 3a5a acbe 58a3 f23d 04fb d73e 845c 6fbe
00000090: 654d 42be eda8 c2be dbd4 12be 2835 81bd
000000a0: 6d2f 67be 6c18 31bd f3a0 763e 5396 afbe
000000b0: 9f33 f3bd f6fa 70bd eac7 9abd 7dfa 873d
000000c0: 29ca ea3d 7b97 89be 6008 fa3c a245 29be
000000d0: a3fe f1bd eec3 46be ac46 21be d19c e4be
000000e0: 7455 673e 120f 773e effc e4bd d7c1 9f3e
000000f0: 75ab d03b 9d8c 51be a011 c93d 5056 70be
00000100: b77e 63be 36c0 0f3e 967e 98be d29f 74be
00000110: dd04 35be de25 12be 7f34 a03e c55b d43d
00000120: 4370 f93e a4c6 c43e 6031 b5bd 1bf7 18bd
00000130: c449 74be fbf2 7fbe c7a3 2bbe 4f4a cf3d
00000140: ce45 033e ae67 f13d fb26 c9bc 5ec9 8ebb
00000150: 4ca5 39be be0f 8cbd d149 a4be 0c7a 52be
00000160: d697 d7bc aee6 bc3e f530 5d3e 29c9 65be
00000170: f75f 3ebe b958 10be c199 923c 690e 353e
00000180: e293 08be 772f 07be f6f5 9dbd 66b1 31bc
00000190: b840 29be 2036 e7bd c138 98bd aa31 90bd
000001a0: c087 013f 560a 5abe 62f3 5e3e 4bf9 eebd
000001b0: 100e dcbd 05de 4cbd 5c52 083e c222 f23b
000001c0: 1f21 073e 5c22 633e 67d3 f83d 4b47 703e
000001d0: 56b2 52bd 2817 d5be 6c8e 993e 66dd 8fbe
000001e0: 240e f13d a34c efbd 7614 9b3e 9825 f6be
000001f0: 3a49 8a3d fd83 1bbe 6855 8ebe dc89 babd
00000200: c4f7 ba3e 3a0b cdbd ab79 48be 9d68 233e
00000210: 4fff 663e f61d 23be 4c18 143e 1af0 8a3e
00000220: 583c 16be 26be 7f3e 83c9 c23c 2938 1c3e
00000230: 1d38 1d3e 82d5 513e 7a30 57bd 207a 9ebe
00000240: 698a ce3e 1452 613e 6552 363d 648b 36be
00000250: c1c8 b13d 884f dabe e329 a03e 5627 543d
00000260: 45ae 11be abc8 063d f5dc 8fbe 1415 56bd
00000270: 90a1 6f3e 2a59 24be 3340 68be 5fca a5be
00000280: 3c4e 42be 85e4 12be a35f dfbc e723 ee3e
00000290: 7eb6 9c3e c4f5 8ebe 2de5 c5bc 3a29 7dbd
000002a0: bd82 7f3e 51af 46be 6f55 02be 3b31 8f3e
000002b0: 9c50 a93e 10ec 0abe 2eaf aa3d 27d6 83bd
000002c0: a4e6 a0be 5232 c73d 8bf5 a93d 47bc cebd
000002d0: 5939 253e c861 663d 46f7 9cbd f53e 943d
000002e0: de3d 3d3e b682 333e 3f17 3dbe d4d7 8a3e
000002f0: b15d 353e f26b 493d c637 923e a581 7cbd
00000300: 86f1 ebbc e788 87be ea02 3a3d 3c0f 74be
00000310: f5b8 043f 61c8 c6be 008d 3f3d 6dcd 043d
00000320: 9cb9 c33e d57b 9abd 98b1 b43c b453 ee3d
00000330: e2ac d73e 173d f03e b319 383e f8f1 573e
00000340: dacb 283d 8daa bb3d 4865 6c3d 0b02 c4be
00000350: 2136 253e 220c f43c 2cc8 a6bd d236 203e
00000360: b691 97be c310 a6bd bac8 60bd e7bc 06bc
00000370: c30e 633d eea8 033e 4f3e f73d 3ec3 d93d
00000380: 89da d3bd cb07 173e 0e55 253e ed82 94be
00000390: 43a2 913d 72ed 963d 7740 4f3e 27d1 043c
000003a0: 4693 1c3e 958f fb3d 5729 663e 1de9 30be
000003b0: 22fe a9bc a464 c03d a202 e1bc 6598 e3be
000003c0: d5b3 9ebe e38c 4ebd 2fd2 263d deb1 4d3d
000003d0: bdb2 073e 4664 863c 1da9 293d 0966 5cbc
000003e0: cc51 b23d ebbf 9f3c 0287 e03e 554f 903e
000003f0: 97b5 c43c 6e44 87be 1839 243e 2587 7e3c
-0.33990026 0.09600027 -0.01873986 -0.15168893 -0.0042529376 -0.0039984016 -0.4349578 -0.21110079
0.02171827 0.30313438 0.084556945 -0.23666205 -0.2214514 -0.22255695 -0.03074129 -0.075119786
0.38108838 0.017208636 0.15539084 0.05757226 -0.2649862 0.37887016 0.052587632 -0.44654626
0.22056977 0.039466847 -0.08442558 0.24482292 0.39941773 0.10792001 -0.0978306 0.25554764
-0.33662587 0.118475616 0.42183697 -0.23375136 -0.18974836 -0.38019505 -0.1433901 -0.06308967
-0.22576685 -0.04323618 0.24084835 -0.34294376 -0.1187508 -0.058833085 -0.07557662 0.06639574
0.1146434 -0.26873383 0.030521572 -0.16530469 -0.11816146 -0.19410679 -0.15749615 -0.4465089
0.22591192 0.24126843 -0.11181056 0.31202576 0.0063680955 -0.20463796 0.09817815 -0.23470426
-0.22216307 0.14038166 -0.29784077 -0.23889092 -0.17677636 -0.14272258 0.3129005 0.10369066
0.4871846 0.384328 -0.08847308 -0.037345033 -0.23856264 -0.24995033 -0.16761695 0.10121595
0.12819597 0.117873535 -0.02455472 -0.004357501 -0.18129462 -0.0683894 -0.32087567 -0.2055437
-0.026317518 0.36894745 0.21600707 -0.22440018 -0.18591295 -0.14096345 0.017895581 0.17681278
-0.13337663 -0.132017 -0.07712929 -0.010845518 -0.16528594 -0.112896204 -0.074327 -0.07040723
0.50597763 -0.21293005 0.2177253 -0.116686426 -0.1074487 -0.05001642 0.13312668 0.0073893974
0.13196228 0.22181076 0.12149697 0.23464696 -0.051439606 -0.4161923 0.29991472 -0.280986
0.11770275 -0.11684539 0.30289048 -0.48075557 0.06752248 -0.15187068 -0.27799535 -0.09108326
0.36517155 -0.10011907 -0.19577663 0.15957876 0.2255833 -0.15929398 0.14462394 0.27136308
-0.14671457 0.2497488 0.023777729 0.15255798 0.15353437 0.20491603 -0.052536465 -0.3095255
0.40339974 0.22003967 0.04451217 -0.17826611 0.08680869 -0.42638803 0.31281957 0.051795326
-0.14226635 0.032906216 -0.28098264 -0.052266195 0.23401475 -0.16049638 -0.2268074 -0.3238096
-0.18975157 -0.14344986 -0.027267283 0.46511766 0.3060798 -0.2792188 -0.024157131 -0.061806895
0.24952216 -0.19402815 -0.12727903 0.27967247 0.33069313 -0.13566613 0.08334194 -0.06437331
-0.31425965 0.09726395 0.08298787 -0.10094505 0.16135158 0.056245595 -0.07664351 0.072385706
0.18480632 0.17530331 -0.18465899 0.2711779 0.17711522 0.04917521 0.28558177 -0.061647076
-0.02880169 -0.26471636 0.045412935 -0.23833936 0.5184472 -0.38824752 0.046765327 0.03242247
0.38227546 -0.0754315 0.02205734 0.11637059 0.42124087 0.46921608 0.17978553 0.21088398
0.041210033 0.09163389 0.057713777 -0.3828281 0.1613393 0.029790942 -0.081436485 0.15645912
-0.29603356 -0.08108666 -0.054878928 -0.008223749 0.055434 0.1285741 0.12072431 0.106329426
-0.10344417 0.14749067 0.16145727 -0.29006138 0.07111027 0.07369508 0.20239435 0.008106506
0.15290555 0.122832455 0.22476707 -0.17276426 -0.020751063 0.09394196 -0.027467076 -0.44452205
-0.30996576 -0.05042733 0.04072779 0.050218455 0.13251777 0.016405236 0.041421045 -0.013452061
0.08707008 0.019500693 0.43853003 0.28185526 0.02401237 -0.26419395 0.16037405 0.015535151

critic.0.bias f4 [64]
00000000: dd64 9bbe b832 33bd e8e9 c73b cd07 e9bb
00000010: deec b33c e60c ba3c d91c 3f3e c996 a43e
00000020: 34f6 8fbd c13e 06bc 5fe6 ecbd 54ca 9fbc
00000030: a127 f53c f880 f63c 4f27 623e aedb 16bc
00000040: 5b5b 36bc 44cd 4fbd 1584 153e fece 083d
00000050: f8ea 683d fb1b 66bc e327 9bbc 539f dbbc
00000060: 41fd 85bc 0512 2fbc 41c3 fa3c 06a9 b6bc
00000070: df1d bd3c 42fc c0bc b7b0 573c 96bf 963d
00000080: 5eea 603c ba36 873c 534c a8bc fb39 1e3d
00000090: 2413 3c3d 7087 823c ecda 4dbc 57d4 bc3c
000000a0: d525 153d 756d ce3c f2b0 b33c 0f82 803d
000000b0: 0a7c a5bc f4ba c03c 657b bf3c a6e0 db3c
000000c0: bfc6 153d 00ce a0bb 3c7b a7ba a7af fbbb
000000d0: 545c d43b c943 763d 3013 59bc 002a 043d
000000e0: c2cb b7bc 9a34 933c ad8a 0abd 36c1 56bd
000000f0: e74c 13bd b674 c03c f1ba 0f3d 42da b1bc
-0.3035039 -0.04374954 0.006100882 -0.0071115256 0.021963533 0.022711229 0.18663348 0.3214629
-0.070293814 -0.008193673 -0.11567377 -0.019505657 0.029926123 0.030090794 0.22085308 -0.009207649
-0.011130179 -0.050732866 0.14601167 0.033400528 0.05686471 -0.014044757 -0.018939918 -0.02680937
-0.016356112 -0.010685449 0.030610682 -0.022297394 0.023085533 -0.023557786 0.013164691 0.07360761
0.0137277525 0.016505588 -0.020544207 0.038629513 0.04591669 0.015933722 -0.012564402 0.02305047
0.036413033 0.025198678 0.02193496 0.06274807 -0.020200748 0.023526646 0.023374269 0.02684052
0.036566492 -0.0049073696 -0.0012777816 -0.0076808515 0.006480733 0.06012324 -0.013249204 0.032266617
-0.022436026 0.017969418 -0.033823658 -0.052430354 -0.03596201 0.023493152 0.03509039 -0.021710519

critic.2.weight f4 [1, 64]
00000000: b3ea 1abc e2e4 df3a 96e1 25be 4934 653e
00000010: ebf7 0fbd 29c5 82be 581c 9f3d 39e2 3e3e
00000020: 3992 ce3c 0344 543e 7b6a 0cbe 05a0 803e
00000030: b4ce e63e 4073 5bbd a569 1a3d dd36 bebc
00000040: 3e56 243e 5e93 123f bc17 713d 5665 10bf
00000050: f866 653e 833e 1ebd 8f70 08be 3515 bf3d
00000060: b54c 223e ba1c 1b3e 0927 e5be b1ec 633e
00000070: 1f42 94be de3b e9bd a656 273e 774d 60be
00000080: 4823 1bbe 3430 263d 3e73 7c3e 0b99 93be
00000090: 6dcb 6cbc 9972 25be cbef 2b3e b35a b5bd
000000a0: 8ff0 d8be ffcd 8bbe c647 27bd 8708 873e
000000b0: 1b1b 363d 645f 513e 1c8f a5bd 5d35 bbbd
000000c0: c770 9fbe b51b cd3d e31a 4e3e 6e82 ccbd
000000d0: 5bff 45bd 01c9 ad3d 5495 c33e 1a9f ea3b
000000e0: 942d 013e f363 46bd 7b76 d13d 4cc2 2b3e
000000f0: b06d 15be 8a47 d0bd ba92 6cbe 5025 b33d
-0.009455371 0.0017081762 -0.16199335 0.22383226 -0.035148542 -0.25541046 0.07769078 0.18640985
0.025216209 0.2072907 -0.13712494 0.25122085 0.45079577 -0.053576708 0.037698407 -0.02321952
0.16048524 0.57256114 0.058860525 -0.56404626 0.2240256 -0.038633835 -0.13324188 0.09330217
0.15849574 0.15147677 -0.44756344 0.2225826 -0.28956696 -0.11388372 0.16341648 -0.2190455
-0.15150177 0.040573314 0.24653336 -0.288277 -0.014452797 -0.16156997 0.16790693 -0.0885519
-0.42371032 -0.273056 -0.040839933 0.26373693 0.044459444 0.20446545 -0.080839366 -0.091410376
-0.3114073 0.1001505 0.20127444 -0.09985815 -0.04833923 0.08485604 0.38199866 0.0071600797
0.12615043 -0.048435163 0.102276765 0.16773337 -0.14592624 -0.10169895 -0.23102847 0.08747351
