outputs/centerSquare_1a_PPO_wprior/best_status.pt (torch, 15773 bytes, 21 tensors)

actor.0.weight f4 [64, 2]
0.08642459 -0.07642733 0.1010082 -0.0713187 0.8620754 -0.4184785 -0.06853909 -0.35100374
0.38023797 0.08286201 -0.08049683 0.08085367 0.3461568 0.058042496 0.41572338 -0.91336983
-0.075273804 -0.3696977 0.10089562 -0.071435936 0.08203429 -0.07952635 -0.09054652 0.0746561
0.08028554 0.37004182 0.08660639 -0.07666299 -0.075219885 0.08698518 0.3417268 0.05836319
0.35730985 0.06657019 0.35813695 0.06900504 0.97843695 -0.4496525 0.09683287 0.3921011
0.39100045 0.07906092 0.37541434 0.072992675 0.07712351 0.37191585 -0.08940237 0.07508996
-0.0685731 0.09996622 0.08383753 0.3816604 0.38820395 0.09060736 -0.3851933 -0.081512876
0.35395476 0.065754786 -0.071441725 0.09331711 0.09448343 0.3907166 0.07296012 0.35837772
0.08838395 -0.07565427 0.077655464 -0.08366427 -0.38784638 -0.074854605 0.34552535 0.060837176
0.0897868 -0.07484109 0.07339165 -0.08949919 -0.0806989 -0.36994788 0.075748414 0.36426014
-0.3460971 -0.061165906 -0.07045822 0.095720716 -0.077834316 0.083618 -0.3671873 -0.07572483
-0.08383798 0.07820383 0.386101 0.08817431 0.08166037 -0.07986899 0.0716367 -0.09246749
0.07590217 0.36362934 -0.07120044 0.09305992 0.07297343 -0.089995116 -0.07965308 0.08165319
-0.40733278 -0.077954985 -0.09747126 0.07208166 -0.4337908 0.9583313 0.82782173 -0.3904152
-0.41373086 0.9095482 0.3772916 0.074928954 0.0782025 0.36865994 0.3881015 0.07961812
0.36852962 0.075415194 0.091813035 0.3854486 -0.42878 -0.084583044 -0.11185361 -0.7966845
00000000: 60ff b03d ef85 9cbd 63dd ce3d 8a0f 92bd
00000010: f9b0 5c3f d042 d6be 395e 8cbd c3b6 b3be
00000020: 8dae c23e 8fb3 a93d 86db a4bd 9c96 a53d
00000030: 773b b13e f8bd 6d3d b2d9 d43e 9bd2 69bf
00000040: 2729 9abd 0449 bdbe 5da2 ce3d 014d 92bd
00000050: 9801 a83d b6de a2bd 7470 b9bd 4ce5 983d
00000060: bf6c a43d 1f76 bd3e b15e b13d 7c01 9dbd
00000070: e20c 9abd 4925 b23d d1f6 ae3e 3e0e 6f3d
00000080: 51f1 b63e f455 883d ba5d b73e 8452 8d3d
00000090: d87a 7a3f da38 e6be 5050 c63d 7ac1 c83e
000000a0: 3631 c83e b1ea a13d 4f36 c03e 2f7d 953d
000000b0: eef2 9d3d c16b be3e 9718 b7bd c4c8 993d
000000c0: 0e70 8cbd 17bb cc3d 03b3 ab3d fe68 c33e
000000d0: abc2 c63e 5a90 b93d 0e38 c5be 39f0 a6bd
000000e0: 8f39 b53e 72aa 863d 0a50 92bd 0a1d bf3d
000000f0: 8780 c13d 020c c83e 1e6c 953d 497d b73e
00000100: a502 b53d a0f0 9abd d409 9f3d 2c58 abbd
00000110: cd93 c6be 5f4d 99bd b3e8 b03e 6730 793d
00000120: 24e2 b73d 4946 99bd 5d4e 963d 5a4b b7bd
00000130: 7745 a5bd cf69 bdbe fc21 9b3d 4e80 ba3e
00000140: a433 b1be 1a89 7abd 664c 90bd 3909 c43d
00000150: 9967 9fbd ea3f ab3d f9ff bbbe 9f15 9bbd
00000160: 3fb3 abbd 5429 a03d 08af c53e bc94 b43d
00000170: 8d3d a73d 5a92 a3bd 43b6 923d 985f bdbd
00000180: 9972 9b3d a02d ba3e 89d1 91bd 3396 be3d
00000190: 1873 953d 5c4f b8bd 2721 a3bd ca39 a73d
000001a0: ec8d d0be dda6 9fbd 039f c7bd 8d9f 933d
000001b0: d419 debe 3355 753f 20ec 533f 80e4 c7be
000001c0: 88d4 d3be 27d8 683f 5d2c c13e 5a74 993d
000001d0: a228 a03d ffc0 bc3e 3db5 c63e d30e a33d
000001e0: eaaf bc3e 4873 9a3d 7908 bc3d 8559 c53e
000001f0: 0d89 dbbe e039 adbd 8113 e5bd 84f3 4bbf

actor.0.bias f4 [64]
-0.121553525 -0.364019 -0.12678735 -0.13543804 -0.2869803 -0.0015011294 0.4881849 0.16334775
-0.0005759601 -0.35526335 -0.032228336 0.18984443 -0.16194224 -0.12068823 -0.13828477 0.37394178
0.08868586 -0.015758736 -0.16240452 -0.46314096 -0.1372229 -0.031138996 -0.04666529 0.1710483
-0.35746074 -0.19415939 -0.45587856 0.22769007 0.1028154 -0.25125274 -0.41273007 0.0027142433
-0.15327412 0.06932686 0.030333282 0.26335275 -0.17932236 0.18835728 0.17826134 -0.048035793
-0.23916362 -0.29414937 -0.06693253 0.22272111 0.069502905 -0.39888322 -0.025886731 0.23880202
-0.062365294 -0.25933382 0.19912456 -0.021358402 0.058645837 0.3126929 -0.09049408 -0.21021435
-0.17589007 -0.078995265 -0.09976344 -0.16344577 -0.15206411 -0.3818458 0.17417714 0.29832047
00000000: 0ef1 f8bd b360 babe 8bd4 01be 45b0 0abe
00000010: 15ef 92be 8bc1 c4ba 5ff3 f93e a244 273e
00000020: 07fc 16ba 14e5 b5be dc01 04bd 9466 423e
00000030: 30d4 25be 642b f7bd 869a 0dbe 4c75 bf3e
00000040: efa0 b53d 7718 81bc 5f4d 26be d020 edbe
00000050: 2984 0cbe 3517 ffbc 1a24 3fbd 4927 2f3e
00000060: 1805 b7be b8d1 46be ea68 e9be 9627 693e
00000070: e190 d23d 33a4 80be 5b51 d3be 72e1 313b
00000080: e4f3 1cbe 3efb 8d3d 817d f83c 2cd6 863e
00000090: 48a0 37be bbe0 403e 248a 363e 2ec1 44bd
000000a0: 4fe7 74be bf9a 96be ec13 89bd 0111 643e
000000b0: 8a57 8e3d 6c3a ccbe 6910 d4bc 8488 743e
000000c0: c072 7fbd 67c7 84be 4fe7 4b3e d1f7 aebc
000000d0: 9e36 703d 4919 a03e f654 b9bd 6e42 57be
000000e0: 871c 34be 45c8 a1bd c650 ccbd 545e 27be
000000f0: b2b6 1bbe 4b81 c3be 7e5b 323e 76bd 983e

actor.2.weight f4 [4, 64]
0.05867111 0.7984297 -0.042204984 0.20987217 0.18776572 0.094899006 -0.8402054 0.027942384
0.7783364 0.29584366 -0.042531945 -0.26706308 -0.114493676 0.3039565 -0.0062215202 -0.5357394
-0.55180585 -0.51666725 0.30630773 0.3751608 0.06700317 -0.4676312 -0.40950516 -0.52619416
0.67292464 -0.15356311 0.25524843 0.10187543 -0.122882076 0.31630734 0.09514356 -0.5864437
0.6719045 -0.21030991 0.37634322 -0.5716287 0.61847275 -0.38958892 0.036752433 -0.16793467
0.67955357 0.28321725 0.122810386 -0.27744696 -0.39512235 0.20280175 -0.07072728 -0.84417135
-0.34949762 0.35699087 -0.4849407 0.0638789 0.25084704 -0.46681342 0.0745454 0.23248702
0.4817339 -0.4595198 -0.067875534 -0.27882695 0.075274296 0.28889692 -0.24898954 0.18628593
0.41802245 -0.0029741025 -0.5866748 -0.3769199 -0.33903965 -0.4569482 -0.047974356 -0.6638851
-0.17856942 0.14791149 0.2249387 -0.12243866 0.70137477 0.49963596 -0.69873875 0.22837968
-0.10761928 -0.17011954 -0.6469598 0.11967293 -0.35680723 -0.2142852 0.4522653 -0.30718428
-0.45830324 0.4675604 -0.79517394 0.46698618 -0.012203557 -0.55184484 0.26100492 0.5882603
0.6556398 0.4283037 0.20656125 -0.095007546 0.57076746 0.72939 -0.5473597 0.5407014
0.13293685 -0.6987948 -0.6836092 0.34655198 -0.4388139 -0.7904657 0.5732607 0.5136297
0.53505653 -0.6545769 0.79616797 -0.5513485 0.237919 -0.20183697 1.1374865 -0.76309115
0.54422843 -0.24695021 0.56044894 -0.40956002 -0.40622184 0.4153961 0.09869793 -0.63420874
-0.4272037 -0.58921814 0.9256995 0.107299685 0.30765313 0.7759133 0.12968142 0.6889673
0.5172756 -0.4949441 -0.8004811 0.74608517 -0.39862686 -0.49935612 0.39693463 0.48351297
0.44087583 0.31943443 0.66417885 -0.7351789 0.68293726 0.5060712 -0.36939442 0.6810356
0.37032256 -0.32002786 0.09140525 -0.7010755 0.43815193 0.400382 -0.8497184 -0.41087985
-0.47483656 -0.45569345 -0.4870628 0.23887756 -0.51355964 -0.3678285 0.7509589 -0.2821369
-0.18981972 0.28641337 0.73923475 -0.37982664 0.5072211 0.24529648 -0.9213635 -0.4853685
-0.43622434 0.22171758 -0.26553658 0.477784 -0.34384915 0.5627379 -0.6273534 0.34633216
-0.5769352 0.4562616 -0.32966042 0.37507537 0.3405912 -0.49356076 -0.76814735 0.560243
0.5109507 0.2654229 0.33488408 0.6356908 -0.025900759 0.049554322 -0.989593 -0.43971175
0.51318145 0.4766754 -0.15717001 -0.0069779535 0.20936435 0.42515308 0.5106601 -0.47103333
-0.4055458 -0.08427593 0.05826676 0.04955816 -0.50473344 -0.2303335 -0.4223462 -0.10346826
0.47784072 0.10562111 0.35824007 -0.15486214 -0.68854433 0.5329994 0.12678672 -0.2978041
0.54089755 -0.1427044 0.4222455 -0.8088309 0.5382328 -0.44654536 0.06376321 -0.3909002
0.55164194 0.8375454 0.36159244 -0.17104606 -0.1376501 0.255745 0.3179745 -0.28951454
-0.25948772 0.77716345 -0.29222816 -0.08762881 0.33896285 -0.84051037 -0.22919996 -0.07576427
0.2116444 -0.14638221 -0.35258546 -0.18591772 -0.43407357 0.30148128 0.052321643 0.077272564
00000000: 1e51 703d e465 4c3f 22df 2cbd bbe8 563e
00000010: a845 403e 695a c23d b317 57bf 6de7 e43c
00000020: 0e41 473f d278 973e fa35 2ebd 7ebc 88be
00000030: a97b eabd 30a0 9b3e e5dd cbbb 3826 09bf
00000040: 2643 0dbf 4e44 04bf 5ed4 9c3e 1415 c03e
00000050: f538 893d 5b6d efbe a9aa d1be a9b4 06bf
00000060: ca44 2c3f a63f 1dbe ecaf 823e 11a4 d03d
00000070: 99a9 fbbd 09f3 a13e a0da c23d 2d21 16bf
00000080: ef01 2c3f 7b5b 57be 0fb0 c03e 4256 12bf
00000090: 3b54 1e3f 3378 c7be b889 163d 11f7 2bbe
000000a0: 39f7 2d3f da01 913e 0384 fb3d 870d 8ebe
000000b0: 7a4d cabe 43ab 4f3e 77d9 90bd 9d1b 58bf
000000c0: 5af1 b2be 82c7 b63e 264a f8be f1d2 823d
000000d0: 066f 803e 2b02 efbe 42ab 983d 1411 6e3e
000000e0: d3a5 f63e 2e46 ebbe 5402 8bbd 68c2 8ebe
000000f0: 6929 9a3d 4cea 933e 1df7 7ebe bdc1 3e3e
00000100: 0a07 d63e 29e9 42bb 5230 16bf a5fb c0be
00000110: 9b96 adbe 1df5 e9be c280 44bd 60f4 29bf
00000120: e7da 36be 1c76 173e 5556 663e 1fc1 fabd
00000130: 4c8d 333f 49d0 ff3e 8be0 32bf 5ddc 693e
00000140: 7f67 dcbd d133 2ebe 289f 25bf 1517 f53d
00000150: 70af b6be 946d 5bbe 518f e73e 4247 9dbe
00000160: b9a6 eabe 1464 ef3e 8590 4bbf d018 ef3e
00000170: 6ef1 47bc b445 0dbf 70a2 853e 3a98 163f
00000180: 03d8 273f 9f4a db3e cb84 533e 5193 c2bd
00000190: d11d 123f 4eb9 3a3f c41f 0cbf 686b 0a3f
000001a0: 9920 083e 37e4 32bf 0301 2fbf 436f b13e
000001b0: 37ac e0be f65b 4abf 37c1 123f 3c7d 033f
000001c0: 77f9 083f 5a92 27bf aad1 4b3f 2d25 0dbf
000001d0: 0aa1 733e 5aae 4ebe 2899 913f f159 43bf
000001e0: 8e52 0b3f 84e0 7cbe 9579 0f3f dab1 d1be
000001f0: 4ffc cfbe ccae d43e 2422 ca3d 815b 22bf
00000200: 72ba dabe 00d7 16bf a4fa 6c3f f0bf db3d
00000210: b684 9d3e 41a2 463f 35cb 043e 2960 303f
00000220: 2c6c 043f 5069 fdbe 54ec 4cbf 70ff 3e3f
00000230: d218 ccbe 9bab ffbe 043b cb3e 038f f73e
00000240: 7aba e13e e98c a33e a007 2a3f af34 3cbf
00000250: fad4 2e3f e28d 013f 4421 bdbe 5958 2e3f
00000260: eb9a bd3e b1da a3be ad32 bb3d af79 33bf
00000270: 7355 e03e dffe cc3e 2587 59bf d85e d2be
00000280: c71d f3be a750 e9be 4c60 f9be 529c 743e
00000290: a578 03bf 0454 bcbe d83e 403f 3f74 90be
000002a0: 1a60 42be c6a4 923e 7d3e 3d3f a378 c2be
000002b0: 3ed9 013f 002f 7b3e 7ade 6bbf 3882 f8be
000002c0: cc58 dfbe ef09 633e 69f4 87be 1ba0 f43e
000002d0: ff0c b0be 970f 103f 3c9a 20bf 7352 b13e
000002e0: 06b2 13bf 1f9b e93e 40c9 a8be e109 c03e
000002f0: f861 ae3e ffb3 fcbe 4ea5 44bf 166c 0f3f
00000300: aacd 023f 83e5 873e ed75 ab3e a2bc 223f
00000310: d42d d4bc 79f9 4a3d f855 7dbf e621 e1be
00000320: dc5f 033f cc0e f43e 2df1 20be 51a7 e4bb
00000330: 9c63 563e aaad d93e 9fba 023f 482b f1be
00000340: b3a3 cfbe dc98 acbd 20a9 6e3d 7ffd 4a3d
00000350: 3636 01bf 8cdc 6bbe c33d d8be 2be7 d3bd
00000360: 8aa7 f43e e14f d83d 3e6b b73e 2e94 1ebe
00000370: 7144 30bf a672 083f 61d4 013e c779 98be
00000380: 4378 0a3f 1a21 12be 9030 d83e 8b0f 4fbf
00000390: a0c9 093f 98a1 e4be 4996 823d 1224 c8be
000003a0: 6838 0d3f 6069 563f a522 b93e b326 2fbe
000003b0: 26f4 0cbe 02f1 823e 8ecd a23e 403b 94be
000003c0: 93db 84be 2ff4 463f ee9e 95be bc76 b3bd
000003d0: 8a8c ad3e b02b 57bf 65b3 6abe 4c2a 9bbd
000003e0: 4fb9 583e 38e5 15be 1586 b4be 3761 3ebe
000003f0: e43e debe c15b 9a3e 384f 563d 1441 9e3d

actor.2.bias f4 [4]
-0.47990173 0.15106171 0.08214384 -0.5095117
00000000: aeb5 f5be ecaf 1a3e 083b a83d 5c6f 02bf

critic.0.weight f4 [64, 2]
-0.34830672 0.23079476 0.14343435 0.15691718 0.13163643 0.16644645 0.06410541 0.20843421
-0.037170496 -0.03323085 0.06435732 0.041365728 0.1148577 0.19197977 0.029809793 0.067072906
0.078155376 0.031233199 0.16534764 0.13528985 -0.014729322 -0.08815032 -0.16130204 -0.12068182
0.044282533 0.06346671 0.10196304 -0.2170189 0.18287344 0.122150354 -0.049477115 -0.055386566
-0.0055245273 -0.08890319 -0.05102884 -0.05239123 -0.23124668 0.06509564 -0.04755349 -0.053710643
-0.019474072 -0.50398594 0.2331909 -0.31434137 0.0044336333 -0.4062619 -0.15731403 0.2706118
0.02601265 0.48982808 0.1840876 -0.080457605 0.028535321 0.066118434 0.12046245 0.008169738
-0.08857363 -0.036736272 0.14498165 -0.2308777 -0.07463751 -0.038977183 0.2456906 -0.14034188
-0.05367303 -0.056426466 -0.11735462 -0.18205886 0.36801368 0.028787585 -0.18789472 -0.09503558
-0.008478538 -0.7972459 0.031438988 0.07038313 0.0066954587 -0.46714604 -0.050706197 -0.21966428
0.25266868 -0.15624218 0.21891157 0.020978417 0.11572491 0.17600428 -0.1550506 0.25976065
0.060926944 0.14674856 0.18740843 0.10845241 -0.11618127 -0.18374002 0.11324704 0.02153337
-0.30754718 -0.6652331 0.019102681 0.7125283 0.11013458 -0.2276587 -0.040913805 -0.05539455
0.6201753 -0.03955942 -0.011795705 -0.536223 -0.17892565 -0.09657163 -0.15382555 -0.14003609
-0.0021032458 -0.099728286 -0.21020143 0.043839622 -0.20478684 -0.015453422 0.17210704 0.00011252833
-0.08078418 -0.03956999 0.121445835 -0.25188857 0.008909794 -0.08778765 0.06449272 0.04680779
00000000: 4255 b2be 7655 6c3e 74e0 123e e6ae 203e
00000010: b3cb 063e f070 2a3e b249 833d c76f 553e
00000020: 1740 18bd 121d 08bd c5cd 833d 1c6f 293d
00000030: 843a eb3d 5896 443e ab33 f43c 855d 893d
00000040: ed0f a03d c4dc ff3c e450 293e 6c89 0a3e
00000050: 4153 71bc 2888 b4bd 5d2c 25be 0828 f7bd
00000060: 9a61 353d d6fa 813d 00d2 d03d 343a 5ebe
00000070: 2d43 3b3e f729 fa3d 84a8 4abd 06dd 62bd
00000080: 1807 b5bb e012 b6bd 9e03 51bd 3098 56bd
00000090: eecb 6cbe dd50 853d 73c7 42bd b1ff 5bbd
000000a0: 1788 9fbc 3905 01bf 98c9 6e3e 5af1 a0be
000000b0: 0348 913b 8f01 d0be ee16 21be a18d 8a3e
000000c0: 7b18 d53c bfca fa3e 7681 3c3e f5c6 a4bd
000000d0: e8c2 e93c 1a69 873d 04b5 f63d 5dda 053c
000000e0: 1766 b5bd c678 16bd 1276 143e 346b 6cbe
000000f0: 8ddb 98bd 8aa6 1fbd 5196 7b3e c8b5 0fbe
00000100: 40d8 5bbd 701f 67bd 9e57 f0bd a36d 3abe
00000110: 4a6c bc3e f1d3 eb3c 7967 40be 04a2 c2bd
00000120: 91e9 0abc 4f18 4cbf 2bc6 003d 0825 903d
00000130: 9465 db3b c42d efbe 4db1 4fbd acef 60be
00000140: ca5d 813e f3fd 1fbe 5b2a 603e eeda ab3c
00000150: 2e01 ed3d 773a 343e 96c5 1ebe 59ff 843e
00000160: 888e 793d 4145 163e ffe7 3f3e 4c1c de3d
00000170: 72f0 edbd 5826 3cbe 10ee e73d c066 b03c
00000180: d376 9dbe b74c 2abf 3a7d 9c3c 4168 363f
00000190: 3d8e e13d 5d1f 69be 3c95 27bd 65e5 62bd
000001a0: cfc3 1e3f 0f09 22bd c642 41bc e945 09bf
000001b0: 4938 37be 59c7 c5bd 7284 1dbe 9f65 0fbe
000001c0: 9cd6 09bb 583e ccbd 0b3f 57be 2d91 333d
000001d0: a4b3 51be 5a30 7dbc d43c 303e 30fd eb38
000001e0: 2d72 a5bd 2414 22bd 98b8 f83d 8af7 80be
000001f0: 62fa 113c 03ca b3bd c214 843d 86b9 3f3d

critic.0.bias f4 [64]
-0.17857698 -0.110939704 -0.08784032 0.0064375647 0.029444348 -0.100900136 -0.087740704 -0.057657707
-0.08426913 -0.068578176 0.13375595 0.036546137 -0.1657069 -0.057211507 0.0022036128 0.120053716
0.11429578 0.0992348 -0.0971102 0.08073332 -0.015710358 -0.11488021 0.08885385 0.06910115
0.068270065 -0.04755615 -0.07133832 -0.0431719 0.16456753 -0.11898864 -0.0036007268 0.07358833
0.110624805 0.095516585 -0.022202251 -0.008814084 0.03983001 -0.08591457 0.065146975 -0.025886245
0.10915785 0.08311243 -0.07401052 0.06937405 0.0677608 -0.008357638 0.09656146 -0.07971588
-0.11987061 -0.20657797 -0.072494075 0.04871673 -0.10366738 0.104633026 -0.06883717 0.06281302
0.14013508 -0.22204322 0.022093087 0.16863386 0.12090862 -0.059581686 0.06306819 -0.19198084
00000000: e2dc 36be 5b34 e3bd a0e5 b3bd 35f2 d23b
00000010: 4635 f13c bba4 cebd 66b1 b3bd 7d2a 6cbd
00000020: 4b95 acbd b772 8cbd 52f7 083e 67b1 153d
00000030: 12af 29be 9d56 6abd 7d6a 103b b9de f53d
00000040: e813 ea3d 9d3b cb3d b6e1 c6bd 8357 a53d
00000050: 02b3 80bc 5146 ebbd 02f9 b53d e784 8d3d
00000060: 2dd1 8b3d 3dca 42bd d319 92bd 05d5 30bd
00000070: 6484 283e 51b0 f3bd 2cfa 6bbb 7ab5 963d
00000080: 428f e23d 339e c33d 7fe1 b5bc f368 10bc
00000090: cb24 233d faf3 afbd c76b 853d 640f d4bc
000000a0: 278e df3d da36 aa3d d492 97bd fb13 8e3d
000000b0: 2dc6 8a3d 79ee 08bc 04c2 c53d 1442 a3bd
000000c0: b97e f5bd 2d89 53be c677 94bd 328b 473d
000000d0: 904f d4bd d749 d63d 81fa 8cbd 1da4 803d
000000e0: 927f 0f3e 4c5f 63be 90fc b43c 5bae 2c3e
000000f0: f09e f73d ed0b 74bd e529 813d a096 44be

critic.2.weight f4 [1, 64]
0.3271547 -0.32556623 -0.08697229 -0.09744503 -0.01218491 0.3428048 -0.44187942 0.50412434
0.2012294 -0.25041908 -0.17933072 0.16795433 0.6017578 0.27276996 -0.13990813 -0.22882403
-0.11198081 -0.29222843 0.08535957 -0.4652136 -0.042840336 0.18178841 -0.10292582 -0.03034526
-0.1720917 -0.013951449 0.21630977 0.3689287 -0.19190693 0.17639597 -0.041441493 -0.17073429
-0.063726015 0.20983873 0.12696372 0.38786325 -0.13985512 0.20694032 -0.15273169 0.088052526
-0.2191047 -0.31961253 -0.11297054 -0.36214298 -0.021088347 -0.20193368 0.26171476 0.20386146
-0.06471924 0.093145356 0.022541678 -0.2684542 0.3813439 -0.12824759 0.02376475 0.08083243
-0.10163943 0.0037037602 -0.1426854 -0.002284072 -0.06987315 0.103875145 -0.20504116 0.22388877
00000000: d280 a73e 9eb0 a6be 871e b2bd 4391 c7bd
00000010: 37a3 47bc 1c84 af3e 053e e2be 4b0e 013f
00000020: 140f 4e3e ee36 80be 79a2 37be 38fc 2b3e
00000030: cd0c 1a3f 81a8 8b3e 1444 0fbe d950 6abe
00000040: 3256 e5bd f79e 95be 00d1 ae3d 7a30 eebe
00000050: 5979 2fbd be26 3a3e c6ca d2bd 9f96 f8bc
00000060: ce38 30be 9e94 64bc 4f80 5d3e 39e4 bc3e
00000070: 4083 44be 25a1 343e 8ebe 29bd f8d4 2ebe
00000080: c982 82bd f7df 563e c702 023e 0396 c63e
00000090: 2e36 0fbe 2ae8 533e b265 1cbe e254 b43d
000000a0: fc5c 60be 41a4 a3be 195d e7bd ce6a b9be
000000b0: 78c1 acbc b4c7 4ebe 7aff 853e 0fc1 503e
000000c0: 858b 84bd fec2 be3d 53a9 b83c d472 89be
000000d0: 823f c33e 5653 03be 4bae c23c 798b a53d
000000e0: 5528 d0bd c9ba 723b 1f1c 12be 5fb0 15bb
000000f0: a719 8fbd 7ebc d43d 4ff6 51be 1943 653e

exp_avg f4 [64, 2]
-0.010598535 0.030536776 -0.009565753 0.018003535 -0.00032710418 -0.0005979369 0.009405093 -2.8030998e-05
-0.0004028149 -0.017249562 0.012752168 -0.047859717 -4.068439e-05 -0.0028974186 0.0007345651 0.0003616264
0.014715547 -4.9555034e-05 -0.010292701 0.019612877 -0.011232808 0.03918231 0.011750892 -0.030162087
-0.02686889 9.355307e-05 -0.0124380225 0.03616601 0.008398553 -0.045277193 -7.899927e-05 -0.004673221
-0.00023679982 -0.0122647425 -0.0002581437 -0.0119929435 0.00014446507 8.520972e-05 -0.02422353 9.168791e-05
-0.0004027919 -0.024891473 -0.00029549818 -0.016843664 -0.01802905 6.0945946e-05 0.013100199 -0.034828093
0.0028647403 -0.036487713 -0.019070566 6.965596e-05 -0.0006811793 -0.025235457 0.0005977812 0.030108737
-0.00019828137 -0.009890304 0.0052423244 -0.04086846 -0.030582191 0.00011482142 -0.02182854 7.231901e-05
-0.014682784 0.040195756 -0.008003194 0.035377875 0.0002299292 0.015744217 -0.00012162534 -0.0065852785
-0.014561215 0.037920844 -0.007379288 0.046029147 0.03218613 -0.00011251763 -0.018468447 6.0658927e-05
0.00012283119 0.0065714885 0.0045169 -0.042851068 0.012914192 -0.05699752 0.0005096375 0.019602852
0.010986124 -0.035473417 -0.00073234463 -0.028913008 -0.01627007 0.057152856 -0.0057983524 0.042439904
-0.022175195 7.457216e-05 0.0046555717 -0.03772981 -0.006937577 0.044622432 0.010252538 -0.04027606
0.0001423954 0.012976272 0.01197773 -0.02422633 -0.0010460931 -0.00050902396 -0.00038089286 -0.00077861716
-0.00060403236 -0.00029732633 -0.00030680143 -0.016953668 -0.020648964 6.899328e-05 -0.00033680088 -0.019351361
-0.0004341121 -0.018965207 -0.024951234 9.1229704e-05 0.0001694349 0.020053562 0.021902429 -0.00016005457
00000000: 7aa5 2dbc 4328 fa3c adb9 1cbc 267c 933c
00000010: 2e7f abb9 debe 1cba d217 1a3c 1c24 ebb7
00000020: e730 d3b9 f44e 8dbc 78ee 503c 8d08 44bd
00000030: 88a4 2ab8 9ee2 3dbb d48f 403a ac98 bd39
00000040: 7a19 713c 50d9 4fb8 b8a2 28bc 2fab a03c
00000050: d009 38bc a17d 203d d086 403c 7b16 f7bc
00000060: 251c dcbc ec31 c438 d9c8 4bbc cf22 143d
00000070: 169a 093c 9474 39bd 69ac a5b8 d221 99bb
00000080: 784d 78b9 0ff2 48bc 7657 87b9 0d7e 44bc
00000090: 8c7b 1739 9fb2 b238 6d70 c6bc 9248 c038
000000a0: d02d d3b9 34e9 cbbc 18ed 9ab9 b9fb 89bc
000000b0: a9b1 93bc 36a0 7f38 38a2 563c e7a7 0ebd
000000c0: 5ebe 3b3b 2474 15bd e039 9cbc 4214 9238
000000d0: 2b91 32ba 97ba cebc 6bb4 1c3a 99a6 f63c
000000e0: c0e9 4fb9 f10a 22bc cec7 ab3b b065 27bd
000000f0: 8187 fabc 48cc f038 c4d1 b2bc f9a9 9738
00000100: 0f90 70bc 4ea4 243d d41f 03bc 64e8 103d
00000110: 2619 7139 04fa 803c 1b11 ffb8 52c9 d7bb
00000120: 2a92 6ebc e352 1b3d f4cd f1bb 0f89 3c3d
00000130: 9ad5 033d 71f7 ebb8 244b 97bc 076c 7e38
00000140: 3fcc 0039 a455 d73b 8102 943b 9a84 2fbd
00000150: 0c96 533c 3b76 69bd 3299 053a 2996 a03c
00000160: 25ff 333c 934c 11bd d1fa 3fba f9da ecbc
00000170: cf48 85bc 1d19 6a3d 1b00 bebb 77d5 2d3d
00000180: c1a8 b5bc a063 9c38 c48d 983b 938a 1abd
00000190: 9d54 e3bb 03c6 363d 43fa 273c 83f8 24bd
000001a0: f94f 1539 6e9a 543c 3e3e 443c 4c76 c6bc
000001b0: 0f1d 89ba 0570 05ba 93b2 c7b9 1d1c 4cba
000001c0: ed57 1eba 77e2 9bb9 31da a0b9 6be2 8abc
000001d0: 0428 a9bc 7cb0 9038 a694 b0b9 bf86 9ebc
000001e0: 8a99 e3b9 ec5c 9bbc 8866 ccbc 9352 bf38
000001f0: 56aa 3139 5e47 a43c b96c b33c 52d4 27b9

exp_avg_sq f4 [64, 2]
0.0025447002 0.002084628 0.0014457636 0.0006773208 2.9922883e-05 0.00017192944 0.00040933277 9.737062e-07
3.999332e-06 0.0013917733 0.0048559713 0.0052627027 7.9055475e-08 2.7343845e-05 0.00012246944 1.9467752e-05
0.001007131 2.2502961e-06 0.0017275539 0.00082607387 0.0034601837 0.0034761624 0.002843211 0.001999158
0.0032921338 8.681378e-06 0.0035665403 0.002929152 0.0032461698 0.0047939713 2.1131008e-07 7.840771e-05
1.6035142e-06 0.00063026306 1.6589686e-06 0.0006023896 2.3653985e-05 0.0001384125 0.0025632142 7.690942e-06
6.6973685e-06 0.0029091462 2.9946837e-06 0.0012496053 0.0015125142 3.4606562e-06 0.0036477332 0.002679521
0.0013519557 0.0032161018 0.0016589002 4.0059435e-06 9.991948e-06 0.0030783315 1.0959556e-05 0.004223182
1.060204e-06 0.00041601164 0.0020975203 0.003962809 0.004171449 1.1859641e-05 0.0022060042 5.516447e-06
0.0047241077 0.003607149 0.00228396 0.0028843961 2.4342057e-06 0.0011082 4.317421e-07 0.00017073887
0.004441105 0.003197344 0.0030534728 0.0050359047 0.0047254795 1.2724629e-05 0.0015713318 3.8879057e-06
4.3565987e-07 0.00016834243 0.0021103316 0.004398733 0.0060245283 0.0075771078 5.4501666e-06 0.0017743871
0.0030482372 0.0028147758 1.2351839e-05 0.0040074014 0.007394165 0.007516901 0.0023573162 0.0043279543
0.002263127 5.7253947e-06 0.001758855 0.0034026466 0.0028177819 0.004758535 0.0032885382 0.003727054
1.5391248e-06 0.00077236345 0.0024169283 0.0012679485 0.00023457732 3.6280537e-05 1.744049e-05 0.00010142277
8.225034e-05 1.3172174e-05 3.115933e-06 0.0012701635 0.001960487 4.891201e-06 4.140386e-06 0.0017220324
4.621612e-06 0.001654051 0.002749035 7.999017e-06 3.730623e-06 0.0019458132 0.0027543704 1.4058405e-06
00000000: fcc4 263b 419e 083b c77f bd3a 3b8e 313a
00000010: e702 fb37 f547 3439 b79b d639 4ab0 8235
00000020: 0032 8636 2a6c b63a d71e 9f3b c072 ac3b
00000030: 35c5 a933 7660 e537 246b 0039 ae4e a337
00000040: b501 843a cb03 1736 176f e23a e18c 583a
00000050: 40c4 623b 54d0 633b 2a55 3a3b 4e04 033b
00000060: d7c0 573b 3ca6 1137 9ebc 693b 04f7 3f3b
00000070: b1bd 543b bf16 9d3b 79e4 6234 d26e a438
00000080: 5438 d735 3d38 253a baa9 de35 afe9 1d3a
00000090: 8c6c c637 d322 1139 99fb 273b 5808 0137
000000a0: f5b9 e036 60a7 3e3b 46f8 4836 ccc9 a33a
000000b0: 8e3f c63a 9f3d 6836 cf0e 6f3b e79a 2f3b
000000c0: 1b34 b13a 3cc5 523b 746f d93a cb6a 8636
000000d0: 17a3 2737 d5bd 493b efde 3737 9e62 8a3b
000000e0: 554c 8e35 231c da39 8d76 093b 74da 813b
000000f0: a7b0 883b c5f8 4637 9c92 103b eb19 b936
00000100: b0cc 9a3b eb65 6c3b 7eae 153b 2308 3d3b
00000110: 565b 2336 0641 913a 2fca e734 5e08 3339
00000120: b086 913b 888a 513b c61c 483b 3b04 a53b
00000130: 32d8 9a3b de7b 5537 25f5 cd3a db74 8236
00000140: a3e4 e934 1485 3039 7d4d 0a3b 3f23 903b
00000150: 6869 c53b 6349 f83b 93e0 b636 8d92 e83a
00000160: efc4 473b 1a78 383b bf3a 4f37 8550 833b
00000170: c04a f23b 5650 f63b 347d 1a3b 83d1 8d3b
00000180: f850 143b c41c c036 6189 e63a f0fe 5e3b
00000190: 89aa 383b 7ced 9b3b 8484 573b 9741 743b
000001a0: ed93 ce35 6f78 4a3a 5465 1e3b 4b31 a63a
000001b0: dff8 7539 ee2b 1838 2b4d 9237 efb2 d438
000001c0: d17d ac38 0efe 5c37 521b 5136 9d7b a63a
000001d0: 847b 003b 191f a436 a5ed 8a36 d2b5 e13a
000001e0: 5813 9b36 becc d83a 2729 343b 8433 0637
000001f0: 9d5b 7a36 a80a ff3a ab82 343b 50b0 bc35

exp_avg f4 [64]
0.020145768 0.012068041 -0.0336992 -0.010261282 -0.015157368 -0.030503843 -0.0032080812 -0.029639801
-0.014695102 0.013299386 0.025229685 -0.020200009 0.02209988 0.023895632 -0.027334865 -0.0052528633
-0.013321604 -0.01218798 -0.028823022 0.013696493 -0.02527798 -0.01779262 0.017275864 -0.023221407
-0.019270767 0.01564677 -0.019018985 0.028014375 -0.010759275 -0.023150131 0.018750688 0.021001806
0.026726888 0.022012075 0.017022628 -0.007427368 0.025315857 0.027101869 -0.025898794 0.017279224
0.007358454 -0.023708975 -0.03549694 0.017587181 -0.023072787 -0.022994183 0.036715906 0.024249656
0.020233575 -0.021370532 0.02613336 -0.025517393 0.0142446775 -0.016272651 0.039704017 -0.024087321
0.024508903 -0.017373288 0.018454107 -0.019102557 -0.018224379 0.01575533 0.020835146 -0.023114845
00000000: bd08 a53c 08b9 453c 2c08 0abd f01e 28bc
00000010: 9c56 78bc 32e3 f9bc ac3e 52bb 2bcf f2bc
00000020: bac3 70bc abe5 593c 7cae ce3c 7d7a a5bc
00000030: cf0a b53c c6c0 c33c 5eed dfbc 3620 acbb
00000040: db42 5abc 18b0 47bc 421e ecbc 4167 603c
00000050: c413 cfbc d4c1 91bc 1d86 8d3c d23a bebc
00000060: badd 9dbc a82d 803c b4cd 9bbc 677e e53c
00000070: ac47 30bc 58a5 bdbc 0b9b 993c fb0b ac3c
00000080: 59f2 da3c ab52 b43c 0a73 8b3c 4761 f3bb
00000090: 3363 cf3c bd04 de3c b529 d4bc 298d 8d3c
000000a0: 301f f13b 5339 c2bc 3d65 11bd fe12 903c
000000b0: 2403 bdbc 4c5e bcbc 6b63 163d 37a7 c63c
000000c0: e2c0 a53c 4111 afbc a115 d63c da09 d1bc
000000d0: 8262 693c 394e 85bc aea0 223d c652 c5bc
000000e0: e5c6 c83c 6d52 8ebc 112d 973c f77c 9cbc
000000f0: 4b4b 95bc 5211 813c 78ae aa3c 585b bdbc

exp_avg_sq f4 [64]
0.00022496056 9.050913e-05 0.0005498132 6.286255e-05 0.00011560804 0.0005015497 6.78411e-06 0.00043391585
0.0001357323 0.00010875857 0.0003432372 0.0002304444 0.00033590663 0.00031700413 0.00038918134 1.51543345e-05
8.775917e-05 7.205909e-05 0.0004015971 0.00015744203 0.00032177952 0.00015606961 0.00019058271 0.0003036957
0.0001931797 0.00016667624 0.0001912147 0.00039559882 5.8336558e-05 0.0002771605 0.00028305416 0.0002839398
0.000402658 0.00025403438 0.00014364245 2.858396e-05 0.00036490124 0.00038313094 0.00046755493 0.00019165898
2.728589e-05 0.00029018224 0.00067092874 0.00015435558 0.00028897007 0.00027575137 0.0007391394 0.0003079874
0.00026791805 0.00023497423 0.00035680612 0.000347235 9.9960744e-05 0.00016232887 0.00077416474 0.00027751693
0.0002939459 0.00014859761 0.00022305491 0.00018123323 0.00016603946 0.000194427 0.00021787746 0.00034915507
00000000: 64e3 6b39 b8cf bd38 5721 103a 13d5 8338
00000010: 9872 f238 6e7a 033a 10a3 e336 337f e339
00000020: 5d53 0e39 5015 e438 84f4 b339 73a3 7139
00000030: a01c b039 9333 a639 090b cc39 5f3f 7e37
00000040: 580b b838 6e1e 9738 738d d239 0617 2539
00000050: 84b4 a839 9ea6 2339 28d7 4739 5939 9f39
00000060: 4890 4a39 d0c5 2e39 ce80 4839 6068 cf39
00000070: 67ae 7438 da4f 9139 e366 9439 c1dd 9439
00000080: d81b d339 eb2f 8539 ba9e 1639 96c7 ef37
00000090: 3750 bf39 f7de c839 2922 f539 11f8 4839
000000a0: 01e4 e437 9a23 9839 44e1 2f3a 83da 2139
000000b0: e880 9739 b992 9039 cec2 413a 5e79 a139
000000c0: 5a77 8c39 6a63 7639 b511 bb39 180d b639
000000d0: 04a2 d138 d336 2a39 51f1 4a3a b17f 9139
000000e0: c01c 9a39 ded0 1b39 d9e3 6939 6d09 3e39
000000f0: e11a 2e39 1adf 4b39 0976 6439 cd0e b739

exp_avg f4 [4, 64]
-7.612409e-05 -8.794506e-05 -0.0001142161 -0.000118141485 5.230482e-05 7.004625e-05 9.332566e-05 -0.0001087433
-0.000117678974 -8.754505e-05 -7.1698385e-05 7.959603e-05 0.00011689982 -7.619663e-05 6.344115e-05 8.723981e-05
7.2716044e-05 6.592453e-05 -0.0001142229 0.000115768795 6.31894e-05 6.765605e-05 0.00011747966 7.863339e-05
5.4230604e-05 0.00011688527 4.2060165e-05 -5.688104e-05 7.325783e-05 5.852323e-05 0.00011598568 0.00011757242
-7.779274e-05 -6.66881e-05 -6.9114365e-05 8.167222e-05 -7.9032245e-05 -6.108473e-05 -0.00011681472 0.00011739518
-8.022345e-05 5.6591605e-05 6.684604e-05 -5.2371073e-05 7.3563686e-05 4.5768593e-05 -7.14534e-05 -5.8972688e-05
0.00011731403 5.7628986e-05 -6.053884e-05 6.906427e-05 -6.907759e-05 8.556661e-05 0.00010881035 -0.000114356495
0.00010872875 6.5042244e-05 0.00011719339 6.127253e-05 5.8875168e-05 0.00011604583 -6.430399e-05 -0.000117092764
-0.008640145 -0.014191876 -0.009525406 -0.0059950477 -0.0059992624 0.005710853 0.0116347615 -0.0056916033
-0.0030216395 -0.014009828 -0.0065141763 0.0102601 -0.0004719281 -0.00862996 0.002491753 0.009304098
0.002829915 0.0002897786 -0.010318457 -0.0064792815 -0.0024769825 5.197076e-06 0.001986526 0.009816324
-0.0022977078 -0.0012066863 -0.009580837 0.0046210545 0.0031590988 -4.890974e-05 -0.005571611 0.0031153567
-0.009400006 -0.004099488 -7.077381e-05 0.006888932 -0.010008729 -0.0013413907 0.000811693 0.0019877322
-0.006334653 -0.000983479 0.0041594836 0.004662333 0.0074045784 -0.008410243 -0.006366339 -0.00021888784
0.0016841457 -0.0002572396 -0.0010940811 0.005238108 0.00055844785 0.013062803 0.0073196357 -0.011364977
0.005414387 -0.001140007 0.00085329794 -0.003108177 -0.0029409796 -0.0049622096 0.003241506 0.0038060683
0.008693002 0.01418885 0.009628132 0.0060991626 0.0058530723 -0.0057939854 -0.011605682 0.00587843
0.0031675603 0.014008708 0.006588956 -0.010296656 0.00027619782 0.00868317 -0.0026085465 -0.00929711
-0.0028881994 -0.00037185627 0.0104102325 0.006199076 0.0023613055 -9.406281e-05 -0.0021470957 -0.009857321
0.0021293736 0.0010010303 0.009402231 -0.0044862707 -0.0032137262 -9.513216e-05 0.005304316 -0.0032603892
0.009445306 0.004199327 0.00016115338 -0.0069060456 0.010047733 0.0014702367 -0.0006110742 -0.0021485677
0.006357022 0.00082962535 -0.004258784 -0.00453438 -0.007470199 0.00824164 0.006442763 0.00035989258
-0.0018493821 0.00011196099 0.0012254366 -0.0053261453 -0.0004594522 -0.013071043 -0.007483845 0.011442211
-0.0056050573 0.0010396845 -0.0010301225 0.0029869743 0.0028260485 0.0047032307 -0.003113459 -0.0035685534
2.3266324e-05 9.096369e-05 1.1489706e-05 1.4027875e-05 9.388573e-05 1.3085637e-05 -0.00012240543 -7.808804e-05
-2.8241526e-05 8.8665925e-05 -3.0824763e-06 -4.303949e-05 7.883176e-05 2.2986658e-05 5.3354448e-05 -9.422817e-05
-1.4431019e-05 1.6153834e-05 2.244742e-05 0.00016443024 5.2486364e-05 2.1210619e-05 4.3089334e-05 -3.7640697e-05
0.00011410536 8.876782e-05 0.0001365506 -7.789793e-05 -1.8629898e-05 8.552002e-05 0.00015131231 2.746178e-05
3.2490574e-05 -3.3152173e-05 -2.1264199e-05 -6.4559244e-05 4.0030423e-05 -6.776257e-05 -8.380431e-05 4.343843e-05
5.7853496e-05 9.726242e-05 3.2452455e-05 -7.558143e-05 -7.945397e-06 0.00012283238 -4.971307e-06 -8.203111e-05
4.7919155e-05 8.7648834e-05 -7.081571e-05 1.8973107e-05 -2.9918128e-05 -7.7322096e-05 5.5397595e-05 3.7119047e-05
8.194141e-05 3.5280384e-05 5.9633374e-05 5.993096e-05 5.6056568e-05 0.00014293198 -6.374024e-05 -0.000120425335
00000000: cfa4 9fb8 256f b8b8 4d87 efb8 bac2 f7b8
00000010: df61 5b38 cbe5 9238 d5b7 c338 1d0d e4b8
00000020: 6bca f6b8 6498 b7b8 c75c 96b8 cbec a638
00000030: 1d28 f538 c1cb 9fb8 b50b 8538 84f4 b638
00000040: 217f 9838 f640 8a38 f48a efb8 e6c8 f238
00000050: 8d84 8438 91e2 8d38 6a5f f638 fbe7 a438
00000060: ab75 6338 4d20 f538 c269 3038 8d93 6eb8
00000070: ffa1 9938 d776 7538 563d f338 3691 f638
00000080: a924 a3b8 e7da 8bb8 7ef1 90b8 7047 ab38
00000090: 1dbe a5b8 9d1a 80b8 6dfa f4b8 0f32 f638
000000a0: a33d a8b8 c65c 6d38 b22f 8c38 03a9 5bb8
000000b0: 3446 9a38 a7f7 3f38 41d9 95b8 7159 77b8
000000c0: 7e06 f638 a7b6 7138 16eb 7db8 99d6 9038
000000d0: c0dd 90b8 3972 b338 1d31 e438 add2 efb8
000000e0: 4e05 e438 4a67 8838 b9c5 f538 707f 8038
000000f0: bbf0 7638 a15d f338 f1da 86b8 b38f f5b8
00000100: 658f 0dbc 0b85 68bc 7310 1cbc 1b72 c4bb
00000110: 7695 c4bb 1b22 bb3b ba9f 3e3c a180 babb
00000120: b306 46bb 7a89 65bc df74 d5bb fa19 283c
00000130: 1e6d f7b9 ad64 0dbc ae4c 233b 3770 183c
00000140: 1876 393b 6ded 9739 bf0e 29bc 2750 d4bb
00000150: df54 22bb 8b62 ae36 6030 023b a6d4 203c
00000160: 2495 16bb ac29 9eba f1f8 1cbc 376c 973b
00000170: e208 4f3b 6f24 4db8 1092 b6bb 032b 4c3b
00000180: 7c02 1abc ff54 86bb 666c 94b8 8dbc e13b
00000190: a7fb 23bc 9ad1 afba ccc7 543a 9d44 023b
000001a0: ec92 cfbb 14e8 80ba 474c 883b 7cc6 983b
000001b0: 1ba2 f23b 1ecb 09bc b99c d0bb 4285 65b9
000001c0: 8dbe dc3a 1dde 86b9 4567 8fba 6fa4 ab3b
000001d0: cd64 123a 5e05 563c 8ed9 ef3b 2b34 3abc
000001e0: 2c6b b13b 4a6c 95ba dbaf 5f3a 8fb2 4bbb
000001f0: 73bd 40bb 089a a2bb 726f 543b 3b6f 793b
00000200: 186d 0e3c 5a78 683c 50bf 1d3c 7cdb c73b
00000210: 21cb bf3b 79db bdbb c225 3ebc d89f c03b
00000220: d896 4f3b c884 653c 2be8 d73b 4eb3 28bc
00000230: a5ce 9039 db43 0e3c 26f4 2abb e852 18bc
00000240: f247 3dbb b4f5 c2b9 ae8f 2a3c 9e21 cb3b
00000250: 22c0 1a3b 9643 c5b8 4ab6 0cbb 9a80 21bc
00000260: f68c 0b3b 0135 833a d10b 1a3c 9101 93bb
00000270: 619d 52bb b181 c7b8 d4cf ad3b 41ac 55bb
00000280: 7cc0 1a3c 829a 893b 48fb 2839 1c4c e2bb
00000290: 3f9f 243c f5b4 c03a 7f30 20ba fcce 0cbb
000002a0: 914e d03b 377b 593a 458d 8bbb 2395 94bb
000002b0: 92c8 f4bb f207 073c d01d d33b f7af bc39
000002c0: f766 f2ba 99cc ea38 d49e a03a f286 aebb
000002d0: a1e2 f0b9 ee27 56bc 0b3b f5bb 1d78 3b3c
000002e0: a1aa b7bb 0646 883a 2d05 87ba 1dc1 433b
000002f0: 3a35 393b 8f1d 9a3b 2d0b 4cbb 64de 69bb
00000300: 0d2c c337 c2c3 be38 e9c3 4037 4459 6b37
00000310: 84e4 c438 628a 5b37 f559 00b9 32c3 a3b8
00000320: 37e8 ecb7 28f2 b938 8adc 4eb6 4d85 34b8
00000330: 7b52 a538 79d3 c037 e7c8 5f38 5d9c c5b8
00000340: c11c 72b7 1882 8737 784d bc37 e86a 2c39
00000350: ce24 5c38 75ed b137 d2ba 3438 64e0 1db8
00000360: d94b ef38 dc28 ba38 062f 0f39 225d a3b8
00000370: 6747 9cb7 3659 b338 97a9 1e39 b95d e637
00000380: 7d46 0838 e00c 0bb8 8560 b2b7 fb63 87b8
00000390: 57e6 2738 c11b 8eb8 19c0 afb8 a931 3638
000003a0: b8a7 7238 5df9 cb38 8f1d 0838 7981 9eb8
000003b0: 384d 05b7 91cc 0039 34cf a6b6 1e08 acb8
000003c0: cdfc 4838 1cd0 b738 e582 94b8 7028 9f37
000003d0: b1f8 fab7 fc27 a2b8 b75a 6838 46b0 1b38
000003e0: f6d7 ab38 06fa 1338 d91e 7a38 615e 7b38
000003f0: 481e 6b38 03e0 1539 48ac 85b8 dc8c fcb8

exp_avg_sq f4 [4, 64]
2.75785e-08 1.9151598e-07 9.6702095e-08 7.159523e-08 1.4095784e-07 5.924681e-09 3.7227534e-07 1.017346e-07
4.0215923e-08 1.8380736e-07 7.2486803e-09 5.894154e-08 7.570824e-08 2.7292131e-08 3.607832e-08 2.517025e-07
5.624351e-08 3.78661e-08 1.1815904e-07 3.2082775e-07 6.0423595e-08 3.9565702e-08 4.2299718e-08 4.898759e-08
1.9033016e-07 9.207959e-08 2.922468e-07 1.0206438e-07 6.080778e-08 1.01393155e-07 2.6796516e-07 4.0133155e-08
4.0511377e-08 1.3828647e-08 4.0634657e-08 1.538616e-07 5.3243546e-08 6.0759774e-08 8.354158e-08 4.2367194e-08
1.3582243e-07 1.3422489e-07 1.331597e-08 9.778408e-08 1.2782669e-08 2.3574135e-07 6.750392e-09 9.254892e-08
4.4379966e-08 1.06821346e-07 6.692737e-08 6.7810495e-09 4.4027836e-08 1.4555502e-07 7.1957096e-08 1.2875063e-07
1.0835345e-07 4.4444427e-08 5.2772855e-08 7.005203e-08 6.412656e-08 2.3727712e-07 7.725949e-08 1.6384678e-07
6.420794e-05 0.000100195495 0.00019706649 0.00013610629 0.00013874822 5.7569538e-05 0.00019057684 0.00019780276
0.00012872709 9.8953045e-05 5.85006e-05 7.186723e-05 0.00012947795 6.4393476e-05 6.05689e-05 0.00016616743
0.00012722512 0.00012178518 0.00020116453 0.00016546676 0.0001278982 0.00012416454 0.0001278682 6.948214e-05
8.5786465e-05 0.00013302609 0.00016375096 0.00013336545 0.00012801251 7.083912e-05 0.00015778959 0.00012718537
6.754959e-05 5.76467e-05 0.0001255807 0.00014685487 7.0413145e-05 6.4158645e-05 0.00013019344 0.00012678903
0.00014305691 7.625914e-05 5.766718e-05 0.00012924861 6.034495e-05 0.00015446842 5.83139e-05 6.925941e-05
0.0001265028 7.121452e-05 6.503374e-05 5.7342746e-05 0.0001271416 9.0485766e-05 0.00019470594 0.000205881
0.00019858844 0.00012451658 0.00012749409 0.00012895919 0.00012557382 0.00015250551 0.00013303306 0.00015841998
6.4346124e-05 0.00010031954 0.00019725133 0.00013576909 0.00013831233 5.7640646e-05 0.00018992071 0.00019828249
0.00012844164 9.9079814e-05 5.8595764e-05 7.201941e-05 0.00012919147 6.4531756e-05 6.0497252e-05 0.00016565497
0.00012693949 0.00012151377 0.00020135196 0.00016499152 0.00012758563 0.0001238895 0.00012758924 6.9632006e-05
8.5351734e-05 0.0001327229 0.00016309485 0.00013298761 0.00012772235 7.059906e-05 0.00015735444 0.00012690542
6.7696485e-05 5.7655867e-05 0.00012530513 0.00014645846 7.0563976e-05 6.401745e-05 0.00012990297 0.00012651437
0.00014268211 7.594368e-05 5.7678975e-05 0.00012888067 6.0461734e-05 0.00015389425 5.8405098e-05 6.9040034e-05
0.00012622989 7.0959315e-05 6.487648e-05 5.739758e-05 0.00012686048 9.062621e-05 0.00019519568 0.00020599322
0.00019906451 0.00012423043 0.00012721757 0.000128631 0.00012525462 0.00015209809 0.00013269857 0.00015797568
3.3181422e-08 1.4385296e-07 1.1133608e-07 9.6771835e-08 1.6948687e-07 2.0562137e-08 3.1158746e-07 9.8167504e-08
7.455926e-08 1.3879419e-07 2.0753529e-08 5.405268e-08 9.720734e-08 3.3084582e-08 4.5069026e-08 2.2819188e-07
9.655156e-08 8.716993e-08 1.2254856e-07 2.672138e-07 1.06720435e-07 8.8319325e-08 7.5607566e-08 4.7379093e-08
1.5929521e-07 1.0955345e-07 2.8125086e-07 1.398393e-07 9.9412965e-08 9.384626e-08 2.3082599e-07 7.3432076e-08
4.174256e-08 2.769647e-08 8.855041e-08 1.6105916e-07 5.0173643e-08 6.3658234e-08 1.0241131e-07 7.4892995e-08
1.4891955e-07 1.18193e-07 2.7303143e-08 1.367855e-07 2.3856344e-08 2.3989685e-07 2.0496605e-08 8.726622e-08
7.600664e-08 9.790815e-08 6.825737e-08 2.1630845e-08 9.1289905e-08 1.12374025e-07 8.0986275e-08 1.4069087e-07
1.02345005e-07 9.355761e-08 8.191704e-08 1.14669e-07 1.1047132e-07 2.0903246e-07 1.1900625e-07 1.691254e-07
00000000: c3e5 ec32 83a3 4d34 8aaa cf33 e5bf 9933
00000010: 325a 1734 0c92 cb31 22dd c734 3079 da33
00000020: e0b9 2c33 955c 4534 1110 f931 e926 7d33
00000030: 0c95 a233 0870 ea32 88f4 1a33 ba21 8734
00000040: 6590 7133 38a2 2233 9fbe fd33 3b3e ac34
00000050: 39c2 8133 f3ee 2933 08ad 3533 6d66 5233
00000060: 8e5d 4c34 4abd c533 18e6 9c34 7c2e db33
00000070: 6e95 8233 7abd d933 dadc 8f34 df5e 2c33
00000080: bbfe 2d33 0893 6d32 4786 2e33 2835 2534
00000090: e6ad 6433 0a7b 8233 7867 b333 39f7 3533
000000a0: 96d6 1134 751f 1034 41c4 6432 5efd d133
000000b0: c69a 5b32 1720 7d34 13f1 e731 4fbf c633
000000c0: 4a9c 3e33 a865 e533 b6b9 8f33 befe e831
000000d0: 1e19 3d33 dc49 1c34 d586 9a33 b43e 0a34
000000e0: f0af e833 2ae3 3e33 5ea8 6233 836f 9633
000000f0: f3b5 8933 3dc6 7e34 dbe9 a533 dced 2f34
00000100: 60a7 8638 0c20 d238 a2a3 4e39 c1b7 0e39
00000110: f17c 1139 d276 7138 95d5 4739 4669 4f39
00000120: eafa 0639 0385 cf38 8a5e 7538 6db7 9638
00000130: 79c4 0739 fc0a 8738 5c0b 7e38 3b3d 2e39
00000140: bc67 0539 ec66 ff38 b1ef 5239 2581 2d39
00000150: 691c 0639 2a32 0239 5c14 0639 f1b6 9138
00000160: 42e8 b338 eb7c 0b39 90b4 2b39 04d8 0b39
00000170: 193b 0639 778f 9438 5274 2539 105d 0539
00000180: 69a9 8d38 acc9 7138 50ae 0339 0efd 1939
00000190: c5aa 9338 e98c 8638 8984 0839 acf2 0439
000001a0: 8c01 1639 50ed 9f38 aadf 7138 e986 0739
000001b0: e61a 7d38 cdf8 2139 1396 7438 5d3f 9138
000001c0: d6a5 0439 0159 9538 b962 8838 4e83 7038
000001d0: 5051 0539 2dc3 bd38 fa29 4c39 c3e1 5739
000001e0: 2e3c 5039 aa90 0239 efaf 0539 3839 0739
000001f0: 77ac 0339 e3e9 1f39 ca7e 0b39 8a1d 2639
00000200: 90f1 8638 a562 d238 40d5 4e39 3d5d 0e39
00000210: ef07 1139 2cc3 7138 7425 4739 0dea 4f39
00000220: 4aae 0639 12c9 cf38 b9c4 7538 2009 9738
00000230: 9277 0739 3955 8738 6ebe 7d38 abb3 2d39
00000240: 0f1b 0539 35d5 fe38 0122 5339 9301 2d39
00000250: 82c8 0539 56e8 0139 7ac9 0539 6607 9238
00000260: ddfe b238 882b 0b39 7104 2b39 9772 0b39
00000270: 35ed 0539 950e 9438 83ff 2439 ea11 0539
00000280: 46f8 8d38 84d3 7138 5764 0339 a592 1939
00000290: bffb 9338 1b41 8638 9036 0839 f1a8 0439
000002a0: f09c 1539 f443 9f38 54ec 7138 2424 0739
000002b0: 4b98 7d38 ac5e 2139 fff7 7438 96c9 9038
000002c0: 945c 0439 fecf 9438 4c0e 8838 2fbe 7038
000002d0: da05 0539 930e be38 71ad 4c39 e2ff 5739
000002e0: f9bb 5039 da43 0239 b565 0539 1fe1 0639
000002f0: c856 0339 857c 1f39 0025 0b39 46a6 2539
00000300: 5c83 0e33 0076 1a34 a817 ef33 e1d0 cf33
00000310: 32fc 3534 9ea0 b032 4148 a734 28d0 d233
00000320: 631d a033 7507 1534 7e45 b232 8d27 6833
00000330: 4dc0 d033 e218 0e33 eb91 4133 e804 7534
00000340: c857 cf33 2d32 bb33 e495 0334 9675 8f34
00000350: 2e2e e533 10aa bd33 b35d a233 dd7d 4b33
00000360: bc0a 2b34 a543 eb33 d3fe 9634 bc26 1634
00000370: db7c d533 8788 c933 f7d8 7734 b6b1 9d33
00000380: 6e48 3333 2ee9 ed32 1a29 be33 9bef 2c34
00000390: 817e 5733 7cb4 8833 37ed db33 dcd4 a033
000003a0: b2e6 1f34 4ad1 fd33 3f88 ea32 50df 1234
000003b0: a8ec cc32 2ccb 8034 8310 b032 1d67 bb33
000003c0: 1839 a333 9341 d233 e394 9233 bbce b932
000003d0: 280b c433 4652 f133 adea ad33 d010 1734
000003e0: c3c8 db33 d7e9 c833 5eea af33 f33f f633
000003f0: 403c ed33 6872 6034 6190 ff33 d698 3534

exp_avg f4 [4]
0.00012190982 0.024822664 -0.024658881 -0.00028569036
00000000: d6a9 ff38 e658 cb3c 6c01 cabc b6c8 95b9

exp_avg_sq f4 [4]
1.6180794e-06 0.0004279762 0.00042582257 1.1959016e-06
00000000: c92c d935 fe61 e039 f040 df39 de82 a035

exp_avg f4 [64, 2]
0.015262369 0.1266976 0.19727784 -0.051056728 0.05585744 -0.012238119 0.0869118 -0.008196576
0.0107884975 -0.0070140874 -0.2924947 0.18949251 0.31606573 -0.04865968 -0.49174088 0.2438128
-0.15623002 0.11302982 0.12508006 -0.044865027 0.18201722 -0.08193291 -0.0824889 0.0337809
-0.5764599 0.3169107 -0.23029941 0.035970423 0.057295185 -0.025446557 0.2121392 -0.12137074
0.11351283 -0.05144691 0.26668707 -0.15501839 -0.0120809665 0.045053285 0.4276651 -0.24297793
0.04418396 -0.00059926056 -0.058518052 0.024258146 0.11384815 -0.0011449615 0.017618647 -0.0032214138
0.16757181 -0.0026097135 0.0036156762 -0.008531385 -0.21172953 0.107346505 -0.20156921 0.20759271
0.14955132 -0.10729357 -0.1148881 0.026332114 0.030889207 -0.02064308 0.010440145 -0.086534455
0.05817369 -0.032910798 -0.1486887 0.025760598 -0.01779466 0.03863027 -0.14857514 0.09040951
0.14157335 -0.0014038755 -0.20320319 0.09970635 0.16651095 -0.0013278807 -0.08294385 0.0063641877
0.007865872 -0.10769336 0.07966531 -0.12085735 0.079274625 -0.014400328 0.2147557 -0.04456748
0.018175673 -0.0033219862 0.08036857 -0.042290617 -0.18699199 0.03165338 -0.1247654 0.111089125
0.011659707 -0.0012168328 -0.09532424 0.0013356741 -0.017975777 0.002591431 0.25002715 -0.13708246
-0.020402422 0.10770993 0.13610183 -0.0016604732 -0.009243808 0.0053110607 -0.04350789 0.014019936
0.10330223 -0.043984946 -0.0007175975 0.0023079677 0.043656684 -0.061787657 0.000890804 -0.001456886
0.05519074 -0.037837885 -0.07993377 0.009677463 0.20506997 -0.09443586 -0.19954008 0.12720355
00000000: 040f 7a3c 04bd 013e 3403 4a3e dc20 51bd
00000010: c5ca 643d 6482 48bc d0fe b13d ee4a 06bc
00000020: 3dc2 303c 6ed6 e5bb dec1 95be 530a 423e
00000030: 5ed3 a13e 5f4f 47bd 76c5 fbbe 10aa 793e
00000040: c3fa 1fbe 2e7c e73d fd14 003e 64c4 37bd
00000050: b962 3a3e 71cc a7bd f1ef a8bd d75d 0a3d
00000060: e092 13bf 1f42 a23e 9cd3 6bbe b955 133d
00000070: 5bae 6a3d 4c75 d0bc 053b 593e 3991 f8bd
00000080: 6a79 e83d ffb9 52bd 358b 883e 24bd 1ebe
00000090: 3fef 45bc cb89 383d ecf6 da3e 35cf 78be
000000a0: 3dfa 343d b217 1dba a0b0 6fbd 05b9 c63c
000000b0: 3829 e93d 8812 96ba fb54 903c 5b1e 53bb
000000c0: f297 2b3e ba07 2bbb fbf4 6c3b 39c7 0bbc
000000d0: a0cf 58be 7cd8 db3d 2968 4ebe 2f93 543e
000000e0: fb23 193e bbbc dbbd 744a ebbd 72b6 d73c
000000f0: 5d0b fd3c ad1b a9bc 240d 2b3c fa38 b1bd
00000100: 8947 6e3d 79cd 06bd da41 18be e407 d33c
00000110: 1bc6 91bc c63a 1e3d 1524 18be 9f28 b93d
00000120: 9bf8 103e 3f02 b8ba 7f14 50be d832 cc3d
00000130: d981 2a3e 480c aeba 77de a9bd ad8a d03b
00000140: dcdf 003c 568e dcbd 9127 a33d 0f84 f7bd
00000150: bc5a a23d 5aef 6bbc ebe8 5b3e 648c 36bd
00000160: 26e5 943c aeb5 59bb 4798 a43d ed38 2dbd
00000170: d47a 3fbe f9a6 013d 0185 ffbd b282 e33d
00000180: 5b08 3f3c 227e 9fba 5b39 c3bd c911 af3a
00000190: f041 93bc ffd4 293b 8f03 803e 585f 0cbe
000001a0: fb22 a7bc 0697 dc3d 475e 0b3e 3ca4 d9ba
000001b0: 5773 17bc 6808 ae3b 5435 32bd e0b3 653c
000001c0: 1f90 d33d 8f29 34bd 271d 3cba 4641 173b
000001d0: 5ad1 323d 0e15 7dbd d884 693a fbf4 beba
000001e0: af0f 623d e6fb 1abd 51b4 a3bd 398e 1e3c
000001f0: ddfd 513e 9767 c1bd 3c54 4cbe a641 023e

exp_avg_sq f4 [64, 2]
0.0023059747 0.036458526 0.028154342 0.027545493 0.0023116507 0.0015884624 0.0064240685 0.0007283188
0.00014633924 0.00015766351 0.12086298 0.15567492 0.075813144 0.026202975 0.3441132 0.24984582
0.033665694 0.05597747 0.010540496 0.021137277 0.04833486 0.027754622 0.004774313 0.011509916
0.47853488 0.4272586 0.07620481 0.004648992 0.002067147 0.0069823917 0.064108886 0.06314455
0.01942276 0.010706206 0.10097369 0.10331717 0.00028181172 0.011507672 0.26005507 0.25378168
0.0018117153 5.9061313e-06 0.009308179 0.00095069106 0.012323403 9.314502e-05 0.00045046082 2.6190002e-05
0.022381486 7.661361e-05 4.435503e-05 0.0003322528 0.06496141 0.048069675 0.053180397 0.20887852
0.029881919 0.051694892 0.022385942 0.0016095453 0.0011485231 0.0018367432 0.0013979819 0.02195746
0.0046577887 0.004696412 0.016923979 0.0071652676 0.00016700914 0.016423622 0.014189036 0.08182923
0.017299682 1.44163805e-05 0.058797833 0.04234155 0.025329536 0.00011609876 0.0059421845 0.000455802
0.002088884 0.031592753 0.004394359 0.12576236 0.0048473533 0.0021892234 0.08140692 0.005266231
0.00032112774 9.22016e-05 0.004094765 0.018658958 0.026836954 0.010857597 0.019532183 0.0601276
6.6115e-05 3.4161112e-06 0.007947824 1.4963989e-05 0.00036999906 1.9488702e-05 0.089151435 0.07991036
0.0003132539 0.14154266 0.016652538 5.7296347e-05 6.4369895e-05 0.00032879828 0.0013404976 0.002060836
0.01603932 0.007904976 1.8495386e-06 9.555169e-05 0.0016239918 0.02706906 2.9308435e-06 6.179685e-05
0.003909761 0.0062308577 0.008912375 0.00039333108 0.063965276 0.033466063 0.056940436 0.068535976
00000000: d61f 173b 8955 153d efa3 e63c 16a7 e13c
00000010: 107f 173b f433 d03a fe80 d23b a6ec 3e3a
00000020: a472 1939 7a52 2539 0387 f73d 3f69 1f3e
00000030: ec43 9b3d 9fa7 d63c 9b2f b03e 95d7 7f3e
00000040: 0ae5 093d a248 653d 0bb2 2c3c 1528 ad3c
00000050: c6fa 453d a95d e33c d771 9c3b 1694 3c3c
00000060: 8602 f53e a4c1 da3e 4411 9c3d 9256 983b
00000070: f978 073b 8ccc e43b 854b 833d ee51 813d
00000080: 7b1c 9f3c 1569 2f3c 4bcb ce3d f497 d33d
00000090: 21c0 9339 ad8a 3c3c f025 853e acef 813e
000000a0: 1477 ed3a 482d c636 5581 183c cc37 793a
000000b0: 19e8 493c da56 c338 d42b ec39 9ab2 db37
000000c0: 6159 b73c 9eab a038 da09 3a38 3732 ae39
000000d0: 7d0a 853d b5e4 443d b0d3 593d 40e4 553e
000000e0: edca f43c 06be 533d b962 b73c 61f7 d23a
000000f0: 0a8a 963a e0be f03a 7d3c b73a 22e0 b33c
00000100: 5da0 983b 5ce4 993b 28a4 8a3c 9fca ea3b
00000110: 2d1f 2f39 d58a 863c 2179 683c 1596 a73d
00000120: 10b8 8d3c e2dd 7137 ffd5 703d 556e 2d3d
00000130: e37f cf3c 0c7a f338 a8b6 c23b b5f8 ee39
00000140: a8e5 083b 6767 013d 8efe 8f3b d9c7 003e
00000150: 8cd6 9e3b 1379 0f3b acb8 a63d 5990 ac3b
00000160: 095d a839 5b5c c138 612d 863b acda 983c
00000170: 2cd9 db3c 10e4 313c f501 a03c 5c48 763d
00000180: 38a7 8a38 5840 6536 9737 023c d80d 7b37
00000190: 6ffc c139 ab7b a337 0795 b63d 0ba8 a33d
000001a0: 3a3c a439 8ff0 103e e76a 883c 7c51 7038
000001b0: 53fe 8638 8f62 ac39 a3b3 af3a 170f 073b
000001c0: e464 833c df83 013c aa3d f835 ec62 c838
000001d0: 1fdc d43a efbf dd3c 82af 4436 ee98 8138
000001e0: 741d 803b 392c cc3b 3605 123c 0138 ce39
000001f0: 3a00 833d b613 093d 603a 693d 975c 8c3d

exp_avg f4 [64]
0.007906287 0.03695868 0.010490022 0.015797073 0.0014620769 -0.040497355 0.059658688 -0.07006164
-0.021532405 0.023157477 0.026023088 -0.014815357 -0.08016932 -0.040954623 0.0103532495 0.02958964
0.016244425 0.03723033 0.00012731309 0.059918214 0.008471362 -0.014259525 0.020466767 0.0034814626
0.032614537 0.00047842413 -0.029961199 -0.026879538 0.020851394 -0.022296242 0.0043492876 -0.000112204616
0.008182152 -0.027854618 0.00040920885 -0.024731183 0.02838666 -0.028942712 0.030541148 -0.014988507
-0.0011618898 0.0071586864 0.014786996 0.04226771 0.0031482559 0.013989475 -0.035025474 -0.01720554
0.0031730232 -0.018199591 -0.0032518916 0.035212215 0.012345265 0.025467826 -0.001541951 -0.008065217
0.014904993 2.4211176e-05 0.004998858 7.4261836e-05 0.0077105644 -0.014746005 0.029554153 -0.027424945
00000000: 5f89 013c fc61 173d 57de 2b3c dd68 813c
00000010: 29a3 bf3a 8ee0 25bd ab5c 743d 7a7c 8fbd
00000020: ba64 b0bc c0b4 bd3c 5f2e d53c 1cbc 72bc
00000030: d02f a4bd 09c0 27bd ada0 293c f965 f23c
00000040: 0713 853c d57e 183d 597f 0539 cd6c 753d
00000050: 78cb 0a3c c8a0 69bc eca9 a73c 4029 643b
00000060: d296 053d 00d5 fa39 3071 f5bc 7a32 dcbc
00000070: 8bd0 aa3c 9ca6 b6bc 7884 8e3b 654f ebb8
00000080: 6f0e 063c 5e2f e4bc 158b d639 0d99 cabc
00000090: 248b e83c 4419 edbc 6e31 fa3c 5b92 75bc
000000a0: 8d4a 98ba 6a93 ea3b 2845 723c e820 2d3d
000000b0: f852 4e3b 1c34 653c df76 0fbd a2f2 8cbc
000000c0: 7ff2 4f3b 4f17 95bc b01d 55bb af3a 103d
000000d0: cb43 4a3c e7a1 d03c 4a1b caba f923 04bc
000000e0: 1234 743c 1b19 cb37 76cd a33b 05bd 9b38
000000f0: e7a8 fc3b 3a99 71bc 8d1b f23c 47aa e0bc

exp_avg_sq f4 [64]
0.0013675905 0.0013202885 9.410212e-05 0.00016891575 3.338836e-06 0.0032002754 0.0025699926 0.0069174445
0.0010719154 0.0007815851 0.00089609355 0.00037829005 0.010200479 0.0016496017 0.00024340204 0.0014506116
0.00035607576 0.0023418888 0.00024871036 0.0059101414 5.8182562e-05 0.00033948617 0.00033184586 1.2017472e-05
0.000782863 6.5204904e-06 0.001302775 0.0036783472 0.0009768326 0.0005524517 3.734726e-05 0.0005488437
0.00010845183 0.0005807529 0.00044630785 0.0023166512 0.00063235185 0.0011788647 0.00073510944 0.00015219662
0.0008422446 0.0028779954 0.00016725277 0.0021259533 7.5846865e-06 0.00057439064 0.0009099611 0.0010783703
1.478239e-05 0.0002629202 8.304172e-06 0.0019523049 0.004423934 0.00051202986 9.704616e-06 8.198034e-05
0.00028903998 2.061387e-06 0.00055388635 1.246853e-06 0.00012156461 0.00021225684 0.0011618471 0.0014048856
00000000: b940 b33a 880d ad3a b158 c538 fa1e 3139
00000010: c410 6036 b6bb 513b 526d 283b bbab e23b
00000020: 837f 8c3a 4ae3 4c3a d2e7 6a3a 3b55 c639
00000030: e91f 273c 7337 d83a bd39 7f39 7322 be3a
00000040: aeaf ba39 607a 193b 5765 8239 dca9 c13b
00000050: 0d09 7438 10fd b139 99fb ad39 a69e 4937
00000060: 0c39 4d3a 96ca da36 e0c1 aa3a 6d10 713b
00000070: 1009 803a 68d2 103a 51a5 1c38 47e0 0f3a
00000080: a270 e338 ab3d 183a 6dfe e939 f5d2 173b
00000090: 6ac4 253a 2384 9a3a 5cb4 403a f896 1f39
000000a0: 14ca 5c3a c09c 3c3b 9360 2f39 9453 0b3b
000000b0: f67f fe36 b492 163a 758a 6e3a 1a58 8d3a
000000c0: e201 7837 8dd8 8939 2652 0b37 7be4 ff3a
000000d0: a6f6 903b be39 063a 02d1 2237 dcec ab38
000000e0: 4a8a 9739 5c56 0a36 af32 113a 8b59 a735
000000f0: 81f0 fe38 4391 5e39 1f49 983a 2324 b83a
