outputs/centerSquare_1a_PPO_wprior/last_status.pt (torch, 15773 bytes, 21 tensors)

actor.0.weight f4 [64, 2]
0.08693002 -0.07635597 0.102106884 -0.07154362 0.88047415 -0.4265233 -0.07050623 -0.34751895
0.36555102 0.08381661 -0.08074932 0.08083128 0.32706448 0.058217734 0.42522323 -0.92359704
-0.07681942 -0.36192513 0.10181692 -0.07153459 0.082337186 -0.07949855 -0.09104675 0.07461285
0.08249008 0.36696956 0.08702231 -0.07655403 -0.0751854 0.08714375 0.3255951 0.059140358
0.34081122 0.06739528 0.34393468 0.07017761 0.9929448 -0.45420635 0.099498846 0.39052975
0.3667168 0.07924597 0.35455784 0.07345201 0.07872048 0.36454442 -0.08988557 0.07506831
-0.06838319 0.100389786 0.08555177 0.37463394 0.3765448 0.092254505 -0.36625624 -0.08209876
0.33849707 0.066588946 -0.071311146 0.09357382 0.09682033 0.387712 0.075087324 0.35525063
0.08885046 -0.0755848 0.07778894 -0.08371657 -0.36186516 -0.07496229 0.3298603 0.061686724
0.090324596 -0.07481075 0.07334833 -0.08974281 -0.08302996 -0.36744124 0.07771994 0.36015272
-0.33062482 -0.062136594 -0.07021474 0.09613753 -0.07794557 0.083668314 -0.35552925 -0.07761599
-0.08419763 0.078165114 0.3731217 0.089489214 0.081993036 -0.07979453 0.07160802 -0.092709064
0.078001775 0.36018434 -0.07107313 0.09360605 0.07294899 -0.090274945 -0.07986579 0.0816386
-0.37429377 -0.07782944 -0.09849505 0.07211364 -0.44357505 0.9659858 0.847994 -0.39897567
-0.42316204 0.92006195 0.3570031 0.0753891 0.08015337 0.36424378 0.3657561 0.079931356
0.35426763 0.07646317 0.09434672 0.3835617 -0.39058286 -0.084343806 -0.113260575 -0.7394306
00000000: 5e08 b23d 8560 9cbd 6a1d d13d 7685 92bd
00000010: c166 613f 4361 dabe 9265 90bd 01ee b1be
00000020: 8129 bb3e 0ba8 ab3d e65f a5bd df8a a53d
00000030: ff74 a73e b875 6e3d dcb6 d93e db70 6cbf
00000040: 8053 9dbd 404e b9be 6485 d03d ba80 92bd
00000050: 66a0 a83d 23d0 a2bd b876 babd 9fce 983d
00000060: 8ff0 a83d 6fe3 bb3e c138 b23d 5cc8 9cbd
00000070: cefa 99bd 6c78 b23d 67b4 a63e 293d 723d
00000080: cf7e ae3e 8906 8a3d 3518 b03e 47b9 8f3d
00000090: a131 7e3f bc8d e8be 0dc6 cb3d 84f3 c73e
000000a0: 4ec2 bb3e b64b a23d 9b88 b53e 026e 963d
000000b0: 3438 a13d 91a5 ba3e ed15 b8bd 6abd 993d
000000c0: 7c0c 8cbd 2999 cd3d c435 af3d 05d0 bf3e
000000d0: 7bca c03e eeef bc3d f085 bbbe 6523 a8bd
000000e0: 7d4f ad3e c95f 883d 940b 92bd a2a3 bf3d
000000f0: bd49 c63d 3082 c63e 62c7 993d 69e3 b53e
00000100: 3bf7 b53d 34cc 9abd cf4f 9f3d 9873 abbd
00000110: 6446 b9be d485 99bd 73e3 a83e 38ab 7c3d
00000120: 1afc b83d 6136 99bd a637 963d 14cb b7bd
00000130: 9d0b aabd 4221 bcbe a22b 9f3d f065 b83e
00000140: a847 a9be f182 7ebd bfcc 8fbd c1e3 c43d
00000150: eda1 9fbd 4b5a ab3d ee07 b6be 22f5 9ebd
00000160: cf6f acbd 0815 a03d cf09 bf3e 1f46 b73d
00000170: f7eb a73d 516b a3bd 3aa7 923d 40de bdbd
00000180: 65bf 9f3d 156a b83e ca8e 91bd 87b4 bf3d
00000190: 4866 953d 12e2 b8bd ad90 a3bd 2332 a73d
000001a0: 6fa3 bfbe 0b65 9fbd c6b7 c9bd 51b0 933d
000001b0: 451c e3be d84a 773f 2316 593f 8a46 ccbe
000001c0: b2a8 d8be 2e89 6b3f 1cc9 b63e 9a65 9a3d
000001d0: 7327 a43d 297e ba3e 6244 bb3e 0db3 a33d
000001e0: 9162 b53e b998 9c3d da38 c13d 3362 c43e
000001f0: 7afa c7be 72bc acbd 29f5 e7bd 534b 3dbf

actor.0.bias f4 [64]
-0.12167357 -0.3694093 -0.13040426 -0.13223964 -0.29827994 -0.0034639724 0.48970976 0.16313572
0.0041900207 -0.35970658 -0.030888202 0.19121218 -0.16854636 -0.12084909 -0.14279976 0.37180442
0.081657745 -0.023962766 -0.16615039 -0.47306386 -0.14688872 -0.039653655 -0.051881645 0.17214169
-0.36564395 -0.20104633 -0.4690868 0.23833583 0.096245214 -0.2575605 -0.4219464 -0.0022110166
-0.15404661 0.07263242 0.038728494 0.25896633 -0.18054119 0.19381893 0.18516468 -0.053281214
-0.23413655 -0.3014675 -0.07012584 0.23362869 0.06887795 -0.41137674 -0.024517959 0.24499841
-0.06792189 -0.2663211 0.20483653 -0.023753986 0.06757779 0.31679994 -0.08974534 -0.21440515
-0.17593783 -0.08794991 -0.10553445 -0.17344652 -0.1619085 -0.39073265 0.18436404 0.30475354
00000000: fe2f f9bd 3723 bdbe b288 05be d469 07be
00000010: 26b8 98be d003 63bb 3dbb fa3e 0d0d 273e
00000020: 714c 893b 762b b8be 4109 fdbc 20cd 433e
00000030: 6b97 2cbe ba7f f7bd 1a3a 12be 265d be3e
00000040: 2d3c a73d 904d c4bc 5423 2abe 6d35 f2be
00000050: ff69 16be df6b 22bd d981 54bd e945 303e
00000060: af35 bbbe 17df 4dbe 252c f0be 4f0e 743e
00000070: 361c c53d f8de 83be 5c09 d8be b4e6 10bb
00000080: 65be 1dbe 4ec0 943d c5a1 1e3d 3c97 843e
00000090: cadf 38be 7878 463e cf9b 3d3e 673d 5abd
000000a0: 7ec1 6fbe f359 9abe 239e 8fbd 5c3c 6f3e
000000b0: e20f 8d3d f99f d2be e3d9 c8bc dde0 7a3e
000000c0: a21a 8bbd 3d5b 88be abc0 513e b897 c2bc
000000d0: 3966 8a3d 9a33 a23e 68cc b7bd 068d 5bbe
000000e0: 0c29 34be 151f b4bd 7222 d8bd f79b 31be
000000f0: 58cb 25be 1c0e c8be edc9 3c3e a808 9c3e

actor.2.weight f4 [4, 64]
0.071464226 0.8116471 -0.037656352 0.22279462 0.1973914 0.09504972 -0.8538978 0.025700659
0.78388697 0.30903602 -0.034029346 -0.28015396 -0.10892306 0.31674272 0.0058776657 -0.5493485
-0.5618732 -0.5190421 0.3122746 0.38531902 0.073013686 -0.46858466 -0.4108607 -0.53924406
0.68573934 -0.14691402 0.26615405 0.09318786 -0.13357016 0.3289574 0.104996555 -0.59221125
0.6848959 -0.22085567 0.3773485 -0.5849361 0.6315442 -0.40204448 0.030607851 -0.16919184
0.6927176 0.29596874 0.13323666 -0.2860485 -0.40686965 0.21341237 -0.06333546 -0.8567941
-0.3495878 0.36969694 -0.49744874 0.06934589 0.24949032 -0.48002255 0.07228619 0.24001579
0.4845548 -0.45669687 -0.06533324 -0.27181637 0.0818918 0.29851267 -0.25633276 0.17738019
0.43685842 0.012374383 -0.61098725 -0.38756487 -0.35053307 -0.47701293 -0.04859168 -0.682796
-0.19070035 0.16334376 0.24477689 -0.14022304 0.7149966 0.51845175 -0.7188023 0.2265794
-0.11353177 -0.17779404 -0.6717364 0.13443771 -0.36621565 -0.22211692 0.46487495 -0.32526863
-0.47705632 0.48131016 -0.80834794 0.47770685 -0.017895764 -0.5712495 0.2756391 0.6004436
0.67399025 0.44854116 0.21430345 -0.09822519 0.58873385 0.74921274 -0.56109643 0.55337733
0.13649933 -0.71792257 -0.7038395 0.3573487 -0.45829153 -0.8031241 0.5931504 0.5331348
0.5478804 -0.67397857 0.8159371 -0.57149786 0.24599582 -0.21783203 1.1569269 -0.7869855
0.5630472 -0.2555454 0.5735782 -0.41937208 -0.4160045 0.42996922 0.10836782 -0.645292
-0.44650912 -0.6057304 0.94982845 0.117454916 0.31845406 0.7959136 0.13143672 0.70810837
0.5292981 -0.51152015 -0.8204064 0.76458883 -0.412614 -0.51863563 0.416354 0.48629302
0.44713625 0.32715583 0.68868566 -0.75094974 0.6920379 0.5139012 -0.38203767 0.6997763
0.38784453 -0.33422944 0.10356646 -0.7112456 0.44423136 0.418787 -0.86527973 -0.4229504
-0.49377823 -0.4755632 -0.4948068 0.24287187 -0.53221065 -0.38683358 0.76510924 -0.2948489
-0.19410703 0.30443442 0.759109 -0.39008093 0.52695066 0.25703746 -0.94131136 -0.5039047
-0.44912946 0.2400934 -0.2844535 0.4977797 -0.35184407 0.57979417 -0.64684993 0.36985078
-0.5960128 0.46471673 -0.34297937 0.3845077 0.35002276 -0.50900686 -0.7774121 0.57199526
0.52333397 0.28225648 0.3398016 0.64789385 -0.011989267 0.055821255 -1.0071625 -0.45113572
0.51459724 0.4934297 -0.15579191 -0.021875598 0.2207252 0.4374831 0.52846694 -0.48805454
-0.4149987 -0.08439633 0.06526599 0.06597991 -0.4954488 -0.22891152 -0.41894716 -0.11788846
0.49646372 0.11816272 0.37391564 -0.16751897 -0.6989373 0.55152994 0.14289303 -0.29942757
0.5547393 -0.15820463 0.42087585 -0.82469183 0.55288106 -0.46485683 0.05172974 -0.3873455
0.5670793 0.8561436 0.37692228 -0.18354897 -0.14544359 0.2710117 0.31797862 -0.308023
-0.25459766 0.7957323 -0.31060362 -0.077452175 0.33499923 -0.85703695 -0.22196856 -0.06661479
0.22357987 -0.1408317 -0.34472567 -0.17541009 -0.42409217 0.31735697 0.041339833 0.06265252
00000000: d65b 923d 1bc8 4f3f 8c3d 1abd 4624 643e
00000010: f920 4a3e 6da9 c23d 0c99 5abf 308a d23c
00000020: d1ac 483f f839 9e3e 5b62 0bbd 5770 8fbe
00000030: 0e13 dfbd 1a2c a23e 6f99 c03b 1aa2 0cbf
00000040: ecd6 0fbf f1df 04bf 75e2 9f3e 8948 c53e
00000050: 3388 953d 54ea efbe 555c d2be e60b 0abf
00000060: 9d8c 2f3f a170 16be 5845 883e 47d9 be3d
00000070: 9ec6 08be 1b6d a83e 6f08 d73d 289b 17bf
00000080: 5655 2f3f fd27 62be d333 c13e 5fbe 15bf
00000090: e1ac 213f c6d8 cdbe 51bd fa3c a040 2dbe
000000a0: f155 313f 3789 973e 316f 083e f374 92be
000000b0: 3851 d0be c688 5a3e 06b6 81bd dc56 5bbf
000000c0: 2cfd b2be eb48 bd3e 9ab1 febe 3805 8e3d
000000d0: 647a 7f3e 84c5 f5be c80a 943d b3c6 753e
000000e0: 9117 f83e 2cd4 e9be 6fcd 85bd 842b 8bbe
000000f0: e3b6 a73d a7d6 983e 0c3e 83be 27a3 353e
00000100: e8ab df3e edbd 4a3c a969 1cbf e76e c6be
00000110: 1279 b3be 0a3b f4be 1208 47bd b8cb 2ebf
00000120: f446 43be 9643 273e cba6 7a3e a196 0fbe
00000130: 040a 373f 41b9 043f 6d03 38bf 6e04 683e
00000140: 5883 e8bd a40f 36be ebf6 2bbf 0aaa 093e
00000150: 9e80 bbbe 9e72 63be 1704 ee3e 9c89 a6be
00000160: ba40 f4be 496e f63e e4ef 4ebf fe95 f43e
00000170: 239a 92bc 683d 12bf 9120 8d3e acb6 193f
00000180: a08a 2c3f 30a7 e53e 5d72 5b3e 4a2a c9bd
00000190: 43b7 163f 68cc 3f3f 04a4 0fbf 23aa 0d3f
000001a0: 7bc6 0b3e c6c9 37bf d32e 34bf 69f6 b63e
000001b0: 30a5 eabe 8b99 4dbf b4d8 173f 867b 083f
000001c0: e441 0c3f dc89 2cbf 41e1 503f af4d 12bf
000001d0: 54e6 7b3e 5c0f 5fbe 2e16 943f e277 49bf
000001e0: dc23 103f d9d6 82be 05d6 123f f0b7 d6be
000001f0: 8bfe d4be ed24 dc3e f3ef dd3d db31 25bf
00000200: d89c e4be 2611 1bbf f527 733f 348c f03d
00000210: 690c a33e fec0 4b3f 5997 063e 9746 353f
00000220: 1580 073f fcf2 02bf 2706 52bf 18bc 433f
00000230: 2442 d3be 4ec5 04bf 5a2c d53e 66fb f83e
00000240: 0bef e43e f880 a73e b44d 303f 3e3e 40bf
00000250: 6529 313f 078f 033f 719a c3be 8a24 333f
00000260: 8f93 c63e 1f20 abbe a71a d43d 3114 36bf
00000270: 4b72 e33e 406b d63e f982 5dbf f48c d8be
00000280: 80d0 fcbe 057d f3be 5157 fdbe 67b3 783e
00000290: f53e 08bf 0d0f c6be 33de 433f 6ff6 96be
000002a0: fec3 46be d4de 9b3e f854 423f b0b8 c7be
000002b0: 3de6 063f 6a9a 833e c8f9 70bf e6ff 00bf
000002c0: 4cf4 e5be 0bdb 753e e4a3 91be fbdc fe3e
000002d0: e824 b4be 646d 143f f597 25bf 155d bd3e
000002e0: 4b94 18bf 5aef ed3e fe9a afbe 31de c43e
000002f0: 2f36 b33e 464e 02bf 7b04 47bf 486e 123f
00000300: 37f9 053f ec83 903e 7afa ad3e 5fdc 253f
00000310: a16e 44bc d4a4 643d b3ea 80bf 43fb e6be
00000320: a5bc 033f d1a2 fc3e ea87 1fbe 7434 b3bc
00000330: c905 623e c9fd df3e 9c49 073f 49e2 f9be
00000340: b67a d4be fcd7 acbd 2daa 853d 7a20 873d
00000350: 77ab fdbe c867 6abe 3e80 d6be 816f f1bd
00000360: 7e30 fe3e 4cff f13d df71 bf3e 188a 2bbe
00000370: 8eed 32bf 1131 0d3f 8d52 123e 924e 99be
00000380: 6503 0e3f 6500 22be 0a7d d73e 011f 53bf
00000390: 9d89 0d3f b701 eebe 90e2 533d 2652 c6be
000003a0: 1c2c 113f 3a2c 5b3f f5fb c03e 43f4 3bbe
000003b0: 2aef 14be 0cc2 8a3e 18ce a23e 31b5 9dbe
000003c0: a05a 82be 1db5 4b3f 7007 9fbe 3f9f 9ebd
000003d0: 0585 ab3e c666 5bbf ba4b 63be 566d 88bd
000003e0: 1ff2 643e 2f36 10be e27f b0be b49e 33be
000003f0: 9c22 d9be 9d7c a23e f553 293d f74f 803d

actor.2.bias f4 [4]
-0.49339134 0.15440881 0.080405585 -0.5276435
00000000: ca9d fcbe 581d 1e3e afab a43d a513 07bf

critic.0.weight f4 [64, 2]
-0.335788 0.23518594 0.1484041 0.1570925 0.13698782 0.16616423 0.07109062 0.20762113
-0.03399926 -0.03745926 0.059702903 0.043610077 0.12057024 0.19046547 0.026528455 0.068794034
0.07275743 0.03369109 0.16836202 0.13548064 -0.011859185 -0.088956915 -0.16509584 -0.12153653
0.04034036 0.06504063 0.09934923 -0.21554501 0.18333314 0.12179755 -0.045420162 -0.05719217
-0.0034071102 -0.08996165 -0.046930153 -0.054332126 -0.23411265 0.066189125 -0.043636717 -0.0556669
-0.01861639 -0.5134253 0.23568764 -0.30612445 0.00792039 -0.41160223 -0.15338407 0.26421285
0.029227842 0.47899768 0.18490036 -0.07822521 0.025566487 0.067912005 0.11370207 0.010256251
-0.082004756 -0.038509212 0.14343289 -0.22663888 -0.06800932 -0.041531734 0.24192534 -0.14233306
-0.049099546 -0.05781243 -0.123374164 -0.1813676 0.3825009 0.032452043 -0.18956976 -0.095468394
-0.008064707 -0.80452585 0.028046602 0.07165814 0.009635644 -0.47223967 -0.05763374 -0.21866211
0.24771313 -0.15857677 0.22120835 0.020338845 0.12185546 0.17561938 -0.15400608 0.2540965
0.06944831 0.14846419 0.18839237 0.108665094 -0.12222862 -0.18299542 0.10584323 0.023266152
-0.3356876 -0.6948261 0.017709438 0.72102696 0.10357331 -0.2242355 -0.03740146 -0.05742258
0.62904656 -0.034698527 -0.009490084 -0.5442453 -0.17966194 -0.09789455 -0.15769894 -0.14045534
0.00020922547 -0.10008075 -0.21191533 0.03588376 -0.20029168 -0.016992956 0.17053021 0.009649189
-0.074112944 -0.041887354 0.11832649 -0.24868877 0.010518031 -0.08996106 0.05968429 0.048985846
00000000: 68ec abbe 95d4 703e 3ff7 173e dbdc 203e
00000010: 8946 0c3e f526 2a3e f597 913d a29a 543e
00000020: cf42 0bbd e26e 19bd 088b 743d 7ba0 323d
00000030: 88ed f63d 6109 433e 3452 d93c e3e3 8c3d
00000040: d901 953d abff 093d 1867 2c3e 70bb 0a3e
00000050: 074d 42bc 0b2f b6bd e20e 29be 25e8 f8bd
00000060: ef3b 253d 0634 853d 9c77 cb3d d5b7 5cbe
00000070: afbb 3b3e fe70 f93d 7e0a 3abd 5642 6abd
00000080: d349 5fbb d03d b8bd d539 40bd 5d8b 5ebd
00000090: 3abb 6fbe 2a8e 873d 6abc 32bd fa02 64bd
000000a0: 6681 98bc d76f 03bf 1a58 713e 58bc 9cbe
000000b0: 86c4 013c 87bd d2be b710 1dbe e846 873e
000000c0: 3a6f ef3c 2f3f f53e 8556 3d3e 8a34 a0bd
000000d0: cf70 d13c 7315 8b3d a2dc e83d d609 283c
000000e0: 1cf2 a7bd d6bb 1dbd 12e0 123e 0614 68be
000000f0: 7848 8bbd 2e1d 2abd 47bb 773e c2bf 11be
00000100: 9b1c 49bd bacc 6cbd 98ab fcbd 6eb8 39be
00000110: 28d7 c33e 6fec 043d 931e 42be ef84 c3bd
00000120: d521 04bc 68f5 4dbf fdc1 e53c 81c1 923d
00000130: d2de 1d3c 66c9 f1be 5b11 6cbd f6e8 5fbe
00000140: 83a8 7d3e f361 22be 7184 623e a69d a63c
00000150: 5b8f f93d 91d5 333e c5b3 1dbe f018 823e
00000160: ea3a 8e3d ff06 183e eee9 403e ce8b de3d
00000170: 0053 fabd 2763 3bbe 56c4 d83d a898 be3c
00000180: 3fdf abbe 20e0 31bf 6213 913c 3995 383f
00000190: 3e1e d43d fe9d 65be 4632 19bd f033 6bbd
000001a0: 3209 213f 0b20 0ebd 4c7c 1bbc a953 0bbf
000001b0: 4df9 37be f07c c8bd d57b 21be 86d3 0fbe
000001c0: 8963 5b39 23f7 ccbd 5500 59be d9fa 123d
000001d0: 4319 4dbe d034 8bbc 799f 2e3e a217 1e3c
000001e0: 87c8 97bd 1392 2bbd 2955 f23d 45a8 7ebe
000001f0: d253 2c3c 813d b8bd 8477 743d 62a5 483d

critic.0.bias f4 [64]
-0.18319944 -0.11574008 -0.09208595 0.008015011 0.03434471 -0.10579837 -0.09126104 -0.06298784
-0.08867521 -0.07356096 0.13955224 0.039958548 -0.17137639 -0.06257183 -0.0024154047 0.12542303
0.11986746 0.10445425 -0.098800994 0.0859086 -0.013308915 -0.12058805 0.092293516 0.076111585
0.072425686 -0.041780066 -0.07664875 -0.045832455 0.16941693 -0.12415392 0.0005881874 0.076590925
0.116132915 0.09890941 -0.01935107 -0.0058904826 0.043819707 -0.09145207 0.06905609 -0.028356962
0.112249814 0.08261326 -0.07690536 0.07452977 0.07163309 -0.012240468 0.0998895 -0.08292549
-0.10188549 -0.20974524 -0.08043987 0.053821307 -0.10455922 0.10796856 -0.06690599 0.06728399
0.14592922 -0.23066823 0.02057508 0.17722383 0.12553689 -0.06543215 0.06828838 -0.19735923
00000000: a298 3bbe 2309 edbd 8f97 bcbd 6551 033c
00000010: 0aad 0c3d d1ac d8bd 11e7 babd c5ff 80bd
00000020: 599b b5bd 21a7 96bd c8e6 0e3e 93ab 233d
00000030: 4b7d 2fbe a925 80bd c44b 1ebb e56e 003e
00000040: 127d f53d 1cec d53d 2d58 cabd d9f0 af3d
00000050: a30d 5abc def6 f6bd 6204 bd3d 64e0 9b3d
00000060: eb53 943d 9321 2bbd 05fa 9cbd d0ba 3bbd
00000070: a27b 2d3e 6944 febd 9730 1a3a b4db 9c3d
00000080: 18d7 ed3d 0491 ca3d 2386 9ebc f304 c1bb
00000090: 4b7c 333d 394b bbbd 486d 8d3d dc4c e8bc
000000a0: 3be3 e53d 2431 a93d 8f80 9dbd 10a3 983d
000000b0: 5fb4 923d 3e8c 48bc de92 cc3d d7d4 a9bd
000000c0: 57a9 d0bd 75c7 56be a9bd a4bd bb73 5c3d
000000d0: 2523 d6bd 9f1e dd3d 0206 89bd 30cc 893d
000000e0: 786e 153e 4b34 6cbe 128d a83c 2a7a 353e
000000f0: be8c 003e 4b01 86bd c7da 8b3d 8a18 4abe

critic.2.weight f4 [1, 64]
0.32953203 -0.328912 -0.08984272 -0.09743788 -0.013821789 0.34382814 -0.4440796 0.5076846
0.20043923 -0.25376055 -0.18382685 0.17105742 0.6072173 0.26902243 -0.1427894 -0.23253371
-0.116284095 -0.29512596 0.08783032 -0.46802223 -0.044437822 0.17866991 -0.10500316 -0.026780074
-0.16985168 -0.016218424 0.22023886 0.36593717 -0.19142069 0.17294174 -0.040190943 -0.17322692
-0.066572115 0.21224098 0.12424872 0.39068124 -0.14210047 0.21087092 -0.15484661 0.08747831
-0.22165652 -0.32184616 -0.11526632 -0.35859767 -0.02080932 -0.20487958 0.26407048 0.20123298
-0.07203051 0.09575395 0.018870264 -0.27114478 0.37909666 -0.13037437 0.026327647 0.084032096
-0.105915256 0.0061234036 -0.13852677 -0.004269236 -0.06955703 0.10018112 -0.20887466 0.22756004
00000000: 6cb8 a83e 2767 a8be 76ff b7bd 838d c7bd
00000010: c974 62bc 3e0a b03e 675e e3be 9ef7 013f
00000020: f13f 4d3e e7ec 81be 1b3d 3cbe ad29 2f3e
00000030: 9872 1b3f 4fbd 893e 6237 12be 511d 6ebe
00000040: 5b26 eebd c01a 97be 62e0 b33d 9ca0 efbe
00000050: 6f04 36bd 3ff5 363e e60b d7bd e361 dbbc
00000060: 99ed 2dbe 80dc 84bc 4c86 613e 1e5c bb3e
00000070: c903 44be a417 313e 429f 24bd 6662 31be
00000080: f656 88bd b355 593e 1d76 fe3d 5f07 c83e
00000090: c982 11be 8cee 573e 1c90 1ebe d427 b33d
000000a0: edf9 62be 05c9 a4be c010 ecbd 1d9a b7be
000000b0: 4f78 aabc f4cb 51be 3f34 873e 0510 4e3e
000000c0: bb84 93bd a61a c43d d095 9a3c 7dd3 8abe
000000d0: f518 c23e dc80 05be 14ad d73c 0519 ac3d
000000e0: 19ea d8bd d5a6 c83b f6d9 0dbe f2e4 8bbb
000000f0: eb73 8ebd c22b cd3d 3de3 55be 8005 693e

exp_avg f4 [64, 2]
-0.010989603 -0.004411063 -0.008840829 -0.0013214446 0.0032849347 0.009838091 0.007375448 0.00042823344
0.0014532099 0.0074402993 0.014611162 0.007892589 0.00016348368 0.0009296168 0.0040988824 0.0017940488
0.010915866 0.0006439796 -0.0094844615 -0.0014894953 -0.012624872 -0.006277831 0.011995927 0.0038154805
-0.019207751 -0.0012615495 -0.013016117 -0.0051737055 0.01148025 0.00826544 0.000291143 0.0015849099
0.0008894786 0.0046615615 0.00090828055 0.004683281 0.0032961918 0.009195142 -0.017305667 -0.0012070402
0.001949387 0.01019912 0.0012716873 0.006647855 -0.013395618 -0.00079564436 0.013492463 0.004545312
0.0059108916 0.007326121 -0.0138387 -0.0008675355 0.00221888 0.011146381 -0.0024223784 -0.012500222
0.0007234814 0.0038180293 0.008399501 0.007902226 -0.021722754 -0.001481913 -0.015869753 -0.0010001123
-0.015071829 -0.005407728 -0.009957955 -0.0062641194 -0.0011818492 -0.0062325466 0.00044423225 0.0023795064
-0.014692592 -0.004866435 -0.010650048 -0.008643217 0.022958418 0.0015192991 -0.013732895 -0.00084804336
-0.00044751877 -0.0023739839 0.008195365 0.008360027 0.015889943 0.009872806 -0.0016329972 -0.008194409
0.012054203 0.005450672 0.0024807414 0.012564133 -0.017861012 -0.009129547 -0.008800201 -0.008204993
-0.01614182 -0.0010240418 0.007891426 0.0073108664 -0.010114935 -0.008443242 0.012032276 0.0068184203
-0.000982026 -0.005189273 0.010833108 0.0022134169 -0.0054907603 -0.002376562 0.00249903 0.0076852133
-0.003402873 -0.0014909205 0.0013009897 0.006782058 -0.015286381 -0.0009507308 0.0015325854 0.007974923
0.0015282872 0.007857466 -0.017778957 -0.0012266947 -0.0015532589 -0.008169001 0.014153175 1.9047493e-05
00000000: bc0d 34bc ae8a 90bb 20d9 10bc 5334 adba
00000010: 0f48 573b f22f 213c bead f13b 8584 e039
00000020: a279 be3a c1cd f33b a863 6f3c eb4f 013c
00000030: d16c 2b39 87b1 733a eb4f 863b 4a26 eb3a
00000040: 76d8 323c bdd0 283a b764 1bbc 2b3b c3ba
00000050: 8dd8 4ebc 43b6 cdbb 918a 443c 240d 7a3b
00000060: 9359 9dbc 945a a5ba 8d41 55bc 3088 a9bb
00000070: a917 3c3c c56b 073c 8da4 9839 c0bc cf3a
00000080: e62b 693a 03c0 983b ad19 6e3a 3576 993b
00000090: ec04 583b 39a7 163c 9dc4 8dbc 8c35 9eba
000000a0: 9382 ff3a 361a 273c bfae a63a 40d6 d93b
000000b0: 4b79 5bbc ca92 50ba 7e0f 5d3c d7f0 943b
000000c0: 27b0 c13b f50f f03b b7bb 62bc 526b 63ba
000000d0: a16a 113b 4f9f 363c c4c0 1ebb bbcd 4cbc
000000e0: 04a8 3d3a e737 7a3b 109e 093c 5778 013c
000000f0: ebf3 b1bc c03c c2ba 4901 82bc 3316 83ba
00000100: d5ef 76bc 4f33 b1bb b126 23bc 3e43 cdbb
00000110: 47e8 9aba 643a ccbb d8e7 e839 7ef1 1b3b
00000120: 33b9 70bc 9e76 9fbb 8a7d 2ebc 489c 0dbc
00000130: 4b13 bc3c 3823 c73a f0ff 60bc 3a4f 5eba
00000140: f4a0 eab9 d794 1bbb da45 063c 7ff8 083c
00000150: a02b 823c 8dc1 213c 4b0a d6ba d841 06bc
00000160: fe7e 453c 8d9b b23b ef93 223b cbd9 4d3c
00000170: 4251 92bc 1894 15bc b82e 10bc 3c6e 06bc
00000180: da3b 84bc 2439 86ba 0a4b 013c fe8f ef3b
00000190: 1db9 25bc 8655 0abc 0623 453c 0e6d df3b
000001a0: 53b7 80ba c70a aabb 597d 313c f90e 113b
000001b0: d6eb b3bb 18c0 1bbb c4c6 233b 3ed4 fb3b
000001c0: bc02 5fbb fe6a c3ba f885 aa3a 073c de3b
000001d0: bb73 7abc 773a 79ba 08e1 c83a 40a9 023c
000001e0: cf50 c83a 9abc 003c 2da5 91bc 0bc9 a0ba
000001f0: b896 cbba 46d7 05bc b8e2 673c 2ec8 9f37

exp_avg_sq f4 [64, 2]
0.0028807537 0.0021047785 0.0016714383 0.0006812937 2.5145837e-05 0.00014209337 0.00044953535 1.1570193e-06
4.682867e-06 0.0014571337 0.0053494824 0.0052007064 6.633101e-08 2.7021639e-05 0.00013585422 2.1409654e-05
0.0011084019 2.78142e-06 0.001982445 0.00083163194 0.0038606492 0.0034714318 0.0032042633 0.0019956315
0.00353039 1.0095787e-05 0.003987105 0.0029170166 0.0035765872 0.0047798567 2.0270585e-07 7.79445e-05
1.7805069e-06 0.0006397479 1.8551739e-06 0.0006213557 2.0939926e-05 0.00012172309 0.002809904 9.048749e-06
8.03978e-06 0.0029755621 3.4949896e-06 0.0012808078 0.0016528255 4.235913e-06 0.0040728305 0.002651001
0.0014911646 0.003263226 0.0018339298 4.9693763e-06 1.1146397e-05 0.0031454484 1.2730734e-05 0.0042808526
1.1962927e-06 0.00042644114 0.0023133939 0.003986228 0.0045127575 1.3961031e-05 0.002351415 6.363895e-06
0.005232119 0.00354739 0.002570653 0.0029284423 2.9377609e-06 0.0011471976 4.6035007e-07 0.00017224973
0.0049269153 0.003144075 0.003350578 0.005020817 0.005024719 1.4591633e-05 0.0017035247 4.603796e-06
4.6228712e-07 0.00017073621 0.002307802 0.004404387 0.0065657585 0.007435582 6.024335e-06 0.0018041927
0.0034216791 0.002820077 1.3845758e-05 0.004065269 0.00806613 0.0073427623 0.00259506 0.0043451344
0.0024297014 6.678589e-06 0.0019423452 0.0034371444 0.0030954557 0.0047554024 0.003665331 0.0037341935
1.9486533e-06 0.00081581925 0.0027339028 0.0012612122 0.00025272658 3.8823535e-05 1.4943234e-05 8.5727006e-05
9.22761e-05 1.4580046e-05 3.656546e-06 0.0013095518 0.0021258374 5.81273e-06 4.98865e-06 0.001784375
5.246607e-06 0.0016922358 0.0029959406 9.373796e-06 4.7597496e-06 0.00203156 0.0028825088 1.637363e-06
00000000: 07cb 3c3b 53f0 093b 2a14 db3a d998 323a
00000010: 46f0 d237 e6fe 1439 9daf eb39 e14a 9b35
00000020: 8521 9d36 4bfd be3a b64a af3b b06a aa3b
00000030: dc71 8e33 87ac e237 1774 0e39 e298 b337
00000040: cc47 913a 6fa8 3a36 e8eb 013b e001 5a3a
00000050: f202 7d3b f680 633b 9efe 513b 24c9 023b
00000060: 1e5e 673b 1361 2937 43a6 823b 6b2b 3f3b
00000070: 2d65 6a3b 58a0 9c3b 5ca7 5934 2376 a338
00000080: c0f9 ee35 c1b4 273a 4aff f835 7ae2 223a
00000090: 26a8 af37 9645 ff38 5e26 383b 15d0 1737
000000a0: 98e2 0637 a601 433b 778b 6a36 c7e0 a73a
000000b0: 9fa3 d83a 3722 8e36 6175 853b 6bbc 2d3b
000000c0: 2e73 c33a d9db 553b 7960 f03a 9ebe a636
000000d0: 6901 3b37 de23 4e3b 1696 5537 6546 8c3b
000000e0: 4e90 a035 f693 df39 4f9c 173b e79e 823b
000000f0: c1df 933b 2c3a 6a37 331a 1a3b 7189 d536
00000100: 3272 ab3b 547b 683b 6778 283b 1ceb 3f3b
00000110: 5926 4536 905d 963a 0826 f734 ef9d 3439
00000120: f671 a13b d30c 4e3b 5f95 5b3b aa85 a43b
00000130: 66a6 a43b 96ce 7437 ce48 df3a 4e7a 9a36
00000140: 4230 f834 a707 3339 7e3e 173b ad52 903b
00000150: 9325 d73b 2fa6 f33b a524 ca36 a97a ec3a
00000160: 403e 603b 0ad1 383b 144b 6837 f335 853b
00000170: cd27 043c 8e9b f03b e211 2a3b a161 8e3b
00000180: a03b 1f3b a518 e036 4a96 fe3a b741 613b
00000190: 21dd 4a3b 35d3 9b3b 0d36 703b 5fb9 743b
000001a0: 9cc5 0236 b4dc 553a 472b 333b 424f a53a
000001b0: 6380 8439 74d6 2238 b4b4 7a37 56c8 b338
000001c0: 5b84 c138 d29c 7437 fb62 7536 44a5 ab3a
000001d0: a251 0b3b f80a c336 2d64 a736 b1e1 e93a
000001e0: 030c b036 03ce dd3a 8b57 443b 2644 1d37
000001f0: f0b5 9f36 ec23 053b 79e8 3c3b 5dc3 db35

exp_avg f4 [64]
0.008070357 0.005008362 -0.017634397 -0.005476876 -0.006251403 -0.011630947 -0.0016233561 -0.016341412
-0.008004329 0.005542941 0.009744103 -0.008060447 0.011990209 0.0094475625 -0.009925884 -0.00253153
-0.006042439 -0.0053783446 -0.015142768 0.0073925517 -0.010977668 -0.007870636 0.009327598 -0.009177585
-0.0065074936 0.0085666105 -0.0071191634 0.011621726 -0.0050079944 -0.008128832 0.010094587 0.011342369
0.010540753 0.008324748 0.007625382 -0.0035400311 0.010043774 0.009713492 -0.013963059 0.009297206
0.0034464945 -0.008079579 -0.013168602 0.007278791 -0.008998612 -0.008862617 0.014093716 0.008642701
0.010933908 -0.0074097146 0.009363598 -0.009747563 0.0064127003 -0.006774041 0.021513557 -0.012640669
0.013534056 -0.0075959684 0.00992033 -0.0081964005 -0.007834352 0.008548607 0.0090933945 -0.012768266
00000000: 8839 043c 2f1d a43b 0376 90bc 5e77 b3bb
00000010: 92d8 ccbb ba8f 3ebc cbc6 d4ba 6dde 85bc
00000020: 9724 03bc 8fa1 b53b bba5 1f3c f70f 04bc
00000030: 9572 443c f3c9 1a3c 2da0 22bc 07e8 25bb
00000040: a7ff c5bb d33c b0bb 5f19 78bc 383d f23b
00000050: addb 33bc d7f3 00bc c8d2 183c 955d 16bc
00000060: d03c d5bb f85a 0c3c df47 e9bb 0d69 3e3c
00000070: 1a1a a4bb cb2e 05bc c463 253c 58d5 393c
00000080: 1fb3 2c3c 8664 083c 57de f93b deff 67bb
00000090: a48e 243c 5725 1f3c 50c5 64bc 4f53 183c
000000a0: 95de 613b 3660 04bc 1fc1 57bc ed82 ee3b
000000b0: ea6e 13bc 8334 11bc 54e9 663c 1e9a 0d3c
000000c0: 2224 333c 31cd f2bb c769 193c 3eb4 1fbc
000000d0: a121 d23b c6f8 ddbb 333d b03c cf1a 4fbc
000000e0: f2bd 5d3c 9ae7 f8bb e188 223c 324a 06bc
000000f0: a75b 00bc 750f 0c3c 76fc 143c fd31 51bc

exp_avg_sq f4 [64]
0.00028048654 0.000114995964 0.0006639529 7.756451e-05 0.00012980451 0.0006029789 7.51694e-06 0.0005265072
0.00016655267 0.00013811703 0.00041900767 0.00028559126 0.00040605862 0.00038921353 0.00046350606 1.7199909e-05
9.99819e-05 8.279783e-05 0.00049086596 0.00019288721 0.00035614736 0.00017579462 0.0002321536 0.00037230286
0.00022717322 0.00020584324 0.00020486373 0.00043073203 6.772274e-05 0.00032833667 0.00034188334 0.0003416498
0.0004896022 0.0003113382 0.00016271662 3.307959e-05 0.000444996 0.00045302097 0.00056075474 0.00023345047
3.155682e-05 0.000339156 0.0007936971 0.00017134531 0.00035552031 0.00029551887 0.0008811028 0.00036440438
0.00032420908 0.00027828454 0.0004220972 0.00042231195 0.00011459526 0.00020327022 0.00092269195 0.00034114093
0.00036092228 0.00016747757 0.00027128664 0.00020269238 0.0001860999 0.0002379631 0.00024307032 0.00041076305
00000000: 440e 9339 fd29 f138 200d 2e3a 21aa a238
00000010: 221c 0839 3b11 1e3a 063a fc36 4d05 0a3a
00000020: a4a4 2e39 82d3 1039 42ae db39 69bb 9539
00000030: 44e4 d439 5b0f cc39 bb02 f339 8648 9037
00000040: 60ad d138 bfa3 ad38 75ad 003a c441 4a39
00000050: 4ab9 ba39 8255 3839 426e 7339 a531 c339
00000060: 5935 6e39 a0d7 5739 b0d0 5639 e0d3 e139
00000070: 5f06 8e38 9a24 ac39 ce3e b339 761f b339
00000080: a658 003a 1b3b a339 e99e 2a39 f0be 0a38
00000090: 5a4e e939 7283 ed39 9dff 123a 62ca 7439
000000a0: e15b 0438 bfd0 b139 1c10 503a 28ab 3339
000000b0: 2165 ba39 dfef 9a39 cff9 663a 870d bf39
000000c0: 9bfa a939 b8e6 9139 ed4c dd39 c069 dd39
000000d0: dd52 f038 ef24 5539 cfe0 713a 29db b239
000000e0: 2b3a bd39 eb9c 2f39 7a3b 8e39 d289 5439
000000f0: d023 4339 bc85 7939 b1e0 7e39 af5b d739

exp_avg f4 [4, 64]
8.657593e-06 1.64009e-05 1.1862601e-05 7.3612173e-06 1.0186065e-05 -4.5320935e-06 -1.5267615e-05 4.295745e-06
3.1802604e-06 1.6119502e-05 5.6690023e-06 -1.0919734e-05 1.7852935e-06 8.637743e-06 4.062253e-08 -1.1877574e-05
-2.4989615e-06 1.1293342e-06 1.3030445e-05 1.0177384e-05 5.2091023e-06 1.6091739e-06 -1.7191808e-06 -1.0304488e-05
6.90193e-06 2.7764625e-06 1.5265367e-05 -8.248059e-06 -2.9880332e-06 3.670166e-06 8.897763e-06 -3.268397e-06
9.719548e-06 2.2463585e-06 -1.5468222e-06 -8.373304e-06 1.0573441e-05 -1.6804112e-06 -2.274052e-06 -1.6943329e-06
7.5690323e-06 5.0114963e-06 -2.3316854e-06 -8.201754e-06 -6.925645e-06 1.3613428e-05 5.4595184e-06 -3.2866465e-06
-1.2532875e-06 3.9575943e-06 -2.03261e-06 -3.860314e-06 -2.4964818e-06 -1.4833456e-05 -6.640662e-06 1.44632295e-05
-3.8927037e-06 3.2522512e-06 -9.936867e-08 6.1037667e-06 5.787558e-06 8.069999e-06 -6.3847815e-06 -6.0614802e-06
-0.0024004774 -0.0047625927 0.0007332999 0.0029723062 -0.007359826 0.0011628268 0.0009323018 0.0008647655
0.0045906124 -0.004680656 -0.0015020907 0.0030851192 -0.006478493 -0.0023934243 -0.00018963042 -0.00016478676
-0.003244093 -0.0044051157 0.00025744017 -0.009730766 -0.005823749 -0.004620775 -0.005150763 0.0028982172
-0.0021843635 -0.006881657 -0.008949757 0.006770817 -0.0030773974 -0.0012527626 -0.009239296 -0.00453577
-0.0027205672 -0.00048505884 0.0046367017 -0.0013128662 -0.0029799663 0.00066918606 0.0066632447 -0.0051459004
0.0015732712 -0.001638058 0.0005098625 0.0066544497 0.0018780538 -0.00844196 -0.001438398 0.0011395161
-0.0053111627 -0.0013269418 0.00077099464 0.0009632757 0.004990694 0.004278645 2.8267796e-06 -0.00030893896
-0.0010158505 -0.0051548667 -0.005760809 -0.0061007203 -0.0059261397 -0.008907992 0.006299491 0.008467319
0.0023106793 0.0046910355 -0.0008900912 -0.002882154 0.0072241644 -0.001062887 -0.0010889622 -0.0010335492
-0.0045122793 0.0046080695 0.0014049758 -0.0030005022 0.006417226 0.0023034296 0.00030118905 1.090112e-05
0.003097953 0.0042619267 -0.0004131694 0.009696395 0.005684062 0.004478069 0.00507701 -0.0028122012
0.0023136255 0.0068219695 0.008818193 -0.006633595 0.0029308493 0.0013736193 0.009200167 0.0044586947
0.002633161 0.00037939104 -0.0044939835 0.001161868 0.0028946334 -0.00078488875 -0.006603805 0.005073245
-0.0014229291 0.0017624798 -0.000404355 -0.006516978 -0.0017840224 0.008309082 0.0013407925 -0.0012593013
0.005240226 0.0014484705 -0.00088756526 -0.0008616453 -0.004848796 -0.0042035514 0.00016366199 0.0001548368
0.0011850328 0.0050135236 0.0056929947 0.005961762 0.0057868166 0.008866896 -0.006160833 -0.008396179
8.114088e-05 5.5158023e-05 0.00014493009 -9.751262e-05 0.00012547678 -9.540732e-05 0.00017192906 0.00016448904
-8.151684e-05 5.6464378e-05 9.1445065e-05 -7.369604e-05 5.9482263e-05 8.135844e-05 -0.000111600646 0.00016576475
0.00014863936 0.00014205644 0.00014269854 2.4192108e-05 0.00013448003 0.00014109437 7.5471624e-05 -7.571122e-05
-0.00013616387 5.6911464e-05 0.00011629529 -0.0001289691 0.00014953736 -0.00012452534 3.022753e-05 8.034375e-05
7.768475e-05 0.000103422484 -0.00014117007 0.00015937093 7.475667e-05 0.000117383024 -5.7163514e-05 7.435181e-05
-0.00015791175 -0.00012943293 -0.0001031764 -0.00012926853 -8.710662e-05 0.00011926241 9.2144524e-05 0.00012307205
7.219317e-05 -0.00012548664 0.00011860394 -9.7769356e-05 -0.00013940677 -6.025847e-05 -0.00015985107 0.00013964214
-0.00016529072 0.0001380893 6.791195e-05 0.00013285702 0.00013353628 3.3028457e-05 -0.00013227032 -6.5073036e-05
00000000: 1440 1137 aa94 8937 7c05 4737 6000 f736
00000010: d1e4 2a37 6312 98b6 f412 80b7 2b24 9036
00000020: 756c 5536 5e38 8737 5c38 be36 e733 37b7
00000030: 389e ef35 d3ea 1037 f278 2e33 cb45 47b7
00000040: d5b3 27b6 a193 9735 569d 5a37 88bf 2a37
00000050: d9c9 ae36 cbfa d735 9abe e6b5 70e1 2cb7
00000060: 2197 e736 4353 3a36 200e 8037 2561 0ab7
00000070: 0586 48b6 f94c 7636 9a47 1537 a256 5bb6
00000080: 2411 2337 25c0 1636 689c cfb5 117b 0cb7
00000090: 9564 3137 7d8a e1b5 ea9b 18b6 d668 e3b5
000000a0: 7ef9 fd36 6d28 a836 0d7a 1cb6 449a 09b7
000000b0: d662 e8b6 3a65 6437 e830 b736 2890 5cb6
000000c0: a136 a8b5 7acb 8436 f967 08b6 d887 81b6
000000d0: 3b89 27b6 35dd 78b7 dad2 deb6 19a7 7237
000000e0: 129e 82b6 4041 5a36 8164 d5b3 f5ce cc36
000000f0: bf32 c236 6264 0737 db3c d6b6 b863 cbb6
00000100: 5451 1dbb 860f 9cbb ec3a 403a 06cb 423b
00000110: b22a f1bb fe69 983a b765 743a 6eb1 623a
00000120: d96c 963b 3060 99bb cde1 c4ba b62f 4a3b
00000130: 8a49 d4bb ffda 1cbb 87d7 46b9 9cca 2cb9
00000140: d99a 54bb ca58 90bb 09f9 8639 ca6d 1fbc
00000150: 26d5 bebb df69 97bb bbc7 a8bb 04f0 3d3b
00000160: 8a27 0fbb 867f e1bb 00a2 12bc bbdd dd3b
00000170: 29ae 49bb bd33 a4ba 6b60 17bc cca0 94bb
00000180: 8b4b 32bb 7f4f feb9 79ef 973b 7b14 acba
00000190: 8a4b 43bb 516c 2f3a 5957 da3b f19e a8bb
000001a0: 3936 ce3a 1bb4 d6ba 4ba8 053a 920d da3b
000001b0: 0729 f63a 2650 0abc a188 bcba d15b 953a
000001c0: 4309 aebb c7ec adba 931c 4a3a 5784 7c3a
000001d0: fa88 a33b e033 8c3b b4b3 3d36 16f9 a1b9
000001e0: 4926 85ba 28ea a8bb 2bc5 bcbb 8de8 c7bb
000001f0: 1030 c2bb d4f2 11bc f66b ce3b 83ba 0a3c
00000200: c46e 173b 42b7 993b 0255 69ba 85e2 3cbb
00000210: afb8 ec3b 9250 8bba 82bb 8eba 2878 87ba
00000220: bedb 93bb 4aff 963b 2a27 b83a 13a4 44bb
00000230: 9847 d23b 23f5 163b e9e8 9d39 f4e3 3637
00000240: 0707 4b3b a2a7 8b3b a89e d8b9 a1dd 1e3c
00000250: 5e41 ba3b c4bc 923b 0c5d a63b e84c 38bb
00000260: 32a0 173b d48a df3b 2f7a 103c a15e d9bb
00000270: 7e13 403b 040b b43a 4cbc 163c 3e1a 923b
00000280: 1c91 2c3b 01e9 c639 4442 93bb d249 983a
00000290: e4b3 3d3b fec0 4dba bb64 d8bb 773d a63b
000002a0: 9481 baba 0203 e73a 9cff d3b9 608c d5bb
000002b0: dcd5 e9ba d122 083c 88bd af3a 240f a5ba
000002c0: 34b6 ab3b 9bda bd3a 7fab 68ba 0ae0 61ba
000002d0: a6e2 9ebb f2bd 89bb ae9c 2b39 b05b 2239
000002e0: 1a53 9b3a 7c48 a43b 4d8c ba3b e25a c33b
000002f0: 569f bd3b 7546 113c d0e0 c9bb 2190 09bc
00000300: 2e2a aa38 7a59 6738 60f8 1739 b07f ccb8
00000310: 6b92 0339 6a15 c8b8 db47 3439 b17a 2c39
00000320: 05f4 aab8 2ad4 6c38 32c6 bf38 438d 9ab8
00000330: 987c 7938 fb9e aa38 240b eab8 23d1 2d39
00000340: 13dc 1b39 fcf4 1439 59a1 1539 28f0 ca37
00000350: 3503 0d39 bbf2 1339 8546 9e38 27c7 9eb8
00000360: 36c7 0eb9 38b4 6e38 8fe3 f338 e13b 07b9
00000370: 21cd 1c39 0493 02b9 2091 fd37 397e a838
00000380: afea a238 86e4 d838 0d07 14b9 cf1c 2739
00000390: aec6 9c38 882b f638 dbc2 6fb8 53ed 9b38
000003a0: 1d95 25b9 63b8 07b9 6860 d8b8 428c 07b9
000003b0: 03ad b6b8 851c fa38 b73d c138 e70c 0139
000003c0: 6a66 9738 1095 03b9 01bb f838 8609 cdb8
000003d0: b82d 12b9 0abe 7cb8 b29d 27b9 e76c 1239
000003e0: e451 2db9 10cc 1039 f36b 8e38 894f 0b39
000003f0: df05 0c39 0988 0a38 0bb2 0ab9 d277 88b8

exp_avg_sq f4 [4, 64]
1.3022869e-08 1.0301416e-07 3.6243904e-08 3.292092e-08 8.2879524e-08 1.2051107e-09 1.898539e-07 3.933981e-08
1.7464602e-08 9.8420855e-08 1.9213293e-09 3.0189373e-08 3.8918646e-08 1.286605e-08 1.785567e-08 1.2463498e-07
2.4020402e-08 1.7636182e-08 4.5691053e-08 1.7486848e-07 3.3356123e-08 1.847072e-08 1.9215953e-08 2.4761274e-08
1.0234509e-07 4.8173106e-08 1.697948e-07 5.957053e-08 2.6211726e-08 5.3642385e-08 1.457948e-07 1.7436186e-08
2.0111427e-08 5.595196e-09 1.8583215e-08 7.292551e-08 2.7080835e-08 3.145356e-08 4.341353e-08 1.9299845e-08
6.354467e-08 7.1768675e-08 5.304842e-09 5.765312e-08 4.9509246e-09 1.376718e-07 1.64067e-09 4.8842576e-08
2.0601037e-08 5.689941e-08 3.486977e-08 1.6874362e-09 2.0896698e-08 7.773131e-08 2.458791e-08 5.8032388e-08
4.2761688e-08 2.2856476e-08 2.5618759e-08 3.9698797e-08 3.6598365e-08 1.2893042e-07 4.3004757e-08 8.776712e-08
5.605346e-05 9.11202e-05 0.00017644731 0.00014244852 0.0001445546 5.2064504e-05 0.00021269989 0.00018309617
0.00013332842 8.942418e-05 5.2141095e-05 6.279907e-05 0.0001347493 5.6174802e-05 5.96695e-05 0.00018392576
0.0001365962 0.00012957149 0.00017938751 0.00017658621 0.0001337884 0.00013126222 0.00013236163 6.066268e-05
9.496471e-05 0.00013835508 0.00017018068 0.00013906312 0.00013771259 7.477322e-05 0.00016746011 0.00013205214
5.8904945e-05 5.4220676e-05 0.00013248781 0.00016081055 6.150872e-05 6.537296e-05 0.00013570105 0.00013146696
0.00015631778 8.2355116e-05 5.4153003e-05 0.00013553769 5.3158696e-05 0.0001605837 5.2081203e-05 7.266252e-05
0.00013122536 7.587893e-05 6.67554e-05 5.2384126e-05 0.00013358815 8.111963e-05 0.00017662378 0.00018308609
0.00018451706 0.00013107345 0.00013224654 0.00013476901 0.00013183973 0.00016158339 0.00013861376 0.0001672161
5.6095418e-05 9.1385235e-05 0.00017654528 0.0001422247 0.00014457092 5.202981e-05 0.0002125271 0.00018297882
0.00013317802 8.967972e-05 5.212477e-05 6.289478e-05 0.0001347489 5.6216155e-05 5.958009e-05 0.00018372659
0.00013640763 0.00012941984 0.000179501 0.00017699346 0.00013369907 0.00013111623 0.00013224833 6.074288e-05
9.4845585e-05 0.00013839039 0.00017033517 0.00013903424 0.00013752065 7.4661235e-05 0.00016779061 0.00013190194
5.8970967e-05 5.4154974e-05 0.00013234107 0.00016060127 6.1595645e-05 6.5271386e-05 0.00013571909 0.00013135548
0.0001561086 8.2238425e-05 5.4088174e-05 0.00013550822 5.3165008e-05 0.0001606904 5.2061296e-05 7.255232e-05
0.00013112636 7.5765325e-05 6.665161e-05 5.233948e-05 0.00013345397 8.133036e-05 0.00017645898 0.00018321608
0.00018440887 0.00013095119 0.00013218178 0.00013469614 0.00013176101 0.0001618688 0.00013854573 0.00016734963
1.8050228e-08 1.2327476e-07 4.4052367e-08 4.0074866e-08 1.0788228e-07 5.054637e-09 2.2469798e-07 4.9934982e-08
2.2140545e-08 1.1778065e-07 5.6149205e-09 3.7932484e-08 4.787285e-08 1.788949e-08 2.6062786e-08 1.4778124e-07
3.164838e-08 2.585339e-08 5.4261427e-08 2.1003859e-07 4.648696e-08 2.6973225e-08 2.432656e-08 3.1630265e-08
1.2822146e-07 5.910498e-08 2.1319461e-07 7.923983e-08 3.4056075e-08 6.952928e-08 1.7544792e-07 2.1934458e-08
2.6240745e-08 1.0875407e-08 2.6977544e-08 8.736067e-08 3.43122e-08 4.266144e-08 5.323985e-08 2.4316444e-08
7.649803e-08 9.1452456e-08 1.05090265e-08 7.69346e-08 8.901882e-09 1.7443634e-07 5.3300697e-09 6.373515e-08
2.5870074e-08 7.352446e-08 4.681854e-08 5.8052483e-09 3.0083132e-08 9.351773e-08 3.2454622e-08 7.141144e-08
5.3995468e-08 3.3039605e-08 3.196565e-08 5.4517066e-08 5.0728058e-08 1.5528855e-07 5.8401017e-08 1.0800169e-07
00000000: 2fbb 5f32 a238 dd33 98aa 1b33 ef64 0d33
00000010: 80fb b133 10a1 a530 a5da 4b34 94f6 2833
00000020: 1105 9632 705b d333 6208 0431 91a9 0133
00000030: 8127 2733 7c09 5d32 0961 9932 67d3 0534
00000040: 6c55 ce32 607e 9732 d83d 4433 7bc3 3b34
00000050: 7243 0f33 8ba9 9e32 5410 a532 9eb2 d432
00000060: cfc8 db33 e4e6 4e33 d750 3634 7eda 7f33
00000070: 3228 e132 6d64 6633 c58b 1c34 94c6 9532
00000080: 7fc1 ac32 dd3f c031 eca0 9f32 399b 9c33
00000090: 639f e832 8e17 0733 ae75 3a33 cfc8 a532
000000a0: 0d76 8833 3f1f 9a33 e245 b631 479e 7733
000000b0: cb1c aa31 f0d2 1334 f27d e130 fbc6 5133
000000c0: 29f6 b032 9061 7433 b8c3 1533 62eb e730
000000d0: 5380 b332 3ded a633 6335 d332 493f 7933
000000e0: f9a8 3733 ec55 c432 3f10 dc32 4a81 2a33
000000f0: 5430 1d33 2070 0a34 3bb4 3833 7c7a bc33
00000100: f21a 6b38 c917 bf38 b704 3939 3c5e 1539
00000110: 9493 1739 d65f 5a38 3108 5f39 81fd 3f39
00000120: 13ce 0b39 3e89 bb38 13b2 5a38 feb2 8338
00000130: 7d4b 0d39 3c9d 6b38 a345 7a38 32dc 4039
00000140: 433b 0f39 95dd 0739 f819 3c39 002a 3939
00000150: 8d49 0c39 6fa3 0939 8eca 0a39 0f70 7e38
00000160: ca27 c738 6913 1139 8772 3239 79d1 1139
00000170: f166 1039 91cf 9c38 3b98 2f39 7a77 0a39
00000180: b410 7738 026b 6338 6dec 0a39 419f 2839
00000190: 3efe 8038 d718 8938 f94a 0e39 65da 0939
000001a0: 3ce9 2339 11b6 ac38 5822 6338 1f1f 0e39
000001b0: b7f6 5e38 5c62 2839 c471 5a38 6562 9838
000001c0: 8a99 0939 3121 9f38 08ff 8b38 07b7 5b38
000001d0: cc13 0c39 c51e aa38 1634 3939 ccfa 3f39
000001e0: ec7a 4139 c370 0939 a9ab 0a39 c850 0d39
000001f0: 753e 0a39 b66e 2939 d958 1139 bb56 2f39
00000200: ff47 6b38 13a6 bf38 031f 3939 2722 1539
00000210: f697 1739 953a 5a38 cfd9 5e39 01de 3f39
00000220: b4a5 0b39 6f12 bc38 8ca0 5a38 61e6 8338
00000230: 624b 0d39 a3c9 6b38 a2e5 7938 bba6 4039
00000240: a508 0f39 e0b4 0739 6f38 3c39 5297 3939
00000250: 9231 0c39 3f7c 0939 24ac 0a39 2cc6 7e38
00000260: d6e7 c638 e31c 1139 009c 3239 b8c9 1139
00000270: 6b33 1039 7293 9c38 f3f0 2f39 284f 0a39
00000280: 9857 7738 7624 6338 09c5 0a39 1367 2839
00000290: e92c 8138 4fe2 8838 d14f 0e39 78bc 0939
000002a0: 15b1 2339 6b77 ac38 bcdc 6238 3617 0e39
000002b0: 7efd 5e38 007f 2839 645c 5a38 3b27 9838
000002c0: f77e 0939 33e4 9e38 50c7 8b38 1787 5b38
000002d0: c7ef 0b39 e88f aa38 d907 3939 b11d 4039
000002e0: e15d 4139 f14f 0939 479a 0a39 383d 0d39
000002f0: 5429 0a39 53bb 2939 9646 1139 937a 2f39
00000300: df0c 9b32 825d 0434 1734 3d33 c81e 2c33
00000310: e9ac e733 0fad ad31 8344 7134 1878 5633
00000320: 932f be32 99ee fc33 5ded c031 35eb 2233
00000330: c19c 4d33 68ab 9932 ace0 df32 ccad 1e34
00000340: c3ed 0733 3514 de32 120d 6933 f886 6134
00000350: f4a8 4733 c0b2 e732 acf6 d032 d8d9 0733
00000360: 3fad 0934 9dda 7d33 7dea 6434 8f2a aa33
00000370: 0d45 1233 2050 9533 c262 3c34 626a bc32
00000380: 0268 e132 8cd6 3a32 3fbc e732 099b bb33
00000390: aa5e 1333 c03a 3733 d6a9 6433 6de0 d032
000003a0: 3d47 a433 8564 c433 308b 3432 3e37 a533
000003b0: e4ee 1832 b24c 3b34 ca23 b731 c5de 8833
000003c0: e538 de32 80e4 9d33 8715 4933 8177 c731
000003d0: c134 0133 ead3 c833 3c64 0b33 db5a 9933
000003e0: a5e8 6733 6ee7 0d33 9b4a 0933 2626 6a33
000003f0: 17e0 5933 64bd 2634 99d4 7a33 8fee e733

exp_avg f4 [4]
-3.3972374e-05 0.0071417275 -0.0073138853 0.0002061301
00000000: 8f7d 0eb8 2705 ea3b 51a9 efbb a124 5839

exp_avg_sq f4 [4]
8.566064e-07 0.00047781668 0.00047808726 1.0127808e-06
00000000: 8bf1 6535 7883 fa39 c9a7 fa39 e2ee 8735

exp_avg f4 [64, 2]
-0.011552378 0.0043759765 0.030897914 -0.021030024 0.0086403955 -0.0047496352 0.010707128 -0.0020211176
0.0015573298 -0.0029860404 -0.03668061 0.075546056 0.04539115 -0.015144798 -0.057581108 0.09392436
-0.02051215 0.04518425 0.021293163 -0.020553095 0.020943824 -0.03151414 -0.013876425 0.016063062
-0.06753397 0.1259817 -0.028478958 0.006055027 0.010494751 -0.012246703 0.025662934 -0.04866243
0.013327644 -0.019353772 0.032398365 -0.061757836 -0.0034526403 0.017604236 0.051585943 -0.09595267
0.005747288 0.00019093697 -0.010831376 0.0013257237 0.0133558065 0.00051538943 0.0023220154 -0.0002335459
0.021162704 0.00074780476 0.0011004076 -0.0025843247 -0.025048207 0.041525472 -0.03169305 0.08520493
0.019556344 -0.04404146 -0.016097035 0.0032173556 0.004006439 -0.008349415 0.008221255 -0.015475135
0.007284446 -0.01381417 -0.021480212 0.008799201 -0.0032782513 0.023823382 -0.02680762 0.046917394
0.018755324 0.000324553 -0.02388461 0.039289955 0.020051263 0.0007213508 -0.0098635815 0.0013740357
0.009882051 -0.016554428 0.01533018 -0.06702132 0.011508044 -0.0050872113 0.030965252 -0.00416638
0.002128317 -0.001178096 0.014658036 -0.021400372 -0.02684803 0.010654986 -0.01837263 0.046483696
0.0026376133 0.00023118625 -0.012311103 -0.00032733442 -0.001977482 0.00034611256 0.030139117 -0.053663027
-0.003566828 0.064816274 0.016956901 0.0005929513 -0.0017746927 0.0028134144 -0.007297425 0.0063088518
0.0120149935 -0.016632255 -0.00023166281 0.0014378551 0.008178609 -0.031065617 0.00023727363 -0.00093401014
0.0071544657 -0.015543728 -0.010003183 0.0011422058 0.024147136 -0.03276452 -0.024622107 0.05132247
00000000: 2f46 3dbc 5a64 8f3b 9f1d fd3c 2847 acbc
00000010: 7290 0d3c d4a2 9bbb f36c 2f3c ba74 04bb
00000020: 511f cc3a 72b1 43bb 683e 16bd e4b7 9a3d
00000030: 12ec 393d e321 78bc 2bda 6bbd 6a5b c03d
00000040: 1909 a8bc 1f13 393d 006f ae3c f75e a8bc
00000050: 6292 ab3c f914 01bd f259 63bc af96 833c
00000060: 404f 8abd 5901 013e b44c e9bc 3f69 c63b
00000070: 2df2 2b3c 65a6 48bc 133b d23c 4252 47bd
00000080: 315c 5a3c cd8b 9ebc 26b4 043d c9f5 7cbd
00000090: b145 62bb c236 903c c84b 533d d582 c4bd
000000a0: bf53 bc3b 4136 4839 1576 31bc e8c3 ad3a
000000b0: 50d2 5a3c 331b 073a f42c 183b 00e4 74b9
000000c0: 685d ad3c 5408 443a 8d3b 903a c65d 29bb
000000d0: e631 cdbc 9d16 2a3d 92d0 01bd ec7f ae3d
000000e0: a034 a03c d164 34bd eedd 83bc 45da 523b
000000f0: 7248 833b fccb 08bc 71b2 063c 6c8b 7dbc
00000100: 5db2 ee3b d454 62bc 45f7 afbc 862a 103c
00000110: eed7 56bb 4129 c33c a79b dbbc 742c 403d
00000120: c4a4 993c c428 aa39 a8a9 c3bc 81ee 203d
00000130: 8c42 a43c 0819 3d3a dc9a 21bc fd18 b43a
00000140: 53e8 213c 279d 87bc 6f2b 7b3c 7942 89bd
00000150: 3c8c 3c3c 9fb2 a6bb d7aa fd3c 2186 88bb
00000160: 3c7b 0b3b 586a 9aba 4228 703c d54f afbc
00000170: 66f0 dbbc 4092 2e3c 3382 96bc b065 3e3d
00000180: cfdb 2c3b 966a 7239 82b4 49bc 159e abb9
00000190: a598 01bb 7176 b539 4fe6 f63c c3cd 5bbd
000001a0: 72c1 69bb 65be 843d 33e9 8a3c 4a70 1b3a
000001b0: ce9c e8ba 4361 383b 3d1f efbb 7cba ce3b
000001c0: 89da 443c 5e40 88bc 83ea 72b9 6976 bc3a
000001d0: 93ff 053c 527d febc a8cc 7839 5cd8 74ba
000001e0: 0270 ea3b 1fab 7ebc 64e4 23bc 11b6 953a
000001f0: 37d0 c53c 1734 06bd 4db4 c9bc 8337 523d

exp_avg_sq f4 [64, 2]
0.002372112 0.03681721 0.024767514 0.029559288 0.002090244 0.0017803004 0.005518061 0.00079969206
0.00015903635 0.00020560043 0.10857267 0.16295609 0.06633205 0.029263489 0.30521557 0.2618216
0.03053222 0.058468126 0.009463858 0.022495499 0.04322313 0.029646914 0.0042101177 0.012017165
0.42682317 0.4502673 0.067317225 0.0046588937 0.0019128514 0.0074804923 0.057692558 0.06699644
0.01744885 0.011423677 0.090474784 0.10886641 0.00021477682 0.011902044 0.231697 0.2659831
0.001625544 5.7703087e-06 0.00801112 0.001003833 0.010835619 8.4584906e-05 0.0003895809 2.5813104e-05
0.019784039 8.8020955e-05 3.2441494e-05 0.0003517721 0.057949185 0.050748143 0.048704796 0.21624169
0.027493257 0.054209087 0.019676367 0.0016608392 0.0010563085 0.0019222284 0.0012113123 0.022985857
0.0043212674 0.0051683653 0.014825556 0.007917134 0.000114279814 0.016015155 0.012526799 0.08402578
0.015516826 1.3894967e-05 0.052588966 0.045042455 0.022317545 0.000106575855 0.0050945533 0.00050030503
0.0018665626 0.032897312 0.0035635827 0.12792638 0.004276652 0.0024250462 0.071533 0.0055044387
0.00025818037 8.951475e-05 0.0037084913 0.019515894 0.023432009 0.011975166 0.01803317 0.062300682
5.80061e-05 4.370858e-06 0.0072373254 1.4847176e-05 0.00031482484 1.833457e-05 0.0794343 0.083958946
0.00024838233 0.14599138 0.014772111 5.4380034e-05 6.0006958e-05 0.00034678186 0.0012254434 0.0022542183
0.014418105 0.008516143 1.21923e-06 9.069088e-05 0.0013255136 0.02722671 2.0019759e-06 4.9397597e-05
0.0036343238 0.006597411 0.0078414045 0.00039045364 0.057075813 0.03460616 0.051821843 0.07282001
00000000: 6f75 1b3b a5cd 163d 3ee5 ca3c 5226 f23c
00000010: 7afc 083b f858 e93a dad0 b43b 6da2 513a
00000020: ffc2 2639 7296 5739 595b de3d f6dd 263e
00000030: 19d9 873d fcb9 ef3c 3745 9c3e 7b0d 863e
00000040: b51e fa3c 467c 6f3d 4c0e 1b3c 7b48 b83c
00000050: bd0a 313d 16de f23c 07f5 893b a5e3 443c
00000060: 9188 da3e 6f89 e63e 9ddd 893d a2a9 983b
00000070: a4b8 fa3a eb1e f53b 084f 6c3d 6e35 893d
00000080: e4f0 8e3c 602a 3b3c d84a b93d 5af5 de3d
00000090: b735 6139 ca00 433c fa41 6d3e f02e 883e
000000a0: 3510 d53a 939e c136 1341 033c 0c93 833a
000000b0: e187 313c 2d63 b138 aa40 cc39 3889 d837
000000c0: 2312 a23c e497 b838 ca11 0838 0d6e b839
000000d0: 205c 6d3d 49dd 4f3d ae7e 473d 766e 5d3e
000000e0: 8a39 e13c 590a 5e3d 5530 a13c 84b0 d93a
000000f0: d573 8a3a 48f3 fb3a e5c4 9e3a d64c bc3c
00000100: 6b99 8d3b 645b a93b e4e6 723c deb6 013c
00000110: 82a9 ef38 3732 833c 343d 4d3c b515 ac3d
00000120: 493a 7e3c 6e1e 6937 8767 573d 707e 383d
00000130: 49d3 b63c 7a81 df38 36f0 a63b e726 033a
00000140: 73a7 f43a 55bf 063d ff8a 693b 22ff 023e
00000150: 2823 8c3b 86ed 1e3b e57f 923d 945e b43b
00000160: 625c 8739 deb9 bb38 290a 733b ccdf 9f3c
00000170: 7cf4 bf3c 7d33 443c 4cba 933c 002f 7f3d
00000180: 934b 7338 62a9 9236 1627 ed3b 2318 7937
00000190: 130f a539 30cd 9937 73ae a23d abf2 ab3d
000001a0: 5039 8239 c47e 153e b906 723c 1e16 6438
000001b0: fbaf 7b38 46d0 b539 0f9f a03a 82bb 133b
000001c0: ea39 6c3c 4b87 0b3c 6ca4 a335 4c31 be38
000001d0: dbbc ad3a 8d0a df3c af59 0636 4430 4f38
000001e0: d62d 6e3b 182f d83b 3c79 003c cdb5 cc39
000001f0: 54c8 693d 30bf 0d3d 2443 543d a822 953d

exp_avg f4 [64]
0.0052617504 -3.7627065e-05 0.00011942205 0.0006588755 -0.00022247001 0.005649301 0.0020709354 0.0059088618
0.0035909617 -0.001284909 -0.0017834366 0.0012716111 0.008429853 -0.001152502 -0.0012915933 -0.00337489
-0.0010827683 -0.004350492 0.0027293295 -0.006695242 0.0004390078 0.0007755855 0.0011157712 3.416655e-05
0.0015413404 -0.00031761808 0.0026462204 0.008080562 -0.0033606938 -0.0004261457 -0.00067004526 -0.003170912
-0.0009578255 -0.00081121083 0.004322695 0.005486253 0.0012853652 0.002450842 0.0015871013 -0.0006679852
-0.0038860803 -0.0095632 0.00034405474 0.00036641944 2.9203788e-05 -0.0023513308 -0.0010710604 0.004106873
-0.0011429797 -0.0009823899 -8.6652835e-05 -0.0036748475 0.014651773 0.0013618605 0.00034802462 0.00030966278
-0.0008716209 0.0002164772 -0.003840031 -0.00012367142 -0.0011884534 -0.0003863568 -0.0017719329 0.0036757484
00000000: c36a ac3b c1d1 1db8 3a72 fa38 63b8 2c3a
00000010: d746 69b9 c61d b93b 88b8 073b 209f c13b
00000020: 5756 6b3b 646a a8ba 34c2 e9ba 30ac a63a
00000030: 5e1d 0a3c 8d0f 97ba ae4a a9ba 422d 5dbb
00000040: adeb 8dba 928e 8ebb 8dde 323b c363 dbbb
00000050: a12a e639 a950 4b3a 123f 923a 0e4e 0f38
00000060: cd06 ca3a fa85 a6b9 366c 2d3b 5564 043c
00000070: 163f 5cbb 4f6c dfb9 faa5 2fba 13cf 4fbb
00000080: 9516 7bba 70a7 54ba 65a5 8d3b 07c6 b33b
00000090: b379 a83a 4e9e 203b 4806 d03a ba1b 2fba
000000a0: 9cad 7ebb f8ae 1cbc 3f62 b439 fc1b c039
000000b0: a8fa f437 c918 1abb d362 8cba f392 863b
000000c0: 09d0 95ba 89c3 80ba 63b9 b5b8 b6d5 70bb
000000d0: fd0d 703c 7580 b23a 1377 b639 3c5a a239
000000e0: 7d7d 64ba 28fe 6239 08a9 7bbb cbad 01b9
000000f0: e1c5 9bba ef8f cab9 3440 e8ba d3e4 703b
