outputs/centerSquare_4a_PPO_wprior0.998/best_status.pt (torch, 103493 bytes, 84 tensors)

actor.0.weight f4 [64, 8]
000000 4d d9 d6 3d ce 42 d6 3e 89 3b 22 be c3 8a 8b 3e
       0.104906656 0.41847843 -0.15843023 0.27254304
000010 88 f8 2c be 92 61 8d be 21 0f 08 3e 5c 7e 61 3e
       -0.16891682 -0.27613503 0.13287021 0.22020859
000020 87 0b e9 3d 8a 70 fb bd df 62 60 3e 67 f7 d8 bd
       0.11379152 -0.122773245 0.21912716 -0.10594063
000030 cd 54 c5 3e 31 65 1c 3c 05 83 fe 3e 60 c8 51 be
       0.3854126 0.00954561 0.49709335 -0.20486593
000040 41 56 a7 3e e2 e2 6c be eb 73 71 3e 32 a9 cd 3d
       0.32682994 -0.23133424 0.23579375 0.10042037
000050 02 6e b0 bd b9 aa 91 bc 16 c9 9a 3e 57 e4 b8 3e
       -0.08614732 -0.017781602 0.3023154 0.3611171
000060 64 08 9a bd 38 df 4b be d0 b7 bc 3d 44 e6 d7 3e
       -0.07521132 -0.1990937 0.09214747 0.42167866
000070 62 8f bf 3e f3 ae a8 bd d1 7a c6 bd 2f 01 06 3e
       0.3741408 -0.08236494 -0.09691394 0.13086389
000080 11 ae a2 be 77 3c e9 3d 38 73 40 3e 86 f5 7d 3e
       -0.31773427 0.11388486 0.18793952 0.24800691
000090 09 44 ae 3e 32 5b c4 bd d2 fa d9 3d a5 be 28 be
       0.34036282 -0.095877066 0.10643543 -0.16478975
0000a0 18 4d 48 3e 5d c2 02 3f 50 7d bd be 16 80 d2 3d
       0.19560659 0.51077825 -0.37009668 0.10278337
0000b0 3b 2c ad 3e 0f 46 34 3d fc fa 83 3e 18 5c f6 bd
       0.33822808 0.044012126 0.25777423 -0.12029284
0000c0 08 2d 24 be 26 3f d2 3e cd 71 25 be 0a 1a 20 3e
       -0.16032803 0.41063803 -0.16156693 0.15634933
0000d0 90 f9 9f 3e 6c 32 c2 3e 73 fd ca bc 3f cb 6c 3e
       0.3124509 0.37929094 -0.024779057 0.23124407
0000e0 f3 43 3f be 74 71 89 3d 76 cc 7e bd a1 a5 18 3b
       -0.18678264 0.067110926 -0.062206708 0.0023292082
0000f0 54 ea 36 bd 55 b7 77 3e 22 83 85 3e 24 d3 df 3e
       -0.044657066 0.2419103 0.2607661 0.43715775
000100 fd 76 93 3d fe 2e 04 3e ca d1 50 be 10 d3 12 3c
       0.072004296 0.12908551 -0.20392528 0.008961454
000110 c8 b6 49 bd 43 e0 c1 bd e4 2e 85 be bd d8 99 3e
       -0.04924658 -0.09466603 -0.26012337 0.3004817
000120 07 88 32 be 64 3a 87 3e 02 9a ef 3d aa 38 5e 3e
       -0.17434703 0.26411736 0.116992965 0.21701303
000130 ce 3b c5 be 83 38 fd 3c 7b ed 01 be e2 ab 72 be
       -0.3852219 0.030910736 -0.12688248 -0.2369838
000140 2e b7 21 3e 3d 03 a2 bd 21 fc 6b 3e 60 e8 a1 3d
       0.15792534 -0.07910774 0.23045398 0.0790565
000150 43 5f f1 3d fc e3 24 3e ab c1 c0 3c 87 ba 19 be
       0.11785748 0.16102594 0.023529848 -0.15012561
000160 13 82 22 3e b3 2a 3e be 8d d0 37 be 73 b3 7f 3e
       0.15869932 -0.18570976 -0.1795065 0.24970798
000170 8e 2c 12 bf eb 2f 2a be 71 ea 12 be 5c ff 9d 3e
       -0.57099235 -0.16619842 -0.14347245 0.30858886
000180 e9 54 52 be dc fb c7 3d 22 14 f8 3e 85 73 98 3d
       -0.20540203 0.09764835 0.4845286 0.074439086
000190 eb 06 b0 3d 5c a6 76 3e 9c d1 1b bd 7b a5 23 3d
       0.085950695 0.24086899 -0.038041696 0.039952736
0001a0 40 69 a6 3e 62 06 35 bc 83 d6 73 3d 91 9a 16 3f
       0.32502174 -0.011048885 0.059530746 0.588296
0001b0 af 3b e2 3d 2b ed 94 be 71 5f 2c be 29 02 f5 bd
       0.1104654 -0.29087195 -0.16833283 -0.11963303
0001c0 6d 5c c0 bc 4a 51 26 3e 4c 73 52 3e 5f 3b b9 3e
       -0.023481572 0.16241947 0.20551795 0.3617811
0001d0 c4 ed d2 bd 7c 5f 05 3e ea 00 c3 3e 8f 33 2b 3d
       -0.102992564 0.13024706 0.38086635 0.041797217
0001e0 78 49 2b 3e d4 6f 3a bd f7 c0 fc bd 62 7e 14 be
       0.16727245 -0.045516804 -0.123414926 -0.14501336
0001f0 d0 18 a5 3e 1e 02 ab 3e 76 e5 70 be fb 43 c1 3e
       0.32245493 0.33400053 -0.23525032 0.37747177
000200 51 45 eb bd eb 3b 28 3e f7 59 29 3e 40 b8 51 be
       -0.114878304 0.16429107 0.16538225 -0.20480442
000210 1f 32 9a be 0d fb 9b 3e b4 6d e6 be 00 0b 82 3d
       -0.30116364 0.30464974 -0.45005572 0.06349754
000220 c4 c2 66 3d ee 40 51 be c7 09 4d 3e 38 6d f5 3c
       0.056338087 -0.20434925 0.20023261 0.029959306
000230 5c a6 e2 3d 4c 03 b8 be 1e f4 ed 3d 3a 39 0f be
       0.11066887 -0.35940015 0.11618827 -0.13986674
000240 c4 a6 ef be 22 e1 73 3d 3d 78 86 3c 9e 99 1f be
       -0.4680692 0.059540875 0.016414756 -0.15585944
000250 21 2a d4 bd 95 36 de 3d 79 41 c0 3d 7b 89 a0 bd
       -0.10359598 0.108502544 0.09387488 -0.07838722
000260 db a5 03 3e 01 01 61 3e f2 70 23 be 6d 36 b0 bd
       0.12856238 0.21973039 -0.15961054 -0.08604131
000270 e1 1a 8e bd f2 ea 0d be 57 a9 8d bd b9 3b c2 3d
       -0.069387205 -0.13859156 -0.06917065 0.094840474
000280 75 24 00 be 7a 94 39 3e 2c 5e e1 3c fc a2 5c bd
       -0.12513907 0.18123046 0.027510725 -0.05386637
000290 3e bd 0c 3f a9 7c df 3d eb 3f 4b be 34 78 d3 3d
       0.5497626 0.10912449 -0.19848602 0.10325661
0002a0 05 47 64 bc 27 40 e5 3d 59 55 a4 3e de 51 84 be
       -0.013932948 0.11193877 0.32096365 -0.2584371
0002b0 08 6d af be 83 d1 49 be a1 85 39 be 46 e6 61 be
       -0.34262872 -0.19708829 -0.18117382 -0.22060499
0002c0 46 00 73 be ba 8f 0b 3e 90 77 1a 3d 1c d2 de be
       -0.23730573 0.13629046 0.03771168 -0.43519676
0002d0 5f fd 46 be 9f 00 61 be 5c 5e fd 3d d3 7b 1a be
       -0.19432591 -0.21972893 0.12371513 -0.15086298
0002e0 ba db 6f 3e 8b ec 20 bc ef 9a b1 3d 2d 5c a0 3d
       0.23423663 -0.009822021 0.08672129 0.07830081
0002f0 40 32 f8 bc 30 e5 99 3d d1 14 61 bd 97 6e c0 3a
       -0.030297399 0.07514417 -0.054951493 0.0014681396
000300 79 39 ea 3d e2 fc a2 3d c0 93 39 ba bf c5 cd 3e
       0.11436743 0.0795839 -0.00070792064 0.4018993
000310 c2 90 6e 3e b1 6e 51 3d a4 f0 18 3e 90 27 0b 3e
       0.23297408 0.051130954 0.14935547 0.1358931
000320 4f 94 42 be 99 b0 f0 bd d9 26 d9 3d cb 91 43 be
       -0.19001888 -0.11752433 0.10603113 -0.19098584
000330 45 5e 37 bd e0 d7 41 be ed 1f a3 bd 6c d1 21 3d
       -0.044767637 -0.18930006 -0.07965074 0.03950636
000340 8d 3e 26 be 12 d7 94 be ed d8 bf 3e 5f 67 e0 bd
       -0.16234799 -0.29070336 0.3747019 -0.109572165
000350 f3 a2 00 be b9 20 98 be 0f 79 fa 3d 28 0a 85 3e
       -0.1256216 -0.29712465 0.12230121 0.2598431
000360 92 24 21 be 61 9f c5 3e c6 8f f1 3c 53 fc 69 3e
       -0.15736607 0.3859816 0.029487502 0.2285016
000370 fe 17 05 be 11 61 cf be 38 1a 84 3e bc 63 56 bd
       -0.12997434 -0.40503743 0.25801253 -0.052341208
000380 17 72 f3 3d e4 dd 23 3e ac 83 e8 3d fd b1 93 be
       0.11886995 0.16002613 0.113532394 -0.28846732
000390 af 92 00 be 56 16 d7 3c a3 46 7e be e5 05 56 3c
       -0.12555955 0.026255768 -0.24831633 0.013062929
0003a0 c9 34 7a be b0 b2 9e 3e f3 f0 ea 3b 91 14 86 bc
       -0.24434198 0.30995703 0.0071698367 -0.016367229
0003b0 41 e7 5c be 72 01 5e bd 4a 94 4d be 42 a7 ae 3d
       -0.21572591 -0.054200597 -0.20076099 0.08527996
0003c0 3b b0 92 be d3 3a dd bd 8d 10 eb 3e 31 91 f6 3c
       -0.28650078 -0.108022355 0.45911065 0.03009853
0003d0 93 05 54 be e3 67 1c 3e ee f5 3f be 11 c2 a7 bd
       -0.20705251 0.15274005 -0.18746158 -0.08191312
0003e0 0d e0 95 bd 00 05 e5 3d e6 2c 5d 3e 9f 1c 94 3d
       -0.07318125 0.11182594 0.21599159 0.072320215
0003f0 d2 77 a4 bd 25 09 09 bf d7 b2 7e bd d0 01 2a 3e
       -0.080306664 -0.5352958 -0.062182274 0.16602254

actor.0.bias f4 [64]
000000 0e ec f2 bc 7b f2 5c 3b 56 11 11 3d d1 55 0c 3e
       -0.029653575 0.0033713866 0.035416923 0.13704611
000010 c1 bc b5 3d 46 99 82 3d fc 47 5f 3d e8 e3 30 3d
       0.088738926 0.06376891 0.05451201 0.0431861
000020 27 8a 47 bd a6 8b 94 3b 9c 11 6b bd d2 72 49 3d
       -0.048715737 0.004533249 -0.05738984 0.049181767
000030 bc 27 42 bd a1 73 83 bd 5c 0f 71 3c 90 1e 15 bd
       -0.047401175 -0.06418539 0.014713135 -0.0364061
000040 fb 8e 9f bd 93 bd 9d 3b f3 95 9b bd c9 a8 19 3d
       -0.07790943 0.004813859 -0.0759696 0.03751448
000050 73 25 a2 3c 2d dd 36 bd b0 42 91 bd a7 f1 a2 bd
       0.019793248 -0.044644523 -0.07092798 -0.07956248
000060 41 be 6e 3d a2 79 b9 bc d4 cb 83 bb 5e b1 64 3c
       0.05828691 -0.022641007 -0.004022101 0.013958303
000070 f4 db 34 3d 93 3f 90 ba 6d 51 ad bd c9 b5 f2 bc
       0.044155076 -0.0011005275 -0.08462796 -0.029627698
000080 da a2 d8 bc e9 72 02 3d e9 31 91 3c 41 02 21 bb
       -0.026444841 0.031847868 0.017723994 -0.0024567994
000090 ae c0 32 3c ed e2 73 3b 60 59 fd ba c2 c3 16 bc
       0.010910196 0.0037214116 -0.0019329004 -0.009201946
0000a0 05 24 f8 bd 4b fd 69 bd 78 28 d5 3c 01 76 75 3d
       -0.12116245 -0.057126325 0.026020274 0.05992699
0000b0 0b b3 01 bd 62 b0 41 3d 90 22 51 bd 4d 6d a6 bc
       -0.03166489 0.047287352 -0.051058352 -0.02031579
0000c0 61 8b 32 3d 48 ef 1d bd 79 63 9f bc 43 7a 35 3d
       0.043589953 -0.038558275 -0.019456612 0.04430605
0000d0 b6 19 99 3c 3d dd 05 3c d9 cc 41 bd f1 7b ef bc
       0.018689018 0.008170423 -0.0473145 -0.029233905
0000e0 c8 d4 88 3b b7 6e 0f 3d e6 03 20 bd 31 4d 93 3d
       0.004175756 0.035017695 -0.039066218 0.071924575
0000f0 03 4e 05 3e dc 48 21 3c 7f 73 e1 bd c1 e8 80 3c
       0.1301804 0.009844031 -0.11008357 0.015735986

actor.2.weight f4 [5, 64]
000000 a8 c0 2e 3e b3 ad d9 be b2 85 2b 3d b2 b3 19 3e
       0.1706568 -0.42515334 0.04187555 0.15009955
000010 1d 2a a9 bd 30 61 26 be 89 f9 e0 3e 35 68 ec bd
       -0.082599856 -0.16248012 0.4394038 -0.115433134
000020 7a 19 02 3e ab 24 41 3e d0 f9 0d 3e 33 31 30 3e
       0.12705031 0.18861644 0.13864827 0.17206268
000030 cc a0 0a 3e d1 f4 f3 bd 65 15 08 be 41 7a 5c be
       0.13537902 -0.119119294 -0.13289411 -0.21531011
000040 80 d4 01 be e1 39 6a be 71 39 08 3e 04 5a b3 3d
       -0.12678719 -0.22873642 0.13303162 0.087574035
000050 4a 00 f5 3b 2b e0 17 3d 94 cd 09 be b5 86 cd bd
       0.007476841 0.037079018 -0.13457328 -0.10035459
000060 b1 47 c0 3d ea c6 61 3e 13 cc 21 be 26 3c 4f be
       0.09388674 0.22048536 -0.15800504 -0.20237789
000070 32 74 ed bd 3f 21 f8 be 57 2b 11 be 5c 2a 5f be
       -0.11594428 -0.48462865 -0.14176689 -0.21793503
000080 76 da da bd 90 5a cf be 61 f9 68 3e 92 76 8f 3e
       -0.10686199 -0.4049878 0.2275138 0.2802015
000090 ec ac 09 be c9 4b fb 3d c8 98 b8 be cf 76 b2 bd
       -0.1344487 0.12270314 -0.36054063 -0.08714067
0000a0 dc 2a b9 3d 4f bb 2d be 3b c4 02 3e e5 fb cd bd
       0.09041378 -0.16965984 0.12770168 -0.10057811
0000b0 bc b9 42 be 58 4c 68 3e 20 11 94 bd 0b a5 cc 3d
       -0.19016165 0.22685373 -0.07229829 0.09992417
0000c0 e8 a1 8c be 6e 7f 54 3e 53 07 25 be 26 fb a0 3e
       -0.27467275 0.20751736 -0.16116075 0.3144161
0000d0 bd c5 c0 3e fd 3e b0 3e 42 1b 62 be cc a2 0b bc
       0.37650862 0.34423056 -0.2208071 -0.0085227005
0000e0 26 6f 9d bd 3b 80 f8 bd 22 ed ac 3c 7e ca 32 bd
       -0.076872155 -0.12133833 0.021109167 -0.043650143
0000f0 fd b7 8d 3e 84 92 db 3e 61 37 ee 3d b4 b4 86 be
       0.27679434 0.4288522 0.116316564 -0.2630974
000100 2d 4a 24 3e 41 4f 25 bc 90 dc b5 be 7f d2 14 3d
       0.16043921 -0.010089696 -0.35519838 0.036333557
000110 b2 dd 6e be ad cc 1b bd f2 52 0d 3e 26 c8 7c 3e
       -0.23326758 -0.03803699 0.13801172 0.24685726
000120 7e 87 47 3e fd b9 3d 3e eb 08 18 be ed bd 0d 3e
       0.1948528 0.1852798 -0.14847152 0.13841982
000130 72 df 45 be 1e b3 20 3e 73 00 13 3e 07 eb 98 3d
       -0.19323519 0.15693328 0.1435564 0.07466703
000140 fc 2f 96 bd e4 a6 9b 3d ac c9 7c 3e ba 0c 30 3f
       -0.07333371 0.07600191 0.24686307 0.6876942
000150 66 25 92 be a3 f0 74 be 93 dc b6 bd 55 24 75 bd
       -0.28544158 -0.2391992 -0.0892879 -0.059849102
000160 9c 24 0b 3e c5 32 e9 3d 4f 3d a6 3e 03 d7 f6 3d
       0.13588184 0.11386637 0.3246865 0.12052729
000170 5d 61 aa 3e ce 5f 34 bd 1a b7 db bd 22 41 2a be
       0.33277407 -0.04403668 -0.10728283 -0.16626409
000180 67 29 b6 bd 04 c5 cd 3e 29 c5 00 3e 49 c1 57 be
       -0.088946156 0.40189373 0.1257521 -0.21069826
000190 89 a6 9a 3d e4 59 5e 3e 88 fc aa 3c d0 dc f0 3d
       0.07551295 0.21713978 0.02087237 0.11760867
0001a0 c0 d5 44 3e a7 4f b5 3d ff 7a 41 be a2 00 84 3e
       0.19222164 0.08853083 -0.18894576 0.25781733
0001b0 4c 7d d6 be ea 3d 45 3d 4c 2f 8a be 43 cb ce be
       -0.4189247 0.04815475 -0.2698921 -0.4038945
0001c0 7a 37 ae 3e b1 0b 47 be 8e 69 18 3d 39 cc fc ba
       0.340267 -0.19438054 0.03721004 -0.0019286937
0001d0 ed 90 91 3d 2e f0 13 be 2f fe d2 bd 63 e8 cb 3e
       0.071077205 -0.1444709 -0.10302388 0.39825734
0001e0 9e fc 0b be 12 05 b7 be 82 9b 6b 3d 63 2e f4 bd
       -0.13670585 -0.35746056 0.05752135 -0.1192291
0001f0 fd 9d b8 be b8 f4 53 3e 55 ba 2e be a0 01 c4 bd
       -0.36058035 0.20698822 -0.17063268 -0.095706224
000200 da f2 80 3d c5 fe 24 be ec 7d 87 3d 90 b1 ac 3d
       0.0629632 -0.16112812 0.066158146 0.08432305
000210 2d ec ff bd 50 8c 3b bd e4 ea 1c be 28 85 e4 bd
       -0.12496219 -0.04578811 -0.15323979 -0.1115821
000220 5b ae 22 bd da 32 96 bc 6e 55 f0 bd 86 a6 5b 3e
       -0.03971706 -0.018334795 -0.117350444 0.21450242
000230 00 b8 d1 3d f2 9d b5 be 16 1b a4 3d d7 8b b8 be
       0.10240173 -0.35472065 0.08012979 -0.3604419
000240 08 4d a5 bb 2a 58 a5 be 54 dd 82 3d a8 4a b3 3d
       -0.005044583 -0.32293826 0.06389871 0.08754474
000250 59 8f 1e 3d ff 70 0f 3e 25 c4 b8 bd d0 23 53 be
       0.038710926 0.14007948 -0.090217866 -0.2061913
000260 25 2b a3 3d 31 02 88 be 78 78 9b bd de 45 7d be
       0.079672135 -0.26564172 -0.07591337 -0.24733683
000270 68 14 84 bd 33 80 c9 3b e1 33 ea bd 74 c2 86 3e
       -0.06449205 0.0061493157 -0.11435676 0.2632023
000280 4f 1b 18 3c 1f 77 39 bc 2d b3 a2 be 55 17 08 3e
       0.009283855 -0.011319905 -0.31777325 0.1329015
000290 25 e6 9d 3e b2 36 c0 bd b8 aa 3d 3e 8d 6b fa 3e
       0.3083965 -0.09385432 0.18522155 0.4891018
0002a0 a7 05 b8 be 1d 15 d4 3e 63 f3 4f be 95 9d 71 be
       -0.35941812 0.41422358 -0.20307688 -0.23595269
0002b0 e6 42 2e bf 28 4d 3a 3d 5a 22 69 3c 9a 6d 12 be
       -0.6807083 0.04548374 0.014229381 -0.14299622
0002c0 5e 37 b7 3d 83 3f 6a 3e 0b 1b 18 3d 6a 6c 4d 3e
       0.08946107 0.2287579 0.037135165 0.20060888
0002d0 42 97 16 be 47 bd a1 bd 85 71 7a 3d e2 40 f6 3d
       -0.14706138 -0.0789743 0.061143417 0.12024094
0002e0 fb 33 c5 bd 77 d0 60 3c 20 12 87 3d 91 54 7e 3e
       -0.09629055 0.013721577 0.06595254 0.24836947
0002f0 bc de 9e 3e 3a 12 93 3d 3c 1a 1d 3e 80 a4 7f 3e
       0.31029308 0.07181211 0.15342039 0.24965096
000300 64 40 13 be 89 43 4e 3e 05 81 19 bc f2 06 6e bd
       -0.14380032 0.2014295 -0.00936914 -0.058112092
000310 4e a1 0d 3e 4c 7a b1 bd d7 71 3f 3c 92 8c 47 3e
       0.13831064 -0.086659044 0.011684856 0.19487217
000320 22 e6 8b bd 18 01 3b bd 45 cf 84 3e 84 62 02 bf
       -0.06831004 -0.04565534 0.25939384 -0.5093157
000330 58 d3 02 3e 8c 37 01 3e 45 8b de 3e a5 a5 ff bd
       0.12775934 0.12618846 0.4346563 -0.12482766
000340 45 0f 2c 3e 1c 80 8d bd 68 1d 9c 3e d1 04 87 3e
       0.168027 -0.069092005 0.30491185 0.26370862
000350 b0 9e 03 3d 32 37 19 3f d9 d0 ea bb 2d a3 6f bd
       0.032133758 0.59849846 -0.00716601 -0.058505226
000360 13 9f 19 be c1 19 24 3e 8f 8e b6 3e e9 43 18 be
       -0.15002088 0.1602545 0.3565564 -0.14869656
000370 3f bf 86 bd 07 67 4c be 71 df 51 be 45 24 76 3d
       -0.06579446 -0.19961177 -0.20495392 0.060093183
000380 76 e0 00 3f 00 ed 43 be f0 a9 57 3d 2b 17 01 bd
       0.503425 -0.19133377 0.0526523 -0.031516235
000390 3b b2 29 bd 23 5c 2a be 6b fd 01 3e 7d bd 92 3e
       -0.04142974 -0.1663671 0.12694328 0.28660193
0003a0 b6 91 c9 3c a9 54 b0 be 96 7e 99 be 1f 97 45 be
       0.024605613 -0.3443959 -0.2997939 -0.1929593
0003b0 d1 17 61 3e 58 5f 9f 3e c1 c5 48 3d e8 ea 90 be
       0.21981741 0.3112743 0.049016718 -0.2830422
0003c0 8f fc b6 bd dc 41 5d be 93 05 a1 3d d7 27 2e bd
       -0.089348905 -0.21607155 0.07862391 -0.042518463
0003d0 f1 96 4f bd e6 b6 8d 3e 62 f7 8d 3e fa 70 fb 3d
       -0.05068106 0.27678603 0.277278 0.12277408
0003e0 f5 f5 59 3e a7 ac df 3e c9 31 ea bd 5e c5 af 3c
       0.21285231 0.4368641 -0.11435277 0.021456417
0003f0 7c d1 53 3e e5 d3 91 bd fd 29 b5 3e 6d ff 42 be
       0.2068538 -0.07120494 0.35383597 -0.1904275

actor.2.bias f4 [5]
000000 67 61 df 3c 64 57 65 bb e9 24 e7 3c e4 ed 87 bc
       0.027268125 -0.0034994716 0.028215842 -0.016592927
000010 db 08 26 be
       -0.16214316

critic.0.weight f4 [64, 8]
000000 cd b2 05 3e 71 e7 a0 bd 3f 68 6a 3d 88 f0 84 3d
       0.13056488 -0.07856644 0.057228323 0.0649119
000010 61 c8 29 be 8a 2b dc 3d 0a 5d 74 bd e3 e0 9d 3e
       -0.16580345 0.10750492 -0.05965904 0.30835637
000020 1d 26 d5 bd d2 fe 3f be d6 92 5e be 08 79 6f 3c
       -0.1040766 -0.1874955 -0.21735701 0.014616258
000030 e9 8a 9b be 20 af 0e 3e 55 84 74 bd 19 98 b5 bd
       -0.30379418 0.13933992 -0.059696514 -0.08866901
000040 40 38 8a 3e 66 5f 4e be c2 fd 1b 3e f0 6a 61 3d
       0.2699604 -0.20153579 0.1523352 0.055033624
000050 c8 0b 0e 3e 39 fc dc bd 3b 0e 48 3e 93 fb 81 3e
       0.13871682 -0.10790295 0.19536678 0.25387248
000060 52 59 04 3e b8 ea 13 3e 22 52 00 be 9a 44 a9 bd
       0.12924698 0.14445007 -0.12531331 -0.08265038
000070 77 08 4b 3e d5 17 3a be 26 ea 24 bd 43 f2 13 be
       0.19827448 -0.18173154 -0.040262364 -0.14447884
000080 a3 15 8a 3e c3 c1 37 3e c8 bc 8d 3e 23 3c 0d 3e
       0.26969633 0.17945008 0.2768309 0.13792472
000090 e7 78 44 3e d4 73 2b be 1b e8 3c be 43 df 0a bd
       0.19186746 -0.16743404 -0.18447916 -0.033904325
0000a0 c2 c4 8b 3d dc 66 8b 3e 51 37 71 3e a0 93 87 3d
       0.06824638 0.27226913 0.23556258 0.06619954
0000b0 ff d2 c3 bd f4 43 90 be fb 29 24 bd 76 ea bb 3c
       -0.09561729 -0.28176844 -0.0400791 0.022938948
0000c0 30 7d dd 3d 2d be ce 3e 88 82 e7 bd da 7a 1f 3e
       0.10814893 0.40379468 -0.11304194 0.15574208
0000d0 e5 64 0c 3f 64 66 16 3f 51 f7 28 3e 60 41 a7 3d
       0.5484145 0.58749986 0.16500594 0.08166766
0000e0 be 8a d4 3e 9f 9b c2 bd bc 0b 1e 3e b3 e1 c1 3e
       0.41512102 -0.095023386 0.15434164 0.37867507
0000f0 0f c2 85 3e 7e 84 17 3e 02 63 97 3e 56 d0 9d 3e
       0.26124617 0.14796636 0.29567724 0.3082301
000100 da 26 5c be 0e 64 19 be e9 1a 3a be 62 1b 39 3d
       -0.21499196 -0.14979574 -0.18174328 0.04519213
000110 dc 15 d2 be fd 08 50 be 95 a7 90 3c 1d 74 06 3e
       -0.41032302 -0.20315929 0.017658034 0.13130231
000120 9d 6c e2 be d9 03 cb bd 4c f3 ef be 18 09 db be
       -0.4422349 -0.09912843 -0.46865308 -0.42780375
000130 db 0d 88 be c1 a9 a6 be 9e b0 ef bc 9c dd cc bd
       -0.2657307 -0.32551387 -0.029259022 -0.10003206
000140 9a eb 74 be 91 aa 1a be 35 f1 b2 bd b5 f3 34 be
       -0.23918 -0.15104128 -0.08737413 -0.17671092
000150 d7 44 c9 bc 77 3e 88 3e e9 8f fe 3d fd 23 9f 3d
       -0.024568958 0.26610157 0.124297924 0.07770536
000160 01 16 95 3e 5a 89 93 3d ef 6e 23 3e 45 1e a1 3e
       0.2911835 0.07203932 0.15960287 0.31468406
000170 da fa 62 bd f3 5a c0 3d 8a 0c a3 be 23 75 59 3e
       -0.055415012 0.09392347 -0.31845504 0.2123609
000180 26 ae a2 3e ef ef 88 3c 27 3c a8 3e 1f 79 08 3e
       0.3177349 0.016715972 0.32858393 0.13327454
000190 37 f5 99 be 45 f5 84 3d 08 42 39 3d f8 0b 59 3d
       -0.30069897 0.06492094 0.045228988 0.05298993
0001a0 87 d2 e3 3d 02 59 9f 3e a9 34 d0 bd 8d 8f 51 3e
       0.11124139 0.31122595 -0.10166294 0.20464917
0001b0 a4 74 48 be 52 f9 e1 be 94 52 f9 bb 2b 2b c6 bd
       -0.19575745 -0.4413553 -0.007608721 -0.096762024
0001c0 80 e1 5a 3e b5 83 c8 3e d6 e4 bb 3e a5 92 0f 3e
       0.21375084 0.39162984 0.36698025 0.14020784
0001d0 27 d8 d0 bd a5 54 25 bd 0c ae 55 be b9 db 1a be
       -0.10197478 -0.040363926 -0.20867175 -0.1512288
0001e0 d4 cd e0 be 8b 2d ca be e3 32 87 bd 4f 44 0d be
       -0.43907034 -0.39487872 -0.06601503 -0.13795589
0001f0 df 0d 86 3d 54 35 f3 3e e7 3e 2d 3e 98 39 99 3e
       0.065456145 0.47501624 0.16918527 0.29926753
000200 dd 51 90 be 07 33 d8 3d 83 5d ba bc f4 57 23 3e
       -0.28187457 0.10556608 -0.022749668 0.1595152
000210 96 90 b1 bd 4b 99 9d be f5 02 29 be ff 85 93 be
       -0.08670156 -0.30781016 -0.16505034 -0.28813168
000220 8f cd b5 3e 67 3f 39 3e 25 7a cf 3e 2f 9a 2e 3d
       0.3550839 0.18090592 0.40522876 0.04262751
000230 6b 33 55 3d 35 35 29 be a4 61 f4 bd 38 f3 94 bd
       0.05205099 -0.16524203 -0.11932686 -0.07272953
000240 a3 0c 39 3e 7c 85 1c 3e 50 2e dd 3d 1f b6 49 bd
       0.18071227 0.15285295 0.10799849 -0.04924595
000250 30 3e 64 3e 42 45 35 be c3 4a c5 3d e6 be 93 bd
       0.22289348 -0.17702201 0.096334 -0.07214145
000260 11 1b e7 3e 23 4b 32 3e 76 37 3f 3e 13 a7 ae bd
       0.45137838 0.17411475 0.186735 -0.08527961
000270 28 fe 72 3d b6 72 d6 3d 14 0b 35 3e 6f 8c 4f bb
       0.059324414 0.10471098 0.17680007 -0.0031669398
000280 fa f5 2e bd 60 74 56 3e 3d 18 c3 bc fb 61 91 bc
       -0.04271505 0.20942831 -0.023815269 -0.017746916
000290 e4 1c 93 be 9e eb 33 be 1b c1 af be d9 d8 e9 be
       -0.2873298 -0.1757035 -0.34327015 -0.45673254
0002a0 75 54 43 3e cb 84 73 bd 49 37 3e be 11 eb a9 3e
       0.19075187 -0.059452813 -0.18575777 0.33187154
0002b0 db a2 8d be e0 46 25 3d 58 4f 81 3c cf bc 46 3e
       -0.2766331 0.040350795 0.015784904 0.19407962
0002c0 5e 2c ce be 0e ac 07 3b b4 67 17 3f 36 37 3a be
       -0.40268224 0.0020701918 0.59142613 -0.18185124
0002d0 f3 bf e1 3c 45 ae 10 3d ec d9 e4 bd 87 c6 c8 bc
       0.027557349 0.035322446 -0.11174378 -0.024508728
0002e0 68 ec e5 3e c7 3d a3 bd 92 b3 e1 bd 26 94 7b be
       0.44906926 -0.079707675 -0.110205784 -0.24568233
0002f0 4e fc 20 be 3f 68 07 3e 46 85 c4 3d 3c 2e bd 3d
       -0.15721247 0.1322336 0.095957324 0.09237334
000300 7d f1 c1 3e 27 f2 91 3e d3 ad 85 bd db c8 c7 3e
       0.37879553 0.2850506 -0.06527295 0.39020428
000310 45 f8 99 3e d9 6e 4c 3e 56 9d 98 3d 29 27 28 3e
       0.30072227 0.1996416 0.074518844 0.16421188
000320 10 c5 b1 3e 34 ff 94 3d 66 50 2d 3e 49 48 f1 3d
       0.3472066 0.07275239 0.16925201 0.117813654
000330 72 94 ea 3e a2 57 87 3e 0c 1d d0 3e 52 d3 01 3e
       0.4581638 0.26434046 0.4064716 0.12678269
000340 9c 43 b2 be 88 8b 14 be fe 1b ad be 35 6b bb 3d
       -0.34817207 -0.14506352 -0.3381042 0.091513075
000350 f8 2d 8e bd 6b 45 5c bd 0a d2 32 be 90 3e ca bd
       -0.069423616 -0.05377714 -0.17462936 -0.09875214
000360 8d 73 76 3d 07 09 4d be 19 14 0d bd ea 74 2b bc
       0.06016879 -0.20022975 -0.034442995 -0.010464886
000370 8d ce 3a be 47 da bb 3e 53 0f 29 be ce 25 d4 be
       -0.18242855 0.3668997 -0.16509752 -0.41435093
000380 fd 1f 11 be ff e3 b1 3e 63 1b 90 3d 89 4e 54 bc
       -0.14172359 0.3474426 0.070364736 -0.012958177
000390 90 76 65 3e 1d d3 93 be 26 8c 8c be df f1 fe 3d
       0.22408509 -0.28872004 -0.27450675 0.12448477
0003a0 5f 84 12 3f f3 80 03 be 27 4c af 3e 6e 43 41 3e
       0.5723323 -0.12842159 0.34237787 0.18873379
0003b0 5b 60 85 bb 7a 4d 84 be 66 5d 8b bd a9 55 90 bd
       -0.0040703244 -0.2584036 -0.06804924 -0.070475884
0003c0 e7 67 fa 3e 72 22 18 3e fb fb 8d 3e e2 b6 c1 bd
       0.48907396 0.1485689 0.27731308 -0.0945871
0003d0 0c 6a 16 be 79 d7 8b 3e fd 68 d0 3e 32 96 ff 3e
       -0.14688891 0.2731283 0.407051 0.49919277
0003e0 68 de 07 3f 1a 17 8b be 4f 87 c6 3e 50 ba 0b 3e
       0.5307374 -0.27166063 0.38775107 0.13645291
0003f0 a9 8e c4 3c 66 29 6c be 20 13 69 3e 9d 0b 45 bd
       0.023993807 -0.23062667 0.22761202 -0.04810678

critic.0.bias f4 [64]
000000 fe 8a 87 3d 0c 09 3d bd 64 81 c0 3d fc 31 97 bd
       0.066183075 -0.046151206 0.09399679 -0.07382581
000010 81 f2 33 3e ed df af bd a1 59 ed 3d d2 0f 13 3e
       0.17572977 -0.08587632 0.11589361 0.14361504
000020 7f 44 11 be 20 df f5 bd 18 b6 92 3d 82 10 30 3e
       -0.14186285 -0.12005448 0.07163638 0.17193797
000030 d6 30 1f 3e 77 36 0f be 22 c7 9f bd b3 58 49 3e
       0.15545973 -0.1398562 -0.078016534 0.19662742
000040 57 fd 1b be e5 ff 2c 3d 15 12 ac 3c 94 dc 2d 3e
       -0.1523336 0.042236228 0.021004716 0.16978675
000050 5f e5 45 be 97 68 88 3d 62 b0 48 bd 82 57 47 bd
       -0.1932578 0.06660574 -0.048996337 -0.04866744
000060 bb 71 08 3e 3e ce 2f 3e 68 c4 97 bd 9d ae a8 bb
       0.13324635 0.17168519 -0.074105084 -0.0051477687
000070 8d bd 8b bd e9 2c 01 bd d8 76 5a 3e ae c7 b8 3d
       -0.06823263 -0.03153697 0.21334398 0.09022461
000080 fc 84 93 3b 5b 50 a2 bb 78 18 1a bd 3e 3b 99 bd
       0.004501937 -0.004953427 -0.03762099 -0.07482003
000090 b4 6d 26 be 66 47 24 bd 62 8e 88 bb 33 c2 35 3e
       -0.16252786 -0.040107153 -0.004167364 0.17749862
0000a0 57 58 3a bd 0e b0 d0 3c ad ad 5c 3e e2 51 69 3e
       -0.045494404 0.025474574 0.21550627 0.22785142
0000b0 15 94 28 3e 53 9a 04 bd 53 4a 8b 3d 64 76 93 bd
       0.16462739 -0.032373738 0.068012856 -0.072003156
0000c0 7e 7e 61 3d 30 41 80 be 60 ed ce 3d 80 5c 1a 3d
       0.055052273 -0.25049734 0.101038694 0.03768587
0000d0 55 5e 3f be 64 61 36 3d 09 5b f4 3b a4 63 e7 3d
       -0.18688329 0.044526473 0.0074571413 0.11298302
0000e0 4a 22 ca 3d d3 c6 ac 3c b2 86 8a 3c 1e 45 e5 bd
       0.09869821 0.0210909 0.01690993 -0.11194824
0000f0 ff d4 c4 3c 71 2c 0a bc 75 93 8a bd 51 c2 8b bd
       0.024027346 -0.008433447 -0.067664064 -0.06824172

critic.2.weight f4 [1, 64]
000000 db b0 06 3f 82 13 93 3e 0d 5f f1 3e 9b 4b e8 3e
       0.5261361 0.2872582 0.4714283 0.45370182
000010 0c b8 28 bf 8b 3c 1c bf 3b 97 89 be c1 10 15 be
       -0.65905833 -0.6102988 -0.26873192 -0.14557172
000020 18 5e 21 3f cc 40 55 3e 15 0f 1b bf 22 d1 56 be
       0.630342 0.208255 -0.6056989 -0.20978215
000030 a0 04 cd 3e 03 b5 bf 3e c4 43 fe be 92 ef de be
       0.4004259 0.37442788 -0.49661076 -0.43542153
000040 05 8f 73 3e 53 af 93 3e 70 ac 91 be 09 3e 3e be
       0.23785026 0.288447 -0.28451872 -0.18578352
000050 a2 d7 a5 3e 9d 80 9e be e6 db 83 3e 00 a9 f3 3e
       0.32391077 -0.309575 0.25753707 0.47589874
000060 24 89 c4 be 19 2c d4 be b9 ab 11 3f bd b2 9d 3e
       -0.3838588 -0.41439894 0.5690265 0.3080043
000070 bf a0 6a 3e 2b 40 9f 3e f1 8e 48 be 3f 91 ab 3e
       0.22912882 0.31103644 -0.19585778 0.3350925
000080 78 61 c2 3e ac 2c d1 3e 23 79 9a 3e d2 26 0e bf
       0.37964988 0.40854394 0.30170545 -0.55527985
000090 a1 ac ef 3e 39 7d 02 be 05 17 e9 3e 4f 36 d9 be
       0.46811393 -0.12743081 0.45525375 -0.42424247
0000a0 b7 0f 92 3e a1 fb 73 3e 74 03 8e be 9a b7 0b bf
       0.28527614 0.23826458 -0.2773701 -0.5457703
0000b0 bb 0d 69 be 72 51 96 3e f1 b6 6e 3e 91 0e 6d 3e
       -0.22759144 0.29359013 0.23311974 0.23150088
0000c0 bc 6a f2 be 3e 8a 7a 3e fe 3f b8 3e 4f 7e 81 be
       -0.47347057 0.24466798 0.35986322 -0.25291678
0000d0 d9 88 fc be 22 18 13 3f de fd 9e 3e cc bb 28 bf
       -0.49323156 0.574587 0.3105306 -0.65911555
0000e0 bc 44 a6 be 57 88 ca be f8 83 7d be 3f 67 85 be
       -0.32474315 -0.39557144 -0.24757373 -0.26055333
0000f0 00 6c 55 be ef 2e 22 3f ab 8f ca 3e 51 9f 33 3e
       -0.2084198 0.63352865 0.39562735 0.17541243

actor.0.weight f4 [64, 8]
000000 85 a7 12 bd 4a 51 5b 3e 54 49 97 3b de c1 af 3d
       -0.03580429 0.21417728 0.0046168957 0.08581899
000010 09 d0 31 be 50 3f 83 bd 90 43 b9 3e 49 ce 80 be
       -0.17364515 -0.0640856 0.3618436 -0.25157383
000020 c7 ef e8 3e 74 26 83 bd 25 ee 0f be 56 cf 83 3e
       0.45495436 -0.06403819 -0.14055689 0.25744122
000030 60 13 aa 3e cd f6 bd bd af e1 1a 3e e1 46 2b be
       0.33217907 -0.09275589 0.15125154 -0.16726257
000040 b2 a3 c8 bd 4e 50 94 be 4b 63 77 bd 08 0b a2 3e
       -0.097968474 -0.28967518 -0.060397428 0.3164904
000050 57 08 1d 3e f4 c3 74 3e e6 2a cf 3d 40 a5 0e be
       0.15335213 0.23902875 0.10115604 -0.13930225
000060 c8 fb 97 bd 41 57 8f 3b 71 14 f8 3d 56 9c 23 be
       -0.0742107 0.004374415 0.12113274 -0.15977606
000070 f6 c2 7a be 79 2b 35 3e f2 36 c5 be 60 84 02 bf
       -0.24488434 0.17692365 -0.38518482 -0.5098324
000080 8a 38 72 be a6 5c 5d 3c 8f d0 2b be 81 dc dd bc
       -0.2365438 0.013510859 -0.16778778 -0.027082684
000090 1b 8d e8 bc be 98 a3 bd 59 0c 2c 3e b8 96 90 be
       -0.028387597 -0.07988118 0.16801585 -0.2823999
0000a0 e4 ed 92 3d ce d2 e4 3e 21 85 36 be 21 75 1c 3e
       0.0717428 0.4469208 -0.17824222 0.15279056
0000b0 e0 6e af be c2 24 d0 3b c2 3c cd bd 2a 4c 6b be
       -0.34264278 0.006352038 -0.10021354 -0.22978273
0000c0 90 b1 0e 3d ce 55 ea be fd c5 7d be f8 50 df bd
       0.034837306 -0.4576859 -0.24782558 -0.109041154
0000d0 ae d9 16 3d 80 d8 ff bd b6 ae 24 3e 8c 93 cc 3d
       0.03682869 -0.12492466 0.16082272 0.0998908
0000e0 36 e4 c8 3b f6 56 64 be ce e3 60 3c d0 e1 2f bc
       0.0061307205 -0.22298798 0.013726188 -0.01073499
0000f0 6f e7 ac bd 51 45 1d be ad c2 1e be 33 58 bf 3c
       -0.0844258 -0.15358473 -0.1550395 0.023357486
000100 b9 fe bd 3e 9f 6c 6f 3e 49 5d ec be da bb 26 be
       0.371084 0.2338128 -0.4616492 -0.16282597
000110 16 e9 55 3d a6 16 e0 3d d3 2e 45 be 23 f9 74 3e
       0.05222424 0.1094182 -0.19256143 0.23923163
000120 66 3f b7 be f9 4b 56 bd 91 25 6a 3e ed a3 dc 3d
       -0.35790557 -0.052318547 0.22865893 0.10773454
000130 91 24 92 be ba 64 87 bd 8f b1 3c 3e de 45 94 be
       -0.28543523 -0.06611009 0.18427108 -0.28959554
000140 6d 41 45 be ed c2 99 be 24 46 24 3e 43 fd 45 be
       -0.19263239 -0.3003153 0.16042382 -0.19334893
000150 30 ff 8e be 23 fd cb 3d fb 24 17 bf 2a 78 5d be
       -0.27929068 0.09960391 -0.590408 -0.2162787
000160 f9 c8 30 3d a6 ee 80 bd 0f 36 80 be 6f 55 8b 3e
       0.043160412 -0.062955186 -0.25041243 0.27213618
000170 0d 91 e1 bc 60 0e 57 3d 31 33 28 be 08 0c 91 3d
       -0.027534986 0.052503943 -0.16425778 0.07082373
000180 03 4e 09 3f e9 27 99 3e dd 4f 66 3c 66 cc 7b be
       0.5363466 0.29913262 0.014057127 -0.2458969
000190 0a 9a 14 3e 39 e6 58 3e 74 8c dd 3e 5c db 00 be
       0.14511886 0.21181573 0.4327122 -0.12583679
0001a0 cc 04 d2 3d 6b 97 1d be c6 55 a5 3e 29 fd 5b be
       0.10254821 -0.15389793 0.32292002 -0.21483292
0001b0 f4 c6 f8 bc a8 3e 77 be 29 b5 0a bd 17 58 69 be
       -0.030368306 -0.24144995 -0.033864174 -0.2278751
0001c0 ff 94 a5 be 70 85 35 3e b9 ec 68 3d c8 8e 40 3e
       -0.32340237 0.17726684 0.05686638 0.18804467
0001d0 22 fe 38 bc 7e 17 81 bc 0c 41 cb 3e 6c 00 a7 3e
       -0.011291059 -0.015758272 0.39698064 0.3261751
0001e0 a8 e9 96 3e fb cf 39 be 79 55 18 3d 7d 73 41 3e
       0.2947514 -0.18145745 0.037190888 0.18891712
0001f0 50 10 d8 3d b4 a4 58 3e 4e 90 15 3e 15 30 64 3e
       0.10549986 0.2115658 0.14605829 0.22283967
000200 80 89 b2 be 39 96 b7 bc 30 96 00 3e 47 85 28 3c
       -0.3487053 -0.022410499 0.12557292 0.010285682
000210 38 44 cd 3e cf 3b be bd f9 18 71 be 88 a4 22 3e
       0.4009111 -0.09288751 -0.23544683 0.15883076
000220 2b d0 eb 3d db 2f 87 be 30 0f 08 be 99 02 02 3c
       0.11514314 -0.26403698 -0.13287044 0.00793519
000230 83 8c a9 be 56 6e 37 3e 34 05 ab 3e 2f 0a f6 bd
       -0.33115014 0.17913184 0.33402407 -0.12013661
000240 de 91 c8 3d 8f 63 de bc f4 91 77 be 0f aa a5 3d
       0.09793447 -0.027147083 -0.2417677 0.08089077
000250 58 6a 0e be 51 ce c6 3e da 6f 25 bc 54 60 63 bc
       -0.13907754 0.38829282 -0.010097468 -0.013877947
000260 a0 40 cd 3e e8 04 7c 3d 46 a2 44 bd 59 13 23 3e
       0.40088367 0.061528116 -0.04800632 0.1592535
000270 06 d8 22 3e 0d 78 22 3e b1 de b4 3d 00 eb 64 3e
       0.15902719 0.15866108 0.088315375 0.2235527
000280 12 22 bb 3e 0f 6a 0c bb 7a 5a 35 be 6b 01 92 be
       0.3654943 -0.002142552 -0.17710295 -0.28516707
000290 28 b7 0e 3e ee a0 e9 3d 92 d5 11 be 9d e9 e6 3a
       0.13937056 0.11407648 -0.14241627 0.001761723
0002a0 aa 71 89 be a2 51 65 bd 3f 5a ce 3d 95 3f 20 3d
       -0.2684453 -0.055986054 0.10075807 0.039123137
0002b0 98 9b 48 bd e0 0f 64 3e bd bd c0 bd 75 8a b6 3d
       -0.04897651 0.22271681 -0.0941119 0.08913127
0002c0 f0 81 0c 3e 77 74 56 3e 1d af 2e bd 35 c2 0a 3e
       0.13721442 0.20942865 -0.04264747 0.13550647
0002d0 b6 5c 59 3e 8a 1d b9 3c ac e7 9d be 6b 66 b0 be
       0.21226773 0.022597093 -0.30840814 -0.3445314
0002e0 44 97 23 bd ec f1 12 3e 11 af d1 3d 46 be 7a 3d
       -0.03993918 0.14350098 0.102384694 0.061216615
0002f0 b3 d0 05 bd 85 c2 07 bf 38 f4 4d 3d 91 9e 80 be
       -0.032669734 -0.5303119 0.050281733 -0.25120977
000300 4c 4d 91 be e1 bf 35 bd 45 44 e5 bd ae 8a 9d be
       -0.28379285 -0.044372443 -0.11194662 -0.30769867
000310 21 0b 47 be 4f dc 1e bf 52 60 72 bd f4 88 7f be
       -0.19437839 -0.62054914 -0.05917389 -0.24954587
000320 a2 c0 00 be 4c 02 8f be f1 d4 f1 bd ee e8 8a 3b
       -0.12573484 -0.2793144 -0.118081935 0.004239193
000330 92 19 55 3d 0b 9e f0 3d d4 31 6f 3e 08 15 17 3e
       0.05202634 0.11748894 0.23358852 0.14754117
000340 da 46 0f be 11 df 9b bd 8d 8a c5 be f6 e3 ca bd
       -0.13991871 -0.07610906 -0.38582268 -0.09906761
000350 2b db cf 3e de f5 97 be 94 3f 66 be 90 22 8d 3d
       0.405969 -0.2967977 -0.2248519 0.06891358
000360 08 ef 64 bd b9 6d 93 3e 39 17 75 be ae 94 cd be
       -0.05589202 0.2879465 -0.2393464 -0.40152496
000370 e2 99 8c be 63 0c 82 bd b8 73 92 bd 07 92 e0 3d
       -0.27461153 -0.06350019 -0.07150978 0.109653525
000380 62 45 48 bc dd 29 4d 3c dd 36 21 be 1b 8c 34 be
       -0.012223573 0.012522188 -0.15743585 -0.17631571
000390 b1 fa 3d 3e 65 a1 28 be da ed e0 bd f2 dd ec bd
       0.18552662 -0.16467817 -0.109828666 -0.1156577
0003a0 7c 38 9f bd 4a a0 4f be f5 f5 f1 be f5 ca e7 3e
       -0.077744454 -0.20275989 -0.47257963 0.4527203
0003b0 ab 39 7a bc 47 39 5f be 05 44 97 bd a4 c0 a6 bd
       -0.015272538 -0.21799193 -0.073860206 -0.08142212
0003c0 be 7b 44 3e 12 86 d0 bd 61 b0 26 3d 82 5b 66 be
       0.19187829 -0.10181822 0.04069555 -0.22495845
0003d0 c9 36 e0 be 3d d5 0e be db 67 15 be bd 6b 29 3e
       -0.43791798 -0.13948531 -0.14590399 0.16545005
0003e0 01 3b 13 3e f4 e4 90 3e cd 78 76 3d 59 cc 75 be
       0.14377977 0.28299677 0.0601738 -0.24003734
0003f0 35 ed d6 3c dd d3 19 3e db ed df 3c 22 da b3 3b
       0.026236156 0.15022226 0.027335098 0.00548865

actor.0.bias f4 [64]
000000 2c 6f b4 3b 50 41 00 3e 46 52 b3 bb 07 62 80 bd
       0.005506417 0.12524915 -0.0054724542 -0.06268697
000010 e0 66 a8 bb a3 27 9f bc 2e 8c eb bc ab e0 9f bc
       -0.005139217 -0.01942808 -0.028753366 -0.01951631
000020 09 7b f5 3c a0 2b 0f bd 4f 0a d5 bc bf 9f b6 bc
       0.029965894 -0.034953713 -0.026005892 -0.02229297
000030 35 68 9c 3d 18 a8 22 bd ca 00 8d bc ec 9a 35 3b
       0.076370634 -0.039711088 -0.01721229 0.002771075
000040 e7 f0 91 3c 51 ec 2e bc da fa b7 3c 4d 17 03 3e
       0.017815067 -0.010676459 0.022458483 0.12801857
000050 41 be bb 3a d9 1e 2b bd b6 67 59 bd 61 70 a0 bc
       0.0014323668 -0.041777465 -0.053077422 -0.019584836
000060 fe 48 e5 ba 9d 08 cb 3c 66 73 53 bd c1 93 f6 bc
       -0.0017493067 0.02478438 -0.051623724 -0.030099751
000070 3b 8f 7d bd 70 bd 09 bc c4 b7 1c bc 76 2b da bc
       -0.061904173 -0.008406982 -0.0095652975 -0.026632052
000080 b0 26 12 bd d7 35 48 bd 72 21 19 3d 44 ab d1 3c
       -0.035681427 -0.04887947 0.03738541 0.025594361
000090 48 b3 ca 3d 02 3c 01 3c 3d 5b e8 bb ba e2 c4 bc
       0.098974764 0.007887842 -0.0070909546 -0.024033893
0000a0 f2 00 39 bd be da 97 bb 25 c7 5f 3d d2 7d e4 bc
       -0.045166917 -0.0046342304 0.05463328 -0.027892027
0000b0 8e 78 c6 3c a1 2d ec bb 4b 6a ad 3d d0 5f 39 3b
       0.024227407 -0.007207588 0.084675394 0.0028285868
0000c0 01 df 43 bd 64 63 bd bb f3 87 2a 3c 80 d3 b2 3d
       -0.047820095 -0.0057796706 0.010408389 0.08731747
0000d0 73 46 b8 3b 77 1c 4a 3c f4 54 30 bd 22 16 35 3d
       0.0056236326 0.012335888 -0.043049768 0.04421056
0000e0 2d 48 9d bc 72 2b 81 3d 77 d0 0d bc 34 5a 96 3c
       -0.019199455 0.06307115 -0.008655659 0.01835356
0000f0 42 be 3f 3c 12 33 80 bd a9 a2 7a 3c 62 a2 0a bc
       0.011703076 -0.06259741 0.01529757 -0.008461567

actor.2.weight f4 [5, 64]
000000 22 6d 29 be 8d fb 7e 3d fd b6 18 3e 4c db 0b 3d
       -0.16545537 0.062251616 0.14913554 0.034144685
000010 24 37 54 3e 5f 64 c6 3d 84 89 ba 3c 2e ec 8f 3e
       0.2072416 0.09687113 0.02277065 0.28109878
000020 e3 5c 86 3e 81 d9 71 3e d2 94 20 be db 61 1e 3e
       0.26242742 0.23618127 -0.1568177 0.15467016
000030 9e f2 84 3e 3f c6 af bd 20 95 30 3d c9 16 58 3e
       0.25966352 -0.08582734 0.043110967 0.21102442
000040 3d d4 ac be 56 e3 8f 3d 13 0a a6 3d 66 c5 88 be
       -0.33755675 0.07025783 0.0810739 -0.26713103
000050 a4 86 3f 3b 32 c3 59 be de 4e 99 bc 77 9b 90 bd
       0.002922454 -0.21265867 -0.018714365 -0.070609026
000060 51 43 c4 3b 39 c4 bc bc 31 1e 7f be 94 f7 b0 3c
       0.00598947 -0.023042785 -0.24913861 0.02160243
000070 8b 7f 34 3e bc 9d 62 bb 26 c0 9d 3d c4 5e a8 be
       0.17626779 -0.003457888 0.07702665 -0.328848
000080 d3 96 99 bd 2b 4a 00 3e e1 b5 e0 3e 31 72 c3 be
       -0.074994706 0.12528293 0.43888763 -0.3817306
000090 e1 24 02 3e fc 1a a2 bd e1 c8 68 be c1 c1 a5 3e
       0.1270938 -0.07915303 -0.22732879 0.32374385
0000a0 da 2e ae 3c 22 96 70 be ed 70 a4 3e 92 9d 9b be
       0.021262575 -0.23494771 0.32117406 -0.30393654
0000b0 19 01 7f 3c 43 b1 63 bd 30 25 a7 3c f2 04 6a be
       0.015564227 -0.05558897 0.020403475 -0.22853449
0000c0 40 ce ae 3d 49 c1 c3 3c 66 d2 24 3e 58 2e a2 be
       0.08535433 0.023895876 0.16095886 -0.31675982
0000d0 ad e1 7c be 40 f9 79 3e 20 9f 8d be ae 3d e0 be
       -0.24695463 0.24411488 -0.27660465 -0.43797058
0000e0 b5 1f 5d 3d 27 4e 6d 3e 0e 07 0a 3f 8a f6 91 be
       0.053985316 0.23174344 0.53917015 -0.28508407
0000f0 6b bf 11 be 48 5e 0c be 7c 98 f1 bd 24 7b 83 be
       -0.14233176 -0.1370784 -0.11796662 -0.25679886
000100 1b fe d3 3b 40 b1 d7 3d 1b e0 bc bd 05 c3 8a be
       0.0064695007 0.10531855 -0.09222432 -0.27101913
000110 f6 fd dd 3d 20 75 b9 be c4 fa 18 3d 68 06 f0 bd
       0.10839455 -0.36222172 0.037348524 -0.11719972
000120 d1 f4 57 3e b3 55 25 be 7c d4 86 be 9d 7c 2e bc
       0.21089484 -0.16145973 -0.26333988 -0.010649827
000130 57 00 60 bd 64 42 f2 bd ce 67 17 be bd da 13 3e
       -0.054687824 -0.11829069 -0.14785692 0.14438911
000140 a1 f9 43 3e ae 3a 9b bc 80 f1 f8 3e 90 98 bd 3d
       0.19138195 -0.01894888 0.4862175 0.092576146
000150 04 6d 1d 3e 08 62 2f 3e 61 c1 a6 be ca 83 9b 3d
       0.15373617 0.1712724 -0.3256941 0.07593496
000160 5a da ba bc 19 55 0d bd 5e ee c8 be c7 0c 54 ba
       -0.022809196 -0.034504984 -0.3924436 -0.0008089062
000170 3e 55 9e be 99 4b 02 be 43 b0 88 3e d5 be 66 bd
       -0.3092441 -0.1272415 0.26696977 -0.056334335
000180 2d 31 8b bd 42 3d 8f be e3 ce 5e 3c ae 70 fa 3e
       -0.06796489 -0.27976424 0.01359913 0.48914093
000190 34 0e 6e 3e 33 da ca bc c8 89 50 3e 13 3e 1b 3e
       0.23247606 -0.024762249 0.2036506 0.15160398
0001a0 7b 24 08 bd 18 66 d0 3d d6 f8 a5 be ea 50 0c bf
       -0.033237915 0.10175723 -0.3241641 -0.54810965
0001b0 35 7a c2 3d 80 c0 db bc 12 dc e6 3d 1e cf 49 3e
       0.094959654 -0.02682519 0.11272444 0.19707915
0001c0 f7 9f 87 3e 6f 2b 45 3e 41 f6 93 3e 7f 24 78 3e
       0.2648923 0.1925485 0.28898814 0.24232672
0001d0 12 78 03 be ce f0 c8 3d ef 35 8a 3d db 72 16 3e
       -0.12838772 0.09811555 0.06748568 0.14692251
0001e0 bc f8 36 3c 14 62 9f 3e 44 f0 9f 3d 13 df 06 3e
       0.011167701 0.31129515 0.07809499 0.13171034
0001f0 58 ef 10 3e a9 9c d9 be ee 1d 08 3d 13 c1 67 be
       0.14153802 -0.42502335 0.03323167 -0.22632246
000200 b0 a5 a2 be 94 0d 4d be 65 01 ca bc 38 3f 83 bd
       -0.31767035 -0.20024711 -0.024658868 -0.064085424
000210 d3 3a 9b 3e 42 b2 08 3e 86 f2 be 3d d5 df c4 3e
       0.30318317 0.1334925 0.093236014 0.3845202
000220 1f 4a 39 bd e8 ac 4a be 1a ef 2b 3e 38 7f d1 be
       -0.045236703 -0.19792521 0.16790429 -0.40917373
000230 d6 50 23 bd b4 37 1a 3f 9f 49 01 bf 64 c2 5d be
       -0.039872013 0.60241246 -0.5050296 -0.21656185
000240 3f 5a e4 3c 1d 4c 2a 3e 32 ce 28 be 2e 94 26 be
       0.027875064 0.16630597 -0.16484907 -0.16267464
000250 23 5a cc be 42 90 ca 3c a3 b6 c8 3e e6 1c d5 3e
       -0.3991252 0.02472699 0.3920184 0.4162361
000260 ae 5a 41 3e 0f f4 05 3e b1 3c 72 3d 2c 53 b9 3d
       0.18882248 0.13081382 0.05913991 0.09049067
000270 f3 92 05 3e 8e d8 96 3e d4 93 af 3d c0 a0 69 3d
       0.13044338 0.29462093 0.08573118 0.05703807
000280 ee d1 b0 bd a6 fd a0 be ae c1 6d 3d 39 4e d8 3c
       -0.08633791 -0.31443518 0.058046035 0.026404487
000290 56 b8 9a be ed 3d 17 bf a4 a4 3d 3e 0d 0c ac 3d
       -0.30218762 -0.59078866 0.18519837 0.08400736
0002a0 38 92 4b 3e 23 e6 04 be 42 85 09 3d 67 fd 8f be
       0.19879997 -0.12978415 0.03357435 -0.28123018
0002b0 19 f0 ab bd 25 c8 b3 be e5 7b b3 bd 22 fe e2 be
       -0.08395404 -0.35113636 -0.087638654 -0.44334513
0002c0 80 19 33 3e cc 22 86 be 0c 51 27 bd f9 6a 5b bd
       0.17490196 -0.26198423 -0.040848777 -0.053568814
0002d0 56 ca 04 be 76 42 9d 3e f7 9f fc 3e 0a 71 6c 3e
       -0.1296781 0.30714768 0.49340793 0.23089996
0002e0 65 79 d2 3c 58 f1 86 be 54 8c 40 be fc 84 8f 3e
       0.025692651 -0.26356006 -0.18803531 0.28031147
0002f0 4e 1c bd 3e f2 27 0f 3e a7 29 f6 bd 0f f8 de bb
       0.36935657 0.13980082 -0.12019663 -0.006804473
000300 c5 9f a3 3e 68 40 63 3d 3e 8f 0d be 41 63 d0 be
       0.31957832 0.055481344 -0.13824174 -0.40700725
000310 19 6b 82 3e 6e 6d 76 3d 92 24 b0 bd 31 8c ce 3d
       0.25472334 0.060162954 -0.08600725 0.10085333
000320 31 c5 b8 be 0b e7 42 3e 04 b4 29 3e dd 82 94 be
       -0.36087945 0.19033448 0.16572577 -0.2900609
000330 be c3 37 be 51 94 cc bd cf b6 98 3e 3e 6b 9f 3e
       -0.17945763 -0.099892266 0.29826972 0.31136507
000340 60 f4 b0 be 05 87 f8 bd 1d b3 9a be d2 5e 63 be
       -0.34561443 -0.12135128 -0.30214778 -0.2220414
000350 9f d8 67 be 75 fd 77 be 5a cd 32 be 50 d7 91 be
       -0.22641228 -0.2421778 -0.17461148 -0.28484583
000360 e8 19 92 bc ba 2b a1 3c 2f 67 3a 3c 79 05 cb bc
       -0.017834619 0.01967417 0.01137714 -0.024782883
000370 49 d9 a3 3d c1 11 39 be d6 80 a8 3d f0 a0 64 3e
       0.08000428 -0.18073179 0.082276985 0.22327018
000380 39 72 87 be 3e f5 57 3d 42 bd 28 3e 4f 96 17 3f
       -0.26454332 0.052724116 0.16478446 0.5921373
000390 ab 02 86 3e 96 2e 0f be 14 3d bc 3d d4 ff be bd
       0.2617391 -0.13982615 0.09191337 -0.09326139
0003a0 27 31 1d bd 81 28 84 bd 07 82 b0 bd 21 25 a0 3e
       -0.038376953 -0.06453038 -0.08618551 0.31278327
0003b0 b7 d3 b5 3d 23 c2 69 be 79 8f 60 3d 0c 25 ab bd
       0.08878272 -0.22827964 0.054824326 -0.083566755
0003c0 7b 63 70 3d a6 36 f6 bd e5 cd 83 bc f5 1f 00 be
       0.058688622 -0.12022142 -0.01608939 -0.1251219
0003d0 fe 2e 6d 3e 68 f6 ee 3d dd 0e 0c bd 37 a1 c9 3d
       0.23162457 0.11668092 -0.034193862 0.098452024
0003e0 c9 2f e7 bd 40 31 c3 bc f5 de 9b 3e 60 eb 8d 3d
       -0.11288411 -0.023827195 0.3044354 0.0692966
0003f0 50 73 4f be 5c b1 f5 be be d1 00 3e 94 9a e0 3d
       -0.20258832 -0.47986877 0.1258001 0.109669834

actor.2.bias f4 [5]
000000 f6 d9 84 3c f5 79 f0 3c 12 83 d7 bd d0 7b a8 3c
       0.016217213 0.029355029 -0.105230466 0.02056685
000010 99 2f 6f be
       -0.23358001

critic.0.weight f4 [64, 8]
000000 d7 1d d4 be f7 fd 56 bd 05 17 90 bd 84 88 58 be
       -0.41429016 -0.052488293 -0.070356406 -0.21145827
000010 35 f8 4a be fe db 67 be ec ab 4a 3d b5 12 dc 3d
       -0.19821246 -0.22642514 0.049480364 0.107457556
000020 44 f2 67 be 0a 75 b0 3d e3 a3 57 bd b9 63 93 be
       -0.22651011 0.086160734 -0.05264653 -0.2878702
000030 33 3e a2 3d 72 77 eb 3e e0 3b bb bd 85 32 80 3e
       0.0792202 0.45989567 -0.091422796 0.25038543
000040 f5 c8 72 3e ac 7e 17 3e 5b c9 76 be 96 c6 9d be
       0.23709472 0.14794415 -0.24100249 -0.30815572
000050 4f 55 99 3e 31 9e b0 bd ac 83 30 be 7f 4c ad be
       0.29947898 -0.086239226 -0.17237729 -0.33847424
000060 be 9a fe 3e fb 99 5d 3e 53 ff 64 be 6b 79 12 be
       0.49727434 0.2164077 -0.22363023 -0.1430413
000070 14 1d 0a 3e 1f 9b 20 bd b9 8a a1 3b b9 de 09 3d
       0.13487655 -0.039210435 0.004929867 0.03365967
000080 32 9a 1a 3e cf 7d 4d 3e e9 a4 01 bf b1 3b 8d 3d
       0.15097883 0.20067523 -0.5064226 0.06896151
000090 c2 41 48 3c cb 8c 2b be 81 46 87 bc d1 2f 05 be
       0.012222709 -0.16752927 -0.016513111 -0.13006522
0000a0 90 59 e6 be 1a c9 33 3d be ef bf bd 78 d7 85 be
       -0.44990206 0.043892957 -0.09371899 -0.26140952
0000b0 2d dd ab bd 90 e4 8c 3e 98 a0 47 3e d4 93 87 3d
       -0.08391795 0.2751813 0.19494855 0.06619993
0000c0 2f 13 9b be 9c 1a 56 3b 64 31 c1 be 7a 34 c3 bd
       -0.30288073 0.003266967 -0.37732995 -0.095314935
0000d0 9a 98 bb be 4a d8 c5 3e 7c e1 83 3e d4 79 03 be
       -0.36639863 0.38641578 0.25757968 -0.12839442
0000e0 f7 a6 eb bc a2 e9 82 be ae fa ff bc 3a db 2e be
       -0.028766138 -0.25568873 -0.031247463 -0.17075816
0000f0 4b 6f d6 bb 78 83 7c 3d e4 7a 29 3c b0 76 19 be
       -0.006544029 0.061648816 0.010344241 -0.14986682
000100 95 3d 4a 3e 40 10 7e 3d 67 6b 1d be 68 4e 87 3d
       0.19750054 0.062027216 -0.15373002 0.06606752
000110 83 1b b9 3d e0 2d b7 be 6b 18 66 3e e5 6e e8 bd
       0.090384506 -0.35777187 0.22470252 -0.113492765
000120 04 11 b2 bd f1 b0 03 be 05 2a 90 bd 1b 35 41 be
       -0.08694652 -0.12860467 -0.070392646 -0.18867914
000130 f6 a8 40 bc cb d0 14 be 2b 55 e6 3e 36 15 9b be
       -0.011759033 -0.14532773 0.44986853 -0.3028962
000140 26 d4 d8 be a7 b4 86 3c 5c 53 b5 be b5 cc b0 bd
       -0.42349356 0.016443564 -0.3541516 -0.08632795
000150 ed f9 4c 3e 75 b2 50 be de ae 9c 3d 03 e1 fe bd
       0.20017214 -0.20380576 0.07650541 -0.12445261
000160 2f 24 3e be 27 02 4b 3d 7f c4 87 be b1 f9 02 bc
       -0.1856849 0.0495626 -0.26517102 -0.007994101
000170 ae 57 3c bd 2c c9 8d bd ac de 89 3d e0 de bb 3c
       -0.045982055 -0.06923136 0.067319244 0.022933424
000180 46 df 85 bf 8a bf a1 3b 30 62 e1 3a cf 5d 2f be
       -1.0458763 0.0049361633 0.00171954 -0.17125629
000190 3d b7 6a 3e 32 48 47 be de 06 a6 be a7 0e 09 be
       0.22921462 -0.19461134 -0.32427114 -0.13384496
0001a0 92 c0 a8 3d e2 80 59 be 40 c6 af 3e a3 36 87 bd
       0.08239855 -0.21240571 0.3433094 -0.06602218
0001b0 58 44 49 be 3f 14 2b 3e 8a 89 3a 3e 2b db cc 3d
       -0.19654977 0.16706942 0.1821653 0.100027405
0001c0 fd 56 73 bd d9 5d 6d bd 62 57 53 bd 87 55 d9 bd
       -0.05940913 -0.05795083 -0.051597007 -0.10612016
0001d0 d1 19 65 3e e3 80 64 bd cb 6a 49 bd 61 97 9b 3e
       0.2237313 -0.05578698 -0.04917411 0.3038893
0001e0 48 96 91 3d f0 9a e7 3c bb ae 93 bd 32 fb a9 3e
       0.07108742 0.028272122 -0.072110616 0.3319946
0001f0 85 34 ad bd 3e 7d 5d be b5 66 dd bc 07 e5 96 3e
       -0.08457283 -0.21629807 -0.027026514 0.2947161
000200 89 e2 15 3e 88 1b 9f be fa 9a 9f be 10 93 a4 be
       0.14637198 -0.31075692 -0.31172925 -0.3214345
000210 b9 da 2e 3e b0 6c d6 bd 2c 11 d3 be ac 46 1f be
       0.17075624 -0.10469949 -0.4122404 -0.15554303
000220 27 72 3d bd e4 cf d2 be b0 db 0d bf e7 4f dd bd
       -0.046251442 -0.41174233 -0.5541334 -0.10806256
000230 82 c7 f6 3d 72 8b 3b 3c 39 1d 7c bb 65 11 4c 3e
       0.12049772 0.011446821 -0.0038469566 0.1992851
000240 ef d1 f0 3e c4 09 d7 bc 21 52 e0 bd 20 2e 01 bc
       0.47035167 -0.026249774 -0.10953165 -0.007884532
000250 69 9f 8d 3d 00 e7 17 3e 59 9c cf 3d c9 6f 85 3d
       0.06915171 0.14834213 0.10137243 0.06515462
000260 08 11 6b 3e cb f4 0e 3e aa 71 bc 3e 7e a3 f8 3d
       0.22955716 0.13960569 0.3680547 0.12140559
000270 37 f3 b3 3d 04 b8 17 be 98 f4 88 bd 30 aa 46 be
       0.08786624 -0.1481629 -0.066872776 -0.19400859
000280 fc 62 bf 3e b3 11 a3 3d 8c 7a 94 3e 60 41 02 be
       0.37380207 0.0796236 0.28999746 -0.12720251
000290 b0 c2 29 3e 89 85 61 3d 9d 9a 22 bd 73 40 c1 3d
       0.16578174 0.05505899 -0.039698232 0.09436121
0002a0 4f 79 2f be e7 6a 97 be d0 3e b6 bb ea f4 c3 be
       -0.1713612 -0.29573748 -0.005561687 -0.38272792
0002b0 9c 1e 27 be f9 02 e0 bd 24 66 b0 bd f8 68 c3 3c
       -0.1632027 -0.10938067 -0.08613232 0.023853764
0002c0 d8 55 ad be 00 77 83 be 3a 4b ab bb 2d 8f 48 be
       -0.33854556 -0.25676727 -0.0052274736 -0.19585867
0002d0 5f 25 16 3e 8d 61 55 bd 22 9a 64 3d 54 d9 7a 3d
       0.14662693 -0.052094985 0.055811055 0.061242417
0002e0 4b 6d 37 3e 84 c9 44 3e e0 cd f8 bc cf c4 0c 3e
       0.17912786 0.19217497 -0.030371606 0.13746952
0002f0 fc a6 73 3e 1a 66 34 be 92 30 9b be 39 77 51 3e
       0.23794168 -0.17617074 -0.30310494 0.20455636
000300 ac a7 26 3e 46 80 33 be 5a 9b 07 bf 0f a8 84 3d
       0.16274899 -0.17529401 -0.5297142 0.06477367
000310 b3 62 ec be 8c 77 01 bf 5a 3b 10 3e 63 91 6f be
       -0.46169052 -0.5057304 0.14085141 -0.23395304
000320 95 2a c8 3d d0 9a 00 be fc b8 16 3e b7 d4 e2 3e
       0.09773747 -0.12559056 0.14719003 0.44302914
000330 02 49 73 3d 36 39 06 3e 94 be 5d be 4a 96 e9 3d
       0.059395798 0.13107762 -0.21654731 0.114056185
000340 56 68 95 3e fc 99 27 3e ee 40 26 3f 84 cb 6d 3e
       0.29181165 0.16367334 0.64942825 0.23222166
000350 9a b1 30 3e fa 16 dd be 91 78 88 3d b7 49 6f be
       0.1725525 -0.43181592 0.06663621 -0.23367964
000360 ad 09 9b 3d 46 0f 57 3d bd d7 9d 3d a0 7c 01 be
       0.07570205 0.0525048 0.077071644 -0.12645197
000370 95 2b c7 3c 28 e3 3f 3e 99 f3 72 bd f1 71 8b 3e
       0.024312774 0.18738997 -0.059314344 0.27235368
000380 4a ca e4 be 6b 2b 15 3c 0d 4c 03 bd 81 3e ac bd
       -0.44685584 0.00910459 -0.03205495 -0.08410359
000390 b3 e4 3f 3d 02 b6 cf bb fd 82 5d be 6a 69 e5 bc
       0.046848964 -0.0063388357 -0.21632 -0.028004367
0003a0 8c 2e 0d 3e 56 8d ba 3e 22 4f 37 3e 82 65 0c 3c
       0.13787287 0.36435956 0.1790128 0.008569123
0003b0 ac 71 5b be 4b 43 0b bf 30 66 d5 bd c8 ef 35 ba
       -0.21430081 -0.54399556 -0.10419881 -0.0006940332
0003c0 f5 13 63 be 6f ae 80 3e 5e 2d e6 3e 26 54 4b 3e
       -0.22175582 0.25133082 0.44956487 0.19856319
0003d0 82 9d f4 be 65 c6 2f 3c 73 f3 1f 3e 28 42 df bd
       -0.4777642 0.010728453 0.15620212 -0.1090129
0003e0 24 01 73 be 1e a0 b5 3d a4 ef c1 be c0 0a 67 bd
       -0.23730904 0.088684306 -0.37878144 -0.056406736
0003f0 0d 4f 9a 3e 79 30 d8 bc 37 8a d7 bd d0 91 86 be
       0.30138436 -0.026390301 -0.10524409 -0.2628312
