outputs/centerSquare_4a_PPO_wprior0.998/last_status.pt (torch, 103493 bytes, 84 tensors)

actor.0.weight f4 [64, 8]
0	0x3daa04d4	0.08301702
1	0x3f073e5d	0.52829534
2	0xbe0ffb1d	-0.14060636
3	0x3e89b05d	0.26892367
4	0xbe33fb7c	-0.17576402
5	0xbe928376	-0.28615922
6	0x3dfb4c9c	0.122704715
7	0x3e527903	0.20553975
8	0x3ddea3d6	0.10871093
9	0xbe03af5c	-0.12859863
10	0x3e644eea	0.22295728
11	0xbde9c69b	-0.11414834
12	0x3ebe6c08	0.37191796
13	0xbb16485b	-0.002293131
14	0x3efdc963	0.49567708
15	0xbe55f22d	-0.20893164
16	0x3eb39e70	0.35081816
17	0xbe5996eb	-0.21248977
18	0x3e746550	0.23866773
19	0x3e0bd29b	0.13654558
20	0xbd3a451d	-0.045476068
21	0x3c91bace	0.01778927
22	0x3ead8e8a	0.3389781
23	0x3ec3ef77	0.38268635
24	0xbdb2b9cb	-0.087268434
25	0xbe4605d3	-0.1933816
26	0x3d875305	0.066076316
27	0x3ed0520e	0.40687603
28	0x3ec4b75e	0.38421148
29	0xbdb86440	-0.09003496
30	0xbde257cf	-0.110519044
31	0x3ded3f85	0.11584381
32	0xbe9c1798	-0.3048675
33	0x3e03998b	0.1285154
34	0x3e42eb9a	0.19035187
35	0x3e8e1dd3	0.2775713
36	0x3eb8f82c	0.3612684
37	0xbd3b4bf9	-0.04572675
38	0x3e00f829	0.12594666
39	0xbe1fa24a	-0.15589252
40	0x3e3b87b0	0.1831348
41	0x3f034d9a	0.51290286
42	0xbebe2e71	-0.37144807
43	0x3dac7274	0.08420268
44	0x3eb1d7ef	0.34735057
45	0x3d0154f4	0.03157516
46	0x3e808702	0.25103003
47	0xbe071e15	-0.13195069
48	0xbe1f034f	-0.15528606
49	0x3ede3fa6	0.43407935
50	0xbe201395	-0.1563247
51	0x3e245024	0.16046196
52	0x3e9fc08d	0.31201592
53	0x3ec77af1	0.38960984
54	0xbc87a095	-0.016556064
55	0x3e7347ec	0.23757905
56	0xbe55d085	-0.20880325
57	0x3d1b84e4	0.03796853
58	0xbd8579a0	-0.06517339
59	0xbc87eede	-0.016593393
60	0xbd896176	-0.06708042
61	0x3e743508	0.23848355
62	0x3e84a325	0.2590572
63	0x3ed4120c	0.4142002
64	0x3da11763	0.07865789
65	0x3e26db6c	0.1629464
66	0xbe5ab65d	-0.21358629
67	0xba47f781	-0.00076281285
68	0xbd5eb4fb	-0.054371815
69	0xbddf1f25	-0.10894612
70	0xbe850a94	-0.25984633
71	0x3e9b4e6f	0.30333278
72	0xbe1bfac8	-0.15232384
73	0x3e861cf4	0.26193964
74	0x3dfe03b2	0.124030486
75	0x3e6b1a27	0.22959195
76	0xbec34b0d	-0.38143197
77	0x3d2fa13c	0.042878374
78	0xbde34944	-0.11097959
79	0xbe681c52	-0.22667053
80	0x3e115aaa	0.14194742
81	0xbda60424	-0.081062585
82	0x3e6334b1	0.22188069
83	0x3d8a5f20	0.06756425
84	0x3dd5752b	0.10422739
85	0x3e22e059	0.15905894
86	0x3a446c30	0.0007492928
87	0xbe2b1e85	-0.16710861
88	0x3e2bb206	0.1676713
89	0xbdd517ba	-0.10404916
90	0xbe363444	-0.17793375
91	0x3e7743bf	0.24146937
92	0xbf0cad84	-0.54952264
93	0xbe448fd2	-0.19195488
94	0xbe1ea01d	-0.15490766
95	0x3ea7ee00	0.32798767
96	0xbe5387a7	-0.20657216
97	0x3df010ce	0.11721955
98	0x3ef39f3d	0.47582427
99	0x3d9969ab	0.07490858
100	0x3dca10e9	0.098665066
101	0x3e7005d9	0.2343973
102	0xbd5feaba	-0.054667212
103	0x3d227755	0.039664585
104	0x3ebd61ba	0.36988622
105	0x3bf44004	0.0074539203
106	0x3d64d2b2	0.055864997
107	0x3f18aca6	0.5963844
108	0x3dedbaf9	0.11607928
109	0xbe8a8821	-0.27056983
110	0xbe11b941	-0.14230825
111	0xbda158cb	-0.07878264
112	0xbd4f596f	-0.0506224
113	0x3e0cf32a	0.13764635
114	0x3e4971e6	0.19672355
115	0x3eb34b3c	0.35018337
116	0xbe0b48a8	-0.13601935
117	0x3e0ff2db	0.14057486
118	0x3ebee374	0.37282908
119	0x3c84b0a3	0.016197508
120	0x3e3a617e	0.18201253
121	0xbc1b9979	-0.00949704
122	0xbe10bf25	-0.14135416
123	0xbe1db26d	-0.15400095
124	0x3e966462	0.2937346
125	0x3ea388a4	0.31940186
126	0xbe7e046d	-0.24806376
127	0x3ec77075	0.38952985
128	0xbdda9e94	-0.106747776
129	0x3e31e2f3	0.1737173
130	0x3e2e9592	0.17049244
131	0xbe4738dd	-0.19455285
132	0xbe9833d5	-0.29727045
133	0x3ea1a2df	0.31569573
134	0xbeded34e	-0.43520588
135	0x3d93d172	0.07217683
136	0x3d8cb818	0.068710506
137	0xbe5802ed	-0.21094866
138	0x3e48d412	0.19612148
139	0x3be13570	0.0068728253
140	0x3dc3d49c	0.095620364
141	0xbec1d1fc	-0.37855518
142	0x3df11379	0.11771292
143	0xbe0694a2	-0.13142636
144	0xbee473f4	-0.44619715
145	0x3dad35a9	0.084575005
146	0x3b68d42c	0.0035526855
147	0xbe310f42	-0.17290977
148	0xbe01db3b	-0.12681286
149	0x3dc45022	0.095855966
150	0x3da64e91	0.08120454
151	0xbd97108f	-0.07376205
152	0x3e13a97a	0.14420119
153	0x3e6be1b6	0.2303532
154	0xbe2adb69	-0.16685261
155	0xbdbb8f67	-0.09158211
156	0xbd93bf25	-0.07214192
157	0xbe1111ef	-0.14166997
158	0xbd742407	-0.05960467
159	0x3dd9f932	0.10643233
160	0xbe1c70f7	-0.15277468
161	0x3e24e820	0.16104174
162	0x3ce3f451	0.02782646
163	0xbd7b2b0e	-0.061320357
164	0x3f0980f5	0.537124
165	0x3de23947	0.11046081
166	0xbe5ff2cf	-0.21869968
167	0x3d9d0111	0.07666219
168	0xbc135cdf	-0.00899431
169	0x3dfddf9f	0.12396168
170	0x3e9e240f	0.30886886
171	0xbe828c25	-0.25497547
172	0xbeabba6f	-0.33540675
173	0xbe5ae164	-0.21375042
174	0xbe441d23	-0.1915174
175	0xbe5d4caf	-0.21611284
176	0xbe7d31ee	-0.24726078
177	0x3e021c35	0.12706073
178	0x3d370674	0.04468389
179	0xbee288e6	-0.4424507
180	0xbe4ca828	-0.19986022
181	0xbe5b88c2	-0.21438888
182	0x3df63394	0.120215565
183	0xbe20451f	-0.15651368
184	0x3e6f7135	0.23383029
185	0xbd697395	-0.056994993
186	0x3d9ab00d	0.0755311
187	0x3d2875f0	0.0411281
188	0xbdadb8eb	-0.08482536
189	0x3d5059e5	0.05086698
190	0xbda652bd	-0.0812125
191	0xbc899294	-0.016793527
192	0x3e06a06f	0.13147138
193	0x3db5e9ad	0.08882461
194	0x39c9f5de	0.00038520893
195	0x3ecad37b	0.39614472
196	0x3e70fb43	0.23533349
197	0x3d3e53df	0.046466704
198	0x3e213411	0.15742518
199	0x3e193a5c	0.14963669
200	0xbe4b9818	-0.19882238
201	0xbe07ac29	-0.13249268
202	0x3ddb37b0	0.10703981
203	0xbe543df3	-0.20726757
204	0xbd854b1a	-0.06508465
205	0xbe3d6e8e	-0.18499205
206	0xbda417b4	-0.080123335
207	0x3ceef60b	0.029170057
208	0xbe1884ed	-0.14894457
209	0xbe94b3a5	-0.29043308
210	0x3ec71f69	0.38891152
211	0xbdf0716e	-0.11740385
212	0xbdfef6f5	-0.12449447
213	0xbe874fb6	-0.26428002
214	0x3e0a2144	0.13489252
215	0x3e8a3763	0.26995382
216	0xbe0d98c1	-0.13827802
217	0x3ec3d1cc	0.38246
218	0x3ccd2eb6	0.025046688
219	0x3e478e33	0.19487838
220	0xbe1ac8ba	-0.15115634
221	0xbee3a6c4	-0.4446317
222	0x3e86bbbd	0.26315108
223	0xbd17cb26	-0.03705897
224	0x3e18c8b1	0.14920308
225	0x3e347a67	0.17624818
226	0x3df89768	0.121382535
227	0xbe85d922	-0.26142222
228	0xbdd9015d	-0.10595963
229	0x3d8aa618	0.06769961
230	0xbe56d55a	-0.20979825
231	0x3d2d0036	0.04223653
232	0xbe7ba6a2	-0.24575284
233	0x3e9cb150	0.3060403
234	0x3c9c504b	0.019081255
235	0xbc992b2f	-0.01869735
236	0xbe662eaa	-0.22478738
237	0xbd92ccd4	-0.07167974
238	0xbe417694	-0.1889289
239	0x3dae8926	0.08522253
240	0xbe9c88b7	-0.30573055
241	0xbde4b0c3	-0.11166527
242	0x3ef0df44	0.47045338
243	0x3d0e58fe	0.03475284
244	0xbe455497	-0.1927055
245	0x3e210a86	0.1572667
246	0xbe3b4779	-0.18288983
247	0xbdaaf42b	-0.083473526
248	0xbdb1f4e4	-0.08689287
249	0x3df0140b	0.11722573
250	0x3e6463ef	0.22303747
251	0x3d7d3d11	0.061825816
252	0xbd9ffb78	-0.07811636
253	0xbf09c2cc	-0.5381286
254	0xbda67aea	-0.08128913
255	0x3e1e105a	0.15435925

actor.0.bias f4 [64]
0	0xbd22c756	-0.039740883
1	0xba854877	-0.0010168691
2	0x3d9dd323	0.07706287
3	0x3e050d4b	0.12993352
4	0x3de4316e	0.111422405
5	0x3d4b69b1	0.049661342
6	0x3d6dd79d	0.058066953
7	0x3ca92946	0.020649564
8	0xbd437642	-0.0477202
9	0x3c7dd5a5	0.015492831
10	0xbd96443e	-0.07337235
11	0x3d46f80b	0.048576396
12	0xbd3b534c	-0.045733735
13	0xbd1dd6a5	-0.03853478
14	0xbc36d4d8	-0.011159144
15	0xbd47fce2	-0.048825152
16	0xbd8e1aad	-0.06938682
17	0x3b9462e1	0.004528389
18	0xbdb57e8e	-0.08862029
19	0x3d3f9539	0.04677317
20	0xbb85359d	-0.004065229
21	0xbd22a6ff	-0.03971004
22	0xbda865bf	-0.082225315
23	0xbde29230	-0.11063039
24	0x3d8a69ff	0.067584984
25	0xbd0fd610	-0.035116255
26	0x3be5abb4	0.007008994
27	0x3c505c48	0.012717314
28	0x3d959d34	0.07305375
29	0xbab68df2	-0.0013927801
30	0xbda3f000	-0.08004761
31	0xbd2782f6	-0.04089638
32	0xbc426500	-0.011864901
33	0x3d27c5df	0.04096019
34	0x3c5db9c1	0.013533057
35	0xbaa2196d	-0.0012367197
36	0x3cb909f6	0.022587758
37	0x39a29085	0.00031006723
38	0x3ad4a7c3	0.0016224313
39	0xbc4c61fc	-0.012474533
40	0xbdd81f9e	-0.105529055
41	0xbdc6ba7d	-0.097035386
42	0x3cd03361	0.025415124
43	0x3d6b709f	0.05748045
44	0xbd85c4a2	-0.06531645
45	0x3d084485	0.03326847
46	0xbcf7a61e	-0.030230578
47	0xbcd00cfe	-0.02539682
48	0x3d449f31	0.04800338
49	0xbc575435	-0.013142635
50	0xbccad5e6	-0.024760198
51	0x3d942247	0.072331004
52	0x3ce22512	0.027605567
53	0x3c29f3ff	0.010373115
54	0xbd561d1b	-0.05227385
55	0xbcc9a442	-0.024614457
56	0xbb22508c	-0.0024767248
57	0x3d6f6f7a	0.05845592
58	0xbcdb4740	-0.026767373
59	0x3de9af02	0.11410333
60	0x3e2f9053	0.17144899
61	0x3d05f027	0.03269973
62	0xbe0a9850	-0.13534665
63	0x3d32a6bd	0.043616045

actor.2.weight f4 [5, 64]
0	0x3e3fb160	0.18720007
1	0xbed8e168	-0.4235947
2	0x3d29522f	0.041338142
3	0x3e182c84	0.14860731
4	0xbd981517	-0.074258976
5	0xbe26f1c1	-0.1630316
6	0x3ee0b1e7	0.4388573
7	0xbded9dbf	-0.11602353
8	0x3dff21d5	0.12457625
9	0x3e4433cf	0.19160388
10	0x3e0bea11	0.13663508
11	0x3e2affde	0.16699168
12	0x3e0bcb2f	0.13651727
13	0xbddf94b9	-0.109170385
14	0xbe098199	-0.13428344
15	0xbe5e2a81	-0.21695901
16	0xbe01355a	-0.12618008
17	0xbe6bc44b	-0.23024099
18	0x3e07633d	0.1322145
19	0x3dae46e4	0.08509615
20	0x3a83f444	0.0010067304
21	0x3d19feaf	0.0375964
22	0xbe093c79	-0.13401975
23	0xbdaed940	-0.08537531
24	0x3dbf2a2f	0.09334218
25	0x3e624e5b	0.22100203
26	0xbe23be71	-0.15990616
27	0xbe44040d	-0.1914217
28	0xbde965f1	-0.11396397
29	0xbef721f6	-0.48268098
30	0xbe10e71d	-0.14150663
31	0xbe5871c0	-0.21137142
32	0xbdc306a9	-0.09522755
33	0xbed09c61	-0.40744308
34	0x3e6addab	0.22936122
35	0x3e9064e5	0.28201976
36	0xbe091990	-0.13388658
37	0x3ddfd450	0.10929167
38	0xbeb9bdea	-0.36277705
39	0xbd92a4c6	-0.07160334
40	0x3dbba469	0.09162218
41	0xbe3762a6	-0.17908725
42	0x3e000a10	0.12503839
43	0xbdd2e04e	-0.10296689
44	0xbe422aca	-0.18961635
45	0x3e6429d9	0.22281589
46	0xbd924969	-0.07142908
47	0x3dc79ea0	0.09747052
48	0xbe8c1b82	-0.27364737
49	0x3e5107b3	0.20413093
50	0xbe23b47e	-0.15986821
51	0x3e9f1890	0.31073427
52	0x3ebc9436	0.36831826
53	0x3eb08763	0.34478292
54	0xbe5ee746	-0.21767911
55	0x3b85e579	0.004086193
56	0xbd815c40	-0.063164234
57	0xbde0e3a2	-0.109809175
58	0x3cb61372	0.02222607
59	0xbd312885	-0.043251533
60	0x3e8d8599	0.2764099
61	0x3ee52e90	0.44762087
62	0x3df1ae59	0.11800832
63	0xbe8cb964	-0.27485192
64	0x3e2de769	0.16982807
65	0xbcb49bdf	-0.022046981
66	0xbeb8d5b5	-0.36100546
67	0x3cc6fee0	0.024291456
68	0xbe98a7ec	-0.29815614
69	0xbd3376ed	-0.04381459
70	0x3e074970	0.13211608
71	0x3e76ee8a	0.24114433
72	0x3e63b80a	0.22238174
73	0x3e414cdd	0.18876977
74	0xbe2907ae	-0.16506836
75	0x3e3c5f5f	0.18395756
76	0xbe88c490	-0.26712465
77	0x3e187e27	0.14891873
78	0x3e0e4864	0.13894802
79	0x3d8ec44e	0.06971036
80	0xbd8e2b33	-0.06941833
81	0x3dcf5487	0.10123544
82	0x3e805f3b	0.25072655
83	0x3f37c72c	0.7178829
84	0xbea57389	-0.3231471
85	0xbe6efe6c	-0.23339242
86	0xbdaaeff6	-0.0834655
87	0xbd516835	-0.05112477
88	0x3e052ffe	0.13006589
89	0x3df53a29	0.11973984
90	0x3ebc04f3	0.36722526
91	0x3e003d64	0.12523419
92	0x3ea6b310	0.3255849
93	0xbd3bc3bf	-0.045840975
94	0xbdd2405e	-0.10266183
95	0xbe272478	-0.16322505
96	0xbe149180	-0.14508629
97	0x3ee34b8f	0.44393584
98	0x3e02148f	0.12703155
99	0xbe51158f	-0.2041838
100	0x3da6943a	0.08133741
101	0x3e84364a	0.2582267
102	0x3d5afbf2	0.05346293
103	0x3e21331e	0.15742156
104	0x3e4ab899	0.19796981
105	0x3df35f96	0.11883466
106	0xbe233958	-0.15939844
107	0x3e8d7378	0.27627158
108	0xbed382ff	-0.4131088
109	0x3cb77c42	0.022398118
110	0xbe875bd0	-0.26437235
111	0xbecfcb3b	-0.4058474
112	0x3ead02e5	0.3379127
113	0xbe430f60	-0.19048834
114	0x3d37a7f3	0.044837903
115	0x3bad1e9c	0.00528319
116	0x3dc805a1	0.09766699
117	0xbe0dfafe	-0.13865277
118	0xbe03e309	-0.12879576
119	0x3ed6c47e	0.41946787
120	0xbe08b4a4	-0.13350159
121	0xbec5ce03	-0.38633737
122	0x3d7e5180	0.062089443
123	0xbdfe6ba4	-0.124228746
124	0xbebb88ea	-0.36627895
125	0x3e63ae2d	0.22234412
126	0xbe390655	-0.18068822
127	0xbdd40bc8	-0.103538096
128	0x3d2e1c82	0.042507656
129	0xbe14abef	-0.14518712
130	0x3da8228f	0.082097165
131	0x3dd51923	0.10405185
132	0xbdd2d9a2	-0.102954164
133	0xbcf44b75	-0.029821137
134	0xbe0c8903	-0.13724141
135	0xbdc3e0c2	-0.095643535
136	0xbd399a1e	-0.045312993
137	0xbd160085	-0.03662159
138	0xbdd3e918	-0.103471935
139	0x3e46fd1d	0.19432493
140	0x3e008ea4	0.12554413
141	0xbeaa52d5	-0.3326632
142	0x3dc3bd8a	0.09557636
143	0xbeaf9a05	-0.34297195
144	0xbca5ba38	-0.020230398
145	0xbead4f34	-0.3384949
146	0x3d6549cc	0.05597858
147	0x3da1f5c4	0.07908204
148	0x3da1801d	0.07885764
149	0x3dfe3b61	0.124136694
150	0xbdd97ce7	-0.10619526
151	0xbe6c9248	-0.23102677
152	0x3dc3e363	0.09564855
153	0xbe902fa4	-0.28161347
154	0xbdcbca42	-0.09950687
155	0xbe7dafd2	-0.24774101
156	0xbd8d376a	-0.06895335
157	0xbbdd246b	-0.006748726
158	0xbe04f4df	-0.12984036
159	0x3e8478ae	0.2587332
160	0x3ca13970	0.019680709
161	0xbce2fcb2	-0.027708385
162	0xbeaa0081	-0.3320351
163	0x3e045db5	0.12926371
164	0x3e95b99d	0.29243174
165	0xbdbde78d	-0.092726804
166	0x3e226ba7	0.15861379
167	0x3ed2ff8b	0.4121059
168	0xbebfe8d0	-0.3748231
169	0x3ed295d5	0.41129938
170	0xbe57e685	-0.2108403
171	0xbe6f7c15	-0.23387177
172	0xbf3259e8	-0.69668436
173	0x3d77789e	0.060417764
174	0xbae5a54e	-0.0017520578
175	0xbe0b5b04	-0.13608938
176	0x3dca3664	0.098736554
177	0x3e75edda	0.24016514
178	0x3c9d0f73	0.019172406
179	0x3e58675a	0.21133175
180	0xbe20b0b7	-0.15692411
181	0xbdc27757	-0.094954185
182	0x3d84c4d3	0.06482854
183	0x3d8c03fd	0.06836698
184	0xbde01129	-0.10940773
185	0x3c71bea1	0.014754922
186	0x3d4aa40a	0.049472846
187	0x3e858d30	0.2608428
188	0x3ea6c173	0.32569465
189	0x3caf326a	0.021386344
190	0x3e10c1f2	0.14136484
191	0x3e8909e4	0.26765358
192	0xbe1624b3	-0.14662437
193	0x3e43fc6c	0.1913926
194	0xbcaacd81	-0.020849945
195	0xbd8cbf1e	-0.0687239
196	0x3e0d5723	0.13802771
197	0xbdc90c61	-0.09816814
198	0x395b7f02	0.00020932782
199	0x3e3bd063	0.18341212
200	0xbd9fd192	-0.07803644
201	0xbd04d44b	-0.03242902
202	0x3e81d06a	0.2535432
203	0xbf0236d2	-0.508649
204	0x3e068a2b	0.13138644
205	0x3dc62097	0.09674185
206	0x3ed8eb65	0.42367092
207	0xbe0ce880	-0.13760567
208	0x3e37d127	0.17950879
209	0xbd857f24	-0.06518391
210	0x3e9eb954	0.3100077
211	0x3e826131	0.25464776
212	0x3c8a7bdb	0.016904762
213	0x3f1c2911	0.6100016
214	0x3b8db6fa	0.004324791
215	0xbd4715d8	-0.048604816
216	0xbe2566eb	-0.16152541
217	0x3e2fdb59	0.17173518
218	0x3eb8d0cc	0.360968
219	0xbe28494f	-0.16434215
220	0xbd7cf447	-0.0617564
221	0xbe4153ef	-0.18879674
222	0xbe457ccb	-0.19285886
223	0x3d60458f	0.054753836
224	0x3f03059c	0.51180434
225	0xbe480a65	-0.19535215
226	0x3d81e04c	0.06341609
227	0xbcebcea6	-0.028785061
228	0xbcf569db	-0.029957702
229	0xbe30def9	-0.17272557
230	0x3e0c4c07	0.13700877
231	0x3eae1988	0.34003854
232	0x3d0edfc9	0.034881387
233	0xbeb47143	-0.35242662
234	0xbe9e94f1	-0.30973008
235	0xbe4d7fb6	-0.20068249
236	0x3e6ce02a	0.23132387
237	0x3e9f6779	0.3113363
238	0x3d77a5db	0.060460906
239	0xbe9199e6	-0.28437728
240	0xbdc61f3b	-0.096739255
241	0xbe66cd9b	-0.2253937
242	0x3db8acbd	0.09017322
243	0xbd580be0	-0.0527457
244	0xbd4c863c	-0.049932703
245	0x3e939a8a	0.2882884
246	0x3e930418	0.2871406
247	0x3e1ba1ca	0.15198436
248	0x3e59c4b0	0.21266437
249	0x3ee2ea3d	0.44319335
250	0xbdd0b4bc	-0.10190722
251	0x3c47ca89	0.012194284
252	0x3e4866ce	0.19570467
253	0xbd27f744	-0.041007295
254	0x3ebffa18	0.37495494
255	0xbe47d4d9	-0.19514789

actor.2.bias f4 [5]
0	0x3cdae9a2	0.026722733
1	0xbc189d41	-0.009314836
2	0x3d350485	0.044193763
3	0xbce63151	-0.028099688
4	0xbe385125	-0.17999704

critic.0.weight f4 [64, 8]
0	0x3dd741a4	0.10510567
1	0xbdcb61da	-0.09930773
2	0x3d52a478	0.05142638
3	0x3da7918a	0.08182056
4	0xbe1fcf94	-0.15606529
5	0x3dfd5246	0.12369208
6	0xbd31d165	-0.043412585
7	0x3eb5247f	0.35379407
8	0xbdaffc88	-0.085930884
9	0xbe96eb2f	-0.29476306
10	0xbe68744e	-0.22700617
11	0x3d04f99c	0.03246461
12	0xbe8ed8a2	-0.27899653
13	0x3e1ec9a2	0.15506604
14	0xbd36e5a4	-0.044652596
15	0xbddfc212	-0.10925688
16	0x3e8630a2	0.2620898
17	0xbe7b2f19	-0.24529685
18	0x3e1c0238	0.15235221
19	0x3d9b3d9c	0.075801104
20	0x3e1faa8d	0.15592404
21	0xbdb9b87b	-0.0906839
22	0x3e5ad596	0.21370539
23	0x3e6e4c91	0.23271395
24	0x3e0eb376	0.13935646
25	0x3e20455d	0.1565146
26	0xbe0a0c1a	-0.13481179
27	0xbdcbc2b2	-0.099492446
28	0x3e32a30e	0.17445013
29	0xbe3bf938	-0.18356788
30	0xbd03e1cc	-0.03219776
31	0xbe0e9d54	-0.13927203
32	0x3e840d39	0.25791338
33	0x3e860257	0.2617366
34	0x3e8eff3f	0.27929112
35	0x3dfa4af3	0.12221327
36	0x3e34fd00	0.17674637
37	0xbe3e96d7	-0.18612228
38	0xbe4d108b	-0.20025842
39	0xbd783f8f	-0.06060749
40	0x3d930b70	0.07179916
41	0x3e625ac9	0.22104944
42	0x3e832d0b	0.25620303
43	0x3dcb25d0	0.099193215
44	0xbdb83a89	-0.0899554
45	0xbe9b5b52	-0.3034311
46	0xbd08c103	-0.033387195
47	0x3cf894ab	0.030344328
48	0x3d890faf	0.066924445
49	0x3eb48ec9	0.35265186
50	0xbe049ff0	-0.12951636
51	0x3dcf6bca	0.10127981
52	0x3f0f67ae	0.5601758
53	0x3f2196ff	0.63121027
54	0x3df27e96	0.118405506
55	0x3d314318	0.043276876
56	0x3eb54ad7	0.3540866
57	0xbde2001b	-0.11035176
58	0x3e1e01a2	0.1543031
59	0x3ec99b16	0.39376134
60	0x3e85c8ea	0.26129848
61	0x3e2864d1	0.16444708
62	0x3e91f40c	0.28506505
63	0x3e89d08f	0.2691693
64	0xbe42a006	-0.19006357
65	0xbdc7a1e0	-0.09747672
66	0xbe2c9b3b	-0.1685609
67	0x3d9bd674	0.07609263
68	0xbed530dd	-0.41638842
69	0xbe8301cf	-0.25587317
70	0x3c9e7c3f	0.019346355
71	0x3e178998	0.14798582
72	0xbeeda36c	-0.46413743
73	0xbdd4cc07	-0.10390478
74	0xbeeffe53	-0.4687372
75	0xbee7c126	-0.45264548
76	0xbe8faaa0	-0.28059864
77	0xbeb5ecd0	-0.35532236
78	0xbd7aceda	-0.061232425
79	0xbdfc8a12	-0.12331022
80	0xbe74d2b1	-0.23908497
81	0xbe4d97c0	-0.2007742
82	0xbd8c9127	-0.06863623
83	0xbe096695	-0.13418038
84	0xba87d1f9	-0.0010362259
85	0x3e8c2271	0.27370027
86	0x3e05fab1	0.13083912
87	0x3d9ca2d7	0.07648247
88	0x3e904b5a	0.2818249
89	0x3e6c91fa	0.2310256
90	0x3e2e9aa5	0.1705118
91	0x3e9b54ae	0.30338043
92	0xbd71f63d	-0.05907272
93	0x3dad27b2	0.08454837
94	0xbea73b93	-0.3266264
95	0x3e5826eb	0.21108596
96	0x3e9b7895	0.30365434
97	0x3ca8922c	0.020577513
98	0x3ea535b0	0.32267523
99	0x3e239338	0.15974128
100	0xbe8ee457	-0.27908584
101	0x3dafd6d5	0.08585898
102	0x3d86614c	0.06561527
103	0x3dc42bf4	0.09578696
104	0x3dca5135	0.0987877
105	0x3ea27195	0.3172728
106	0xbdf265de	-0.11835836
107	0x3e3c8ad3	0.18412332
108	0xbe4e3aff	-0.20139693
109	0xbed00eec	-0.40636384
110	0xbce45e11	-0.027876886
111	0xbdec8004	-0.115478545
112	0x3e5293d5	0.20564206
113	0x3ec49940	0.3839817
114	0x3ec99b9c	0.39376533
115	0x3e19d508	0.15022671
116	0xbdb99b2a	-0.09062798
117	0xbd301187	-0.042985465
118	0xbe592189	-0.21204199
119	0xbe22d792	-0.15902546
120	0xbed49bb6	-0.41525048
121	0xbec04300	-0.37551117
122	0xbd55defc	-0.052214608
123	0xbdf2be5b	-0.11852714
124	0x3dd12133	0.102114104
125	0x3ed6aa89	0.41926983
126	0x3e435b73	0.19077854
127	0x3ea88848	0.32916474
128	0xbe916d35	-0.2840363
129	0x3cefeefe	0.029288765
130	0xbcb596e0	-0.02216667
131	0x3e43bf35	0.19115908
132	0xbda913a4	-0.08255699
133	0xbe8ce6c9	-0.27519825
134	0xbe07995e	-0.13242099
135	0xbe838660	-0.25688457
136	0x3ebc24aa	0.36746722
137	0x3e1c1bb4	0.15244943
138	0x3ec786cc	0.3897003
139	0x3ccae5cc	0.024767779
140	0x3d309471	0.043110315
141	0xbe21e9e9	-0.15811886
142	0xbdeebdf7	-0.11657327
143	0xbd837721	-0.064192064
144	0x3e34d4af	0.17659257
145	0x3e85d184	0.2613641
146	0x3de8651e	0.113474116
147	0xbd99fdea	-0.075191334
148	0x3e4bac5e	0.19889972
149	0xbe4b56cc	-0.19857329
150	0x3d9c964a	0.07645853
151	0xbdb777f8	-0.08958429
152	0x3ed72154	0.42017615
153	0x3e9da459	0.3078945
154	0x3e3b1f1e	0.18273589
155	0xbe14d14a	-0.14532962
156	0x3a110554	0.0005532105
157	0x3d5d6e72	0.054060407
158	0x3e0105ad	0.12599821
159	0xbd6c1da8	-0.05764547
160	0x3caffe39	0.021483527
161	0x3e8c981f	0.2745981
162	0xbc8af17a	-0.016960848
163	0x3bcd5e4c	0.0062673446
164	0xbe8bfff4	-0.27343714
165	0xbe172245	-0.14759167
166	0xbe5d46b2	-0.21609
167	0xbec8e732	-0.39238888
168	0x3e428fbf	0.19000147
169	0xbd854c38	-0.06508678
170	0xbe3c81f5	-0.1840895
171	0x3eaa06b2	0.33208233
172	0xbe8f0865	-0.27936092
173	0x3d214cbb	0.039379817
174	0x3c887ffe	0.016662594
175	0x3e3ba805	0.18325813
176	0xbedfa240	-0.43678474
177	0xbdfc8d1b	-0.12331601
178	0x3f15de02	0.5854188
179	0xbe262729	-0.16225876
180	0x3d53a4bd	0.05167078
181	0x3d3f5fdb	0.046722274
182	0xbdcd1f41	-0.10015727
183	0xbd026ff1	-0.031845037
184	0x3ec6ddb8	0.38841033
185	0xbe2ca8eb	-0.16861312
186	0xbde44d72	-0.11147584
187	0xbe5a6363	-0.21326976
188	0xbdf0299c	-0.11726686
189	0x3e206b9d	0.15666051
190	0x3df98e3b	0.121853314
191	0x3db9b403	0.09067538
192	0x3ecb81ec	0.3974756
193	0x3e998b9e	0.29989332
194	0xbd8587f4	-0.065200716
195	0x3ecdc407	0.4018862
196	0x3e9be259	0.30446127
197	0x3e5b16cc	0.21395415
198	0x3dc048bd	0.09388874
199	0x3e40a8ec	0.18814439
200	0x3ea156d8	0.3151157
201	0x3d1a37ed	0.03765099
202	0x3e2a4375	0.16627295
203	0x3de2a611	0.11066831
204	0x3ed02894	0.4065596
205	0x3e92080e	0.2852177
206	0x3ebaf151	0.36512235
207	0x3dc949f2	0.09828557
208	0xbeadce1f	-0.3394632
209	0xbe8dd390	-0.27700472
210	0xbeab0933	-0.33405456
211	0x3e1afd97	0.151358
212	0xbc6b598d	-0.014364612
213	0xbaf194c2	-0.0018431174
214	0xbdfad096	-0.12246816
215	0xbd3b35e8	-0.045705706
216	0x3d8705b2	0.06592883
217	0xbec5df4b	-0.38646922
218	0xbd2c5e6f	-0.042082246
219	0xbc7fa963	-0.01560435
220	0xbe3d835c	-0.18507141
221	0x3ebca24c	0.36842573
222	0xbe26d75c	-0.1629309
223	0xbecc2242	-0.39869887
224	0xbe262c71	-0.1622789
225	0x3ea900bc	0.33008373
226	0x3d84dc3c	0.06487319
227	0xbcb88cf7	-0.022528155
228	0x3e3d5091	0.18487765
229	0xbe81706d	-0.25281087
230	0xbe9b3e34	-0.30320895
231	0x3dc934d0	0.09824526
232	0x3f10cdc8	0.56564
233	0xbe5d715d	-0.21625276
234	0x3eade7af	0.33965823
235	0x3e2768c4	0.16348559
236	0xbd0c1d44	-0.034207597
237	0xbe89237d	-0.26784888
238	0xbd9fb91c	-0.07798979
239	0xbd94cc76	-0.0726556
240	0x3ee8e173	0.45484504
241	0x3e2936c3	0.16524796
242	0x3e8e68fe	0.27814478
243	0xbd5959d6	-0.05306419
244	0xbdcbb428	-0.099464715
245	0x3e9e9d6c	0.30979478
246	0x3ee318a7	0.44354746
247	0x3ede0790	0.43365145
248	0x3ef6aaa4	0.48177063
249	0xbea53114	-0.32264006
250	0x3ec66ff5	0.3875729
251	0x3e12255f	0.14272068
252	0x3d175240	0.036943674
253	0xbe702d49	-0.23454775
254	0x3e65fb9c	0.22459263
255	0xbdb7b2a0	-0.08969617

critic.0.bias f4 [64]
0	0x3da9d17e	0.082919106
1	0xbcff2d6d	-0.03114959
2	0x3de294d0	0.1106354
3	0xbd973c04	-0.07384494
4	0x3e23f79f	0.16012429
5	0xbd9b6986	-0.075884864
6	0x3d9f987e	0.077927575
7	0x3e104e26	0.14092311
8	0xbe06ce1f	-0.13164566
9	0xbe15e357	-0.14637505
10	0x3da6626c	0.08124241
11	0x3e27c655	0.16384251
12	0x3e357ff0	0.17724586
13	0xbe23561d	-0.15950818
14	0xbd9daec6	-0.07699351
15	0x3e69583e	0.22787568
16	0xbdfe735d	-0.124243475
17	0x3d3707bb	0.044685107
18	0x3a89d01a	0.001051429
19	0x3df3d674	0.11906138
20	0xbe044075	-0.12915213
21	0x3d824766	0.063612744
22	0xbd19644d	-0.03744917
23	0xbcd109d3	-0.02551738
24	0x3e1d51eb	0.1536328
25	0x3e1694ee	0.1470525
26	0xbcb440f0	-0.02200362
27	0xbb44a22b	-0.0030003886
28	0xbdc1b2c6	-0.094579265
29	0xbd297a73	-0.041376542
30	0x3e7fb7bd	0.24972434
31	0x3dab9e44	0.08379796
32	0x3bd807c6	0.0065927235
33	0xbbbc6836	-0.0057497276
34	0xbca6c579	-0.020357834
35	0xbdb5f9a7	-0.08885508
36	0xbe1ff9ec	-0.15622681
37	0xbd866bab	-0.06563505
38	0x3bb2d26a	0.005457212
39	0x3e2c0d2d	0.16801901
40	0xbd243c42	-0.04009653
41	0x3d01e252	0.031709976
42	0x3e6d04b1	0.23146321
43	0x3e847f83	0.25878534
44	0x3e15575c	0.14584106
45	0xbd473dd1	-0.048642937
46	0x3d6f4b05	0.058421154
47	0xbd62df7a	-0.055388905
48	0x3d5d20bf	0.053986307
49	0xbe70630a	-0.2347528
50	0x3df1718b	0.11789235
51	0x3d6934db	0.056935173
52	0xbe5478df	-0.20749234
53	0x3d3fdfd3	0.046844315
54	0xbb45fa9e	-0.0030209194
55	0x3ddcb4b5	0.10776655
56	0x3d8ba000	0.06817627
57	0x3cbeb7ee	0.023281064
58	0x3b94fa1b	0.0045464165
59	0xbde501a9	-0.11181957
60	0x3cc248a3	0.023716277
61	0x3b42af11	0.0029706398
62	0xbd975976	-0.0739011
63	0xbd665c75	-0.056240518

critic.2.weight f4 [1, 64]
0	0x3f0a30b1	0.5398055
1	0x3e8c6e6a	0.2742799
2	0x3ef77358	0.48330188
3	0x3edf3c66	0.43600768
4	0xbf299632	-0.66244805
5	0xbf1d14d3	-0.613599
6	0xbe837e67	-0.25682375
7	0xbe08e02b	-0.13366763
8	0x3f1e0fc6	0.6174282
9	0x3e491031	0.19635083
10	0xbf185b6d	-0.59514505
11	0xbe4a821c	-0.19776195
12	0x3ed15497	0.4088485
13	0x3ebe1fe8	0.37133718
14	0xbefd6c5b	-0.4949673
15	0xbede51b8	-0.4342172
16	0x3e6753c0	0.22590542
17	0x3e90b02a	0.28259403
18	0xbe8da291	-0.2766309
19	0xbe33a463	-0.17543177
20	0x3e9f794c	0.3114723
21	0xbe98189f	-0.29706284
22	0x3e7bac73	0.24577503
23	0x3ee812a7	0.4532673
24	0xbebe70c5	-0.3719541
25	0xbece13a7	-0.4024937
26	0x3f0f5a2f	0.55996984
27	0x3e9a010f	0.30078933
28	0x3e59fbc7	0.21287452
29	0x3e9de12b	0.30835852
30	0xbe3c5e08	-0.18395245
31	0x3eb215b5	0.34782186
32	0x3ec2a0dc	0.3801335
33	0x3ec79684	0.38982022
34	0x3e92a097	0.28638145
35	0xbf113241	-0.56717306
36	0x3ee8e8b9	0.45490053
37	0xbdf02776	-0.117262766
38	0x3ee53a7b	0.4477118
39	0xbec72d71	-0.38901857
40	0x3e92675f	0.2859449
41	0x3e72890e	0.23685095
42	0xbe87e6be	-0.2654323
43	0xbf08ab38	-0.5338626
44	0xbe4cc869	-0.19998325
45	0x3e94c6e3	0.2905799
46	0x3e6995c4	0.22811037
47	0x3e60dc5d	0.21959062
48	0xbee7829e	-0.4521684
49	0x3e79fc50	0.24412656
50	0x3ebd1ca0	0.36935902
51	0xbe802020	-0.2502451
52	0xbf012504	-0.50447106
53	0x3f120e4b	0.5705306
54	0x3e987870	0.29779387
55	0xbf2723bb	-0.65288895
56	0xbea02c56	-0.31283826
57	0xbec8f339	-0.39248064
58	0xbe783b7e	-0.24241444
59	0xbe81012e	-0.25196213
60	0xbe5b6210	-0.21424127
61	0x3f1d60a6	0.614756
62	0x3ec49d14	0.3840109
63	0x3e39f5e0	0.181602

actor.0.weight f4 [64, 8]
0	0xbcdfae6c	-0.02730485
1	0x3e6a86dc	0.22903007
2	0x3d497ec6	0.049193166
3	0x3db78376	0.08960621
4	0xbe2b36c7	-0.16720115
5	0xbd676bb6	-0.056499206
6	0x3ebb263d	0.3655261
7	0xbe7d1872	-0.24716356
8	0x3efa5fa7	0.48901102
9	0xbcda188c	-0.026623033
10	0xbe17fc4c	-0.14842337
11	0x3e8708f6	0.26374024
12	0x3ead115d	0.3380231
13	0xbdb96b95	-0.09053723
14	0x3e1e24f8	0.1544379
15	0xbe1ff361	-0.15620185
16	0xbde6cc5a	-0.11269446
17	0xbe9d72e7	-0.30751726
18	0xbd9b0ac5	-0.075704135
19	0x3ea1f59d	0.316327
20	0x3e028f61	0.12750007
21	0x3e787190	0.2426207
22	0x3da9fff5	0.08300773
23	0xbe1e4cb8	-0.15458953
24	0xbda9abb2	-0.082847014
25	0x3bde48dd	0.0067835883
26	0x3de42627	0.111400895
27	0xbe21bca7	-0.15794621
28	0xbe815a47	-0.2526419
29	0x3e2c1689	0.16805471
30	0xbec9c7a2	-0.3941012
31	0xbf0be1e4	-0.54641557
32	0xbe680407	-0.22657786
33	0xbb1d736e	-0.00240251
34	0xbe28898b	-0.16458718
35	0xbcbe6081	-0.023239376
36	0xbcd29f09	-0.0257106
37	0xbda820d9	-0.0820939
38	0x3e29c7c3	0.1658011
39	0xbe934de2	-0.28770357
40	0x3d9ac83f	0.07557725
41	0x3ee71e4e	0.45140308
42	0xbe2ecf26	-0.17071208
43	0x3e24230d	0.16028996
44	0xbeb131cf	-0.34608313
45	0x3c252d39	0.010081583
46	0xbdc27b0c	-0.094961256
47	0xbe67803d	-0.22607513
48	0x3d0b84a4	0.034062043
49	0xbee0acd4	-0.43881857
50	0xbe8e0cc5	-0.27744117
51	0xbdf63548	-0.12021881
52	0x3cbe9107	0.023262514
53	0xbe0e08e6	-0.13870582
54	0x3e1bc1dc	0.1521067
55	0x3dd2e03d	0.10296676
56	0x3b5cfed4	0.0033721225
57	0xbe6b1876	-0.2295855
58	0x3c4a10e4	0.012333129
59	0xb9b16280	-0.0003383346
60	0xbdb2c023	-0.087280534
61	0xbe0a2610	-0.13491082
62	0xbe1e890a	-0.15481964
63	0x3ca99f73	0.020705914
64	0x3eadf13e	0.33973116
65	0x3e716f68	0.23577654
66	0xbef22f6d	-0.47301808
67	0xbe3edd5e	-0.18639132
68	0x3cc159bf	0.023602365
69	0x3dabae4e	0.08382855
70	0xbe5f325a	-0.21796551
71	0x3e5c765e	0.21529528
72	0xbeb50f49	-0.35363224
73	0xbd6276f4	-0.055289224
74	0x3e678386	0.22608766
75	0x3dca12ca	0.09866865
76	0xbe9654e5	-0.29361644
77	0xbda5a10d	-0.080873586
78	0x3e2d9a94	0.16953498
79	0xbe9f2ebb	-0.3109034
80	0xbe3d6f41	-0.18499471
81	0xbe98a1bf	-0.29810902
82	0x3e248af9	0.16068639
83	0xbe4143b3	-0.18873481
84	0xbe928ea8	-0.28624463
85	0x3dd78767	0.10523873
86	0xbf1567a5	-0.58361274
87	0xbe576287	-0.21033679
88	0x3d23a8c4	0.03995587
89	0xbd975da0	-0.073909044
90	0xbe9a4754	-0.30132544
91	0x3e893f8b	0.26806292
92	0xbd167779	-0.03673503
93	0x3d33b73f	0.04387593
94	0xbe2cc786	-0.16872987
95	0x3d934382	0.071906105
96	0x3f105f54	0.5639546
97	0x3ea55d6c	0.32297838
98	0x3b21d237	0.0024691948
99	0xbe70bd79	-0.23509778
100	0x3e168b61	0.14701606
101	0x3e5e9d08	0.2173959
102	0x3ee0efca	0.43932945
103	0xbdceabd9	-0.10091371
104	0x3dae15e1	0.08500267
105	0xbe3b9347	-0.183179
106	0x3ea777a3	0.32708463
107	0xbe72bd65	-0.23705061
108	0xbd39be96	-0.045347773
109	0xbe842fe0	-0.25817776
110	0xbd3bccc4	-0.045849577
111	0xbe7cac5f	-0.2467513
112	0xbea15c1d	-0.3151559
113	0x3e42d56c	0.19026726
114	0x3db2a5e4	0.087230474
115	0x3e3d31e2	0.1847606
116	0x3beebdf3	0.0072858273
117	0xbcd590e2	-0.026070062
118	0x3ec06dc1	0.37583736
119	0x3eabb0c9	0.33533314
120	0x3e977c5a	0.2958706
121	0xbe37a595	-0.17934258
122	0x3d56eccd	0.052471925
123	0x3e3a4937	0.18191992
124	0x3df37c40	0.11888933
125	0x3e4c1800	0.1993103
126	0x3e06b1c0	0.13153744
127	0x3e651086	0.22369584
128	0xbeaea68d	-0.34111443
129	0xbc277e56	-0.010222992
130	0x3dec033c	0.115240544
131	0x3c9ec850	0.019382626
132	0x3ed1d996	0.40986317
133	0xbdaec8f9	-0.08534426
134	0xbe6306f6	-0.22170624
135	0x3e2cce6e	0.16875622
136	0x3e0a5e26	0.13512477
137	0xbe7f3330	-0.2492187
138	0xbe207559	-0.15669765
139	0x3cf145be	0.029452201
140	0xbe9a5504	-0.30142987
141	0x3e4d8029	0.2006842
142	0x3eb96dd9	0.3621662
143	0xbdcc3009	-0.099700995
144	0x3deb7d93	0.11498561
145	0xbcb139ad	-0.021633947
146	0xbe8bbc61	-0.2729216
147	0x3dcea64b	0.100903116
148	0xbe019605	-0.12654884
149	0x3eb4b180	0.35291672
150	0x3c9ff75f	0.019527135
151	0x3b3d6c34	0.0028903605
152	0x3ed5b66b	0.41740736
153	0x3d9dbbe1	0.07701851
154	0xbd48534d	-0.048907567
155	0x3e2d1361	0.16901924
156	0x3e318b6b	0.1733834
157	0x3e30d802	0.172699
158	0x3dd17762	0.102278486
159	0x3e7d1153	0.2471364
160	0x3ead7751	0.33880094
161	0xbc2dd9e1	-0.010611028
162	0xbe40b8a6	-0.18820438
163	0xbe9dd1f3	-0.3082424
164	0x3df3546f	0.11881339
165	0x3dcac255	0.09900347
166	0xbe25226d	-0.16126414
167	0xbcc29546	-0.02375282
168	0xbe92ac9a	-0.2864731
169	0xbd755635	-0.059896667
170	0x3dc72068	0.09722978
171	0x3ceb6055	0.028732458
172	0xbd7502e7	-0.05981722
173	0x3e5cc5e7	0.21559869
174	0xbdcfd2b5	-0.10147611
175	0x3d737f0c	0.059447333
176	0x3ddefb17	0.10887735
177	0x3e434d4c	0.19072455
178	0xbd413d29	-0.047177467
179	0x3e037ffb	0.1284179
180	0x3e4ba91b	0.19888727
181	0x3c75413f	0.014969169
182	0xbea6b804	-0.32562268
183	0xbebce2b5	-0.36891714
184	0xbd196568	-0.037450224
185	0x3e0d4084	0.13794142
186	0x3d8f2711	0.06989873
187	0x3d6f4a4d	0.058420468
188	0xbd094477	-0.03351256
189	0xbf0bed26	-0.54658735
190	0x3d86532b	0.06558832
191	0xbe7f92ee	-0.24958393
192	0xbe9d2c05	-0.30697647
193	0xbd837471	-0.06418694
194	0xbde555ad	-0.11197982
195	0xbea13405	-0.31485
196	0xbe44b960	-0.1921134
197	0xbf1edd41	-0.62056357
198	0xbd8794a6	-0.06620149
199	0xbe8bd864	-0.2731353
200	0xbe1369bb	-0.14395802
201	0xbe981425	-0.2970287
202	0xbdc6d84d	-0.09709225
203	0xbb514908	-0.00319344
204	0x3cd188b5	0.025577882
205	0x3e01b60b	0.126671
206	0x3e5d1dd9	0.21593417
207	0x3e052f5b	0.13006346
208	0xbe289a24	-0.1646505
209	0xbdb9fbfe	-0.09081267
210	0xbeb32ef5	-0.34996763
211	0xbe0550e4	-0.13019139
212	0x3ec54661	0.38530257
213	0xbe8f5688	-0.27995706
214	0xbe80df12	-0.2517019
215	0x3d34dad7	0.044154014
216	0xbd4ebc82	-0.050472744
217	0x3e916e37	0.284044
218	0xbe90a4c9	-0.2825072
219	0xbec7b46e	-0.39004844
220	0xbe8f0541	-0.27933696
221	0xbd931be1	-0.07183052
222	0xbd84badb	-0.06480952
223	0x3dea84a4	0.114510804
224	0xbc9e1713	-0.019298112
225	0x3c4e2903	0.01258302
226	0xbe15044f	-0.14552425
227	0xbe4ccc25	-0.1999975
228	0x3e379bd8	0.17930543
229	0xbe25a116	-0.1617473
230	0xbe0f3632	-0.13985518
231	0xbdfb56b2	-0.12272395
232	0xbd9c8a6c	-0.076435894
233	0xbe4dd2cd	-0.20099945
234	0xbf003dea	-0.50094473
235	0x3ee96844	0.4558736
236	0xbc7ff779	-0.015622967
237	0xbe6020a7	-0.21887456
238	0xbd9b52c7	-0.07584148
239	0xbd98de88	-0.074643195
240	0x3e376f6d	0.179136
241	0xbde85c38	-0.11345714
242	0x3d1332db	0.03593717
243	0xbe7764d0	-0.2415955
244	0xbee364d6	-0.4441287
245	0xbe208b76	-0.156782
246	0xbe21d12e	-0.15802452
247	0x3e1c4225	0.15259607
248	0x3e118065	0.14209135
249	0x3e87bc72	0.2651096
250	0x3db7f837	0.0898289
251	0xbe71a166	-0.23596725
252	0x3d0412fa	0.03224466
253	0x3e20ae3a	0.15691462
254	0x3d015756	0.03157743
255	0xba7282ea	-0.0009251075

actor.0.bias f4 [64]
0	0x3c4623c9	0.012093493
1	0x3e09a2f6	0.13441071
2	0xbca5e3eb	-0.020250281
3	0xbd92cc17	-0.07167833
4	0xbbf16f00	-0.0073679686
5	0xbc817130	-0.015801042
6	0xbd0dd619	-0.034628008
7	0xbcb8948a	-0.022531766
8	0x3b91f2d5	0.0044539967
9	0xbd4bb24a	-0.049730577
10	0xbcb50be6	-0.0221004
11	0xbceb7925	-0.02874429
12	0x3db73bd8	0.08946961
13	0xbd701d8a	-0.05862192
14	0xbc0b3561	-0.008496613
15	0x3b2a412c	0.0025978787
16	0x3d03385a	0.032036163
17	0x3c3059c5	0.01076359
18	0x3d20986c	0.03920786
19	0x3e116473	0.14198475
20	0xbca31c1a	-0.01991086
21	0xbd4a76f2	-0.04942984
22	0xbd94223a	-0.07233091
23	0xbc8d7401	-0.017267229
24	0xbbf09ca7	-0.007342893
25	0x3be34e42	0.0069368193
26	0xbd9bd14e	-0.07608281
27	0xbccc67e1	-0.024951877
28	0xbd8df63d	-0.06931732
29	0xbc0704a9	-0.008240857
30	0xbcb80b13	-0.022466218
31	0xbcbf3854	-0.023342289
32	0xbd2418af	-0.040062603
33	0xbd887742	-0.066633716
34	0x3d16e7eb	0.036842268
35	0x3d0fba2b	0.035089653
36	0x3dcd936b	0.10037883
37	0x3b121afb	0.0022293914
38	0xbc1787a4	-0.009248648
39	0xbd117805	-0.03551485
40	0xbd98fcf5	-0.07470123
41	0x3c062d22	0.008189471
42	0x3d43bd7a	0.04778812
43	0xbd13ab39	-0.036051963
44	0x3c80b084	0.01570917
45	0xbc4c5aa2	-0.01247278
46	0x3dddcdd7	0.108302765
47	0xbcca7f97	-0.024719043
48	0xbd65706b	-0.056015413
49	0x3ab50d1d	0.0013813112
50	0x3c933533	0.017969703
51	0x3dbbd5a2	0.091716066
52	0x3c9764b2	0.018480632
53	0x3bc7a3ce	0.006092525
54	0xbd770f34	-0.060317233
55	0x3d47fbae	0.048824005
56	0xbc47490d	-0.012163413
57	0x3d7b87eb	0.06140892
58	0xbc25a14d	-0.010109258
59	0x3cc6ab15	0.0242515
60	0x3ad7627b	0.0016432548
61	0xbd857b11	-0.06517614
62	0x3c9c4465	0.019075582
63	0xbb3d949e	-0.0028927694

actor.2.weight f4 [5, 64]
0	0xbe320f86	-0.17388734
1	0x3d7059c6	0.058679365
2	0x3e1df6a5	0.15426119
3	0x3d1ac268	0.037783056
4	0x3e52e92a	0.20596758
5	0x3dd24466	0.10266952
6	0x3ce40e77	0.027838929
7	0x3e91b8b3	0.28461227
8	0x3e87dc80	0.26535416
9	0x3e74d579	0.23909558
10	0xbe1cdaa2	-0.15317777
11	0x3e277b32	0.16355589
12	0x3e831553	0.25602207
13	0xbda85ee3	-0.08221223
14	0x3d217230	0.03941554
15	0x3e545c85	0.20738418
16	0xbea6e409	-0.32595852
17	0x3d991c18	0.074760616
18	0x3da6c787	0.081435256
19	0xbe8aa243	-0.2707692
20	0x3ac2e0a4	0.0014867974
21	0xbe5d7ce6	-0.21629676
22	0xbc3df913	-0.011595028
23	0xbd891f89	-0.06695468
24	0x3c1dc475	0.009629359
25	0xbcac8427	-0.021059109
26	0xbe7e859d	-0.24855657
27	0x3c9b931a	0.018991042
28	0x3e366de1	0.17815353
29	0x3c2efcee	0.01068042
30	0x3da70bac	0.08156523
31	0xbeaaaf71	-0.33336976
32	0xbdb6ea86	-0.089314505
33	0x3dfd9a75	0.12382976
34	0x3eebae7e	0.46031564
35	0xbec23264	-0.3792907
36	0x3df7ab05	0.12093166
37	0xbda917eb	-0.08256515
38	0xbe69bd8b	-0.22826211
39	0x3ea79b9f	0.32735917
40	0xba301387	-0.0006716777
41	0xbe6ec83e	-0.23318574
42	0x3ea3cf51	0.31994107
43	0xbe99a252	-0.30006653
44	0x3cbb35bd	0.022852773
45	0xbd728fd0	-0.05921918
46	0x3c8da40c	0.017290138
47	0xbe7e3577	-0.24825083
48	0x3d79e6ad	0.061011005
49	0x3ca431b7	0.020043237
50	0x3e13b4f6	0.144245
51	0xbea2b0fb	-0.3177565
52	0xbe7e9889	-0.24862875
53	0x3e7924d8	0.24330461
54	0xbe8b2cd6	-0.27182645
55	0xbedc103f	-0.42981145
56	0x3d8445d6	0.06458633
57	0x3e6a44d3	0.22877817
58	0x3f08e642	0.53476346
59	0xbe903c2e	-0.28170913
60	0xbe1d3f8b	-0.15356271
61	0xbe08aba1	-0.13346721
62	0xbde8845d	-0.11353371
63	0xbe81b49f	-0.25333115
64	0x3c36208f	0.011116161
65	0x3dd8e8e0	0.105912924
66	0xbdd75bc8	-0.10515553
67	0xbe8b1417	-0.27163765
68	0x3df5c92f	0.12001263
69	0xbeba2a1b	-0.3636025
70	0x3cd253dd	0.025674755
71	0xbdf0b5b5	-0.11753408
72	0x3e54c459	0.20778026
73	0xbe1f6b37	-0.15568243
74	0xbe8725a2	-0.263959
75	0xbcb4af86	-0.022056352
76	0xbd5d7741	-0.054068808
77	0xbdf365a9	-0.118846245
78	0xbe16aa2c	-0.14713353
79	0x3e147cb7	0.145007
80	0x3e3bc054	0.18335086
81	0xbcfd3adb	-0.030911854
82	0x3ef5ad16	0.47983617
83	0x3dbedbd3	0.09319272
84	0x3e1d98d5	0.15390332
85	0x3e2ff656	0.17183813
86	0xbea845ea	-0.3286584
87	0x3d9a09e1	0.075214155
88	0xbcbfeaeb	-0.023427447
89	0xbd1df291	-0.038561407
90	0xbec75998	-0.38935542
91	0x3b692af1	0.0035578574
92	0xbe9e6cdb	-0.30942425
93	0xbe0f050c	-0.13966769
94	0x3e896963	0.26838216
95	0xbd5a7b2d	-0.053340126
96	0xbd51b4a2	-0.051197655
97	0xbe9091a5	-0.28236118
98	0xbba15d7b	-0.004924474
99	0x3efd77bd	0.49505416
100	0x3e6d6340	0.23182392
101	0xbcc5a537	-0.024126632
102	0x3e5962e8	0.21229136
103	0x3e1a918c	0.15094584
104	0xbbf7df2a	-0.007564445
105	0x3dc3c53c	0.09559104
106	0xbea94087	-0.33057043
107	0xbf0d564c	-0.55209804
108	0x3dc77b46	0.097403094
109	0xbcd6c60e	-0.026217487
110	0x3de76983	0.11299422
111	0x3e5391ad	0.2066104
112	0x3e8fbf4d	0.28075638
113	0x3e403c9f	0.18773125
114	0x3e95b72f	0.2924132
115	0x3e7ab421	0.24482776
116	0xbe03e880	-0.1288166
117	0x3dd28f8f	0.10281288
118	0x3d87ec11	0.06636823
119	0x3e17a06c	0.1480729
120	0x3c5a52a3	0.013325366
121	0x3e9f3d4d	0.31101456
122	0x3d9ade96	0.07561986
123	0x3e092de2	0.13396409
124	0x3e158d57	0.14604698
125	0xbeda055c	-0.42582214
126	0x3cb89431	0.0225316
127	0xbe6d3c8c	-0.23167628
128	0xbe9a91ef	-0.30189463
129	0xbe6a46b4	-0.22878534
130	0xbc5e5ce3	-0.013571951
131	0xbd11d053	-0.035599064
132	0x3ea9dbf5	0.33175626
133	0x3e171183	0.14752774
134	0x3dd6c16a	0.104861096
135	0x3ed38e1c	0.41319358
136	0xbd9e50b8	-0.0773024
137	0xbe2d7057	-0.16937385
138	0x3e491a6c	0.19638985
139	0xbeddbd8a	-0.4330867
140	0xbd8c006c	-0.06836018
141	0x3f218482	0.63092816
142	0xbf089c32	-0.53363335
143	0xbe7aee53	-0.24504976
144	0x3d23d9cd	0.040002633
145	0x3e3696a0	0.17830896
146	0xbe3b9d84	-0.18321806
147	0xbe43bf91	-0.19116046
148	0xbedce9e1	-0.43147185
149	0x3d6f4cfa	0.05842302
150	0x3ecb00a3	0.39648923
151	0x3ee36374	0.44411814
152	0x3e5e8603	0.21730809
153	0x3e0efc6a	0.13963476
154	0x3d889f2f	0.06670987
155	0x3ddcf305	0.1078854
156	0x3e1e8e4b	0.15483968
157	0x3ea61183	0.32435235
158	0x3df35ca1	0.11882902
159	0x3caae709	0.02086212
160	0xbd691f40	-0.056914568
161	0xbeadd869	-0.3395417
162	0x3cfea344	0.03108371
163	0x3d6905ff	0.056890484
164	0xbeab13ec	-0.33413637
165	0xbf1ea24a	-0.61966383
166	0x3e2dfcf7	0.1699103
167	0x3de674b8	0.11252731
168	0x3e649187	0.2232114
169	0xbe230a3e	-0.15921876
170	0x3cd3344c	0.025781773
171	0xbe95e4b7	-0.29276058
172	0xbd5dda29	-0.054163132
173	0xbec25e5d	-0.37962618
174	0xbdede6f7	-0.11616319
175	0xbed522f0	-0.41628218
176	0x3e0f183e	0.13974091
177	0xbe7de0ab	-0.24792735
178	0xbd9256a4	-0.07145432
179	0xbcdb20dc	-0.026749067
180	0xbe22ac3e	-0.15886018
181	0x3e9b5381	0.30337146
182	0x3f059d38	0.5219302
183	0x3e774e8c	0.24151057
184	0x3c540e65	0.012942885
185	0xbe9430d0	-0.2894349
186	0xbe5e3ccf	-0.21702884
187	0x3ea19d41	0.31565288
188	0x3ec700c5	0.38867775
189	0x3e2c48c3	0.16824631
190	0xbdff1957	-0.12456005
191	0xbcad946f	-0.021188943
192	0x3ea7250b	0.3264545
193	0x3d798cee	0.060925417
194	0xbe0057b5	-0.12533458
195	0xbed33345	-0.41250053
196	0x3e763338	0.24042976
197	0x3d5096de	0.05092513
198	0xbda57da1	-0.080806024
199	0x3dc2a181	0.09503461
200	0xbeb97eb6	-0.36229485
201	0x3e363364	0.17793041
202	0x3e24139f	0.1602311
203	0xbe91b798	-0.28460383
204	0xbe3222eb	-0.17396133
205	0xbdd7ef62	-0.105437055
206	0x3e9b7eae	0.30370086
207	0x3ea23b84	0.31686032
208	0xbeb2e4f5	-0.34940305
209	0xbde1d3bf	-0.110267155
210	0xbe9648ff	-0.29352567
211	0xbe5dbe26	-0.21654567
212	0xbe685bc0	-0.2269125
213	0xbe743e46	-0.2385188
214	0xbe373da9	-0.17894615
215	0xbe94b2f6	-0.29042786
216	0xbcbf1d54	-0.023329414
217	0x3ccfa2af	0.025346128
218	0x3bc19eb2	0.0059088105
219	0xbcf72917	-0.03017096
220	0x3d9c9af0	0.076467395
221	0xbe3b28ae	-0.18277237
222	0x3d91ab99	0.07112808
223	0x3e685684	0.22689253
224	0xbe8a3df8	-0.27000403
225	0x3d73f607	0.0595608
226	0x3e26deda	0.16295949
227	0x3f148ed0	0.58030415
228	0x3e8b2aee	0.2718119
229	0xbe098acb	-0.13431852
230	0x3da356aa	0.07975514
231	0xbdca103f	-0.0986638
232	0xbd35dfbe	-0.04440283
233	0xbd695061	-0.05696142
234	0xbd94ed70	-0.0727185
235	0x3ea166c5	0.3152372
236	0x3d952b24	0.07283619
237	0xbe6421af	-0.22278474
238	0x3d762f57	0.06010374
239	0xbd8f4671	-0.069958575
240	0x3d8b916d	0.06814847
241	0xbddbbc23	-0.107292436
242	0x3b563c0c	0.00326896
243	0xbe04af67	-0.12957536
244	0x3e71e36d	0.23621912
245	0x3ddde352	0.108343735
246	0xbd2584f9	-0.040410016
247	0x3dac97b9	0.08427376
248	0xbe06a401	-0.131485
249	0xbc9abfe9	-0.018890338
250	0x3ea18660	0.31547832
251	0x3d77d4d2	0.060505696
252	0xbe45f67c	-0.19332308
253	0xbef85e80	-0.48509598
254	0x3e08dbe9	0.13365139
255	0x3de899d6	0.11357467

actor.2.bias f4 [5]
0	0x3c4e10f9	0.012577289
1	0x3cf58ac4	0.029973395
2	0xbe08ecf2	-0.13371637
3	0x3cd57f25	0.026061604
4	0xbe85246c	-0.2600435

critic.0.weight f4 [64, 8]
0	0xbec97c43	-0.39352617
1	0x3c0be954	0.0085395165
2	0xbdae0798	-0.08497542
3	0xbe4966ce	-0.19668123
4	0xbe3abf9c	-0.18237156
5	0xbe67375e	-0.22579715
6	0x3d41be95	0.047300894
7	0x3e01b005	0.12664802
8	0xbe756635	-0.2396477
9	0x3dbde5ae	0.092723235
10	0xbc1fc8d4	-0.009752471
11	0xbe8b5fd6	-0.27221555
12	0x3d9c2460	0.076241255
13	0x3ef3397e	0.475048
14	0xbdbb6bdc	-0.09151432
15	0x3e67b463	0.22627406
16	0x3e7646a4	0.24050385
17	0x3e0b8c37	0.13627706
18	0xbe8f6b53	-0.2801157
19	0xbe9ae177	-0.3025014
20	0x3e92242f	0.2854323
21	0xbe14b297	-0.14521252
22	0xbe3d0a51	-0.18460967
23	0xbea76f8a	-0.32702285
24	0x3eeff04b	0.46863016
25	0x3e73ddcc	0.23815078
26	0xbe6249f9	-0.22098531
27	0xbe0ea7b1	-0.13931157
28	0x3e0bc030	0.13647532
29	0xbd204e2f	-0.03913706
30	0x3bad7474	0.0052934233
31	0x3cffc4b3	0.031221723
32	0x3e2656a4	0.16243988
33	0x3e706347	0.23475371
34	0xbf082e3c	-0.5319555
35	0x3d8cf44e	0.06882535
36	0x3d002660	0.031286597
37	0xbe267aa5	-0.16257723
38	0xbc53910e	-0.012913002
39	0xbdd847b9	-0.10560555
40	0xbeea4029	-0.45752075
41	0xb91c42eb	-0.00014902248
42	0xbdcbe47e	-0.09955691
43	0xbe86833a	-0.26271993
44	0xbdbe1016	-0.09280412
45	0x3e86ece0	0.26352596
46	0x3e3f2d17	0.18669544
47	0x3d2474d5	0.040150482
48	0xbe85cc27	-0.26132318
49	0xbc071123	-0.008243832
50	0xbec6091c	-0.38678825
51	0xbdc19c24	-0.094536096
52	0xbeb5e7f8	-0.3552854
53	0x3ecea43f	0.40359685
54	0x3e938f6c	0.2882036
55	0xbdbf3550	-0.093363404
56	0xbcbe7abb	-0.023251882
57	0xbe3aafbf	-0.18231104
58	0xbd1ae95d	-0.03782021
59	0xbe2cca2c	-0.16873997
60	0xbc4850b6	-0.012226274
61	0x3d8eceb1	0.06973017
62	0x3c7e5dda	0.015525306
63	0xbe0d8e79	-0.1382388
64	0x3e40f95e	0.18845126
65	0x3d18b60d	0.037282992
66	0xbe0d73a8	-0.1381365
67	0x3d7d0795	0.06177481
68	0x3da7df5b	0.081968985
69	0xbebbb5c3	-0.3666211
70	0x3e5db2c4	0.21650225
71	0xbe0572d6	-0.13032088
72	0xbdb0d6fe	-0.086347565
73	0xbdda1449	-0.106484
74	0xbdb25e41	-0.08709384
75	0xbe37ab02	-0.17936328
76	0x3bfa7602	0.007643462
77	0xbe04b8bb	-0.12961094
78	0x3eeb3b19	0.45943525
79	0xbe9130e4	-0.28357613
80	0xbed3f4f3	-0.4139782
81	0x3d0bcbe5	0.034129996
82	0xbeb002ab	-0.34377035
83	0xbdc7ac00	-0.09749603
84	0x3e47986a	0.19491735
85	0xbe59c7e1	-0.21267654
86	0x3d8a55a9	0.0675462
87	0xbe188194	-0.1489318
88	0xbe3d96c7	-0.18514548
89	0x3d18a0a5	0.037262578
90	0xbe96a940	-0.29426003
91	0xbaca859c	-0.0015451196
92	0xbd1f0ffd	-0.038833607
93	0xbd6cb8fe	-0.05779361
94	0x3d9a6c3b	0.075401746
95	0x3d10bce0	0.035336375
96	0xbf83fa18	-1.0310698
97	0x3c6e5dad	0.014548701
98	0x39f3bb32	0.00046488043
99	0xbe345678	-0.1761111
100	0x3e6aa790	0.22915483
101	0xbe432309	-0.19056334
102	0xbea3ead3	-0.32015094
103	0xbdab4c13	-0.083641194
104	0x3d6ac9c9	0.057321344
105	0xbe687dc0	-0.2270422
106	0x3ec3b077	0.3822057
107	0xbda4dd25	-0.080499925
108	0xbe5a5cff	-0.21324538
109	0x3e193411	0.14961268
110	0x3e2d969e	0.16951987
111	0x3d896747	0.06709152
112	0xbd852858	-0.065018356
113	0xbd277d25	-0.04089083
114	0xbd444d63	-0.047925364
115	0xbddd2767	-0.10798531
116	0x3e5b9065	0.21441801
117	0xbd8ce440	-0.06879473
118	0xbd72ddcc	-0.059293553
119	0x3e959f31	0.29223016
120	0x3d86e66d	0.06586919
121	0x3ab06616	0.0013458158
122	0xbd8685ac	-0.06568465
123	0x3ead2f0f	0.33824965
124	0xbd887f5a	-0.066649154
125	0xbe59e83a	-0.21279994
126	0xbcb9002c	-0.02258309
127	0x3e9561d1	0.2917619
128	0x3defe93e	0.11714409
129	0xbeb19dee	-0.34690803
130	0xbea1e0db	-0.31616864
131	0xbe9362b8	-0.28786254
132	0x3dfcba1f	0.12340187
133	0xbe078c34	-0.13237077
134	0xbece95c1	-0.40348628
135	0xbe3cacb0	-0.1842525
136	0xbd3b5030	-0.04573077
137	0xbecfad37	-0.4056184
138	0xbf1450af	-0.57935613
139	0xbdd172fa	-0.10227008
140	0x3e051771	0.12997223
141	0x3cb184ca	0.021669764
142	0x3ab4c3f5	0.001379131
143	0x3e540951	0.20706679
144	0x3ef5ca25	0.48005787
145	0xbcba5896	-0.02274732
146	0xbdd6e1c3	-0.104922794
147	0xbd0dc723	-0.03461374
148	0x3d4c3f8c	0.04986529
149	0x3e012210	0.1261065
150	0x3da1966d	0.078900196
151	0x3c8eefd3	0.017448341
152	0x3e54907c	0.20758241
153	0x3dd81b4c	0.105520815
154	0x3ec7c403	0.39016733
155	0x3def594e	0.116869554
156	0x3d8c7828	0.068588555
157	0xbe224a92	-0.15848759
158	0xbd9e8d04	-0.0774174
159	0xbe659a2a	-0.2242209
160	0x3ecc623d	0.399187
161	0x3d82c2a6	0.063847825
162	0x3e9866fa	0.29766065
163	0xbe1a3a15	-0.15061219
164	0x3e112a6c	0.14176339
165	0x3d136909	0.03598884
166	0xbd718dd9	-0.058973167
167	0x3d96fbd3	0.073722504
168	0xbe429ad8	-0.1900438
169	0xbe897cfb	-0.26853165
170	0xbc3879bf	-0.011259495
171	0xbeba81cc	-0.36427152
172	0xbe143f9c	-0.1447739
173	0xbe02748d	-0.12739773
174	0xbde699da	-0.112598136
175	0x3c0293e6	0.007969832
176	0xbea546b5	-0.32280508
177	0xbe53cfe2	-0.2068477
178	0xbc459dbb	-0.012061532
179	0xbe3d89ff	-0.18509673
180	0x3e17bf52	0.14819077
181	0xbd370ad6	-0.04468807
182	0x3d828d92	0.06374659
183	0x3daf9f5d	0.08575318
184	0x3e34142f	0.17585824
185	0x3e50b66b	0.20382087
186	0xbcb09857	-0.021557016
187	0x3e0e24f5	0.13881285
188	0x3e7e5590	0.24837327
189	0xbe2b8b16	-0.16752276
190	0xbe9b39f3	-0.3031765
191	0x3e669ca2	0.22520688
192	0x3e088824	0.13333184
193	0xbe2e6328	-0.17030013
194	0xbf097506	-0.5369419
195	0x3d0020bc	0.031281218
196	0xbf02cf3b	-0.5109746
197	0xbf0b3a62	-0.5438596
198	0x3dd5976d	0.10429273
199	0xbe8639c9	-0.26215962
200	0x3dbcdcf8	0.09221834
201	0xbde12855	-0.10994021
202	0x3ddbf2b3	0.107396506
203	0x3ee434db	0.44571576
204	0x3d536ff3	0.051620435
205	0x3e0a1cef	0.134876
206	0xbe61ce91	-0.22051455
207	0x3de8fd12	0.11376394
208	0x3e9e59d3	0.30927905
209	0x3db67c0d	0.089103796
210	0x3f27323e	0.6531104
211	0x3e687e91	0.22704531
212	0x3e241700	0.16024399
213	0xbedca2d1	-0.4309297
214	0x3d8b2845	0.0679479
215	0xbe673f5c	-0.22582763
216	0x3d190feb	0.037368696
217	0x3cce0e8c	0.02515342
218	0x3d8908ba	0.066911176
219	0xbdf937c0	-0.121688366
220	0x3d0b2955	0.033974964
221	0x3e46f538	0.19429481
222	0xbd5bd903	-0.053673755
223	0x3e885a53	0.26631412
224	0xbee189c6	-0.44050425
225	0x3bdecfaa	0.006799658
226	0xbcd1259d	-0.02553063
227	0xbdcd6ecb	-0.10030898
228	0x3d11abc2	0.03556419
229	0xbc95fd14	-0.018309154
230	0xbe69ed43	-0.22844414
231	0xbd26d1f9	-0.04072759
232	0x3e06bd5e	0.13158175
233	0x3eb9d099	0.3629196
234	0x3e22e195	0.15906365
235	0x3c171cf4	0.009223212
236	0xbe460724	-0.19338661
237	0xbf030ccf	-0.5119142
238	0xbe005ab4	-0.125346
239	0xbbd0bbda	-0.00637005
240	0xbe3fcdf2	-0.18730906
241	0x3e892275	0.267841
242	0x3ee9e58a	0.45682937
243	0x3e4168ef	0.18887685
244	0xbefd56cc	-0.49480283
245	0xbc2f5d98	-0.010703467
246	0x3e0df504	0.13862997
247	0xbda91283	-0.08255484
248	0xbe552cd2	-0.20817879
249	0x3dde3fcc	0.10852012
250	0xbeba8c38	-0.36435103
251	0xbda9d721	-0.08292986
252	0x3e907dac	0.2822088
253	0xbd3f7909	-0.046746287
254	0xbe0029c0	-0.12515926
255	0xbe836c90	-0.25668764

critic.0.bias f4 [64]
0	0xbe3f592e	-0.18686363
1	0x3d36473d	0.044501532
2	0xbe27677a	-0.16348067
3	0x3dcdc39c	0.10047075
4	0xbe1c5a75	-0.15268882
5	0xbcedf27d	-0.029046291
6	0x3cae1053	0.021248018
7	0x3da329fe	0.07966994
8	0xbdcba77a	-0.09944053
9	0xbcca4359	-0.024690317
10	0xbda79fab	-0.08184751
11	0xbdd92760	-0.10603213
12	0xbd97e24a	-0.07416208
13	0x3dc1dcf8	0.094659746
14	0x3e082651	0.13295867
15	0x3dd0f2ac	0.10202536
16	0xbe530b31	-0.20609738
17	0xbd9ba942	-0.07600643
18	0xbd0b0d11	-0.033948008
19	0xbd439a1d	-0.047754396
20	0x3e4369de	0.19083354
21	0xbe68a56c	-0.22719353
22	0xbd31f4e1	-0.043446425
23	0x3e1e07c3	0.15432648
24	0xbdb12f56	-0.08651607
25	0xbd69e0f0	-0.057099283
26	0xbd80b737	-0.062849455
27	0xbd784b66	-0.06061878
28	0xbde1ba63	-0.110218786
29	0xbe4adf62	-0.19811776
30	0x3db3edbc	0.087855786
31	0xbcbddee7	-0.023177577
32	0xbd41d49d	-0.047321904
33	0xbd868c4c	-0.06569728
34	0x3e0ad8b5	0.1355923
35	0xbdeed551	-0.116617806
36	0x3deba32e	0.115057334
37	0x3d00dd63	0.03146113
38	0xba45eef0	-0.0007550558
39	0x3db3eddd	0.08785603
40	0xbd2b4c3a	-0.041820742
41	0x3c612be6	0.013743376
42	0x3a8972c9	0.0010486479
43	0x3e319031	0.17340161
44	0x3d275578	0.040852994
45	0x3d19c2ad	0.037539173
46	0x3e843fc9	0.25829914
47	0xbe291894	-0.16513282
48	0x3d17db14	0.037074164
49	0x3e395b74	0.18101293
50	0xbd258973	-0.040414285
51	0x3d893ae0	0.06700683
52	0x3e100fa0	0.1406846
53	0x3dbb9e21	0.0916102
54	0x3d8661ea	0.065616444
55	0xb9945bbb	-0.00028297104
56	0xbcbc4298	-0.022980973
57	0x3e0901d3	0.13379602
58	0xbc645199	-0.01393547
59	0x3e248c77	0.16069208
60	0xbdb0f775	-0.08640949
61	0xb89be81a	-7.434208e-05
62	0xbe05cbde	-0.1306605
63	0xbd89c6f4	-0.067274004
