outputs/centerSquare_2a_PPO_wprior1_run1/best_status.pt (torch, 39317 bytes, 42 tensors)

actor.0.weight f4 [64, 4]
000000 29 18 af 3e 38 c4 c2 be c0 5c a7 3e 39 90 29 3e
       0.3419812 -0.38040328 0.3268795 0.16558923
000010 bb 0b 04 3d 45 22 95 be 4a 2f 87 3e af 16 8c 3e
       0.03223775 -0.29127708 0.26403266 0.27361056
000020 e7 5c 17 3f 89 6f 45 3e 38 f6 1b 3e db e5 50 be
       0.5912613 0.19280829 0.15230644 -0.20400183
000030 29 69 58 be 78 7c b3 be 46 fc 2d be 5a 73 a0 bd
       -0.21133865 -0.350559 -0.16990766 -0.078345016
000040 e4 17 a3 3c a5 f3 0f be 09 dc a0 3d ca 60 46 3f
       0.019908853 -0.14057787 0.078544684 0.7749144
000050 8e 03 c2 3d 29 4f b8 bd 8c 93 b5 3d c1 3b 47 3e
       0.09473334 -0.089994736 0.08866033 0.19456388
000060 e3 6a 21 3e 56 71 1a be 05 67 08 3e 0d 1c 9e 3e
       0.1576343 -0.15082297 0.13320549 0.30880776
000070 67 5d c7 be 4a 19 05 3f 75 20 9e 3e 7d 63 13 be
       -0.38938448 0.51991713 0.30884138 -0.1439342
000080 f7 ca 9f 3d 23 4b 49 3e ff 2b 34 be 43 32 ce be
       0.07802384 0.19657569 -0.17594908 -0.40272722
000090 7e aa 47 3e 37 f8 2c be ef c8 23 bd 56 2b 16 3e
       0.19498631 -0.16891561 -0.039986547 0.14664969
0000a0 71 ff 85 3e 4c 11 54 be eb 85 d7 be 4a ec 46 be
       0.2617145 -0.20709723 -0.4209436 -0.19426075
0000b0 30 6c 23 be 72 49 d7 be 4b fd 66 be 4f 92 dc 3d
       -0.15959239 -0.42048222 -0.22557561 0.10770094
0000c0 e1 5b 9a 3e cb 7a e9 bd 3a a9 21 3e 39 62 a0 3d
       0.30148223 -0.11400374 0.15787211 0.078312345
0000d0 29 ad 85 be 3d 4a c0 bd b7 64 91 3d 82 01 84 3e
       -0.26108673 -0.0938916 0.07099288 0.257824
0000e0 d8 fb 6a 3e 1c a2 ac 3e 13 b3 c1 be 8f 8f 57 3e
       0.22947633 0.3371743 -0.37831935 0.21050857
0000f0 b5 55 ae 3d 7d 17 25 be 3c bf 00 3e 28 bb 23 3f
       0.08512441 -0.16122241 0.1257295 0.6395745
000100 48 d5 2b 3c a2 3a a3 be d9 3f 9c be d1 81 d6 be
       0.010487862 -0.3188067 -0.30517462 -0.41895917
000110 d6 07 93 bd 21 24 a2 3e 7d 03 90 be 26 12 42 be
       -0.07179229 0.3166819 -0.2812766 -0.18952236
000120 85 32 56 3e 44 37 ca bd ef e1 d5 3c e6 5f 7d 3e
       0.20917709 -0.09873822 0.02610871 0.24743614
000130 81 9d 58 be af 33 8e bd ec 69 15 3d 44 c2 9e be
       -0.21153833 -0.069434516 0.036477968 -0.31007588
000140 77 b1 94 bd 06 67 ca bb e8 95 13 bf 06 ba 15 be
       -0.07260411 -0.006176832 -0.57650614 -0.14621744
000150 4f 14 7a 3d 5e dd bb be 89 4b e3 bd 36 c7 62 3d
       0.061054524 -0.36692327 -0.110983916 0.055365764
000160 88 cb 7e bd 06 f1 5c 3e 02 23 5e be 8a fe 11 be
       -0.06220582 0.21576318 -0.21693042 -0.14257255
000170 e0 fa 1d 3c 48 fe 45 be 7c dc 0b 3e 33 b8 67 be
       0.009642333 -0.19335282 0.13658327 -0.2262886
000180 3e 2a 01 3e c4 31 0c be 4c 9a da 3d 4a e5 f5 3e
       0.1261377 -0.13690859 0.10673961 0.48026496
000190 cb fb 72 3e 7d a4 61 be fd 57 46 3e 1d fd c0 3e
       0.23728864 -0.22035404 0.19369502 0.3769311
0001a0 5f c6 e6 bd 76 fe 8c 3d c0 4a 01 3f a3 db 39 3d
       -0.11268305 0.06884472 0.50504684 0.045375478
0001b0 2f 1f ae 3d 4e 60 ef 3d 82 76 b6 bd 1e 06 94 be
       0.085020415 0.116882905 -0.08909322 -0.28910917
0001c0 7d 4e 59 be 05 98 21 3e cb a4 f1 3e 91 8b 4f 3e
       -0.21221347 0.15780647 0.4719604 0.20268084
0001d0 d0 43 17 bd a8 11 d8 3e 40 07 af bc 09 cd 68 3e
       -0.036929905 0.4220097 -0.021365762 0.22734465
0001e0 28 1e c0 3d a7 f1 bb 3e 01 2d 40 3e a0 e1 da bd
       0.09380752 0.36707804 0.18767168 -0.10687566
0001f0 06 55 20 be 7f 43 ea 3d c6 3a 0c bd bf a4 03 be
       -0.15657434 0.11438655 -0.03423574 -0.12855814
000200 6a 50 8d 3e cc 83 f8 bd dd 9c d1 3d b2 12 03 3f
       0.27600414 -0.12134513 0.102349974 0.512004
000210 a1 a6 5f bd e9 36 f0 bd 3f 4b 9b 3d 9d 37 16 3f
       -0.05460227 -0.11729223 0.075827114 0.5867861
000220 ee a4 05 bf 3b 95 89 be ae 58 a1 be c6 c7 d1 bd
       -0.5220479 -0.26871666 -0.3151297 -0.10243182
000230 cf 5f ca bb 7d e8 ba 3b 27 b9 f0 bb 8d 1d ab be
       -0.006175972 0.0057039843 -0.0073462906 -0.33420983
000240 ef d7 60 3e 09 0b 2b 3e 71 2e 0e be bb 9d 00 bf
       0.21957372 0.16703428 -0.13884903 -0.5024068
000250 2b c6 bd bd f1 dc b4 be a8 32 ad 3e 9c 39 01 3e
       -0.09266313 -0.35324815 0.3382771 0.12619632
000260 de 7f b4 be 08 1a 6d 3d 21 35 3b bd b5 2d 70 3d
       -0.35253805 0.057886153 -0.045704965 0.05863734
000270 73 e5 b4 bd 6e a3 65 be 7a 1a c6 bd 45 3a d7 3d
       -0.088328265 -0.22425625 -0.09673019 0.10509161
000280 ea d1 00 3e 67 8e c6 bd 23 8c 77 be 0a 3e 32 3e
       0.12580076 -0.0969513 -0.24174552 0.17406479
000290 c9 30 80 bd f5 53 c3 3e 37 86 11 3d 16 44 c2 bd
       -0.06259305 0.38149992 0.035528388 -0.094856426
0002a0 d5 bd 2e bd 49 15 b2 be 8a ab b3 3e 1d fd 15 3e
       -0.042661507 -0.34781864 0.3509181 0.14647336
0002b0 06 68 f3 bc c8 3d 04 bf cf fd 74 be 36 34 52 3e
       -0.029712688 -0.5165677 -0.23924945 0.2052773
0002c0 23 68 5e be 21 ee 41 3e ee 9a 0e be 53 15 ea be
       -0.21719413 0.18938495 -0.13926288 -0.45719394
0002d0 4b 7f ab 3e 5d fa 9d be 5d b9 df bb c6 aa b0 bd
       0.33495554 -0.30855075 -0.006827517 -0.086263224
0002e0 b4 53 10 3e d8 57 40 be c2 ee 35 be 0f fc 4f 3c
       0.1409443 -0.1878351 -0.1776686 0.012694373
0002f0 67 46 4c 3d 4a b1 8f 3e c8 0a 3f 3d 5f 6e 9b 3e
       0.04987183 0.28064948 0.04664114 0.30357644
000300 d2 f9 33 be b8 3c 5f be ea 27 35 3e 13 5e fa 3e
       -0.17575768 -0.21800506 0.17691007 0.48899898
000310 7c 12 f0 3d c1 99 93 3e 68 cf 87 be 0c f9 d1 be
       0.117222756 0.28828242 -0.26525426 -0.4101032
000320 ff 12 26 3e f2 d8 ea bd ab dd 9c be 99 3f ea 3e
       0.16218184 -0.1146716 -0.3063787 0.45751646
000330 b1 0e 87 3e 86 6f 9b 3d c9 5d 2f 3f 44 58 be be
       0.26378396 0.07589631 0.6850248 -0.37176716
000340 3a 7e 7d bd df ad 36 bc c3 03 f1 be df 89 b2 be
       -0.061887957 -0.011149853 -0.47073182 -0.34870812
000350 36 4f 63 3e 17 d3 26 be b9 59 00 3e c2 7b 2d 3f
       0.22198185 -0.16291462 0.12534226 0.67766964
000360 6a 8d 05 3e b9 73 bd bd 3c 1d 19 3e b4 52 6e bd
       0.13042226 -0.09250588 0.14952558 -0.05818434
000370 8b 0e 66 3d f5 54 59 3d 43 13 c6 3e 82 67 9f 3d
       0.056166213 0.053059537 0.3868657 0.077834144
000380 bb 7d 87 3d 37 99 16 bd 0c cd 14 be 86 de 8b 3e
       0.06615778 -0.03676721 -0.14531344 0.2731821
000390 60 26 b7 be bd 98 a8 3e 49 da 7a 3e 1f 18 7e bb
       -0.35771465 0.3292903 0.24497332 -0.0038771702
0003a0 20 14 04 be 5a 43 5a be 56 10 59 3e b6 ba 7d 3e
       -0.12898302 -0.21314755 0.21197638 0.24778256
0003b0 c4 ae ab bd 03 18 36 bc 41 37 b8 3e e0 e3 11 3e
       -0.08382943 -0.011114123 0.35979655 0.14247084
0003c0 aa 87 f6 bd e5 41 69 3d e2 3b 07 3f cb b9 ae bd
       -0.120375946 0.056947608 0.5282575 -0.08531531
0003d0 f7 07 34 3d bb 90 a8 bb d4 6a af bc d0 4e d6 3e
       0.04395291 -0.0051442063 -0.021413244 0.41857004
0003e0 6b 82 e6 bd 39 8e d7 3d e4 98 65 3e 87 68 b4 3e
       -0.11255344 0.10525174 0.22421604 0.35235998
0003f0 28 28 1b be ac aa ba 3d 33 07 07 3f 6c f9 c3 3e
       -0.15152037 0.09114584 0.5274536 0.3827623

actor.0.bias f4 [64]
000000 33 38 2d 3e 73 be b6 3d 2f 71 de 3d e7 d5 d8 bc
       0.1691597 0.08923044 0.10861432 -0.026469184
000010 a1 ff 07 3e fd 24 3a bc e6 81 c8 bc 3d 84 d0 bb
       0.13281108 -0.011361358 -0.024476003 -0.0063634203
000020 7f c7 9c 3c f9 28 88 bd ec 82 84 bd 2e e2 56 bd
       0.019138096 -0.0664844 -0.06470284 -0.052461796
000030 68 bb f4 3c d5 b6 ee 3d 50 6d 9f bd a5 e4 90 bc
       0.029874519 0.11655966 -0.077845216 -0.017687151
000040 98 01 a0 bd 17 8a cf bd a3 c1 b3 3c 15 0f 95 bd
       -0.07812804 -0.101337604 0.02194292 -0.07278267
000050 cb dc 45 3d 0e 5b 3f bd 85 cc 90 3d 1a 13 f4 bd
       0.048306268 -0.046717696 0.07070259 -0.11917706
000060 6a 19 03 bd c0 24 bd bd ae 8c a2 bd 51 1e 1a be
       -0.03200666 -0.09235525 -0.07936989 -0.15050627
000070 0d 21 98 3c 56 f1 f6 3d e5 65 ac 3d b8 8d 15 be
       0.018570447 0.1205775 0.08417872 -0.14604843
000080 07 66 6a 3c cb f8 8b 3d 79 7c 2d bd de a4 43 bd
       0.014306552 0.06834563 -0.042355035 -0.04776465
000090 76 fd c6 bc 53 10 40 3d c8 bf 65 bd 95 40 fc bd
       -0.024290781 0.046890568 -0.0560911 -0.123170055
0000a0 40 f1 64 3d bb e3 03 3e 60 52 db bd e1 d6 84 bd
       0.055894136 0.12879841 -0.10709071 -0.064862974
0000b0 cc 1f 79 bd 08 91 21 be aa 1f 66 bd 4d 86 e1 3d
       -0.06082134 -0.15777981 -0.05618254 0.11011944
0000c0 ed 6d 01 3e 27 fe 9f 3c 51 8f 05 bd 63 1d 94 3d
       0.1263959 0.019530369 -0.03260738 0.072321676
0000d0 81 b8 96 3d 40 fe 01 be 3d 2e 8b 3d ed 5c 0f 3e
       0.0735941 -0.12694645 0.067959286 0.14000292
0000e0 ce e0 6c be 17 8f c1 bd aa 4d 68 bd 11 c0 23 3e
       -0.23132631 -0.0945112 -0.05671469 0.15991236
0000f0 ae 11 9e 3d c8 ff 7d bc 7e 54 c9 bb d1 4e 44 3d
       0.07718216 -0.0155028775 -0.0061441055 0.047926728

actor.2.weight f4 [5, 64]
000000 d3 f1 af be 85 f2 f9 bc b3 39 e0 bd 63 1f 2c 3f
       -0.34364185 -0.03051115 -0.10948505 0.6723539
000010 a3 92 44 be b4 cb 50 be a2 d2 00 3e 9e 4b 65 be
       -0.19196562 -0.20390207 0.1258035 -0.22392127
000020 81 51 ec bc 31 e7 0d be a2 00 72 bd c9 c0 b9 3d
       -0.028847458 -0.13857724 -0.059082635 0.09069974
000030 b7 f8 79 3b e4 98 68 be c0 30 14 be 60 8a 5e 3e
       0.003814263 -0.22714573 -0.14471722 0.21732473
000040 ea 9a b4 3e 5c 0d 8b be d1 6f e2 bd 20 02 ae 3d
       0.3527444 -0.2715863 -0.110564835 0.08496499
000050 ba 57 3f 3d 05 43 a3 3e 1d 60 50 3e ae bd a1 bd
       0.046714522 0.3188707 0.20349164 -0.07897507
000060 66 a1 11 3e 91 b0 a9 3e b1 d9 e8 bd 6a f7 a4 bc
       0.14221725 0.33142522 -0.11369646 -0.020137507
000070 6a b2 d7 3b 8a 53 64 be bd 6d 8f 3d e9 11 d8 bd
       0.006582548 -0.22297493 0.07003353 -0.10550291
000080 ed 92 a9 be 3d fc ff 3d 15 84 3d 3e b7 7d e5 3e
       -0.33119908 0.124992825 0.18507417 0.44822475
000090 29 82 7d 3c c8 63 07 3e a2 fd dc 3e a9 14 b3 3c
       0.015472927 0.13221657 0.43162256 0.021860437
0000a0 53 86 cc bd f7 ee 99 bd ae e1 16 3d 7f 51 04 3e
       -0.09986558 -0.07516282 0.03683632 0.12921713
0000b0 5a bb a7 3d 80 c2 86 3e 59 1e 02 3e 11 b2 42 be
       0.08190031 0.26320267 0.12706889 -0.1901324
0000c0 40 75 43 3e f0 3d 5c 3e 4d 6f 58 3e e4 23 b6 3c
       0.19087696 0.21508002 0.21136208 0.02223391
0000d0 cc d1 08 3e 9a ec 0c 3d a4 10 e9 3e fb 69 4f bd
       0.13361281 0.03440533 0.45520508 -0.05063818
0000e0 3f 08 8b 3e 42 f3 13 bf ee 07 57 be 13 ff c0 3d
       0.2715473 -0.57793057 -0.20999119 0.094236515
0000f0 c9 ca fa bc df 5a 81 3e 33 ca 3a be 58 17 15 be
       -0.030614274 0.25264642 -0.18241195 -0.14559686
000100 42 ee 09 3f 32 2a af 3e eb 0e ae bc ee dd dd 3d
       0.5387918 0.3421188 -0.021247348 0.10833345
000110 ff 21 da 3e c0 b8 82 3e d4 d3 ee 3e f8 29 21 3d
       0.42604062 0.25531578 0.46645987 0.039346665
000120 31 a6 38 be 6c 77 05 be 16 d7 56 3d 3e 78 e6 bd
       -0.18032147 -0.13033837 0.052451216 -0.11253403
000130 f1 90 89 3e 7e 4e b6 3e 73 80 e9 bd 96 33 f4 3e
       0.26868394 0.3560676 -0.11401453 0.47695607
000140 77 66 9d be 9f ae ed 3d 0e 22 0d 3e 7e c6 15 be
       -0.30742237 0.11605572 0.13782522 -0.146265
000150 02 7a 81 3d 7d fb 68 be 73 1a a0 bd f8 55 81 3d
       0.06322099 -0.22752185 -0.07817545 0.06315225
000160 dc 54 06 3f 10 b5 0b 3f c5 c7 f7 bd fa a0 a3 be
       0.52473235 0.54573154 -0.1209865 -0.31958753
000170 6b 36 94 be e9 e7 da 3e 66 b9 a9 3e 4e 40 9a be
       -0.28947768 0.42755058 0.3314926 -0.30127186
000180 fd 8b d6 3e 4c e7 b2 3e 42 eb 88 be 56 f7 1f be
       0.41903678 0.3494209 -0.26741987 -0.15621695
000190 82 da c6 be 88 c5 c4 bc 98 ac a5 bd 63 64 06 bf
       -0.38838583 -0.024019971 -0.0808956 -0.5249693
0001a0 ea 30 af 3e 32 e6 cc 3e d2 8e b0 3e 3c 22 80 be
       0.34217006 0.40019375 0.34483963 -0.2502612
0001b0 14 54 3a bf 2f 8c b8 bd bc 1c d9 bd 2a 16 ad 3c
       -0.72784543 -0.09011113 -0.10601184 0.021128733
0001c0 94 0f 1a 3f ce 34 13 be 82 71 6b 3e 43 af a8 3e
       0.6018002 -0.14375612 0.22992519 0.32946214
0001d0 12 5d 89 bd 6b 32 2d 3f ea 6a aa 3e 79 6f 65 3e
       -0.06707205 0.67655057 0.33284694 0.22405805
0001e0 fb 01 7a bd ee 98 8e be 01 7f 0b 3f 0a 5d af 3e
       -0.061037045 -0.2785105 0.5449067 0.3425067
0001f0 e7 ce f7 bd 22 ed ee 3e a4 72 a9 bd f6 36 95 3c
       -0.1210001 0.46665293 -0.08273819 0.018214684
000200 60 54 1a bf 36 10 3d be 1e 1d 2c be 5c a0 38 3e
       -0.60284996 -0.18463215 -0.16807982 0.18029922
000210 d1 25 be be 6b db df be ce 95 8f be aa e7 9a 3d
       -0.37138227 -0.4372209 -0.2804398 0.07563718
000220 76 7a c9 3e 4a ee e8 be 3d 88 0f be a8 56 c9 3c
       0.39351243 -0.454943 -0.14016815 0.024577454
000230 cb c0 62 bd 90 02 dc be 58 f3 07 3e 57 9a 25 be
       -0.055359643 -0.42970705 0.13276422 -0.16172157
000240 ec 99 88 be d1 58 ea 3e 7b ba a3 bb f1 1d 9e 3e
       -0.26679933 0.45770887 -0.0049965954 0.30882218
000250 4b e6 76 be 43 e8 45 be 52 88 f9 3e 35 66 b8 3d
       -0.24111287 -0.19326882 0.48736817 0.090038694
000260 d9 44 b4 be e1 51 0f bf e5 e7 d7 3e 4f c6 fb 3c
       -0.35208777 -0.5598431 0.4216911 0.03073421
000270 70 21 bc 3d 07 51 bc 3d 5a 51 2f 3d cf 11 29 be
       0.09186065 0.09195142 0.042802192 -0.165107
000280 b7 86 3b 3e 48 0a 94 be 40 54 7d be 58 71 be 3d
       0.18313108 -0.28914094 -0.2473917 0.09298962
000290 22 fa 63 3e 04 eb 0f bf 4a 85 95 bd 99 1b c9 bd
       0.22263387 -0.5621798 -0.073008135 -0.09819717
0002a0 07 1e 8a be f4 8f 83 be 77 e6 e0 be 46 7b 09 3e
       -0.26976034 -0.25695765 -0.4392583 0.13425931
0002b0 64 92 37 3f ed de 95 be 38 dc 19 be 81 3d 6f bd
       0.7170775 -0.2927164 -0.15025413 -0.058408264
0002c0 b6 9b 24 bf 53 75 a4 3e 39 6b fd be 75 6d 70 bd
       -0.64300096 0.3212076 -0.49495867 -0.058698136
0002d0 76 4d b3 bd 3a 8f 73 be 50 25 2e 3e a8 50 13 3e
       -0.08755009 -0.23785105 0.17006421 0.14386237
0002e0 4b bf 42 be 24 5c 8c 3d 44 e2 fa be a2 e1 f3 3e
       -0.19018285 0.06853512 -0.49000752 0.47633082
0002f0 00 55 c5 3d d4 39 da be f0 0f 60 3e cf fb eb 3e
       0.09635353 -0.42622244 0.2188108 0.46090552
000300 e9 93 e1 3d c1 53 de 3d 56 29 94 bd 93 a7 85 3e
       0.1101454 0.108558185 -0.07234447 0.2610441
000310 fe f6 88 3e 7f e0 43 bd 19 64 c4 bc fb de 0a bf
       0.2675094 -0.047821518 -0.023973512 -0.5424649
000320 9d 5b 37 bc 31 a1 8f 3d 6a 68 5e bd c0 a2 c1 3d
       -0.011191276 0.07013167 -0.054298796 0.0945487
000330 69 b6 c8 be 25 0a ec bd 71 3c e0 3e 9b c0 a5 3d
       -0.39201668 -0.115253724 0.43796113 0.08093377
000340 a1 4b 0c 3e 3d 2c af 3e f3 de ea 3e 2c 01 e4 3d
       0.13700725 0.3421344 0.45873222 0.11133036
000350 d1 83 0b 3d 9b d3 99 3d 82 32 a2 be 32 0a 2d 3f
       0.034061257 0.07511064 -0.3167916 0.6759368
000360 db 3c 8e bd 21 36 98 3d 22 44 08 be 9c 86 c5 bd
       -0.06945201 0.07432199 -0.1330724 -0.09644815
000370 ff 88 fd bd c7 ee 25 3e 6b bc fa 3c 7f 41 b1 3c
       -0.123796456 0.16204368 0.030607423 0.021637676
000380 cd 36 29 3e be 9b 45 be f4 b8 0c 3e a9 3f ca bd
       0.16524811 -0.19297692 0.13742429 -0.098754235
000390 5b 18 9c be 60 e3 85 3e 5b 90 8f 3e 30 b8 d1 3e
       -0.30487332 0.26150036 0.28039822 0.40960836
0003a0 27 b9 83 3d dc dd 98 3e 20 d8 e2 bb 61 74 26 3d
       0.064317994 0.29856765 -0.0069227368 0.04063833
0003b0 6e 5b fc 3d 47 03 17 3e 70 64 3a 3e c0 a5 7a be
       0.12322126 0.14747344 0.18202376 -0.24477291
0003c0 7f ca 35 3e 83 a0 f0 3d 9d 37 d3 3d 55 72 57 be
       0.17753027 0.11749365 0.10313342 -0.21039708
0003d0 36 4a e0 3a d0 76 e0 be dc 24 1a 3e a9 00 c7 be
       0.001711196 -0.43840647 0.15053123 -0.3886769
0003e0 dc 5e 2c 3e 38 f9 b3 bc 8e 6a 69 3d 55 c8 d1 3d
       0.16833061 -0.021969423 0.056986384 0.102432884
0003f0 69 8f 5a be a4 94 e9 3d 44 4e 95 bd ef e0 34 be
       -0.21343769 0.11405304 -0.072903186 -0.1766393

actor.2.bias f4 [5]
000000 00 43 49 bd f5 70 b9 3d 9c 25 58 3c 0b 49 d6 bd
       -0.04913616 0.09054748 0.0131925605 -0.104631506
000010 44 e1 95 bd
       -0.07318357

critic.0.weight f4 [64, 4]
000000 34 d8 30 bd c2 28 6f 3e c5 a0 92 3d 37 13 df 3c
       -0.043174937 0.23355392 0.071595706 0.027230842
000010 f1 9b a9 be a8 93 61 be 8c 8e cd bd 9f 57 13 3e
       -0.33126786 -0.22028983 -0.10036954 0.14388894
000020 d0 f8 65 3d ab f5 e6 3d 13 4b 8a 3e 56 c7 eb bd
       0.05614549 0.11277326 0.27010402 -0.1151263
000030 82 2d df 3d c1 06 58 3e 2f 6f 3e 3e d4 5c 0c be
       0.10897352 0.21096326 0.185971 -0.13707286
000040 82 ea 95 bc 9a 9b 3d be 45 e9 13 be fc d7 a6 3d
       -0.018300299 -0.18516389 -0.14444454 0.081466645
000050 ee 35 fa 3e d8 d7 07 be df 9c 52 3e 95 61 ac bd
       0.4886927 -0.13265932 0.20567654 -0.0841705
000060 06 92 35 3e 39 37 0a 3e 5d 05 2d 3e 82 74 31 bd
       0.17731485 0.13497628 0.16896577 -0.043324
000070 88 15 84 3e 7c 5c 9c 3e cc 9c 8e bc 40 bb 5f be
       0.25797677 0.3053931 -0.017408751 -0.21848774
000080 ae 7d 95 3e d3 e4 86 3e 7e ff 94 be d9 bc 24 bd
       0.29197448 0.26346454 -0.29101175 -0.04021916
000090 ae b1 ec bd 6c e4 be be da a0 39 bc c0 d8 af be
       -0.11557327 -0.37283647 -0.011329854 -0.34345055
0000a0 46 a9 e7 3e ac e9 a0 3e 7c ac d3 3e b2 c8 34 be
       0.45246333 0.31428277 0.41342533 -0.17654684
0000b0 c0 85 95 3e 9c ae 63 3e 27 86 98 bd f8 09 96 bd
       0.29203606 0.22234577 -0.074474625 -0.0732612
0000c0 79 91 0f bf 4c ae 56 be 16 65 58 bd 61 b1 89 3d
       -0.5608135 -0.20964926 -0.052830778 0.067232855
0000d0 4a a0 84 be 88 80 61 bd b7 0a d3 bd 56 f1 a5 bd
       -0.2590354 -0.055054218 -0.10304778 -0.08102672
0000e0 48 fe d8 3e 0f 50 84 3e c6 96 90 3e 67 86 82 bd
       0.423815 0.2584233 0.2824003 -0.063732915
0000f0 8e 79 dd 3c 5d ff 2e 3e d6 de d6 3c 1d a9 b0 3d
       0.0270355 0.17089601 0.026229303 0.08626006
000100 2f b3 9d bd 5b 81 01 be fb 09 53 3e ff f3 d0 3e
       -0.07700192 -0.12647001 0.20609276 0.40811154
000110 f0 67 ac be d2 7a f1 bd 45 36 e5 bd 4a 96 ca 3c
       -0.33673048 -0.11791004 -0.11191992 0.024729867
000120 a3 9d 03 bf 60 31 22 3d ee ae 24 bd 5f 84 d9 bd
       -0.5141241 0.03959787 -0.04020589 -0.10620951
000130 8a ea 05 3f 52 e7 66 3e 23 df 7e be 3a a9 10 3e
       0.52311003 0.22549179 -0.24889807 0.14127055
000140 83 c6 a2 be 30 e6 9a bd e2 ad 32 3d 97 fb 30 be
       -0.31792077 -0.07563436 0.04362286 -0.17283474
000150 99 3b a9 bd 57 be 7a 3e ef fb 0b be df 80 7a 3d
       -0.082633205 0.24486671 -0.13670324 0.061158057
000160 ef 9b 98 3d 04 cf 7a 3e 5c ff 84 be 83 bd 0b be
       0.07451617 0.24493033 -0.25976074 -0.13646512
000170 3a 83 c8 be ed d3 ef be 88 72 fc 3c 1d 77 32 3e
       -0.39162618 -0.46841374 0.030816332 0.1742825
000180 19 46 e1 be a8 1b 16 3e 88 7c 7b 3e 57 88 4f 3c
       -0.43998793 0.14658988 0.24559224 0.012666783
000190 04 67 e1 be 1b be 32 3e fb 70 e6 3d 8f c3 51 bd
       -0.44023907 0.17455332 0.11252018 -0.05121189
0001a0 7e 39 c3 be d6 4b b4 bd 10 15 ef 3d 27 a0 a0 bd
       -0.381298 -0.08803527 0.11673939 -0.07843047
0001b0 48 51 5e 3d ad 4a 87 be f5 96 34 bc 71 1a 8b bd
       0.054276735 -0.2642416 -0.011022319 -0.06792153
0001c0 06 a3 1f 3e 92 ae 0f be 98 cc 52 be 1e 80 ca bd
       0.15589532 -0.14031437 -0.20585859 -0.09887718
0001d0 03 59 6e be ee 0a 3f 3e 93 f8 1a 3e 6f d8 d8 3c
       -0.23276143 0.18656513 0.15133886 0.026470391
0001e0 ad bb 26 3e 8a 1e 6d 3e 7b e4 76 3e d9 19 fe bd
       0.1628253 0.23156181 0.24110596 -0.12407274
0001f0 37 42 b2 3e fb 31 0d 3e 29 e8 32 3e 8c f0 07 be
       0.34816143 0.13788597 0.17471375 -0.13275355
000200 ba 23 93 be 65 fc 7d be 53 f7 9f 3e 35 ab 2a bd
       -0.28738195 -0.24803312 0.3124338 -0.041667182
000210 32 90 c0 bd ba 96 d2 bc fc c8 05 be 7e 14 a4 bb
       -0.09402503 -0.025706638 -0.1306495 -0.0050073257
000220 f4 3b 12 be 60 5b ea bd 8d 42 73 3d 0e 26 a6 bd
       -0.14280683 -0.1144321 0.05938964 -0.08112727
000230 9d 2b 85 3e 6a bd 8c 3e 7f 96 68 3e a1 66 a6 bc
       0.26009837 0.2748826 0.2271366 -0.02031261
000240 59 a7 61 be af 98 64 be 11 d8 8f 3d 53 4a 4b bc
       -0.22036494 -0.22323869 0.07023633 -0.012407857
000250 b5 1f e9 3e 5b 8c 8b 3d 58 2e cb 3d 3a 5c 84 bc
       0.45532003 0.0681388 0.09920949 -0.016157258
000260 1c 26 c3 bd 2e f6 52 be 45 87 05 be ab 17 d7 3d
       -0.09528753 -0.20601723 -0.13039882 0.10502561
000270 77 77 a9 3c 89 f9 6b be ff e9 8e be d7 fa 9b 3d
       0.020686848 -0.23044409 -0.279129 0.07616203
000280 1b 73 17 be a8 c5 96 be 9a fc bc bd e0 53 16 bf
       -0.14790003 -0.29447675 -0.092278674 -0.58721733
000290 d8 0f 35 3e 27 bc b5 3e ab 60 f7 3d b7 23 9e 3c
       0.17681825 0.3549511 0.12078985 0.01930414
0002a0 d0 f4 87 be 15 33 65 bd 33 e5 01 be 37 d8 1e bd
       -0.26553965 -0.05595692 -0.12685089 -0.038780417
0002b0 34 09 ca 3e fa c2 de 3c ca 80 82 3d a9 30 89 bc
       0.39460146 0.027192581 0.06372221 -0.016746836
0002c0 66 df ca 3d 17 5a d1 3d 75 37 3b bd c2 4f 59 3e
       0.09905891 0.102222614 -0.045707185 0.21221831
0002d0 25 35 d9 be 46 1c c5 be d4 59 72 be 13 40 04 3b
       -0.4242336 -0.38498133 -0.23667079 0.0020179793
0002e0 43 6f cf be 88 f0 c5 bc f1 b1 ab bd c1 1a 2a bd
       -0.40514573 -0.024162546 -0.08383549 -0.04152942
0002f0 f3 fa 28 bf 01 d4 eb bd c4 e7 75 3e 9d 73 19 be
       -0.6600792 -0.11515046 0.24014193 -0.14985509
000300 14 82 a8 be 6f a5 62 be ae ce 89 be 5b 35 a2 3c
       -0.32911742 -0.2213342 -0.26915497 0.019800832
000310 03 2c 19 3e 09 4e dd 3e 16 d9 91 3e 17 7b 97 3d
       0.14958195 0.432236 0.28485936 0.073965244
000320 f8 c1 f1 be ff 2a fc 3d 55 bd 72 3e ac ea e5 bd
       -0.472183 0.12312888 0.23705037 -0.11226401
000330 ca 91 5d 3e c2 18 39 bd bd f2 4c be 11 79 eb 3d
       0.21637645 -0.045189627 -0.20014472 0.11497701
000340 53 b5 09 bd eb 22 89 3e 7e 42 4e be 3a 71 3f 3d
       -0.03362019 0.26784453 -0.20142552 0.04673884
000350 6b 8d e8 3d 0f f7 46 3e 88 52 00 3f 32 c8 39 be
       0.11355098 0.19430183 0.5012593 -0.18142775
000360 6a 18 ad bc d3 be 27 3e bc f1 9a 3e c2 99 f8 bd
       -0.021129806 0.16381387 0.30262554 -0.12138702
000370 2d de dc be 0d af a7 bd 68 d2 10 be f7 db 91 3d
       -0.43138257 -0.08187685 -0.14142764 0.07122033
000380 cd 87 2b 3d 3f 39 d6 be 17 85 65 bd 66 e5 c1 bd
       0.041877557 -0.4184055 -0.056035127 -0.094675824
000390 a4 89 ba 3c e3 a4 82 3e 27 60 5d be 4e bd 6e 3e
       0.02277071 0.25516424 -0.2161871 0.23314402
0003a0 0b 44 96 be ec 0a 0f bd 7b a2 d5 3d d3 d1 81 be
       -0.29348788 -0.034922525 0.10431381 -0.25355396
0003b0 b0 96 0c be ee 0a 11 3f f8 7d 52 be b8 20 c0 3e
       -0.13729358 0.566573 -0.20555866 0.37524962
0003c0 e0 25 d2 be 82 40 16 bd a2 2e 69 be 1c 9d 1b 3e
       -0.4104452 -0.036682613 -0.22771695 0.15196651
0003d0 24 b4 b8 bc b9 b0 88 3e ac 3b eb be 4c cb 69 bc
       -0.022546835 0.2669733 -0.45943964 -0.014269661
0003e0 96 12 af 3e a6 97 64 3d c7 16 29 3e 1b 4b a6 bd
       0.34193867 0.055808686 0.16512595 -0.08119794
0003f0 09 b4 7e 3e d2 4c 89 3d 9d 46 73 3e 26 29 df bc
       0.24873365 0.067041054 0.23757406 -0.0272413

critic.0.bias f4 [64]
000000 f7 4a c7 3d 9d 32 e3 bc d7 d0 44 3e 82 7a 91 3d
       0.09731095 -0.027734095 0.19220291 0.07103445
000010 8f 5e 3e be 6a 07 36 3e 0c 5b bc 3d aa ff 78 3d
       -0.18590759 0.17776266 0.09197053 0.060790695
000020 0b e7 56 bd f2 2e 1e bd 31 cb 18 3e a0 7a 03 bd
       -0.052466433 -0.03861899 0.14921261 -0.032099366
000030 b9 86 28 be b1 33 e1 bc 4d 85 99 3d f4 95 70 3e
       -0.16457643 -0.027490469 0.07496128 0.23494703
000040 7a bb 4f be 2e 30 28 be e0 19 13 3d a2 5d 5a 3d
       -0.2028636 -0.16424629 0.03591335 0.05331195
000050 72 09 29 be 71 44 f5 3d 8b 95 92 3d 50 7a 75 be
       -0.1650751 0.11975945 0.07157429 -0.2397244
000060 4d 7e 4d be b8 d3 51 3d ea 85 75 bd 5e bc 5f be
       -0.20067711 0.0512273 -0.059942164 -0.218492
000070 27 1e 4f 3c 53 37 02 3d c5 67 3b 3e 2d 51 6c 3e
       0.012641466 0.031791043 0.18301304 0.23077841
000080 f1 b2 a8 bc 61 0e 11 be e5 63 81 3c 34 8b 89 3d
       -0.020593138 -0.14165641 0.015794704 0.06716004
000090 a2 a0 82 be 0e ca 5c 3e da 53 75 be 27 84 97 bd
       -0.25513178 0.21561453 -0.23957768 -0.07398253
0000a0 63 9a 73 bd 33 eb bd 3d ae f2 3b bd df ab 18 bc
       -0.059473407 0.09273376 -0.045885734 -0.009318321
0000b0 99 43 c0 3d d6 f2 ad bd 9d bc 5f bd d7 7e 22 39
       0.09387893 -0.08493583 -0.054623235 0.00015496775
0000c0 32 bd a5 bd 7a 21 92 3d 09 c3 4b bc ad 80 25 3e
       -0.08092727 0.071352914 -0.012436637 0.16162367
0000d0 3f 8d 55 3d a5 f0 e0 3d 1e c6 2b 3e 50 69 5e be
       0.052136656 0.10983399 0.16774794 -0.21719861
0000e0 30 3e a6 bd 8a 53 90 3d d8 73 ca bd e5 31 93 3d
       -0.0811733 0.07047184 -0.09885377 0.07187251
0000f0 4d 88 86 be fe a3 ef 3c ba 6f 9f 3e c0 62 8a 3d
       -0.26275864 0.029253002 0.31139928 0.06757116

critic.2.weight f4 [1, 64]
000000 af 9b 99 3e ce 5a ba be 2c 81 3d be 7d 6b f2 3e
       0.3000159 -0.36397403 -0.18506306 0.47347632
000010 6c 18 1a bf d3 5a f3 3e 23 2f f9 be d8 8a 77 3e
       -0.60193515 0.4753023 -0.48668775 0.24174058
000020 f3 ee cd 3e 33 d3 ba 3e 79 3d 5e be ad ea fd 3e
       0.40221366 0.36489257 -0.21703137 0.49593106
000030 9a 13 9a 3e 8a 06 d7 3e 7c e2 aa be b2 aa e4 3e
       0.3009308 0.41997176 -0.3337592 0.4466148
000040 56 ff 63 be 6d 62 31 bf 39 9a 94 3e 18 83 65 be
       -0.22265372 -0.6929081 0.29023913 -0.2241329
000050 a9 c2 e8 be 51 87 3e be ab 69 3d 3e 43 41 82 3e
       -0.45461014 -0.18606307 0.1849734 0.25440416
000060 ff a2 28 bf a0 36 b3 3e b0 84 7f 3e ee bf ec be
       -0.6587371 0.35002613 0.2495296 -0.4624018
000070 f6 07 ab 3e 5b 78 08 bf 9e c8 86 be b8 7a b1 3e
       0.3340451 -0.5330865 -0.26324934 0.3466394
000080 38 83 db be 7b f0 91 be 75 20 3f 3e 9e 62 12 bf
       -0.4287355 -0.28503785 0.18664725 -0.5718173
000090 49 32 98 3e 4b 53 4c 3e 7b cd 07 bf 7a da bf 3e
       0.29725865 0.19953649 -0.53047913 0.37471372
0000a0 a4 17 80 3e 2a e7 d0 be 68 8c c0 3e 68 bf 61 be
       0.25018036 -0.40801364 0.3760712 -0.22045672
0000b0 2e eb 8c 3e 23 46 73 3e ae d6 f5 3e a9 74 92 3e
       0.27523178 0.23757224 0.4801535 0.2860463
0000c0 52 ed 7d 3e a6 37 a5 be 92 6b 2e 3e 63 cb 8a be
       0.24797562 -0.3226902 0.17033222 -0.27108297
0000d0 20 4b 13 3f e4 9a b0 be 1c 4a 55 be 8b cf 15 bf
       0.57536507 -0.34493172 -0.20829052 -0.5851981
0000e0 19 77 ed 3e 0f 4c 02 bf 30 8c fc be 3e df 0a bf
       0.46379927 -0.50897306 -0.49325705 -0.5424689
0000f0 7e bb 9a be 41 e6 4e 3e e7 e5 1b 3f 5a be bf be
       -0.3022117 0.20205022 0.6089768 -0.37449914

actor.0.weight f4 [64, 4]
000000 4a a4 88 3e e4 3d bb 3a 09 5f e9 3e d8 82 49 be
       0.26687843 0.0014285413 0.4558032 -0.19678819
000010 99 8c 5d 3d 08 6d cf bc 2e 58 94 be c6 bb b2 bd
       0.054089162 -0.025320545 -0.28973526 -0.08727221
000020 dc c4 a9 bd 80 b0 91 3e 22 06 a9 3d b4 aa a3 3d
       -0.08289501 0.2845497 0.08253123 0.079915434
000030 11 38 b5 3b 01 88 11 3e 05 55 ca bd da f6 3f bf
       0.0055303653 0.14212038 -0.098794974 -0.7498604
000040 11 4d a8 3e fd b2 15 3e 2e 17 eb bd 50 23 11 bf
       0.32871297 0.1461906 -0.114790305 -0.5669451
000050 d7 3e 41 3e f5 70 b6 bd c4 4f 1d 3f f9 5d 94 3e
       0.18871628 -0.089082636 0.6144984 0.28977945
000060 99 55 9d 3d c9 39 47 3e 01 7f 27 3d 99 43 bb 3c
       0.07682342 0.19455637 0.040892605 0.022859382
000070 86 4c 5d 3e 7e aa 13 be 64 42 be be f6 6a b8 3d
       0.21611223 -0.14420506 -0.37160027 0.09004776
000080 bc c0 cf bd 81 98 f1 3d 65 67 0c 3e 51 5b 2a 3c
       -0.10144183 0.11796666 0.13711317 0.010397748
000090 7e 3e c8 3e a8 fb 09 3e d4 ca e6 bd 7f 11 ad be
       0.39110178 0.13474905 -0.11269155 -0.3380241
0000a0 7d 6b d8 3e ba 63 3d bd 23 e6 c7 3d 86 99 63 bf
       0.42269507 -0.046237685 0.09760692 -0.88906133
0000b0 d5 ec 68 bd d7 7e 59 be 9f 89 a0 be 5f af db 3e
       -0.056866486 -0.21239792 -0.31354997 0.42907235
0000c0 6d 1a 57 3e de 31 84 3e d2 03 f1 3e e4 7e a3 39
       0.21006174 0.25819296 0.47073227 0.00031184324
0000d0 b4 d0 6d be a5 60 fd bc 70 a4 1a be b3 27 28 bd
       -0.23224145 -0.030929873 -0.1510179 -0.041053485
0000e0 e4 db 21 3e 06 f8 14 3e 7e 24 ee bd d3 d1 08 bf
       0.15806538 0.14547738 -0.11628054 -0.53445166
0000f0 b9 97 6a bd 9e db 57 3c e7 de b2 3c 0f ab 1e bf
       -0.0572736 0.013174919 0.021834804 -0.61979765
000100 06 db d3 bc 5e 4c c7 be 76 81 bf 3e f5 d3 09 3e
       -0.025861274 -0.3892545 0.37403458 0.13459761
000110 0f 38 f9 bc d1 3d 07 be 3e 49 b9 3d fe d9 d3 3e
       -0.030422239 -0.13207175 0.09047173 0.41377252
000120 b3 15 ee bd 57 bb 9d 3d d0 83 3e 3d 90 c0 88 be
       -0.116252325 0.07701748 0.046512425 -0.26709414
000130 05 56 ea be 9f 45 00 3e 73 4f c8 bc 1e ef b7 3d
       -0.45768753 0.12526558 -0.024451947 0.08981155
000140 71 92 7e 3d 6e 41 30 bd df b4 a5 3d 4b 44 30 bf
       0.062151376 -0.04303115 0.08091139 -0.68854207
000150 61 cf 12 bd 48 10 8f 3d eb e1 59 3e 83 b5 d4 3e
       -0.035842303 0.06985527 0.21277587 0.41544732
000160 57 b8 1e be 0a 83 0b bf 08 0f da 3d d8 e7 87 bd
       -0.15500008 -0.54496825 0.10647398 -0.066360176
000170 00 38 ee bd 42 c7 17 3e 24 0a 4c be 7c e7 aa 3e
       -0.11631775 0.14822105 -0.19925743 0.33379734
000180 7e 5a 85 3d 17 2a 54 be 8e 5c 6a 3e 13 4b fe be
       0.06511401 -0.20719181 0.2288687 -0.49666652
000190 a0 ee 28 bd 36 2b b2 be f4 3c d1 bd c3 37 f6 3e
       -0.041243196 -0.34798592 -0.10216704 0.48089418
0001a0 8a 1c 09 be 8f 72 0e 3e 8d 94 ed bd b4 6a 99 be
       -0.13389793 0.13910888 -0.116005994 -0.2996422
0001b0 f3 7f 9a bb 61 98 7f be ab b7 45 be 16 0f 25 be
       -0.0047149598 -0.24960472 -0.19308345 -0.16119036
0001c0 58 2d f8 3d b4 d0 ab 3e dd ee 98 be cf 2d a3 be
       0.12118024 0.33557665 -0.29869738 -0.31870887
0001d0 00 4e 69 3e 88 a5 83 3e 93 98 66 be fb 15 f4 be
       0.22783661 0.25712228 -0.2251914 -0.4767302
0001e0 27 b6 63 3e 3e ad f2 bd 8b ad c4 be ab 97 39 be
       0.22237454 -0.118494496 -0.38413653 -0.18124263
0001f0 91 24 4a be fa 6d 84 bd 66 d9 cd 3d 5d 9d 45 bf
       -0.19740511 -0.06466289 0.10051231 -0.7719324
000200 26 80 d8 be 04 db 34 be b0 3c 16 3e ac 67 0e 3f
       -0.4228527 -0.17661673 0.14671588 0.5562694
000210 c4 48 15 3f 24 19 1d 3d 0a c1 05 bc e5 1e 92 be
       0.58314157 0.038354054 -0.0081637 -0.28539196
000220 70 4e a5 3d be 94 12 3e 8a 76 28 3e 04 e7 ed 3c
       0.080716014 0.14314553 0.16451469 0.02904082
000230 d3 d1 8e bc 42 61 56 3d 3c 1c 15 bf 5b 7f b7 3d
       -0.017434036 0.052338846 -0.5824621 0.08959838
000240 c5 27 9f 3d af 01 86 bd e9 66 cd 3b 10 eb 51 3f
       0.07771257 -0.0654329 0.0062683714 0.819993
000250 7e 01 13 3e c7 98 04 3e b1 40 8c 3e 2d f5 89 3e
       0.14356038 0.12948905 0.27393106 0.26944867
000260 cf 0a 54 3e 10 1d d0 bd ff 7f bb be 82 4b ed bc
       0.20707248 -0.10161793 -0.3662109 -0.028966669
000270 1c a0 98 3e 8a 40 4a 3e 66 0f a3 3d 52 42 6c 3e
       0.29809654 0.19751182 0.079619214 0.23072174
000280 d5 0e 9e be 4e 7b be be 2f 7e d3 3e ee 41 80 be
       -0.3087069 -0.3720345 0.41307208 -0.250503
000290 48 1a 08 3e 19 ff 30 3f ef 5a 06 3d 2c 49 b4 3c
       0.13291276 0.6913925 0.032801565 0.022007547
0002a0 89 78 86 3d 17 ea 09 bd 9a 63 ec be 07 5a 6b 3e
       0.06565959 -0.03367051 -0.4616974 0.22983561
0002b0 11 8a c0 3c 7c 3b 4e be a3 c4 24 3e 7e 33 1d 3f
       0.023503335 -0.20139879 0.16090636 0.61406696
0002c0 c0 24 e2 3d a9 5b 8b bd a2 39 d0 3c 85 27 90 3e
       0.11042166 -0.06804592 0.025418106 0.2815515
0002d0 9f 5d 0b 3e 07 b6 e9 bd 2b cb ba be 85 8a 8c 3e
       0.13609932 -0.11411672 -0.3648313 0.27449432
0002e0 23 52 7c be f7 c7 31 3e 0c c6 ac bd 8d 47 60 be
       -0.24640708 0.17361437 -0.08436212 -0.21902294
0002f0 95 f9 89 3e ac 3e 63 be 44 ea af 39 61 f7 c4 3d
       0.26948228 -0.22191876 0.00033553143 0.09617496
000300 34 53 1a 3f 75 77 93 be 88 ea 93 bd eb 0d a5 bd
       0.6028321 -0.28802076 -0.07222468 -0.08059295
000310 00 ee c3 3d 3b 8e 00 3d 70 9e 55 be 77 c8 8a be
       0.09566879 0.03138564 -0.2086122 -0.27106068
000320 89 a1 23 3d 84 84 21 bc 65 cd 6d 3d 01 39 87 bf
       0.039948974 -0.009858254 0.058057208 -1.0564271
000330 a1 71 c9 bb 2b f1 d7 be 82 9e a9 be 6a ab 18 3d
       -0.006147579 -0.42176184 -0.33128744 0.03727285
000340 03 f7 eb 3d 96 dd c1 3b 7e 1f d4 3c 7c 77 52 bf
       0.11521723 0.0059163077 0.025893923 -0.8221357
000350 49 b0 60 3e 32 f8 57 3e d1 3d 2d be 4f 7e 18 bf
       0.21942247 0.21090773 -0.16918112 -0.5956773
000360 59 3a 41 3e b1 54 23 be 86 85 f0 3d ca e4 13 3f
       0.18869914 -0.15950276 0.117442176 0.5777098
000370 73 40 a1 3c 17 76 93 3e b5 58 f4 bd c7 e3 ae bd
       0.019684052 0.28801033 -0.11930982 -0.08539539
000380 c5 bb 21 3e 93 4a 82 be ed 4b 1e 3d 58 7c 80 be
       0.15794285 -0.2544752 0.038646627 -0.25094867
000390 15 4a 23 3e 2f 4f 88 be 14 9f ba bd f1 27 90 bd
       0.15946229 -0.26622912 -0.09112373 -0.07038868
0003a0 bc 84 8e bd c4 44 60 be 5a 9d 31 be 94 e2 9c bd
       -0.06958911 -0.21901232 -0.17345181 -0.07660404
0003b0 5e 1e 6f 3c 9f 9c 09 3e 88 61 d0 bd 42 b7 4e 3f
       0.014594642 0.13438652 -0.101748526 0.8074838
0003c0 29 15 c7 be bf 73 56 be 66 4c 83 bd 31 58 47 3d
       -0.3888333 -0.20942591 -0.06411056 0.04866809
0003d0 45 90 49 be 1c 89 6f be 88 b8 43 3e ca b4 85 3e
       -0.1968394 -0.23392147 0.19113362 0.26114494
0003e0 24 00 0a be 5f 8e a8 bd 87 67 be bd 90 be 4f be
       -0.13476616 -0.0823028 -0.0929709 -0.20287538
0003f0 a1 b4 dd bd 40 ce 20 3e 21 f6 28 3d eb d5 f5 3d
       -0.10825468 0.15703678 0.04125035 0.12003692

actor.0.bias f4 [64]
000000 4f a4 dd 3c 02 3d 5d bd 94 f7 5b 3d ec 40 40 3b
       0.027055888 -0.05401326 0.053702906 0.0029335571
000010 65 58 f9 3c 7c b6 a1 bd 65 ef 92 3d af 12 16 bc
       0.030437658 -0.07896134 0.07174567 -0.009159728
000020 4c f5 74 3d ba 60 49 bc f3 77 9a bd a6 01 e2 3c
       0.059804246 -0.012291128 -0.0754241 0.027588677
000030 43 2e 7e 3d 51 81 89 ba 89 b6 3f 3d 61 d8 07 bd
       0.062055837 -0.001049081 0.04680494 -0.03316534
000040 ef 1c d5 bd bb fa 0d 3e 4a 8d 0b be 55 e3 16 3d
       -0.10405909 0.13865177 -0.13628116 0.036837894
000050 72 e1 e1 3c 0d 61 7b 3d 60 80 ad bd d5 01 51 bd
       0.027573321 0.06137185 -0.08471751 -0.051027138
000060 cc 0d ff bc 88 e8 11 3d 0a 3d 97 bd e3 6b 8b bd
       -0.031134509 0.03562215 -0.07384689 -0.06807687
000070 fb 6d ae bc 07 ed 57 3d 7a ab fa bd c8 52 c0 39
       -0.021292677 0.05271628 -0.12239738 0.0003668277
000080 10 4b c3 bd 1d 80 c2 bd 71 b7 aa 3d f8 64 45 3d
       -0.095358014 -0.09497092 0.0833577 0.048191994
000090 87 f9 98 3c ce 70 85 3c 0f 24 d8 bd 59 bc 11 3e
       0.018673671 0.016289141 -0.10553753 0.14232005
0000a0 20 22 bb bd 09 dc f7 3c b1 1a 0c 3e 04 d8 a1 bc
       -0.09137368 0.030256288 0.13682057 -0.019756325
0000b0 4c c8 17 3e 0f d6 d9 3d 0b a8 8a bd 12 7e a5 3c
       0.14822501 0.106365316 -0.06770333 0.020201717
0000c0 86 47 77 3d 62 9f 8f bd ba ab cd 3d f5 82 40 bd
       0.060370944 -0.07012822 0.1004252 -0.04699989
0000d0 f5 5c aa 3d a7 c3 e5 3b e1 57 b1 bd ca 83 a5 bd
       0.083185114 0.007011849 -0.0865934 -0.080817774
0000e0 ed 65 e0 bc 3f d4 8b bd 27 e8 51 bd bd 67 46 be
       -0.027392352 -0.06827592 -0.05124679 -0.1937551
0000f0 32 ce b9 bd b3 96 01 3e 0a d0 10 be 03 f5 b0 3d
       -0.09072532 0.12655143 -0.1414186 0.08640482

actor.2.weight f4 [5, 64]
000000 49 09 7c be 42 28 67 be f1 88 3e bd 9e 45 bd be
       -0.24612917 -0.22573951 -0.046517316 -0.36967176
000010 f6 a0 09 bf 16 7f 86 3e 06 b9 bc 3d 99 7e 7a 3c
       -0.5376123 0.26268834 0.09214978 0.015288972
000020 ba bc 90 3e 36 ca c5 be 88 c9 b3 be 87 6a 52 3e
       0.28268987 -0.38630837 -0.35114694 0.2054845
000030 2b 9f ab 3e d9 69 c7 bd cc 63 1c bf db 56 f0 be
       0.33519873 -0.09736986 -0.6108978 -0.46941265
000040 c2 22 45 3e f6 70 f4 3e 37 ca 69 be 73 7d 05 3f
       0.1925154 0.47742432 -0.22831045 0.52144545
000050 30 c1 06 bf 87 1b 2f 3e e6 33 63 be f1 47 e0 3d
       -0.5263853 0.17100345 -0.22187766 0.10951222
000060 6c 33 c0 be 6c 91 9d bd 32 83 4b be a1 f5 16 be
       -0.37539232 -0.07693753 -0.19874266 -0.14742137
000070 50 f9 a8 be c0 7f a5 be 79 1e 86 bd 00 35 14 be
       -0.3300271 -0.32324028 -0.06548781 -0.14473343
000080 e0 11 0a 3e d6 e1 09 be 42 02 a5 3e cf 7b 03 3e
       0.13483381 -0.13465056 0.32228285 0.12840198
000090 cf 0b 07 3f 8b 4b 96 3e 14 be 54 3e d3 2d 31 3e
       0.52752393 0.2935451 0.20775634 0.17302637
0000a0 79 fc fe bd e1 36 0b 3f aa a6 90 3e 6b 3a 92 3e
       -0.12450499 0.54380614 0.28252155 0.28560194
0000b0 55 aa a2 3e f7 9a 0a 3e 40 ad c7 be 43 d6 3e 3e
       0.31770578 0.13535677 -0.38999367 0.18636422
0000c0 ff 75 5b be 68 00 78 bc 63 ff 29 bf be f7 ed be
       -0.2143173 -0.015136816 -0.66405314 -0.46478075
0000d0 83 d8 a3 be 4e 18 f7 be e5 6f c4 3e 71 7b 19 3e
       -0.32001123 -0.4826073 0.3836662 0.14988495
0000e0 d7 29 c8 be 23 f3 02 be 9a 84 40 be 73 ab 8a 3e
       -0.3909442 -0.12788062 -0.18800583 0.2708393
0000f0 e7 d8 94 be 07 7d 43 3e f7 b9 97 be 3e 8d a1 3e
       -0.29071733 0.19090663 -0.29634067 0.31553072
000100 61 cb e9 bd b1 f6 de bc 79 e1 57 3c 6b f0 35 be
       -0.114157446 -0.027217241 0.013176315 -0.17767493
000110 e1 3c ed 3e 41 e3 36 3e e6 e0 ec be 3d a2 ad 3e
       0.4633551 0.17860128 -0.46265334 0.3391284
000120 8c 81 c2 bc c9 47 13 be 3e 38 30 3e dd f1 19 3e
       -0.023743413 -0.14382853 0.17208955 0.1503367
000130 9e fa cd 3d 2b 42 ae be 83 3e 22 be 14 1e 2e 3d
       0.10057567 -0.34034857 -0.15844159 0.042509153
000140 d6 6d 3f be c9 15 f6 3d 18 8b 06 be 90 ea 3a be
       -0.18694243 0.12015874 -0.13138998 -0.18253541
000150 67 33 b5 3d 7e 42 2c 3d 70 7b 17 3e 5a fb 49 3e
       0.08847695 0.0420556 0.14793181 0.1972479
000160 68 cd 9a be 10 cf 6b 3c fe 3c 71 be 5b bd 21 3e
       -0.30234838 0.014392629 -0.23558423 0.1579489
000170 0f c0 96 bd d0 b5 f7 3d 3a ee 6b be 77 ca 19 bd
       -0.07360851 0.12095225 -0.23040095 -0.0375466
000180 37 49 45 bd e8 2c de be d5 32 d7 bd 10 7d 7b be
       -0.048165526 -0.43393636 -0.10507742 -0.24559426
000190 ea d5 15 bd 15 47 43 3e 16 47 94 3d cb b5 77 be
       -0.036580957 0.19070084 0.07240121 -0.24190442
0001a0 34 3c 8f 3e e5 96 04 3e d4 1a 6b 3d 1c 0d 80 3e
       0.2797562 0.12948187 0.057398632 0.25010002
0001b0 e8 7a 69 be c6 20 ae bd 6b be 56 3e 55 77 03 3f
       -0.22800791 -0.08502345 0.20971076 0.5135396
0001c0 b2 5e 21 3e 83 34 16 3f 9a ee 80 3e a3 2d 52 bd
       0.1575878 0.58673877 0.2518204 -0.051313054
0001d0 54 61 55 bd c8 16 c4 3d 83 80 65 3e c6 29 61 be
       -0.052094772 0.09574658 0.22412305 -0.21988592
0001e0 ae e1 a1 3e 92 0f 94 3a 02 c2 1e 3e 74 ee 76 bd
       0.31617492 0.0011296144 0.15503696 -0.060286
0001f0 61 12 3e 3e a9 aa 1b be 8e ab d8 3c 73 6d 64 bc
       0.18561698 -0.1520182 0.026448991 -0.01394211
000200 f6 95 d5 be 08 b3 ff bd 83 01 f7 be c1 62 01 3e
       -0.41715974 -0.124853194 -0.4824334 0.12635328
000210 1e cb 43 be 08 84 ae be b4 42 46 bd b6 89 70 3e
       -0.19120452 -0.34085107 -0.048403457 0.23490033
000220 48 04 eb bc 4f 17 1c be 80 3f ca 3d b8 7a 94 be
       -0.028688565 -0.15243267 0.09875393 -0.28999877
000230 c7 ec c7 3e b8 55 af be be bb d3 3c e7 30 ed 3d
       0.39047834 -0.34245086 0.025846358 0.11581593
000240 73 d3 eb 3c 65 b5 4f bc 6b fb 50 3d f8 cc 9f 3d
       0.02878735 -0.012677525 0.05102102 0.078027666
000250 5c 9d 85 be 98 70 7e be 52 a1 cb 3e 1a cb 87 be
       -0.26096618 -0.24847639 0.39771515 -0.26522142
000260 b4 a1 4a 3e 5d 60 7e 3e 3f 52 2a 3e a5 c9 0b 3d
       0.19788247 0.24841447 0.16632937 0.03412785
000270 9e c7 79 bd 1b 19 e8 39 ad ae 0d be 48 37 a8 3e
       -0.060981385 0.00044269193 -0.13836165 0.32854676
000280 26 db b7 3d 87 7d 05 bd 7f e4 33 3e cc 38 52 be
       0.08977346 -0.032590415 0.17567633 -0.20529479
000290 a0 ad a8 bc 1d 68 b8 be 9e b5 3c be e8 ab a8 be
       -0.020590603 -0.36016932 -0.18428656 -0.32943654
0002a0 53 4f 4c be 2a 3e cc be 77 70 b0 bc 95 0c c2 be
       -0.19952135 -0.39891177 -0.021538002 -0.37900224
0002b0 42 9f 59 be db 33 3c be 15 05 01 be 7c ca 0a 3b
       -0.21252158 -0.18379156 -0.12599595 0.002117782
0002c0 42 5f f3 3d a4 93 3f 3e c0 9b db 3d 39 2f 16 3e
       0.11883403 0.18708664 0.10723066 0.14666452
0002d0 70 b1 3a 3d ac 0a 0a be 1d 61 b7 3e f9 fd 02 be
       0.045579374 -0.13480633 0.3581628 -0.12792195
0002e0 2c 65 3b 3e 7e f3 9c 3e b7 e6 5b 3e f0 66 0a 3e
       0.18300313 0.3065452 0.2147473 0.1351583
0002f0 5b 76 91 bd 0f fe 52 3e 1f 5c 94 3d 1e 16 22 be
       -0.07102653 0.20604728 0.07244133 -0.1582875
000300 0b de e9 be fa c4 67 be 3f cd 75 be a1 f1 69 3e
       -0.45677218 -0.22633734 -0.24004076 0.2284608
000310 45 22 02 3f 66 93 d4 3e de 6f 06 3d 7f cc 00 bf
       0.5083354 0.41518706 0.03282153 -0.50312036
000320 ad a0 94 3e 37 5c 5f 3e 2b 07 96 3e f0 36 00 3e
       0.29028836 0.21812521 0.29302344 0.12520957
000330 03 b2 0a be a9 29 11 3e b7 af 99 3e d3 f6 ba bd
       -0.13544469 0.14176048 0.30016872 -0.09129109
000340 fa ba 76 be 6c d2 d2 bd 84 b2 d3 3d 09 8b 83 be
       -0.24094763 -0.10294041 0.103367835 -0.25692013
000350 db 11 bf 3e 1c 04 22 3e f6 7d f5 3d 7f 31 7c be
       0.3731831 0.1582188 0.11986916 -0.24628256
000360 f8 ee cc 3d eb af 96 be 34 fa 43 3e d9 de cf 3c
       0.10006517 -0.2943109 0.19138414 0.025374817
000370 fa a9 93 3e f6 d4 df 3e 64 ff df be 8c 85 38 3e
       0.2884062 0.43717164 -0.43749535 0.18019694
000380 b0 29 d3 be f7 00 10 3f 48 ae 12 be 65 83 dc be
       -0.41242743 0.5625147 -0.14324296 -0.43068996
000390 ad 91 d8 be 83 02 80 3e 34 4c b4 3c c8 d9 b4 3e
       -0.42298642 0.25001916 0.022008993 0.35322404
0003a0 ba bb 5f be 8f 27 89 bd 8b c0 c4 be b7 c4 a8 be
       -0.21848956 -0.06696998 -0.3842815 -0.32962582
0003b0 20 04 02 be eb 8b 05 bf 67 80 50 3e f7 e7 3f be
       -0.12696886 -0.5216662 0.20361482 -0.18740831
0003c0 3a 82 57 3d f0 e1 b5 bd a9 64 c4 3e 83 dd 3a be
       0.052614428 -0.08880985 0.38358048 -0.18248563
0003d0 80 2a 15 3f 96 1d da 3e 4a d6 b9 be 41 2c cb 3e
       0.58267975 0.42600697 -0.36296302 0.396822
0003e0 24 30 ec 3b 39 c5 8e bd 28 9a f9 bd b1 81 55 3b
       0.0072078872 -0.06971211 -0.12187606 0.0032578523
0003f0 c1 f1 77 be 62 4c c6 be 6b e6 88 be e7 3a a6 3e
       -0.24213316 -0.3873015 -0.26738295 0.32466814

actor.2.bias f4 [5]
000000 1c 1c b8 3d d8 c8 6f bd 39 5e 03 be 5e 15 1a 3d
       0.089897364 -0.05854115 -0.12828912 0.037618034
000010 3a a4 5a bd
       -0.053379275

critic.0.weight f4 [64, 4]
000000 17 2d 7f be 0e 54 ce be 1f fe ef 3c 63 ac 37 be
       -0.24919544 -0.40298504 0.029295979 -0.17936854
000010 fc 2f 36 3e 8b ba 50 3d 08 e5 16 3c 75 9e 16 3e
       0.17791742 0.05095915 0.009209879 0.14708884
000020 e8 52 df be e7 eb e4 bc b9 0d 2f be 8e 27 1a 3d
       -0.4361794 -0.027944518 -0.17095079 0.03763538
000030 52 4e af 3e 8d 50 7b 3e 12 b0 e4 3d 15 70 07 3b
       0.3423944 0.24542446 0.11166395 0.0020666171
000040 ce 75 73 3c d2 83 9e be 89 97 9e bd f2 c0 be bc
       0.01485963 -0.30959946 -0.07743747 -0.023285363
000050 a5 c1 a3 3e 29 f4 01 3e 98 a5 42 3e 44 57 d2 bd
       0.31983677 0.12690796 0.19008482 -0.10270551
000060 2f f2 95 bd bf 3f 99 be d9 11 9e be bd d9 92 3d
       -0.073215835 -0.29931447 -0.30872992 0.071704365
000070 f9 18 da be a2 e4 f4 bc 59 fc f2 3d 24 a4 ea bd
       -0.42597178 -0.029894177 0.11864538 -0.114570886
000080 ac 69 98 be 21 c9 af be 9b cf ad be 51 7b 25 3e
       -0.2976812 -0.34333137 -0.33947453 0.16160323
000090 d3 16 9f be c1 de cc bd d6 2f 3d be 6b 72 18 3d
       -0.310721 -0.100034244 -0.18475279 0.037218492
0000a0 7c 57 0f 3d a3 89 f7 3d 72 63 75 3e fb e8 07 bd
       0.03499554 0.12086799 0.23963717 -0.033181172
0000b0 e4 11 1b be fa f4 dc bd 31 a3 c8 3d f6 9c 49 be
       -0.15143543 -0.10788913 0.09796751 -0.19688782
0000c0 a0 57 bf be 22 a7 67 be 3f 30 8c bd f0 10 34 3d
       -0.3737154 -0.2262235 -0.0684514 0.043961465
0000d0 a9 19 5f 3e 70 c0 ef bd aa 68 aa be 42 23 12 3e
       0.21787132 -0.117066264 -0.33282977 0.14271262
0000e0 d9 b3 7f 3e a4 0c f6 3d 9f 3f ab 3e ec f2 90 be
       0.2497095 0.1201413 0.33446977 -0.28310335
0000f0 ba 64 86 3e 55 3e 0b 3e 03 52 46 3e 1e 0c 85 bd
       0.26248723 0.13597997 0.19367222 -0.06496452
000100 6e 03 54 be 9e a8 a9 be bd 0d 30 3e 9c 84 3d be
       -0.20704433 -0.33136457 0.1719274 -0.18507618
000110 82 f7 8b 3e 5f d4 db 3d 05 f4 c3 bd 0b ec 40 3e
       0.2733727 0.10733866 -0.095680274 0.18840043
000120 de 79 98 be 48 f8 09 bd e7 42 c6 3c 8d 3d 03 be
       -0.29780477 -0.033684045 0.024201823 -0.12816449
000130 f7 4d 6e bd af 8e 79 bd 43 55 20 be 53 07 e2 3c
       -0.05817982 -0.06092709 -0.15657525 0.027591383
000140 41 19 a9 3e 4d c4 9e 3e 7c ef fa 3e 5c 21 58 be
       0.3302708 0.3100914 0.49010837 -0.21106476
000150 0e 92 9e 3c 3a a1 9c 3e d3 01 68 3e 90 41 80 be
       0.019356754 0.30591756 0.22656946 -0.2505002
000160 29 10 f2 3e f6 f6 aa 3e 97 d4 fe 3d a2 bc 1d bc
       0.47277954 0.3339154 0.12442892 -0.009627493
000170 41 2b 81 3c 82 c7 b7 3e 9c d9 94 3e 45 ce 01 be
       0.015767695 0.358944 0.29072273 -0.12676342
000180 f3 c5 30 be fd f0 05 be 57 34 e9 bd 10 24 68 3c
       -0.17263012 -0.13080211 -0.11386936 0.014168754
000190 6c 63 c5 be f0 50 24 bc 9e 41 34 be 17 8a bd 3d
       -0.38552415 -0.010029063 -0.17603156 0.09254854
0001a0 b7 9e 83 3e 62 81 1f 3d 4a da 0c be ed e3 1b 3e
       0.25707027 0.03894175 -0.13755146 0.15223666
0001b0 b3 c9 8e 3e fa 32 a1 3e 40 4e a5 bd 01 2c ac 3e
       0.2788826 0.31484205 -0.08071566 0.33627322
0001c0 84 36 5a 3e 1b 34 5f 3e 7a ab 77 3d d4 28 c3 3c
       0.21309859 0.2179722 0.060466267 0.02382318
0001d0 35 23 87 3e ae 07 a7 3e 48 ae 13 3c ff d3 62 3e
       0.26394048 0.32623047 0.00901372 0.22151183
0001e0 c6 21 f3 3d f8 59 1c 3d dc 52 b7 bc fd 44 fd 3d
       0.11871676 0.03817174 -0.022378378 0.12366674
0001f0 00 ed bc 3e d4 de d4 3d f2 be 11 3c 1f c6 0c 3e
       0.36899567 0.103940636 0.008895623 0.13747452
000200 23 bb 81 be 20 08 eb be c0 67 a7 bb 59 a2 62 be
       -0.25338086 -0.45904636 -0.0051088035 -0.22132243
000210 71 d3 4d 3e c3 f7 31 3e 56 b4 93 3e 31 2c 77 be
       0.2010019 0.1737967 0.28848523 -0.24137951
000220 cf 92 b7 be cc 29 84 be 7c d0 a7 3d 5a 40 16 be
       -0.35854194 -0.25813138 0.08194062 -0.14672986
000230 8d de 32 3d ed 94 94 3e 84 cb 26 bd 5f 51 bc 3d
       0.043669272 0.2901987 -0.04072143 0.09195208
000240 5f 89 17 3f e3 b4 8d 3e 87 91 2b be 82 1b 5b 3e
       0.59193987 0.27677068 -0.16754733 0.21397212
000250 a3 2f 69 be 7a 54 41 be a0 8d a7 3c 68 55 f8 bd
       -0.22772078 -0.18879882 0.020453274 -0.12125665
000260 a5 dd 57 3e a9 71 c7 3e 9f ea 3f be 60 05 25 3e
       0.21080644 0.38953903 -0.18741845 0.16115332
000270 84 2b 14 3f 09 da 8a bc 1d 9d d2 3d 59 bb 53 3d
       0.578789 -0.01694967 0.10283873 0.05169234
000280 7a 38 7e 3d f9 c7 75 be ff c0 5e bd fd 15 11 bd
       0.06206558 -0.24002065 -0.054383274 -0.03542136
000290 a7 f3 e1 3e 0a 91 49 3e fb 75 9e 3d 50 49 cd 3d
       0.44131204 0.19684234 0.07737347 0.10023749
0002a0 fc 94 3b 3e bf 9e a4 3d a6 f9 7c 3c 8e 19 14 3e
       0.18318552 0.08038091 0.01544038 0.14462873
0002b0 08 40 dd 3e 60 c7 ea 3e bc 31 25 3e f9 af 82 3c
       0.43212914 0.45855236 0.16132253 0.01595305
0002c0 ae ae 21 3e 44 02 37 3e 1d 7f 6d be 2b d1 fd 3d
       0.15789291 0.17871958 -0.23193021 0.12393411
0002d0 4a 86 5c be bf 39 83 3d 20 08 c6 bd 25 b9 3c 3e
       -0.21535602 0.064074986 -0.096695185 0.18430002
0002e0 7e 76 38 be 80 67 69 3d d8 73 5d 3e e6 03 61 bc
       -0.18013951 0.05698347 0.21626222 -0.01373384
0002f0 df 30 d4 3c f9 3f 33 3e 67 a5 1b bc f3 3b e2 3d
       0.02590221 0.17504872 -0.009499884 0.11046591
000300 12 b9 04 bf 87 03 7a 3d 6d d5 98 bd 7a f5 cd bd
       -0.51844895 0.06103852 -0.07462583 -0.100565866
000310 90 a3 c8 be 3d b7 1f be 34 de d8 bd ed d5 7f 3c
       -0.39187288 -0.15597244 -0.10589257 0.015614969
000320 b8 f1 16 be a7 e3 0f bf 91 04 02 3e 6d c6 ed be
       -0.14740646 -0.56206745 0.12697054 -0.4644045
000330 32 ce 11 3e 52 ef 61 3e 11 3f dd 3c d4 e5 f5 3d
       0.14238814 0.2206395 0.027007611 0.12006727
000340 5b 77 7e 3e eb 4c 3a 3e 01 3d ac bd 4b 99 41 3e
       0.24850218 0.18193404 -0.08410073 0.18906133
000350 0d b5 9e bd 44 29 9c be 3c 00 4f 3c 15 dd 3e be
       -0.077493764 -0.30500233 0.012634333 -0.18639024
000360 00 52 a0 3e 61 51 92 bd ec b6 95 3e 0a a2 a4 bd
       0.3131256 -0.07144428 0.2924112 -0.08038719
000370 e8 90 5d 3e c3 4f 5c 3e 47 6c 1a 3e 5c 94 a4 3c
       0.21637309 0.21514802 0.15080367 0.020090275
000380 d9 ee 20 3e 0a d9 8c be 34 db a8 bc 73 8a c2 3c
       0.15716113 -0.27509338 -0.020612337 0.023747658
000390 79 b1 e6 3c 55 0d 9f be 82 84 01 3f 44 67 88 bd
       0.028160797 -0.3106486 0.50592816 -0.06660321
0003a0 90 1f f1 3d 40 dc 1d 3e b9 92 22 bb f0 6d 07 3e
       0.11773598 0.1541605 -0.0024806692 0.13225532
0003b0 3c c9 e1 3e 0d 31 33 3d e0 1a f3 3d 8c 41 d3 3b
       0.44098842 0.04374795 0.118703604 0.006447023
0003c0 6c dc c3 be e1 a7 10 3e 26 58 49 3c a3 31 9b bd
       -0.38254106 0.1412654 0.012289083 -0.07577827
0003d0 fd 51 86 be 31 2e c5 3e 7a a1 57 be ea 10 89 be
       -0.26234427 0.38511804 -0.21057692 -0.26770717
0003e0 ae a0 df be e8 12 7b bc 73 9a 13 bc f2 70 e9 bd
       -0.43677276 -0.015324332 -0.0090089915 -0.11398496
0003f0 a3 0e e3 be 36 af d6 bc 93 76 3a be 8c eb d1 bc
       -0.44347104 -0.026206594 -0.18209295 -0.025625013
