outputs/centerSquare_2a_PPO_wprior1_run1/last_status.pt (torch, 39317 bytes, 42 tensors)

actor.0.weight f4 [64, 4]
00000000: f460 b33e 34a3 cabe a72d a93e 61fc 733e
00000010: cf97 943d 9c48 92be 5e92 8b3e 8f1b b13e
00000020: 99d3 0e3f a564 6e3e 2fce 473e 8d4d 2abe
00000030: c612 80be d40c c6be 6b94 49be ccb2 c9bd
00000040: 3846 883d ab82 0abe b0dd 993d 3d34 573f
00000050: 4eba ed3d 7dda cfbd 334c b03d cd2f 883e
00000060: 4f38 323e 232d 28be c221 083e c6d7 c23e
00000070: 11b1 f3be 52a5 eb3e 4946 aa3e 71b5 20be
00000080: 4f2f e23d e4f3 473e 9824 3fbe 77c4 f2be
00000090: 59bc 583e da8e 44be fb3d 09be 6a43 283e
000000a0: 089d 943e a1c2 61be 8228 04bf ff48 3cbe
000000b0: 47b6 74be c454 f7be 9262 71be 828b ec3d
000000c0: 09f2 783e 19bd 0abe 6163 303e 68cc 1b3e
000000d0: 1c18 aebe e4f2 b0bd 1bee b13d 8958 a83e
000000e0: 35ac 8e3e 9a4a a83e eb18 cabe f451 0e3e
000000f0: 4239 083e 349c 1fbe b41a f63d cb13 353f
00000100: 4ba9 6fbd 826a c0be 5100 a6be 5ccb d5be
00000110: de09 0abe c422 9d3e 1fc9 92be 6034 85be
00000120: 91c1 2c3e da12 09be 366b 133d 9af2 a03e
00000130: 8607 1cbe 9d35 86bd 4bb4 d93c 6ea0 c4be
00000140: 2dea 1e3c 3c09 123d 5ed3 24bf f351 06be
00000150: 2fea 89bc a99d dcbe e439 fbbd 96f6 563d
00000160: 1436 f5bd 6b89 533e c8a4 5fbe b0c2 57be
00000170: 8f82 26bd 5db4 69be f27a dd3d 511f 8abe
00000180: 10c7 1a3e f9e7 14be 7d9d d63d ec7d 0d3f
00000190: 8605 7b3e 90e0 73be e95e 473e 0452 e53e
000001a0: 8f67 13be 93c8 9f3d 39f9 163f 2e4e 313d
000001b0: 42f7 b83d 175e f43d 4755 cdbd 457c b9be
000001c0: 0801 77be 7215 2e3e 7f98 0f3f 086c 463e
000001d0: bb35 613d f89a f93e 8d71 5dbb 7361 833e
000001e0: 6ba2 383e ab59 df3e cbc2 4f3e 54d3 d5bd
000001f0: b0e8 1abe 54e2 043e 068e 4dbd e14e 52be
00000200: f10f 5c3e e3c8 25be 549e e03d c9b3 163f
00000210: afcf 06bd 94b0 f0bd 4102 ab3d b5aa 283f
00000220: eb9d 03bf 8703 9abe 3210 b3be ac50 f0bd
00000230: b2ae fcbc d5f8 873c 89b8 42bb 6969 cfbe
00000240: e5d4 8e3e 4c99 263e 88a9 1abe 8aab 12bf
00000250: 9bda 13be 5653 b4be a5a2 b13e b44c 463e
00000260: a819 98be 06d2 423d 4558 84bd 7d2c cd3c
00000270: a640 18be e4a1 8bbe 570d 06be 9884 913d
00000280: 49de 193e 6577 eabd 16c8 b4be d836 343e
00000290: 8c38 163d d797 ec3e e12a 6d3d 46e9 98bd
000002a0: 46a2 c4bd 5723 b0be 9b9c b93e cc14 5f3e
000002b0: 5cd0 0dbe 8c2a 19bf 31db 68be 57b3 643e
000002c0: aebb 5abe 4619 5a3e d618 12be c242 07bf
000002d0: 45c1 b53e 1d20 a7be 27d5 0bbe 34d3 91bd
000002e0: 24e4 3d3e e35c 2ebe 49d4 84be 5a33 ce3c
000002f0: 7f00 f23d b438 a43e a18c 723d b025 ba3e
00000300: 061c 6cbe 565e 5bbe 0509 413e 6c3b 0f3f
00000310: d868 2b3e 2ed5 913e 8582 8dbe 3fad f6be
00000320: 5138 3e3e 977b 07be d14b d2be 7734 e83e
00000330: 0a49 9e3e 6ff0 c83d f41d 203f 11e0 bcbe
00000340: 5321 923b 0953 da3c 3556 03bf ba03 b5be
00000350: 3758 5d3e 7c65 40be 8bbd 043e fd52 403f
00000360: eee7 143e dbce cbbd 36af 203e f695 c93a
00000370: c54e e53d 43ec b43d 0284 bc3e ced5 9e3d
00000380: 4fa3 c03d 945a 34bd f03e 61be 6af2 973e
00000390: a6f9 c0be 95a6 b23e 5f7d b33e 3890 f5ba
000003a0: b8c3 45be a480 56be b65b 653e fb4a a33e
000003b0: 31ae cabd 53ff 513c 6e57 f23e b2d4 0a3e
000003c0: e12d 1cbe 07b7 883d 81e1 1c3f 1433 b1bd
000003d0: 4f5e 823d fb9b 6bbc 8db8 a0bc 4a73 fb3e
000003e0: d631 18be 4cd5 e13d 1c0d ac3e 84e0 ad3e
000003f0: 7a9e 3abe 61dc cb3d 3c7c 1c3f b977 bd3e
0.35034907 -0.3957764 0.33042642 0.23826744 0.07255518 -0.28571022 0.27260107 0.34591338
0.5579162 0.2328058 0.19512247 -0.16631146 -0.25014323 -0.38681662 -0.19685523 -0.09848556
0.06654018 -0.13526408 0.07512987 0.84064084 0.116078004 -0.10149095 0.08608284 0.2659897
0.17404293 -0.16423468 0.13294128 0.38055247 -0.47596028 0.46024567 0.33256748 -0.15694214
0.1104418 0.1952663 -0.18666303 -0.47415516 0.21165599 -0.19195119 -0.1340255 0.16431966
0.29026055 -0.22046901 -0.5162431 -0.18387221 -0.23897658 -0.4830686 -0.23572758 0.115500465
0.24311079 -0.13548698 0.1722541 0.15214694 -0.3400277 -0.08640078 0.08687993 0.32880047
0.2786576 0.32869416 -0.39472136 0.1389845 0.13303092 -0.1558693 0.12016812 0.70733327
-0.05851106 -0.3758126 -0.32422116 -0.41756713 -0.13480327 0.30690587 -0.28669068 -0.2601652
0.16870715 -0.13386098 0.035990916 0.3143509 -0.15237245 -0.06553195 0.026575228 -0.38403648
0.009699387 0.035653338 -0.6438502 -0.13117199 -0.0168353 -0.43089035 -0.12266901 0.052481256
-0.11973205 0.2065789 -0.21840203 -0.21070361 -0.040651854 -0.2282271 0.108144656 -0.26977018
0.15114999 -0.14541616 0.10479257 0.55270267 0.24513826 -0.23816133 0.19469799 0.44789135
-0.14394973 0.07801928 0.58974034 0.04328745 0.09031536 0.11932009 -0.10026031 -0.36227623
-0.24121487 0.17000368 0.56092066 0.19377148 0.054982882 0.48751044 -0.0033789605 0.25660285
0.18030708 0.436231 0.20289151 -0.10440698 -0.15127826 0.12976962 -0.050184272 -0.20537902
0.21490456 -0.16189913 0.10967699 0.5886808 -0.032912906 -0.117524296 0.08350039 0.6588548
-0.5141284 -0.30080816 -0.34973294 -0.11734137 -0.03084502 0.016598145 -0.0029712042 -0.4051011
0.278968 0.16269416 -0.15103734 -0.57293 -0.1443886 -0.3521983 0.346944 0.19365197
-0.29707074 0.047563575 -0.064621486 0.025045628 -0.14868411 -0.2727195 -0.13091026 0.071053684
0.15026201 -0.11448554 -0.35308903 0.17599046 0.03667502 0.46209595 0.05790222 -0.074663684
-0.09601264 -0.34401962 0.36252293 0.21785277 -0.13849014 -0.59830546 -0.22739865 0.22334038
-0.21360657 0.21298704 -0.14267287 -0.5283624 0.35499015 -0.32641688 -0.1365553 -0.07120362
0.1854406 -0.17027621 -0.2594321 0.02517097 0.11816501 0.3207451 0.059216145 0.36356878
-0.23057565 -0.21422705 0.18851097 0.55950046 0.16739213 0.28482956 -0.2763864 -0.4817905
0.1857617 -0.1323074 -0.41073468 0.45352527 0.309151 0.09811484 0.62545705 -0.368897
0.004459539 0.026650922 -0.51303416 -0.35354406 0.21615683 -0.18788713 0.1296293 0.7512663
0.14541599 -0.09951564 0.15691838 0.0015379775 0.11196665 0.08834126 0.36819464 0.07755624
0.09406149 -0.044031695 -0.21996665 0.29677135 -0.37690467 0.34892717 0.35056588 -0.0018734997
-0.19312942 -0.2094751 0.22398266 0.31893143 -0.098965056 0.012817222 0.4733233 0.135577
-0.15251876 0.06675535 0.6128159 -0.086523205 0.06365644 -0.01438045 -0.01961925 0.49111396
-0.14862761 0.11027011 0.33603752 0.33960354 -0.18224517 0.09954143 0.61127067 0.37005404

actor.0.bias f4 [64]
00000000: fb29 2e3e be0b d33d 2ba2 193e 7206 6cbd
00000010: f35e 1d3e 9fc8 cdbb 360d aebc ea24 9cbd
00000020: b1f7 383c d7bf 97bd d312 7dbd 3656 9ebd
00000030: 7445 a93c 03d7 043e f600 bdbd 8b6f 8b3b
00000040: 3d53 0fbe bbc6 f5bd 2afd f33a 1ab1 9cbd
00000050: 24f0 dc3d 647a e1bd dfd5 453d 4725 21be
00000060: 2abd c2bc f430 c0bd 6695 b0bd 0e2d 21be
00000070: ca51 6e3c c2b8 423e d7c6 0d3e 2568 16be
00000080: 6f87 41bc d474 a23d ec9e 83bd 2816 5dbd
00000090: fdca 0cbd 083b 5c3d b394 8cbd 031e 37be
000000a0: 270a 5e3d 0125 5d3e 958a c7bd df7b babd
000000b0: e711 5bbd c757 26be ca5b edbc d70f 243e
000000c0: 4434 0b3e d844 283c 7035 0dbd 0281 d63d
000000d0: eac8 fc3d ba7a 0abe 42ff 9b3d ef3d 3d3e
000000e0: 575f 66be 52b7 b6bd 3c60 41bd 0fe7 2d3e
000000f0: 5cb6 8f3d 99bf 10bc 7d4a 87bc 6e6c 273d
0.17008202 0.10304974 0.15003268 -0.057623334 0.15368252 -0.0062800194 -0.021246534 -0.07624228
0.011289523 -0.074096374 -0.06178553 -0.07731287 0.020663 0.12972645 -0.09228699 0.0042552403
-0.13996597 -0.120007955 0.0018614877 -0.07650967 0.10787991 -0.11009672 0.048299666 -0.15736876
-0.023771841 -0.09384337 -0.086222455 -0.15739843 0.014545867 0.19015792 0.13845383 -0.14688165
-0.011812075 0.079324394 -0.06426796 -0.053976208 -0.034373272 0.053767234 -0.068642996 -0.17882542
0.0542089 0.21596147 -0.09743229 -0.09105658 -0.05348387 -0.16244422 -0.028974432 0.16021667
0.13594157 0.01027032 -0.03447479 0.10473825 0.12343009 -0.13523379 0.07617046 0.18480657
-0.22497307 -0.08921684 -0.047210917 0.16982673 0.07017204 -0.008834743 -0.016515011 0.04087489

actor.2.weight f4 [5, 64]
00000000: eac4 c0be 77d5 54bd 601b c6bd 65dc 283f
00000010: a48c 56be 315e 50be ebf0 e23d 23eb 4cbe
00000020: 58c2 efbb 7b53 1abe 915e 9dbd 7aaa 9f3d
00000030: b9d3 983c 8304 80be be6b fabd 47a2 493e
00000040: 5010 ae3e 1625 80be 658c bfbd 8f3f 8c3d
00000050: 037f 163d 3cb8 9c3e 331e 693e dc44 bebd
00000060: a3c1 ca3d 6f64 9a3e 634c c2bd 2776 d53a
00000070: a36e bf3c 0545 57be 5085 a93d fe7e f6bd
00000080: 7394 a1be 29db d43d 6779 303e dc10 df3e
00000090: 5602 1b3d e4b6 e33d 9928 d13e 3deb 143c
000000a0: 4533 e6bd c98d 7fbd 92db 813c 2e8d ee3d
000000b0: fdf0 cf3d 13bb 7a3e 8639 e23d 4f9f 35be
000000c0: eefc 2c3e 0102 723e 006d 4a3e 8d41 0f3d
000000d0: 99c6 fd3d 46c0 d23c 87ec ed3e e03b 1abd
000000e0: a772 853e ea0f 0fbf fa71 6dbe 2cbf c53d
000000f0: 4981 5cbc 76fc 873e d57f 2cbe 900a 03be
00000100: 8152 4f3f 689d bc3e b613 81bb 073a ba3d
00000110: f8db 013f 3260 ca3e 8009 273f e6e0 c2bd
00000120: e17e 52be b7de 61bd fb87 3a3e af0e 05be
00000130: 7fbf 993e c195 be3e 5ed5 01be 1c2b 1a3f
00000140: 0326 a6be 9d7c b53d 08dd 4a3e 36cc 2bbe
00000150: 08ba b33d 6a6c 7abe 7d73 e5bd 95c6 423d
00000160: 5ffe 383f a905 463f ac9a 56be 3098 abbe
00000170: b08a d0be 4cc7 e33e 25a1 b23e 9983 c1be
00000180: 2600 fc3e 0dad c33e ebd4 91be 248a 65be
00000190: 57c6 d5be 840e f4ba 0b00 afbd 7ecc 0abf
000001a0: b611 d43e 32b3 d53e 4c28 bc3e 540b 89be
000001b0: 7d85 6abf 41b9 ef3c b186 29bd 9073 1d3d
000001c0: 7dd2 213f ac0e 32be 8d9a a23e e092 b13e
000001d0: d1a0 40bd 0939 593f fad7 bf3e d36a 733e
000001e0: 689e c6bc a172 d9be a0e2 103f de60 923e
000001f0: ba4b 58be 2f67 0c3f 46c1 19be 6c54 a9bd
00000200: 69e8 5dbf 87b2 57be 5d49 37be 1de4 433e
00000210: a576 e7be 2ed8 12bf 85a2 edbe 0a26 5b3e
00000220: e28b d63e 6ea2 09bf 2110 8ebe 73bd 113d
00000230: 8a74 a7bd 3c7b e4be c2dc 133e 99d0 91be
00000240: 5622 83be 3a3a f83e 825a 89bd 1eb2 a63e
00000250: 8f34 8cbe d608 3bbe 31e5 043f ab59 cc3d
00000260: 7dab 0cbf cefc 48bf 21ef 043f 10af 3e3d
00000270: c1f9 5e3e 0bf0 a53d e04d 023d 8560 b1bd
00000280: e3b6 e83d 45eb a4be 300f 72be e186 223e
00000290: f2fd 803e aab1 15bf bd5e 8fbd 9bfa b2bd
000002a0: 6577 b3be b514 89be a59e ecbe 0abf 143e
000002b0: 364b 673f 5901 d6be 7cf8 62be 84f7 8dbd
000002c0: 8467 2cbf 3400 b43e 9879 17bf 9ba1 8ebd
000002d0: 72e1 ebbd 830b d1be 4ffc 0a3e b73d 0c3e
000002e0: a23f 71be fce0 623e 40de 02bf a48e 0a3f
000002f0: bc9e 483e fd03 02bf e63f 963e 9ee3 113f
00000300: bad1 af3d c279 003e 3235 e2bd 7424 993e
00000310: 98fb 8b3e 995e adbd f646 6dbd 3cbe 0cbf
00000320: 5cc9 efbc 6896 a83d f094 30bd 2ecc 073e
00000330: 65ea ddbe 7874 c3bd ed11 d83e 33f7 993d
00000340: b436 333e d23d a63e 99de e33e 5089 1c3e
00000350: 99b8 623d c5b4 e73d b667 a9be 934d 373f
00000360: 662b c1bd 9e1d 303d d650 13be 2310 ecbd
00000370: eda7 0abe bee6 fd3d 4299 f4bb d253 0a3d
00000380: 74a6 fc3d 1a94 35be 47b1 333e 99d0 8bbd
00000390: 1314 a5be 135a 8f3e 4b87 a13e 0e3b e53e
000003a0: 63e2 9c3d 985e 853e f2cd 353c fc32 a13d
000003b0: 9f50 263e 79aa 223e b7ef 4b3e 83d0 90be
000003c0: 9b8c 473e c01b cd3d 335a e93d 4065 7ebe
000003d0: 4fbb b73c 4fba f3be 52d5 e73d a1f5 d9be
000003e0: ebdd 393e 37a9 04bd 1c08 9a3d 02f4 c43d
000003f0: b42a 66be 47b2 923d 833c b3bd 0c05 41be
-0.37650234 -0.05196139 -0.0967319 0.65961295 -0.20952088 -0.20348431 0.11081108 -0.20011573
-0.0073168688 -0.15070908 -0.07684053 0.07796188 0.018655645 -0.25003442 -0.122275814 0.1969081
0.3399682 -0.25028294 -0.0935295 0.0684806 0.03674222 0.3060931 0.22765426 -0.09290478
0.099002145 0.3015475 -0.09487226 0.0016285822 0.023368185 -0.21022423 0.082773805 -0.120359406
-0.3155857 0.10393364 0.17233811 0.4356755 0.037844025 0.11118868 0.40851286 0.009089288
-0.11240248 -0.062391076 0.01585177 0.11648022 0.10153387 0.24485426 0.11046128 -0.17736553
0.1689336 0.23633577 0.19768143 0.034974623 0.12391395 0.025726449 0.4646952 -0.037654757
0.26064035 -0.5588366 -0.2318801 0.09655604 -0.013458558 0.265598 -0.16845639 -0.12796998
0.80985266 0.3683884 -0.0039391173 0.09093099 0.5072627 0.39526516 0.6524887 -0.09515552
-0.20556213 -0.055144038 0.18215935 -0.12993883 0.30028912 0.37223628 -0.1267905 0.6022203
-0.32450876 0.08861659 0.19810879 -0.16777119 0.08775717 -0.24455419 -0.11203668 0.047552664
0.7226314 0.77352387 -0.2095744 -0.33514547 -0.4073081 0.4448799 0.3488857 -0.37795714
0.49218863 0.38217965 -0.28482756 -0.22415978 -0.41752884 -0.0018620049 -0.0854493 -0.5421828
0.41419762 0.41738278 0.36749494 -0.26766455 -0.91609937 0.02926314 -0.041388217 0.038440287
0.63211805 -0.1738841 0.31758538 0.3468237 -0.047028366 0.84852654 0.37469465 0.23771219
-0.024245456 -0.42470267 0.565958 0.2858953 -0.21122637 0.54844946 -0.15015134 -0.08268055
-0.86682755 -0.21064197 -0.1789908 0.19129987 -0.45207706 -0.57361114 -0.46413055 0.2140123
0.41903597 -0.53763473 -0.2774668 0.035581063 -0.08176525 -0.4462527 0.14439681 -0.2847946
-0.25612134 0.48481923 -0.06706716 0.32557768 -0.2738385 -0.1826509 0.5191222 0.0997804
-0.5494917 -0.7851075 0.5192738 0.04655367 0.21774961 0.08102425 0.03181255 -0.08660988
0.11363008 -0.32210746 -0.23638606 0.15871765 0.25193745 -0.5847422 -0.07000492 -0.087392054
-0.35052028 -0.2677361 -0.46214786 0.14526 0.9034914 -0.41797903 -0.22165102 -0.069319755
-0.6734545 0.35156405 -0.5916991 -0.069644175 -0.1151761 -0.40829095 0.1357281 0.13695417
-0.2355943 0.22156137 -0.51120377 0.541239 0.19591802 -0.50787336 0.29345626 0.5698794
0.08584924 0.12546447 -0.110453025 0.29910624 0.27340388 -0.08465309 -0.057929 -0.54977775
-0.02927082 0.08231813 -0.043110788 0.13261482 -0.4334289 -0.09543699 0.42201176 0.07517853
0.17501336 0.3246904 0.44505766 0.15286756 0.055351827 0.11313776 -0.33086938 0.71602744
-0.09432106 0.042996995 -0.14386305 -0.11526515 -0.13540621 0.12397526 -0.007464559 0.033771344
0.12336436 -0.17732278 0.17548095 -0.06826896 -0.32241878 0.2799841 0.31548533 0.44771618
0.07660367 0.26048732 0.0110964645 0.078710526 0.16241692 0.15885343 0.19915663 -0.28284082
0.1948723 0.100150585 0.11394157 -0.24843311 0.022428183 -0.4760308 0.113199845 -0.42570212
0.18151061 -0.03238794 0.07521078 0.09616853 -0.22477227 0.0716291 -0.08751776 -0.18849581

actor.2.bias f4 [5]
00000000: b017 15bd 8b17 dd3d 5c45 0f3b ad1c 12be
00000010: 1b0d c3bd
-0.036399543 0.10795506 0.002186141 -0.14268751 -0.09523984

critic.0.weight f4 [64, 4]
00000000: 2b2c 8e3d 4094 983e 79ab b53d da13 f13c
00000010: 6152 adbe 968a 65be 9e1e e5bd d06b 063e
00000020: f79d 1e3e a38d 6f3e cbbe 853e 47a7 abbd
00000030: 6089 92bd 4c25 a23d 5eb2 543e 5313 33be
00000040: 2a13 c93d 9b6b 67bd ad1f 3cbe f55a 203e
00000050: e37e 5a3e 5413 84be 4f4c 493e 8e78 0bbe
00000060: d065 553e 90b3 1c3e 8859 253e 0cff 31bd
00000070: 6d7d 913e 1ad5 9e3e 5924 1f3b 87e9 41be
00000080: d83b b53e e7fc 8e3e d9e1 84be 4be7 793c
00000090: 5201 3e3e 57e3 4abe 97cf 003e b563 1abf
000000a0: 40d7 043f 6ad5 893e 1812 d73e 7dd3 2abe
000000b0: 389d ac3e ebf1 653e 6f8e 9cbd cfbd a6bd
000000c0: c9bb 0fbf 21ec 52be 574a 32bd 1e3f 9e3d
000000d0: e23b 75be bfbe 99bd 31dd cbbd 6e0a 9abd
000000e0: 7fa4 db3e a267 723e f13d 903e 337e 7dbd
000000f0: bc42 2f3e 5e57 5e3e f6c9 473d ea2f bb3d
00000100: 7a97 49bc b182 6bbc 42b1 3f3e 4baa 513f
00000110: c1fa b0be 1cf6 fdbd c896 f8bd 662b 883c
00000120: 5038 0fbf 768d 873c 5210 36bd 2a1d b5bd
00000130: 880b f93e efdd 6b3e 07cd 82be 2ddc fe3d
00000140: 2f43 b3be ac64 83bd 85d6 1c3d 7527 48be
00000150: 6002 32be b579 603e 4b79 4bbe faf5 fc3d
00000160: b8af 343e 460b a23e ac64 49be 0e4a 11be
00000170: 5431 c8be 8347 e5be cdd5 f13c 5f8e 283e
00000180: 1c2b debe f31a 413e f926 393e 639c 663d
00000190: 9590 d5be 281d 233e 83a1 263e ddf4 4dbd
000001a0: 24b3 adbe 6651 c0bd 3f94 fe3d 2043 87bd
000001b0: c81c eebd 9e44 aabe 20d3 ddbc 7eba 95bd
000001c0: 283f 3b3e 6623 27be db73 85bc 310d 38bf
000001d0: 36c6 67be c99a 6a3e 311c 6abd 9690 ee3e
000001e0: 6b14 803e c2b4 653e 7875 753e 899f f8bd
000001f0: 5d3b 9d3e 815d 183e a540 3c3e 9212 00be
00000200: 171d bdbe a956 78be 8dcf 9a3e 4c09 afbd
00000210: 6a61 9dbc bf5d b23d 51e7 24be 0f84 d33d
00000220: 5b68 a1bb 0f1a c0bd 96fb b53d 4852 b9bd
00000230: 2e2a 5e3e 8826 843e 8ecb 653e b3ef 99bc
00000240: 0d1a 92bd 0137 56be 8860 a53d 3c52 b3bb
00000250: 3a44 e53e 7e67 8f3d bde3 dc3d a518 eabb
00000260: bdaa fcba 660c 2dbe 9cb5 12be a5e6 d23d
00000270: 3c11 903d 6590 64be b73b f9bd 323e 45be
00000280: d277 303e 05a1 0dbe eaa1 9f3c 074a 8cbf
00000290: 8d1e 633c f5bb a13e 203f ee3d 9258 b63c
000002a0: ab29 8cbe d805 99bd cbdc fabd 5c35 0cbd
000002b0: 222e da3e 57a7 0c3d e071 713d 1735 cbbc
000002c0: fd8e 633e 274e d63d 17b6 f2bc 5293 723e
000002d0: ec72 b9be 8457 b4be 2963 74be dd87 39bb
000002e0: be75 e1be b9cc 1cbd c9d7 a8bd aede 01bd
000002f0: 36b6 1ebf 0d2f 05be 184b 783e 66f8 0cbe
00000300: d824 a8be 45e6 5abe a7fe 87be 5e7b a53c
00000310: 0fe6 a8bd efc2 833e c7d4 053e 3399 803e
00000320: 7b3d d5be 8f2b 073e 2d24 a13e 1a4f edbd
00000330: aa52 e43d 1a8d 74bd 1d25 85be d241 303e
00000340: 6894 fa3d 9cba 9d3e 1764 37be 94f3 2a3d
00000350: 3185 6d3e c4ce ac3e 0709 003f d267 05be
00000360: df0c 543c c5da 733e f5e9 593e 5698 d03d
00000370: db78 d7be 8182 b2bd 9ffa 19be baf9 803d
00000380: 5b35 683e 5fde 86be 9119 9e3d 5a53 84be
00000390: 8263 2bbe 9391 533e 376b 85be 54f1 853e
000003a0: 5394 acbe a68c 18bd 248e b33d 0e2c 83be
000003b0: 4386 b7be bbd1 c83e 1ad9 a1be bb70 e43e
000003c0: 1067 88be d546 bebc 18e9 71be b846 153e
000003d0: c572 013e 8971 973e c28a d9be daf6 203d
000003e0: a74c 843e f31f 3f3d c655 323e 9456 98bd
000003f0: c843 a83e 10d7 d83d 472a 6f3e b172 e2bc
0.06942018 0.29800606 0.088705964 0.029428411 -0.33851913 -0.22416148 -0.111874804 0.13127065
0.15489946 0.23393874 0.26122126 -0.08381515 -0.071551085 0.0791727 0.20771167 -0.1748784
0.098181084 -0.056499105 -0.18371458 0.15659697 0.21337466 -0.25795996 0.19658016 -0.13620207
0.2083962 0.15302873 0.16147435 -0.043456122 0.28416005 0.3102196 0.002428314 -0.1893674
0.3539722 0.27927324 -0.25953558 0.015252898 0.18555191 -0.19813286 0.12579189 -0.6030839
0.51890945 0.26920635 0.42005992 -0.16682239 0.33713698 0.22455566 -0.076443546 -0.08141672
-0.5614591 -0.20597889 -0.043527927 0.077268824 -0.23948625 -0.07507085 -0.09954298 -0.075215206
0.42898938 0.23672345 0.28172258 -0.06188793 0.17115301 0.21713015 0.04877659 0.09139998
-0.012304181 -0.014374421 0.18719962 0.8190047 -0.3456631 -0.12400457 -0.12138134 0.016622256
-0.559453 0.016546946 -0.044449158 -0.08843453 0.4864161 0.2303388 -0.25547048 0.12444339
-0.35012195 -0.06415686 0.03829052 -0.19546302 -0.17383718 0.21921428 -0.19870488 0.12351604
0.17645156 0.31649226 -0.1966731 -0.14188406 -0.39100134 -0.44781122 0.029520893 0.1646056
-0.43392265 0.18857937 0.18081273 0.056301486 -0.4171187 0.15929091 0.1627255 -0.050282348
-0.33925736 -0.093905255 0.124306194 -0.066046 -0.11626583 -0.33255476 -0.027078211 -0.07310961
0.18285811 -0.16322097 -0.016290596 -0.7189513 -0.22634205 0.22910608 -0.05715579 0.46594685
0.25015578 0.22432235 0.23970592 -0.12139804 0.30709353 0.14879419 0.18384035 -0.12507084
-0.36936256 -0.24251808 0.30236474 -0.08546695 -0.01921149 0.08709287 -0.16103865 0.103279226
-0.00492577 -0.0937997 0.08885877 -0.09048897 0.21695778 0.25810647 0.22440931 -0.018791055
-0.07133875 -0.2091942 0.080750525 -0.0054724496 0.44778615 0.070021614 0.10785625 -0.007144051
-0.0019276958 -0.16899261 -0.14327091 0.10297898 0.07034537 -0.22320707 -0.12169593 -0.19262007
0.17233208 -0.13830955 0.019486386 -1.0960091 0.013862264 0.31588712 0.11633134 0.02225903
-0.2737554 -0.07471818 -0.12249144 -0.034230575 0.42613322 0.034339275 0.05894649 -0.024805589
0.22222514 0.10464125 -0.029627843 0.2368901 -0.3622049 -0.3522302 -0.23865952 -0.002830974
-0.44035143 -0.038281176 -0.08244283 -0.031706505 -0.6199678 -0.1300623 0.24247396 -0.13766631
-0.3284061 -0.21376903 -0.26561472 0.020200428 -0.08247005 0.2573466 0.1306945 0.25116882
-0.41648468 0.1320021 0.31472912 -0.11587353 0.111485794 -0.059704877 -0.26004878 0.17212608
0.122353375 0.30806434 -0.17909275 0.0417362 0.2319534 0.337515 0.50013775 -0.13027886
0.012942522 0.23813923 0.21280654 0.10185306 -0.42084393 -0.08716298 -0.1503701 0.062976316
0.22676603 -0.2634153 0.0771972 -0.25844842 -0.16737178 0.20661001 -0.2605836 0.2616068
-0.33706912 -0.037243508 0.087673455 -0.2561955 -0.3584462 0.39222512 -0.31610948 0.44617257
-0.2664113 -0.023227135 -0.23624074 0.14577758 0.12641437 0.29578808 -0.42488676 0.039297916
0.2583973 0.04666133 0.17415532 -0.074383885 0.32864213 0.10587895 0.23355971 -0.02764258

critic.0.bias f4 [64]
00000000: 58d0 023e 5ba5 20bd 34ff 6c3e 8414 a43c
00000010: ad96 08be 7148 cd3d e43d b63d dac8 a43d
00000020: bb05 b0bc d33d 253e a296 1f3e 26ea 0abd
00000030: d607 1fbe 38cd e5bc 483c 983d 6fcd 893e
00000040: 8a3d 11be e149 31be 43ea e23c e859 423d
00000050: f18b 2cbe b90a 873d 2b7c 0c3e bbc9 76be
00000060: c001 4bbe ae2f 933d 4203 5bbd 022f 7cbe
00000070: 03d3 563d 6448 243c f27c 3b3e 1342 753e
00000080: 0fb8 06bd 3e33 c5bd 0481 533d 71c9 843d
00000090: 71b4 78be 97c2 643e a47b 75be 87da d9bc
000000a0: 8dcf 203e 3e25 b43d abbd 3dbd da1a 48bc
000000b0: 599c ef3d c2ed b1bd c4a7 64bd e0e5 bb3a
000000c0: 07c3 9fbd 0808 92bd aef5 fb3c 72b5 d23d
000000d0: 90b8 aa3d 721c 423e 0a02 4b3e ccfa 66be
000000e0: e7f9 1d3d 3b54 eb3b 5f93 e4bd 45f9 91bd
000000f0: 3252 88be 1372 c03d 9de4 a13e 94d0 953d
0.1277479 -0.039220195 0.23144227 0.020029314 -0.13338728 0.10023583 0.088985234 0.08046122
-0.021487108 0.16136865 0.15584806 -0.033914708 -0.15530333 -0.028051957 0.07433373 0.26914546
-0.14183632 -0.17313339 0.027699595 0.047449023 -0.16850258 0.06593842 0.13719241 -0.24100392
-0.19824886 0.071868286 -0.053469904 -0.24627307 0.05244733 0.010027025 0.18309382 0.23950987
-0.032890376 -0.09628914 0.05163671 0.064837344 -0.24287583 0.22339855 -0.23972946 -0.02659346
0.15704174 0.08796166 -0.04632346 -0.012213433 0.11699743 -0.08687927 -0.055824056 0.0014335476
-0.078008704 -0.07130438 0.030756798 0.10288514 0.08335984 0.18956164 0.19824997 -0.22556609
0.038568404 0.007181672 -0.11160921 -0.071276225 -0.2662521 0.09396758 0.3161973 0.07315174

critic.2.weight f4 [1, 64]
00000000: 0fd8 8d3e 9e87 acbe e8c5 51be 5b12 f23e
00000010: d919 1ebf f446 143f 0df3 01bf 3ea6 523e
00000020: 4da7 b23e 245a 033f 0001 73be ea86 eb3e
00000030: 39e6 a63e 7ecd e13e 494c b5be 07f1 d83e
00000040: 5baa 89be e7bf 2bbf bbf5 9e3e 729d 89be
00000050: a641 dcbe 4cce edbe 0ab4 0d3e 0437 903e
00000060: 2e65 22bf 947c bb3e 99ea 953e 7d0f e1be
00000070: 9ffb eb3e 85a6 21bf 1648 91be b427 a63e
00000080: 5977 c1be f1ed bebe 0fbd 8c3e 099a 17bf
00000090: 3f4b a83e b628 353e 9b3b 02bf 2acc ca3e
000000a0: fded db3e b478 dbbe bc47 cb3e 4bf3 7cbe
000000b0: 7a72 7d3e 3108 843e 4f8f 003f 44bd a33e
000000c0: 2f60 893e 64ec afbe 5843 4f3e eb34 adbe
000000d0: d2fd 053f 31f2 babe fb5b 69be 4e1f 10bf
000000e0: 7d22 063f af74 54bf aea2 ebbe 6265 49bf
000000f0: d6bf 8fbe 184a e23d 5161 163f e928 cabe
0.27703902 -0.33697218 -0.20485651 0.4727963 -0.6175819 0.57920766 -0.5076149 0.20571229
0.34893265 0.5130942 -0.2373085 0.4600137 0.3259752 0.4410209 -0.35409763 0.4237139
-0.26887783 -0.67089695 0.31046852 -0.26877934 -0.43018836 -0.46446455 0.1383821 0.28166974
-0.6343564 0.36618483 0.29280546 -0.4395713 0.4609041 -0.63144714 -0.2837531 0.32452166
-0.37786368 -0.3729091 0.2748799 -0.59219414 0.32869908 0.17691311 -0.508722 0.3960889
0.42955008 -0.42865527 0.39703166 -0.24702184 0.247507 0.257875 0.5021867 0.31980336
0.26831195 -0.3436004 0.20240533 -0.33829436 0.52340424 -0.36512902 -0.22788994 -0.5629777
0.52396375 -0.82990545 -0.46022552 -0.7867032 -0.28076047 0.110492885 0.58742243 -0.39484337

actor.0.weight f4 [64, 4]
00000000: f6c8 bb3e 9537 cd3d 3e08 cf3e 5df7 00be
00000010: 98c4 963d b5c7 d3bb 5ed6 c4be 50f5 bebd
00000020: 0649 62bd 3a50 a33e 6f77 1cbc bdc9 113e
00000030: d3a0 98bb e923 0b3e ba9a 84bd 0ece 50bf
00000040: 8d98 b53e a61c 143e 4761 03be ec9c 35bf
00000050: 52c2 f43d 525d 1fbe 2061 433f 6d6e 313e
00000060: dcef cf3c e686 263e e030 0d3e 660f eebb
00000070: 4535 533e 8482 1bbe ea85 febe d15d 8c3d
00000080: ba43 06be 197d b73d b2a9 6c3e 3214 4dbb
00000090: d879 db3e f98f 083e 9376 01be 582c f6be
000000a0: 16ad d43e 1098 57bd 5b7d b63d 0d57 81bf
000000b0: 3fb2 44bc a5b9 2bbe d4c4 cebe 5d93 e83e
000000c0: 187c 943e 8e01 ae3e ba73 c43e 4792 813d
000000d0: 3f7a 8fbe 32a2 0cbd 6ef5 febd 8dbd 35be
000000e0: 0d4a 493e 684f 163e eef4 03be 719a 29bf
000000f0: 2199 d5bc 898c cb3c cc52 603c a99a 32bf
00000100: c87c c2bd 199e c5be 88f0 c73e c9d8 8e3e
00000110: a9f1 49bd 699f 13be 4751 bb3d 71c1 f23e
00000120: d17b 02be 9b54 5c3d a8ad 113d 77e3 c3be
00000130: 081f 00bf 9736 043e c39c d2bb ca1d 633e
00000140: 151c 983d 50a2 18bd 4835 c53d 749c 42bf
00000150: 82e6 59bd e88f 5d3d 9958 983e bc65 c73e
00000160: 66da 14be ed0a 1bbf 20ee 8c3d a5f3 64bd
00000170: 1e28 efbd 0586 143e 223c 81be fa0b cb3e
00000180: 168d cd3d 965b 38be 778d 6a3e a996 19bf
00000190: 85cf d73c 3c6c 88be c214 6fbe 4256 083f
000001a0: ea61 37be fab2 df3d 7508 aabd 5827 dfbe
000001b0: 787f 993c 0f32 66be 2f46 0abe af95 31be
000001c0: 2fad 433e 7f77 ab3e c8f1 9fbe 51cf ebbe
000001d0: ed79 8c3e 494f 833e 9012 74be 264c 1ebf
000001e0: 5db0 523e 1f5f 09be a674 17bf bdc9 3fbe
000001f0: eb64 24be 4da5 6ebd 2937 b53d bed4 6abf
00000200: bb5d e8be 22e3 33be b8ab 233e 1dcd 323f
00000210: 741a 1e3f 52a2 193d 962e acbc c780 d8be
00000220: 1810 cf3d 21fd 2b3e c5b1 0c3e ee82 9c3d
00000230: efeb c3bc c0bf 3c3d c13f 51bf d96f bb3d
00000240: 2559 903d 0518 86bd 1ad5 283b e53b 6e3f
00000250: b7ca 303e fa46 263e 3370 983e 988f 9e3e
00000260: dcbb 3a3e 310f 00be f5e2 15bf 11b3 35bd
00000270: 28c5 973e e103 5d3e 882e c23d add5 193e
00000280: 7fb5 aebe 67df c8be cf52 ce3e fb91 14be
00000290: 9801 003e 60b7 383f 45d8 733c cf35 e0bb
000002a0: 8e8c 4b3d 859b 43bd 48fe 29bf 24a0 563e
000002b0: e9d0 8c3b 83c3 5bbe a202 1d3e 81b1 2c3f
000002c0: 67c9 bb3d b02a 93bd 8737 103d e560 b63e
000002d0: 7843 f93d 74e7 01be a884 12bf 2832 853e
000002e0: 7a5b 75be 4d7d 1d3e c927 eabd d69a a8be
000002f0: dfd0 9a3e 80d1 43be fb72 8bbd 7eb7 193e
00000300: d471 1c3f ca7e 93be df24 cfbd f0d6 8abd
00000310: 9a13 ea3d 6bb0 243d 6514 a1be 950e 8fbe
00000320: 23fe 603d f4c6 67bb 24ad 843d 1042 90bf
00000330: a3a1 b4bc 2cb9 e0be 2e06 8ebe 5402 d03c
00000340: dcb1 b93d 2f51 45bc 40ad 8e3d d1d7 66bf
00000350: ddcb 853e d98c 573e 6382 3abe 8381 3cbf
00000360: 5f14 583e 30c0 11be 07d4 d53d 6378 383f
00000370: b130 ff3c 1311 8b3e 7873 1dbe e101 48be
00000380: 3dcd 3e3e aa03 69be db4f 453d a8f4 7cbe
00000390: d946 2b3e cae5 84be 50c0 69bd a130 8fbd
000003a0: 568e 94bc 2753 2dbe e8d4 7bbe 3edd 50bd
000003b0: 2275 61bd 7cb6 b83d 7b3e e7bd 0b77 6a3f
000003c0: a290 c4be c8f5 87be 2c46 f1bd af66 b83c
000003d0: 2842 85be 62a1 6cbe a0e7 533e 9014 ce3e
000003e0: aa1d b8bd 0380 61bd cc92 35be 52cb 2fbe
000003f0: 070e 1cbe df4f ee3d 09ce 073e 2e28 dd3d
0.3667676 0.10020367 0.40435976 -0.12594362 0.07361716 -0.006463016 -0.384448 -0.093241334
-0.05524542 0.31897146 -0.00954996 0.14237113 -0.0046578436 0.13587917 -0.06474824 -0.81564415
0.3546795 0.14464054 -0.12830077 -0.7094257 0.11951126 -0.15562943 0.76320076 0.1732728
0.025382929 0.16262397 0.13788176 -0.007265019 0.2062579 -0.15186507 -0.49711543 0.068538316
-0.13111773 0.08959407 0.23111609 -0.0031292555 0.42866397 0.13336171 -0.12642889 -0.48080707
0.41538304 -0.052635252 0.089106284 -1.0104691 -0.012005388 -0.16770037 -0.40384543 0.4542493
0.29000926 0.3398556 0.38369542 0.06326728 -0.28022954 -0.03433437 -0.12449156 -0.17748089
0.19657154 0.14678729 -0.12886402 -0.66251284 -0.026073994 0.024847286 0.013691615 -0.6976724
-0.094964564 -0.3859718 0.39050698 0.2789977 -0.04930273 -0.14416279 0.09146362 0.4741321
-0.12742545 0.053791624 0.035566002 -0.3825948 -0.5004735 0.1291145 -0.006427379 0.22179332
0.07427231 -0.03726417 0.09629303 -0.7601998 -0.053198345 0.054092318 0.29755095 0.38944805
-0.14536437 -0.60563546 0.06881356 -0.05589642 -0.116775736 0.1450425 -0.2524119 0.39657575
0.10036676 -0.18003687 0.22905527 -0.59995514 0.02634407 -0.26645076 -0.23347762 0.5325662
-0.17908445 0.10922809 -0.08302394 -0.43584704 0.01873754 -0.22480033 -0.13503335 -0.17342256
0.19109033 0.33489606 -0.31239152 -0.46056607 0.27436772 0.25646427 -0.23835206 -0.61834943
0.2057509 -0.13415192 -0.59162366 -0.18729301 -0.16054122 -0.05826311 0.088484116 -0.9173087
-0.4538401 -0.17567113 0.15983474 0.6984423 0.61759114 0.037508316 -0.021018308 -0.4228575
0.101104915 0.1679578 0.13739689 0.0764216 -0.023916213 0.046081305 -0.81737906 0.091521926
0.07048253 -0.0654755 0.0025761784 0.9306014 0.1726483 0.16238013 0.297731 0.30968928
0.18235725 -0.12505795 -0.58549434 -0.044360224 0.29642606 0.21583511 0.094815314 0.15022917
-0.34122846 -0.39232942 0.40297553 -0.14508812 0.12500608 0.7215481 0.014883106 -0.006842352
0.04969459 -0.047755737 -0.6640363 0.20959526 0.004297365 -0.214613 0.15333036 0.6745835
0.09169274 -0.07185876 0.035209205 0.356208 0.12171072 -0.12685949 -0.5723367 0.2601483
-0.23960677 0.1537983 -0.1143337 -0.3293063 0.3023748 -0.19122887 -0.0680904 0.15011403
0.6111119 -0.2880767 -0.101144545 -0.06779277 0.1142952 0.040207308 -0.31460872 -0.27940813
0.054929864 -0.0035366388 0.064783365 -1.1270161 -0.02204973 -0.43891275 -0.2773909 0.025391735
0.09067127 -0.012043281 0.069666386 -0.9017306 0.26132098 0.21049823 -0.18213801 -0.7363512
0.21101521 -0.1423347 0.10440832 0.72058696 0.031151148 0.27161464 -0.15376079 -0.19531967
0.1863298 -0.22755304 0.04817186 -0.24702704 0.16726245 -0.25956565 -0.05706817 -0.06991697
-0.018134277 -0.16926251 -0.24592936 -0.050992243 -0.055043347 0.09019181 -0.11291214 0.91587895
-0.38391596 -0.26554704 -0.11780962 0.0225099 -0.26027036 -0.23108438 0.20693827 0.40250063
-0.08990033 -0.055053722 -0.1773178 -0.17167404 -0.15239726 0.11636328 0.1326219 0.10798679

actor.0.bias f4 [64]
00000000: ed9a fe3d 71a8 16bd dfa8 ac3d 2190 05bc
00000010: 5811 8f3c 6590 12be a590 333d fa79 99bc
00000020: 3908 073d 6e62 cfbc f526 bcbd 06c8 863d
00000030: 9bdd 0a3e b706 38bc b2d8 153d a7e0 eabc
00000040: c948 b6bd fd6c 093e 5da1 27be f5f3 543d
00000050: 3bc7 e63c 2a4a 403d 1488 f7bd cb93 55bd
00000060: beca 27bc 2cbb e33d a0cf dabd 9d08 32bd
00000070: f914 0abd 69ba 253d d87c 0fbe c0f2 8abb
00000080: e996 a9bd f18d dbbd 9fdb df3d 54f0 243d
00000090: 5b48 c13c 2b16 483d 5c46 06be 8300 1e3e
000000a0: 456a d1bd 1306 8c3c 9482 f73d 4c7c d1bc
000000b0: ba23 1b3e 33c7 bb3d e3c1 c4bd 950c 4f3d
000000c0: 157a 723d a691 7fbd 293b cf3d 0fcc 7bbd
000000d0: 7509 7a3d 110a a2bb 960a 86bd f69f d8bd
000000e0: 607b e3ba ac13 7cbd 6fb8 74bb 80e8 6abe
000000f0: 0655 11be 8166 103e 8e64 eebd f58c 413d
0.124318935 -0.036781732 0.08430647 -0.008152039 0.017464325 -0.14312895 0.043839116 -0.01873492
0.032966826 -0.02531549 -0.09187118 0.0658112 0.13561098 -0.01123207 0.03658361 -0.028671576
-0.089006014 0.13420482 -0.16370149 0.051990468 0.028171172 0.04694573 -0.12086502 -0.0521429
-0.010241209 0.111196846 -0.106841326 -0.043465246 -0.033711407 0.040460978 -0.14012468 -0.004240364
-0.08280737 -0.107204325 0.10930561 0.040268257 0.023594072 0.048849266 -0.13112777 0.15429883
-0.102253474 0.01709274 0.12085453 -0.025571965 0.15150347 0.091688536 -0.096072935 0.05054911
0.059198458 -0.06239476 0.10118706 -0.061473902 0.061044175 -0.0049450477 -0.06544988 -0.10577385
-0.0017355494 -0.061542198 -0.0037341376 -0.22940254 -0.1419259 0.14101602 -0.11640273 0.047253568

actor.2.weight f4 [5, 64]
00000000: e068 80be fb22 49be 4896 50bd 9420 e3be
00000010: b5ba 18bf 94d9 303e e75e b23d be1f 233d
00000020: 3750 883e 4e7f debe 2a7b d5be 8626 5d3e
00000030: 4966 a93e 05fb bcbd 2bfc 2abf 83f1 03bf
00000040: 597d 783e e8ca 073f ac25 6abe 9ca8 0b3f
00000050: 1016 1bbf 9b9b 1e3e d0b9 5ebe 7cb8 083e
00000060: ac29 c5be 29f3 91bd 46a9 72be a12b 12be
00000070: 9dae c5be e411 c4be 2d9d 0939 5423 2ebe
00000080: 7a54 473e 518e 32be 0d93 a23e 86b2 6d3e
00000090: 1cf0 153f f804 943e fb3f 883e 86ab 2c3e
000000a0: c97b c5bd 1e1b 0a3f c326 b23e 4ce4 b13e
000000b0: 13a0 ad3e a8f8 3f3e 7092 c9be 9fbf 2b3e
000000c0: 49f7 72be 98e1 e8bc df67 3fbf 2bbd ebbe
000000d0: cc21 d5be bd83 0bbf ce39 dc3e 775d 0a3e
000000e0: dde5 c9be f3fc fabd 3352 3bbe c6a5 9b3e
000000f0: a774 92be 5b3e 753e 3169 95be 1391 9f3e
00000100: 3746 8abd e209 993d 58ed 743d f4f2 01be
00000110: c5e9 043f 3588 af3d 15eb d4be 5cb0 de3e
00000120: 82d4 b1bd b512 b4bd dbc8 6a3e 3e59 e03d
00000130: 2fec 163e e195 c6be 819e cfbd e213 dfbc
00000140: c80c 79be 7df6 763d 0882 4ebe 312d 7bbe
00000150: 1240 913d 954c 803d 9a0b cf3d 7ce3 933e
00000160: f2d3 bebe b9c6 04bd 1f52 8bbe 8b66 e43d
00000170: 5efc 91bc f8cb 343e be22 c0bd 421d c7bd
00000180: d05c d3bd 36df c1be 8f1b 70bd c4e2 e8bd
00000190: 0bac f53b e901 733e 014b 523e 9cab 47be
000001a0: d0c1 643e 4e89 343e 960a 363e 1998 413e
000001b0: a1d6 24be 4ec1 583c c0fa 123e 5baa 133f
000001c0: 8654 663e 24ce 293f 6950 783e 4aee c8bd
000001d0: 65da e4bc 4b2c 1b3e 2a54 8a3e 5d4d 2ebe
000001e0: 5800 873e 926a 2ebd e54f df3d 1990 473c
000001f0: 51f5 0d3e b314 55be 2301 a5bc 923a b1bc
00000200: 31d1 f2be 5178 eebd 241d 0abf 812c af3d
00000210: 8bc1 71be 3c81 c0be 6003 d8bd c3ad 7e3e
00000220: 8ab7 53bd c39f 49be 817c 5d3d 2f99 6fbe
00000230: 07b3 aa3e 75fd 91be cb01 9fbc 19a3 183e
00000240: 6ea0 963d e0b9 083d 95d4 843d 01c5 ce3d
00000250: 4c80 8ebe 2e05 9abe 61df e83e da3a 8cbe
00000260: 4dc0 703e 8141 9c3e ff27 543e 3875 ba3d
00000270: d7c1 d9bd e01a 37bd 9234 ecbd 5663 be3e
00000280: 7661 0a3e 4544 a0bd 5edf f23d ec66 2fbe
00000290: 361c 01bd aba1 d5be d535 23be baec c5be
000002a0: 566a 20be 397a e9be ad8c 1c3c ac81 aabe
000002b0: c218 80be 0366 1abe 8fee d1bd 9280 71bb
000002c0: 42f4 d83d a00f 343e 93ef b53d d3a1 503e
000002d0: 81fd 753c 1477 38be d726 a83e a3d7 3dbe
000002e0: 4cc1 723e 6235 b93e 780f 8b3e 271a b83d
000002f0: c243 62bc ffbf 803e 2cb4 043e 5e9d 41be
00000300: 8ad5 f0be 2cdb acbe 8df8 81be 9601 843e
00000310: cd60 073f 904e 163f 8156 a03c cedc 1cbf
00000320: 4bac ba3e 319f 6a3e 99d3 a23e 6937 033e
00000330: 5b0f 19be 29a2 1f3e c5c9 a23e 5782 843b
00000340: a2bd 81be 2eb6 e7bd 9463 113e e690 79be
00000350: f841 013f 7eae 373e 6c17 093e c9b3 b1be
00000360: 1c5c 1a3e 7e33 90be 00cb 803e 6bd6 1e3d
00000370: 08e0 9c3e f5bc ea3e 3f20 1abf f2a0 6d3e
00000380: 4d5b debe 4027 113f af5a 20be 4f29 26bf
00000390: f0c2 05bf e1ee 713e cef4 0dbe 98a6 ad3e
000003a0: 35cf 59be 60e6 a5bd aede 0fbf 043e b1be
000003b0: 4ef7 3bbe 465b 2bbf 317c 753e e9f6 53be
000003c0: b02c 163d 8577 f9bd 8de4 003f 5e87 2cbe
000003d0: 8b4a 273f 2834 e63e 0160 dfbe b6ee c63e
000003e0: 23cc 153d 28de 72bd 99f3 dfbd e749 9fbd
000003f0: 0bc0 69be 5114 ccbe b4fe 81be 22df b03e
-0.25080013 -0.1964225 -0.05092457 -0.44360793 -0.5965989 0.172705 0.087095074 0.039825194
0.266237 -0.434565 -0.4169553 0.21596727 0.3308585 -0.09227566 -0.6679103 -0.5154039
0.24266566 0.53043985 -0.22865933 0.5455415 -0.6058054 0.15489046 -0.2175057 0.13351625
-0.38508356 -0.07126457 -0.23697385 -0.14274456 -0.38609782 -0.382949 0.0001312389 -0.17005664
0.19465819 -0.17437102 0.31752816 0.23212633 0.585695 0.2891004 0.26611313 0.16862306
-0.09642751 0.5394763 0.34795198 0.3474449 0.3391119 0.18747199 -0.39369535 0.16772316
-0.23727144 -0.028427884 -0.7476787 -0.4604276 -0.41627347 -0.5449789 0.4301285 0.13512217
-0.39433184 -0.122552775 -0.18293075 0.30399913 -0.28604624 0.23949568 -0.29181817 0.3116537
-0.06751674 0.07472588 0.05979666 -0.12690336 0.51919204 0.08570901 -0.41585603 0.43493927
-0.08683111 -0.087926306 0.22928183 0.109545216 0.14738534 -0.38786224 -0.10137654 -0.02723116
-0.24321282 0.060293663 -0.2016679 -0.24528958 0.070922986 0.06264607 0.10109635 0.28884494
-0.37271076 -0.03241608 -0.2721109 0.11152371 -0.017820533 0.17655933 -0.093816265 -0.09722377
-0.10320437 -0.3786561 -0.058620032 -0.11371377 0.0074973158 0.23731197 0.20536424 -0.19499058
0.22339559 0.17630503 0.17777476 0.18905677 -0.160975 0.013229681 0.14353466 0.57681817
0.2249318 0.6633017 0.24249424 -0.09811075 -0.02793617 0.15153615 0.27017337 -0.17021699
0.2636745 -0.042582102 0.109039105 0.012180352 0.13863112 -0.20808677 -0.020142144 -0.021634374
-0.47425225 -0.11644042 -0.53950715 0.0855341 -0.23608987 -0.37598598 -0.10547519 0.24870972
-0.05168871 -0.1968985 0.054073814 -0.23398279 0.33339712 -0.28513685 -0.019410035 0.14905967
0.07354818 0.03338039 0.06485859 0.10096169 -0.27832258 -0.30082077 0.45482925 -0.2738865
0.23510857 0.30518726 0.20718382 0.09104389 -0.10632675 -0.044703364 -0.115334645 0.37185162
0.13513741 -0.078255214 0.1185901 -0.17129105 -0.031521045 -0.41724905 -0.15938504 -0.3865717
-0.15665564 -0.4560106 0.009555024 -0.33302057 -0.2501889 -0.15077977 -0.102505796 -0.0036850316
0.105934635 0.17584085 0.08883586 0.20374231 0.015014053 -0.18014175 0.32842132 -0.1853929
0.2370655 0.3617354 0.2716024 0.08989363 -0.0138101 0.2514648 0.12959355 -0.18907687
-0.47037917 -0.33760965 -0.25384942 0.2578246 0.5288208 0.58713627 0.019572498 -0.6127442
0.36459574 0.22912289 0.3180206 0.12814106 -0.14947264 0.15589203 0.31794563 0.004043858
-0.2533999 -0.11314045 0.14198142 -0.2437168 0.50491285 0.17937657 0.13387841 -0.34707478
0.150742 -0.28164285 0.25154877 0.038778704 0.30639672 0.45847288 -0.60205454 0.23205927
-0.43429032 0.56700516 -0.15659593 -0.6490678 -0.52250576 0.23626281 -0.13862917 0.33916163
-0.2127045 -0.08100581 -0.5619916 -0.34617627 -0.18356058 -0.6693615 0.23973157 -0.20699657
0.03666371 -0.12181 0.5034874 -0.16848513 0.6534812 0.44961667 -0.43627933 0.38853997
0.036571633 -0.059293896 -0.109351344 -0.07777768 -0.22827165 -0.3985925 -0.25389636 0.34545237

actor.2.bias f4 [5]
00000000: 4a3c af3d c222 40bc 68d1 3dbe ec2e c13c
00000010: 8d67 c7bd
0.08556421 -0.011727037 -0.18536913 0.023581944 -0.097365476

critic.0.weight f4 [64, 4]
00000000: 630d 62be ea95 cebe 1f82 943b 1f84 54be
00000010: ac0a 863e 810a 063d 23c3 2ebc 88dc 3c3e
00000020: 4687 e1be f860 07bd c15d 25be 2114 613d
00000030: 0cf3 a73e 56b2 7c3e f36d 0c3e 76da f83c
00000040: 06e7 6d3e 3c06 42be 0ca3 68be 13c2 733e
00000050: 71e4 d43e f58f 073e 1132 323e a695 f7bd
00000060: f0cc 353e 0b00 12be c8e9 66bf 7462 313f
00000070: f46d bebe 9081 22bc 4643 f83d c3e5 08be
00000080: c5fe c23d e79f 83bd 5e88 1dbf ffe4 df3e
00000090: 66d5 70be c90a ccbd f928 56be 29ca a33c
000000a0: 18fd cbbd 9096 a53d 4a7c 223f 1d9f 09bf
000000b0: cc50 903c cf32 afbd 6dc9 8f3d f5c1 64be
000000c0: 9b08 d4be a92e 63be 255b 6abd b75e 643d
000000d0: e6af 733e f064 41be 757b 61bf df8b 3c3f
000000e0: 8da5 ff3e 336e 5b3e 79d1 a23e 9c3d 9dbe
000000f0: 97e1 b0bb 76e4 8abc b1f6 8c3e aa8f 55be
00000100: 3601 05be f6fd a9be 69c0 1d3e 5a0d 56be
00000110: f0ee 823e 7a19 a33d 0e47 dabd 3e41 663e
00000120: 164d 9cbe 878d fcbb 3dd3 173d 3a5a 29be
00000130: e405 31be 291d e9bd aa1c 05be 5b77 2ebd
00000140: bed2 47bd a7db 033d ae1e 813f 5f7f 2fbf
00000150: 0a87 863e 85f8 e83e 8a94 703e abe0 80be
00000160: fcc5 e33e b96f 9e3e 17eb 1d3e 07c8 cf3c
00000170: 42bb 75be b51b 533e e9cc 2b3f 3ae9 0ebf
00000180: 1a6f f73c 5a73 d5bc 6cac 2ebe a9aa f33d
00000190: 167c ddbe a365 39bc 9907 27be 1653 e03d
000001a0: e7f7 6f3e 7d33 8b3c eaa4 15be b883 2e3e
000001b0: feaa 6a3e 57ef 863e adee d8bd 9d96 c23e
000001c0: 2464 713e 10a2 5e3e 6b39 3d3d e148 f53b
000001d0: fe3f 8d3e 0369 a73e f480 de3c 8b9b 7d3e
000001e0: 791f 5d3d f3d8 e4bc ef82 7abd 5655 a33e
000001f0: b350 c23e f896 083e 1e66 883c cf96 e73d
00000200: 212b 78be 12f9 e8be 008e f5bc da0a 80be
00000210: 3493 e63e 3d92 7c3e 1106 933e 9e7a 7dbe
00000220: 0c81 99be c5a3 84be 7a02 813d dddd 30be
00000230: f97a 293d dffe 913e 1b6c 59bd 3a64 a23d
00000240: 036b 083f 2334 883e d048 1fbe 8f5c 783e
00000250: 2b1b 77be 0052 3cbe f6d8 f73b 7ce0 17be
00000260: f838 eb3d e7b8 cd3e 1e98 30be 2009 343e
00000270: e849 143f 35f3 66bd 8b14 b03d 99ed cb3d
00000280: b139 88bd 600a 93be 6015 12bd b19f 10bd
00000290: af12 db3e 59b1 4d3e ec0b c83d 5fb4 013e
000002a0: 0914 6e3c 2f20 703c ce4a 133d 14e0 b93e
000002b0: 9af6 d23e 2a56 cc3e 84ff 4b3e 8e59 793d
000002c0: 310b 2b3e 8c7b 533e abb8 56be dd86 b13d
000002d0: 35c9 c0be 7458 ec3c 1251 b3bd aced 413e
000002e0: 2945 37be d7e3 133e 433e 223f cee9 07bf
000002f0: a4ef 3dbd 45d3 f23d 2ba9 f8bb f18e 843e
00000300: 4c61 03bf 9446 c53c b224 c1bd abe7 71bd
00000310: 7ed7 d3be a3e8 1bbe 5d2e b9bd 4885 083d
00000320: 6f05 bcbd 84f8 07bf b08b 013e aa06 fabe
00000330: 07d3 5f3e 5da1 703e 2694 3d3d af9d 133e
00000340: 8625 8d3e 1710 573e 3b54 a1bd 63ab 2a3e
00000350: 04a0 32be 4e24 a4be e6ca d2bb 4cb7 57be
00000360: 65fc 0e3e c166 14be c39d f53e 92e3 e2be
00000370: 0869 333e ec02 613e 31fe 333e 3112 283d
00000380: 1300 3fbd 6590 b4be b249 69bc 369f 543c
00000390: ea70 853d e1ae 9ebe 65e3 eb3e 7257 3cbe
000003a0: 70bc abbc cb07 c03d 8785 403c 9e71 873e
000003b0: a160 e13e 923f 603d 87b5 e63d 2575 4cbc
000003c0: d166 c1be 6066 2d3e c9a6 013d 0eb6 b4bd
000003d0: 95e1 903c 5137 cf3e 6dfa 83be 225e 2cbe
000003e0: 4848 e4be d1d3 45bd e2bb b5bc cf0e aabd
000003f0: ff26 f6be 0ebc 74bc 275d 40be a45e 6ebd
-0.22075419 -0.4034875 0.004532113 -0.20753525 0.26180017 0.03272486 -0.010666641 0.18443501
-0.44048518 -0.03305146 -0.16149046 0.054950837 0.32802618 0.24677405 0.13713817 0.030377608
0.2323266 -0.1894769 -0.22718447 0.23804502 0.41580537 0.13238509 0.17401911 -0.1208909
0.17753959 -0.14257829 -0.9020047 0.6929085 -0.37193263 -0.009918585 0.121222064 -0.13368897
0.0952125 -0.06426983 -0.61536205 0.43729398 -0.23518905 -0.099629946 -0.20914067 0.019993858
-0.09960383 0.08085358 0.634709 -0.5375841 0.017616652 -0.08554613 0.07020841 -0.22339614
-0.41412815 -0.22185768 -0.05721583 0.05575439 0.23797569 -0.18886161 -0.88079005 0.73650926
0.49930993 0.21428756 0.3180044 -0.30711067 -0.005397986 -0.016954642 0.2753196 -0.20855585
-0.12988743 -0.3320157 0.1540543 -0.2090353 0.2557292 0.07963844 -0.10658084 0.22485825
-0.30527562 -0.007707301 0.037066687 -0.16538325 -0.17287403 -0.11382515 -0.12999216 -0.042594295
-0.048784964 0.0321919 1.0087488 -0.6855373 0.26274902 0.45502105 0.23494163 -0.25171408
0.44486988 0.30944613 0.15421711 0.025363935 -0.23997214 0.20616038 0.67109543 -0.55824625
0.030204345 -0.02605598 -0.17057961 0.11897785 -0.43258733 -0.011315736 -0.16311492 0.109533474
0.23434411 0.016992325 -0.14613691 0.17042434 0.22916791 0.26354477 -0.10592399 0.38005534
0.23573357 0.2174151 0.046197336 0.0074854945 0.27587885 0.32697305 0.027161099 0.24766366
0.053985093 -0.02793548 -0.061160024 0.31901044 0.37952194 0.1333884 0.016650256 0.11308061
-0.24235202 -0.45502526 -0.029974937 -0.2500828 0.45034182 0.2466516 0.28715566 -0.24753806
-0.29981267 -0.25906196 0.062993005 -0.17272134 0.04137704 0.28514764 -0.053081613 0.07929273
0.53288287 0.26602277 -0.1555512 0.24254058 -0.24131458 -0.18390656 0.0075637056 -0.14831728
0.11485475 0.40180132 -0.17245528 0.17581606 0.5792527 -0.056384284 0.08597668 0.099574275
-0.06651629 -0.28718853 -0.035664916 -0.035308544 0.42787692 0.20087184 0.09767899 0.12666462
0.014531144 0.014656111 0.03596001 0.3630377 0.41203767 0.39909488 0.1992169 0.06087642
0.16703488 0.20652598 -0.20968883 0.08668301 -0.3765351 0.028850771 -0.08755697 0.18938321
-0.17897476 0.14442383 0.63376254 -0.5309113 -0.046371117 0.11856703 -0.007588526 0.25890306
-0.5132034 0.024081506 -0.09430827 -0.059058826 -0.41375345 -0.15225463 -0.09042046 0.033330232
-0.09180724 -0.5311358 0.12650943 -0.4883321 0.21857844 0.23499055 0.046283863 0.1441562
0.2756769 0.21002232 -0.07877394 0.16666941 -0.17443854 -0.32058948 -0.006432879 -0.21066016
0.13963468 -0.14492323 0.47971925 -0.44314247 0.17520535 0.21973771 0.17577435 0.041032974
-0.04663093 -0.35266414 -0.014238762 0.012977412 0.06515677 -0.30992797 0.46071926 -0.18392733
-0.020963877 0.093764864 0.011750585 0.2645387 0.44019035 0.054748125 0.11265092 -0.012479101
-0.37773755 0.16933584 0.0316532 -0.08823787 0.01768569 0.4047189 -0.25776997 -0.16832784
-0.44586396 -0.048297707 -0.022184316 -0.08303606 -0.48076627 -0.014937414 -0.18785535 -0.058195725

critic.0.bias f4 [64]
00000000: 0964 06be 894e a93d 151a 44be 4446 4d3e
00000010: 3a98 1ebe e84d 7d3e 721f acbd c86d 97bd
00000020: 0e13 c4bd 90b7 67be dd73 3c3d 5483 82be
00000030: 0c1d a1be 4a55 5abe c23d 8b3e c8d7 1e3e
00000040: cd22 85be 1bfb 9e3d 364c 2dbe 52f8 493d
00000050: f73a 92bd d119 763e 8236 5d3e 387d c13d
00000060: 3316 86be cc70 55bd 46fc c23d af24 2f3d
00000070: a466 7d3e 806b ca3d 358d 10be 968d 3a3e
00000080: f32f fcbd 7442 d6bd 351d 4ebe eb0c 5d3e
00000090: ea66 043e 98c2 57be 63a2 a83e e94b 333e
000000a0: a0d1 afbd baa8 e13d 7a7f 80bd 5440 6a3e
000000b0: e41e 2dbe b01c f6bb 4d44 0e3e d5b7 3b3d
000000c0: 7007 30be c78f 72be 2c62 41bd b169 1f3e
000000d0: 27ce b73e 65e3 2fbe bbe3 883d 93a8 663e
000000e0: f50c e9bd bcfd 72be 1d15 a73d 8ab2 b23e
000000f0: c837 91bd 5791 243b 9f17 b1bd f151 d1bd
-0.13124098 0.082669325 -0.19150575 0.20046335 -0.15487757 0.2473675 -0.08404435 -0.07393986
-0.09573947 -0.22628617 0.046008933 -0.2549082 -0.31467474 -0.21321598 0.27195555 0.15512002
-0.26003113 0.07762738 -0.16923603 0.049309082 -0.07140153 0.24033286 0.21602824 0.09447712
-0.26188812 -0.052109525 0.095207736 0.042759594 0.24746186 0.09883785 -0.14116366 0.18218073
-0.12313833 -0.10461894 -0.20128329 0.21586959 0.12929884 -0.21070325 0.3293639 0.17509426
-0.08584905 0.1101851 -0.06274314 0.22876102 -0.16906315 -0.007510744 0.13893242 0.045829613
-0.17190337 -0.23687659 -0.047212765 0.15567662 0.3589947 -0.17176588 0.06684061 0.22525243
-0.113794245 -0.23729604 0.08158324 0.3490184 -0.070907176 0.0025111043 -0.086470835 -0.10220707

critic.2.weight f4 [1, 64]
00000000: 0541 043f 8e1f 37be 9a33 0ebf be02 03bf
00000010: c079 223f e9c1 cc3e de18 223f f2a0 8d3d
00000020: 5c55 b13e 5ba7 3f3e a8b8 47bf 6a3f a7be
00000030: 148b edbe 745b 4a3f a856 fa3e 49bd 76be
00000040: 947d 9a3e 0b94 40be c1c3 d63d fc18 58be
00000050: 2d1f 1cbf 1ff6 0b3f 3ed0 13bf 8d07 60bf
00000060: 2954 a13e d183 39bf 8b56 1bbe c587 9dbe
00000070: 161c 1c3f c0a4 7dbe 9462 fe3e e8cb 0e3f
00000080: 213f 5c3e c1f2 eb3e 2c86 713e 3a35 ad3e
00000090: d6d2 86be c808 303e a304 9cbd 62f8 6abe
000000a0: 0b65 d6be 6848 85be 5306 d63e fefd 63be
000000b0: dae8 173f e1f7 d2be cf95 5cbf 9ee9 163f
000000c0: 2e38 dcbe 38ef b4be 1beb 523d 11f3 72be
000000d0: d52b cd3e 5bad 413e cde8 0bbf b71c febd
000000e0: 61f8 13bf af72 f7be b218 053f 7dfa 023f
000000f0: 76c7 0f3e c78b 213f 8d75 3dbf faf5 893e
0.5166171 -0.17883131 -0.5554749 -0.5117606 0.63467026 0.39991692 0.63319194 0.069154635
0.34635437 0.18716185 -0.7801614 -0.3266557 -0.4639517 0.79045796 0.48894238 -0.24095644
0.30173934 -0.18806474 0.10486556 -0.21103281 -0.6098507 0.54672426 -0.5773963 -0.8751152
0.31509522 -0.7246676 -0.15169732 -0.30767646 0.60980356 -0.24769878 0.49684584 0.55779886
0.21508457 0.46083644 0.23586339 0.3382967 -0.2633273 0.1719085 -0.07618072 -0.22946313
-0.41873965 -0.26031804 0.418017 -0.22264859 0.5933968 -0.41204742 -0.8616609 0.5895022
-0.43011612 -0.3533876 0.051493745 -0.23725535 0.40072504 0.18913786 -0.546521 -0.12407821
-0.5780087 -0.48329684 0.5199081 0.51163465 0.14040932 0.6310391 -0.74007493 0.26945478
