outputs/centerSquare_2a_PPO_wprior1_run0/best_status.pt (torch, 39317 bytes, 42 tensors)

actor.0.weight f4 [64, 4]
00000000: dab4 5abe 6661 523e c407 fbbe 267d 19be
00000010: b547 de3d 64e8 e63e a121 2ebe 485e ba3e
00000020: 625c 0bbe dfb0 e9bd 4e0a 853c 0af8 f4bb
00000030: 2e10 b03c 48ed c23e d529 693d a313 083e
00000040: dfe0 6b3e 2f1e 3ebe 61dc 14be 1d98 a9be
00000050: 83f0 8dbe e184 ab3e f189 0e3d aa85 bd3e
00000060: d3d8 0bbe 9655 033e b2b3 19be c40e acbd
00000070: 7778 173b b495 3cbe 866f 8f3e a3fa 223e
00000080: 7d7c 15be 546f 0abd 7dc4 173c 77fd d63d
00000090: 1631 a03e aa0f ae3e aa6d 793e 3770 8f3e
000000a0: 5491 cfbd b081 503d 44fd 043e e7f9 b23e
000000b0: a529 873e fa61 79be 3a86 db3d 93e9 cbbe
000000c0: e08b cb3d 8704 f73d b1d5 edbd 7954 f7bd
000000d0: 2d04 bb3d 16b8 59be c771 a2be e71e f8bd
000000e0: f4aa 823d 4694 41bd 38a4 953d fb54 efbe
000000f0: 9f48 fabd 0094 873d 292e 7d3d c582 7a3e
00000100: f30e f2bd 979c a0be 8d4f 6ebe f983 03be
00000110: b956 833e 0e32 1c3f 6308 6d3e 948b 83bd
00000120: d797 833e 3f25 74be 680e 023e a0fa 603e
00000130: 6acc eabe 3b4f 82bd 1329 bd3c f213 ef3e
00000140: 4dcd 043e b3bf ebbd 2e49 e43d 3ccf 983d
00000150: 1ce0 f33b 8e58 99be a575 27be b719 a03e
00000160: 51b6 9fbe e02f a83e 044c b4be 99ac 8fbe
00000170: 4ba0 c73e 31b8 fb3d 2835 733e 989b b1be
00000180: 7b05 ecbe a6b1 f3be 7301 0dbe 0292 24be
00000190: 3eb2 563e 39a7 bbbe cbb0 fe3d c7e5 b03e
000001a0: 20e8 313e 10d3 12bd 4d78 5bbd fe60 a33e
000001b0: 8cee 4fbe f6a1 e0be 6198 343e 0634 f5be
000001c0: b86e 58be a0f6 5ebe d8bc 7b3e 9c6b febd
000001d0: 63b8 96bd 57f4 623d 6994 ecbe 6aa5 263e
000001e0: 4877 f1bd f657 fa3d 12f8 5bbe 880f babd
000001f0: a9ec 283d 36be ba3d 6069 f63d 4f93 e13d
00000200: 7fe1 5e3e efff 213e cf8a 9a3c b1f0 733e
00000210: 4ae2 873d 0249 d53b ae88 893e 857b cd3b
00000220: c4a8 16be b301 da3d 4251 b33e d85b 913e
00000230: 4305 243e 9075 923e 87c0 ce3d 1e72 a6be
00000240: 8e6c 813e a406 89be 7e81 d2be 1092 9dbb
00000250: 7228 3fbd cf62 9dbd 1bab ea3d bc67 2b3f
00000260: e204 183e 5da1 6dbe 0bab d1be 16c7 09be
00000270: b999 0e3d 21b5 2abe b220 3a3f 0443 963d
00000280: 1219 8abe 7e1e cdbd 0675 3d3b aa8b 423e
00000290: c2b0 48be 49ed 11be 701f fb3e c370 a13d
000002a0: 6bc2 123c 6ec0 45be 87da 4fbd 8b83 18be
000002b0: b95e 30be cef5 683e 2b67 6bbe f5ff 3abf
000002c0: 7fe4 cebe 762d 053c a8d8 de3e 17d7 3fbe
000002d0: 016a 5f3e 6dcf 50be 6b5b ea3e 254b 1b3e
000002e0: c5c3 a7bc 653e 3bbd bd0c 1f3e 67d9 473f
000002f0: 9b75 85bd d5ca 913d 0268 08be 88eb 963e
00000300: 5f0b b1be 02b0 d23e 6967 463e a158 053f
00000310: aa22 83be e643 64bd f077 223e e974 86bd
00000320: e9b3 933d 63a3 28bd b814 363e bf76 12bf
00000330: e2a5 96bb 7570 08bf bdc5 003d df09 dfbd
00000340: 1096 5b3d 9f2f a33e a14f 813e 16e2 ce3d
00000350: fbb3 a33d 7f87 1cbd 5057 9c3c 0334 ffbe
00000360: f685 b73e 5f8c d1be 7e10 6d3e 440b bb3e
00000370: 5751 58bd a6df 30bb efce abbd e058 633e
00000380: c039 cabe ad88 88bd 8fe0 7d3e d352 403b
00000390: c338 80be b5c4 08bf ff3f 0cbe 31a2 a6bc
000003a0: 7636 923e 28b9 c03d 59a9 99be 4b38 b7bc
000003b0: 5ba3 a73e a2ea 4f3e c164 e0bd abf9 6c3e
000003c0: 40de 993e 963c fc3d 0c60 323e b375 79be
000003d0: 1dc8 a93b a23c 1d3d b945 bbbe c6f3 9cbd
000003e0: 6198 12bf d12a 953d d976 f4be b24d 0bbd
000003f0: 4360 ccbd 3db2 143e cd76 7abe 66b5 d3bd
-0.21358052 0.20544967 -0.49029362 -0.14989147 0.10853521 0.45099175 -0.17005016 0.36400056
-0.1360946 -0.114106886 0.016240265 -0.0074758576 0.02149209 0.38071656 0.05692466 0.13288741
0.23035 -0.18566202 -0.14537193 -0.33123866 -0.27722558 0.33499816 0.03479952 0.3701604
-0.1365693 0.12825617 -0.15009955 -0.08401254 0.0023112574 -0.18416482 0.28014773 0.15915923
-0.1459827 -0.033797577 0.009263155 0.10497563 0.3128745 0.33996326 0.2435824 0.280153
-0.10135141 0.05090493 0.12987238 0.34956285 0.2639896 -0.24353781 0.10718961 -0.3982664
0.099387884 0.120614104 -0.11613024 -0.12076659 0.09131656 -0.2126163 -0.3172743 -0.12115269
0.06380263 -0.047260545 0.07306713 -0.46744522 -0.122208826 0.06620026 0.0618116 0.24463947
-0.118192576 -0.3136947 -0.23272534 -0.12843312 0.25652102 0.6101388 0.2314773 -0.06423107
0.25701782 -0.23842333 0.12700808 0.21970606 -0.4585908 -0.06362768 0.023090875 0.46694905
0.12968941 -0.11511173 0.111467704 0.07461402 0.0074424874 -0.29950374 -0.16353472 0.3126962
-0.31193784 0.32849026 -0.35214245 -0.2806137 0.3898948 0.12290991 0.23750746 -0.3468902
-0.4609793 -0.47596473 -0.13770084 -0.16071323 0.20966431 -0.36651018 0.12436064 0.34550306
0.17373705 -0.035845816 -0.053581525 0.31909937 -0.20305842 -0.43873566 0.17636253 -0.47891253
-0.21135986 -0.21773767 0.24583757 -0.124228686 -0.07359388 0.055408802 -0.46206978 0.16274038
-0.11790329 0.122238085 -0.2148135 -0.090849936 0.04124132 0.09118311 0.120318174 0.11014425
0.21765707 0.15820287 0.018865017 0.23822285 0.06634958 0.0065089474 0.2686209 0.006270828
-0.14712816 0.10644855 0.35022932 0.28390384 0.16017632 0.28605318 0.100953154 -0.3250894
0.25278133 -0.2676288 -0.4111442 -0.004808672 -0.04666943 -0.07684862 0.11458417 0.6695516
0.14845613 -0.23206086 -0.40950808 -0.13454852 0.03481457 -0.16670658 0.7270614 0.07337001
-0.26972252 -0.100155815 0.0028908863 0.1899859 -0.19598678 -0.14250673 0.49047422 0.07882836
0.008957486 -0.19311687 -0.050745513 -0.1489393 -0.17223634 0.22750017 -0.22988574 -0.7304681
-0.40408704 0.0081285145 0.4352467 -0.18734394 0.21817781 -0.20391627 0.4577287 0.15165384
-0.020479092 -0.0457138 0.15532203 0.78066105 -0.06516572 0.07118765 -0.13320926 0.2947657
-0.34578988 0.41149908 0.19375385 0.5208836 -0.25612384 -0.055728815 0.15866065 -0.065652676
0.072120495 -0.041171443 0.17781341 -0.5721244 -0.0045974115 -0.53296596 0.031438578 -0.10890555
0.053609908 0.3187227 0.25256065 0.10101716 0.07993313 -0.038215157 0.019084603 -0.4984437
0.35844392 -0.40927407 0.23150823 0.36532032 -0.052811947 -0.0026988774 -0.08389079 0.22201872
-0.39497185 -0.06666694 0.24792694 0.0029346242 -0.25043306 -0.5342515 -0.13696288 -0.02034101
0.28557175 0.09410316 -0.30012015 -0.02236571 0.32741818 0.20304349 -0.10956717 0.23142116
0.30052376 0.12316243 0.17419451 -0.24361305 0.005181326 0.038387902 -0.36576632 -0.076636836
-0.5726376 0.07283557 -0.47746924 -0.034009643 -0.09979298 0.14521118 -0.24459381 -0.103373334

actor.0.bias f4 [64]
00000000: 7e46 943d 094e e7bc c251 b83a 1198 25bb
00000010: f7d2 d7bd 9a2e 05bd 2098 a83c 154b afba
00000020: 0c5a dd3d 3f8f c83d e215 ad3d e17e eabd
00000030: d0d1 1f3d f2d7 6fbd 3175 7dbd 6e9f 8e3d
00000040: 9af0 a2bd f5db 263e 8e4b 84bd 343d 73bd
00000050: 91a1 a0bc a98a 273d 20be 56bd c99c da3d
00000060: 2670 e9bd 0486 1e3e ccf2 b33d 7681 ab3d
00000070: 7968 94bc f124 f63d a195 a6bd 2749 ac3a
00000080: 6f8f 0c3e 0d0c bebc d0a3 4c3c 6a30 8f3d
00000090: 1ae7 13bd b0aa 9ebc 7cda 933d 7e6a 2a3e
000000a0: 7a85 05be 7553 ddbc 74b1 9fbd 9332 8cbd
000000b0: 5f14 233c be86 81bd b21b 003d c9f8 debc
000000c0: ff74 ba3c 584f 903d 4216 30bd c45a 0f3d
000000d0: 0b77 193e 7469 65bd 06ee ca3d e33c c5bc
000000e0: 37a1 eb3d 06bd 44be 189e 95bd 106f 2d3e
000000f0: 7161 0bbb c50c 15bc dadf 6f3d c891 dabd
0.07240008 -0.028235452 0.0014062452 -0.002526764 -0.10538285 -0.032515146 0.020580351 -0.0013373817
0.10808191 0.09792947 0.084514394 -0.114499815 0.039018452 -0.05855555 -0.06187934 0.069640025
-0.07956047 0.16294844 -0.064597234 -0.05938454 -0.01960829 0.04090372 -0.05242741 0.10674436
-0.11398344 0.1548081 0.08786544 0.08374302 -0.018116223 0.12018765 -0.08134008 0.001314436
0.1372659 -0.023199106 0.012490228 0.06991656 -0.036109067 -0.0193685 0.07219407 0.16642186
-0.13039199 -0.027017334 -0.077975184 -0.06845584 0.009953587 -0.06324528 0.031276412 -0.02721824
0.022760866 0.070463836 -0.042989977 0.03499867 0.14986818 -0.05600877 0.099086806 -0.024076885
0.11505359 -0.19212732 -0.073055446 0.16936898 -0.0021267796 -0.009097283 0.05856309 -0.10672337

actor.2.weight f4 [5, 64]
00000000: 2210 f4be ca7d 963e c605 29be ef4d b13d
00000010: ccc2 a23e 74ef a4be b1f4 3fbd 67d9 67be
00000020: 84b9 83be c480 b8be 804d 94be da8b f8bd
00000030: 0636 443e 5e02 6f3e 2c94 463e 8f5d 8dbd
00000040: f820 22bc 7919 babc e4e9 a83e 9ed1 13bd
00000050: 89a3 973e 976f f0bc 7621 2ebe d020 8c3e
00000060: 6546 6f3d 1990 03bd ee65 c5be 01b3 c5be
00000070: 5c18 b7be 1a40 a73d c96c 11be 992c f33c
00000080: 45a0 1fbc 9099 afbd 26d3 aabe 7d35 fabd
00000090: 68c8 083f 6528 ffbe e06d 693b 37d0 853e
000000a0: 0ee3 c63d 5041 4abe 4060 b23d a6ab 95ba
000000b0: 137f 303e 2a1e e53d e704 7cbe e105 07be
000000c0: 1206 41bf 4917 503e a35e af3e 3ed8 8abe
000000d0: f9f1 e83d 93f4 e53d b7e7 ddbc 4259 30be
000000e0: 05e3 0ebc 787d 95bc 6750 923c 513d 62be
000000f0: 6d56 50bd f9ce 57be 9c19 dbbd 1b53 a8be
00000100: 0c02 91be d622 07be 00c0 7abc 88eb 8bbc
00000110: ad68 533d 4930 f2bb 7dd2 013d eceb a33e
00000120: 671c 363e c725 663e ff3a 1cbe a25a 97be
00000130: 25dd bebe 6797 93bd a042 c13e 7b6f ab3d
00000140: d2b4 15be e6ad f83d d425 8f3e 0e53 e63e
00000150: 22cf 94bc 2d3d b43b 2929 fcbe 333e 2abe
00000160: 82f4 c4bd 58f6 2e3f 8a37 8c3e 60fc 6ebe
00000170: 8b0d 15be 04ff 923e 90c9 19bf 46dc 05be
00000180: c133 093e 45c7 773d c4cd 1a3e 4f77 e2bd
00000190: 5f13 b1be a985 ebbd f521 033e e233 873e
000001a0: 33b2 29bd 28dc 03be 2c8c dfbe bd87 eb3e
000001b0: e3a2 3abd edaf 333e 467e f6bd 9cf0 6b3e
000001c0: 6438 d9bd 5971 043e bae7 73be 8edc 6ebc
000001d0: 008e b93e 3bf4 cf3d 1cc3 f73e 2309 48bc
000001e0: a9f2 e73e e987 78be f860 85bd 478d 183e
000001f0: 1afb 8abe b76b 48be 4298 26be 070c e2bd
00000200: 33d9 233f a73b 8c3b 009f 4bbe 93e2 3cbe
00000210: 09d9 b1be 6e44 f93d 787a ca3e da1d f4be
00000220: 47c2 8ebd aa0f a6bd 582d 2a3e 834d 25bf
00000230: e12b e83e d4ce 9d3d dd95 6dbe 4929 443e
00000240: f609 18be 2ba2 d6bc 5087 25bf 1b3b e83d
00000250: bf22 cebe 39f8 e0be 4353 5a3f 220b bf3e
00000260: 7e5d 593d 636e f1be 2d81 843e f7e9 44bd
00000270: 5fa3 23be 6510 893e 863b b13e 8a79 89bd
00000280: ae65 0d3e 46b5 54be 3965 25be f6b3 ad3e
00000290: f824 73be 0f5c 2e3e 6074 84be 8d93 673c
000002a0: d7f1 46be bcb6 babe 54c5 f13e 3fa3 bdbc
000002b0: c864 99be 06a1 12bf 2b6b 063f 5627 613e
000002c0: 2cb6 62be 6f1d 90bd 7bbd 8dbe 224d 043e
000002d0: 69d9 d1bc 3cff 88be a1d0 55bf b7f7 1abd
000002e0: 6437 24bd 6676 4b3e 304b df3e 0438 d3bc
000002f0: 5f20 0a3e ad8e de3d b956 993e 8b42 293f
00000300: d853 ff3e 915d a9be ec08 803b 4c06 e9be
00000310: d334 b93c 6b35 88be 50cf 7cbe 3e59 523d
00000320: a7a3 12be 4231 b6be b3d7 a5be 4619 a83e
00000330: 1f1f 213d 08bf 0f3f da6e a6bd f1f0 f13d
00000340: 4645 8dbe 691d 06be daaa 5abe 24a8 753d
00000350: f6ba 873d 8dd9 3f3d bb92 d13d 8136 cbbe
00000360: 5668 1d3e ad85 a73e f0f9 5ebe 7ad2 9e3e
00000370: 3966 143e f014 843e 672d 263e 5731 58be
00000380: 0207 cdbe 0ce6 8f3c 42f0 bdbe be47 f5be
00000390: c082 87be e86e 113e 725f 0cbd 0285 9d3e
000003a0: b010 843e 5589 99bd 7255 af3e 74cf b73e
000003b0: 9a71 573e 56a8 81be 1f90 d3be 6f33 9fbd
000003c0: b6d4 65bd 1ee7 073e 5bbc 193e 9ced ab3e
000003d0: 3b2d 63bd af70 a9bd 6ba2 6f3d ead7 d8bd
000003e0: 9055 073e 67f5 8f3e 38cb eebe 574a 0ebf
000003f0: 8ce1 ee3c 2e7d af3e 5e12 ed3c 58e9 533e
-0.47668558 0.29392844 -0.16506109 0.08657443 0.31789243 -0.32213938 -0.046864215 -0.22641526
-0.25727475 -0.3603574 -0.28965378 -0.121360496 0.19161233 0.23340747 0.1939246 -0.069026105
-0.009895556 -0.022717224 0.32990944 -0.03608858 0.29616955 -0.029350085 -0.17004952 0.27368784
0.058416743 -0.032119844 -0.3855433 -0.38613132 -0.35760772 0.08166523 -0.14201654 0.029684352
-0.009742801 -0.085742116 -0.33364218 -0.12217233 0.53430796 -0.49835506 0.003561847 0.26135418
0.09711276 -0.19751477 0.087097645 -0.0011418953 0.17235975 0.11187394 -0.24611245 -0.13185836
-0.7539989 0.20321383 0.3425189 -0.27118105 0.113742776 0.112282895 -0.02708803 -0.17221549
-0.008721118 -0.018248305 0.017860604 -0.22093703 -0.050863672 -0.21075048 -0.10698244 -0.32875904
-0.28321874 -0.13196883 -0.015304565 -0.017080083 0.0516135 -0.00739101 0.031694878 0.32015932
0.17784272 0.22475348 -0.1525688 -0.29561335 -0.37278095 -0.07206612 0.37746143 0.083708726
-0.14619759 0.121425435 0.27958548 0.4498524 -0.018165175 0.005500457 -0.49250153 -0.1662529
-0.09616949 0.6834464 0.27386123 -0.23338461 -0.14555947 0.28710186 -0.60073185 -0.13072309
0.13398649 0.060492773 0.15117556 -0.110579126 -0.3458509 -0.11500103 0.12805922 0.2640677
-0.04142971 -0.12876952 -0.4366163 0.46001998 -0.045565497 0.17547579 -0.120358035 0.23041004
-0.10606459 0.12933864 -0.23818865 -0.0145789515 0.3624115 0.10154005 0.48391044 -0.01220921
0.45302323 -0.24270596 -0.06512636 0.14897643 -0.271447 -0.1957234 -0.16269019 -0.1103745
0.64003295 0.004279572 -0.19884872 -0.18445806 -0.34735897 0.12171255 0.3954656 -0.47679025
-0.06970649 -0.081084564 0.1661886 -0.645714 0.45345977 0.07705465 -0.232017 0.19156374
-0.1484755 -0.026200375 -0.64659595 0.113393985 -0.40260884 -0.4393938 0.852833 0.3731318
0.053067677 -0.4715453 0.25879803 -0.04807469 -0.1598029 0.2677032 0.34615725 -0.06712635
0.13808319 -0.20772275 -0.16151895 0.33926362 -0.23744571 0.17027305 -0.25870037 0.0141343
-0.19428192 -0.3646754 0.47220862 -0.02314913 -0.29959702 -0.5727695 0.52507275 0.21987662
-0.22139806 -0.07036864 -0.27683625 0.12920049 -0.025616365 -0.26757228 -0.8352147 -0.037833896
-0.040091887 0.19869384 0.4361205 -0.025783546 0.13488911 0.10867057 0.29948977 0.6611716
0.49868655 -0.33079198 0.0039073136 -0.45512617 0.022608196 -0.26603255 -0.24688458 0.05135464
-0.14320241 -0.35584456 -0.32391128 0.32831782 0.03933632 0.56150866 -0.08126612 0.11813534
-0.27591914 -0.13097157 -0.21354237 0.059974805 0.06627457 0.046838332 0.10233065 -0.3969002
0.15371832 0.32719174 -0.21775031 0.31019956 0.1449212 0.25797224 0.16228257 -0.21112572
-0.4004441 0.01756575 -0.37097365 -0.47906297 -0.26466942 0.14202464 -0.03427071 0.3076554
0.25793982 -0.07496897 0.34244877 0.35900462 0.2103943 -0.25323743 -0.41320893 -0.07773482
-0.05611106 0.13271758 0.15013258 0.3357972 -0.055463057 -0.08273446 0.058504503 -0.10588057
0.13216233 0.28116915 -0.4663942 -0.55582184 0.029160284 0.34275192 0.028939422 0.20694482

actor.2.bias f4 [5]
00000000: c502 173c 3d60 5c3d 4f08 f73c e7f6 57be
00000010: 1808 8ebd
0.009216969 0.053802717 0.030155329 -0.2109028 -0.069351375

critic.0.weight f4 [64, 4]
00000000: 70f2 64be ea00 1fbe 51a4 26bd caf9 00be
00000010: 63fa c13e 6788 633e 792c a33e d90b 213e
00000020: ceb9 e3bd 5f14 6a3e cb7f 15bd 59ea 7c3e
00000030: d476 66be 6b21 a2be 685c a73e 2fc3 c73e
00000040: ed5e 7e3e 1c79 103e 26ba 2d3e 8e57 1abe
00000050: 4f94 803f e8d0 0abd b9c8 3b3e 1264 51be
00000060: cf6c 28bc 6201 ba38 a2ac bdbd 006e f8bd
00000070: 0982 963e 2eea da3d 272c 893d c4cb fa3d
00000080: ed57 ca3d 3181 67be c3d0 923d f0c3 c2be
00000090: d04c 3f3e 59a0 c43e e7f9 b13c bdcd e1b9
000000a0: 8106 823e 9bb5 f03d 5e7b 963d 3693 e63d
000000b0: cf8e f03e 088f 2dbd e5ae fcbc 0449 2a3e
000000c0: 4ca1 693e fbbd 103e 060a d43b dd74 073f
000000d0: 0866 a23e e8ec 383e bc48 2dbe c364 09be
000000e0: 658b afbe 6fd0 cbbd 4668 023e 67eb 83be
000000f0: 0a52 8ebe 0b43 64be dc69 10be ca46 353d
00000100: 7cdf 4fbe 42f5 b7be 4358 5c3d 0114 3dbe
00000110: 63ab e53d 1811 52be 0151 8d3c ffc8 5dbe
00000120: ea1e be3d fbe2 4fbe 6610 273d 000e 1fbf
00000130: 4357 823e af22 903d 3910 903d 6ba8 003e
00000140: 2f05 8cbe 51ca cabd 04a8 7bbe d590 963d
00000150: 0421 ff3e f780 a43e 3bf2 c73e 04c4 c13e
00000160: 47ac 5c3e 614d b83d 70dc 813e b5e8 0d3f
00000170: 42e1 e5bb 025e 4cbe 8d67 eebe 5070 1bbc
00000180: dafb 2d3e b5d0 8ebe 9500 5abd aaa7 44be
00000190: 442d 293f 8ee0 fe3e 5000 253e 2a52 203e
000001a0: e100 263d 938e 1ebe b24e 10bf b93c 66be
000001b0: 5625 3e3f 6229 f73e 8dfa 553e 4fd3 8c3d
000001c0: 9901 e2bd 85c3 80be 3683 33be d4ff 82be
000001d0: 4cb0 2b3f 5815 d4bc a88a dbbb 703d cf3d
000001e0: 17f5 9cbe f56b 40be 1345 20be 0c9c e9be
000001f0: 816c 673e 7629 b0be 2974 0abe 654f cfbe
00000200: a396 943e f82f c43e a0fd 073f 3286 6f3d
00000210: d225 d5be a86f 43be 7b52 ccbe de63 97be
00000220: 39dd 33bd fefa c9be 090b 133f 7a0e 24be
00000230: ebb1 06be 5dec 453e 2c65 863d 412e 863e
00000240: dab4 183f 9e5c e43e 4cc0 f43e c8cf c63e
00000250: 3475 243f a6db 113d 8244 3d3d 2c5d 1cbe
00000260: 6bf0 0cbe 0c0c 74bd f4d6 c6bd 5f6e 78bf
00000270: bb46 a1be aa1d 4ebf 9a87 88be 9171 08be
00000280: 0056 35bd 3fd8 febd 16b0 31bd 4be5 34be
00000290: 3ea2 18be 5277 a53e 3395 a3bd 5257 ec3e
000002a0: 522f 42be dea3 0fbe 2a16 b8bd 18a8 88bd
000002b0: 2b50 adbe 0b59 0fbe 95f4 93be 82ca e6be
000002c0: 7560 d9bc 78b0 58bd 5a93 a53e b1f9 fb3d
000002d0: b7e1 0c3e 0c92 243e 0c73 743d 659c 023e
000002e0: f41f d3bc 73bb 91bd 5b56 cf3d 20f1 c2be
000002f0: 6534 993e 8705 973e bfb7 083e 726b ca3d
00000300: 5e60 bcbe 7192 d4be 5c99 15bd 5396 82be
00000310: 2563 a2be eed4 2bbd 9332 55be 78a1 20bd
00000320: 3ea9 15be a5f3 6ebe fed6 a3bd 82d5 50bd
00000330: 9044 33be 35a0 f6bd e9ee 3fbe bf1e 783c
00000340: df33 b6be 315b a5be d948 07bf 18d1 54be
00000350: 081a adbd 3eff 8b3e 94dc 18be c66b 673d
00000360: a627 463e 7faa 9a3e 930e 79bb 0f0a ce3d
00000370: 9357 20bd 7b0e 6dbd 4761 ac3d d1a8 03be
00000380: 5969 e63d a551 a4be a609 643d 1a15 81be
00000390: f615 813e d353 be3e 02ec 103d 9060 07bd
000003a0: 5e76 f03d 75aa 74be 70a4 23bd 399d 8bbe
000003b0: 1b4a 1bbd 5084 34bf 00f7 5ebe 984f 97bd
000003c0: 7e83 d23d 8d55 97be 1a2a cebe 97c3 9cbc
000003d0: fbcc 8b3e 8110 4e3e dc6b 87bd 1610 263e
000003e0: da14 51be 2998 1ebe 7bd3 2cbe 2e09 8ebc
000003f0: 5077 353d 5af1 eebd 71ee 26be ea0e 3fbf
-0.22358108 -0.15527692 -0.040684048 -0.12595287 0.37886342 0.22220002 0.31869867 0.15727176
-0.11119424 0.22859333 -0.036498826 0.24698772 -0.22506267 -0.3166612 0.32687688 0.390161
0.24840899 0.141087 0.16965541 -0.15072462 1.004526 -0.033890635 0.18338288 -0.2044833
-0.010279848 8.869429e-05 -0.09261443 -0.12130356 0.29396084 0.106891975 0.066978745 0.122458965
0.09880052 -0.22607876 0.071687244 -0.38040113 0.18681645 0.38403586 0.021725608 -0.0004306863
0.25395587 0.117533885 0.07347749 0.11258547 0.46983954 -0.042372733 -0.030845115 0.16629416
0.22815436 0.14134972 0.0064709214 0.52912694 0.3171847 0.18059123 -0.16922277 -0.13417344
-0.34286037 -0.09951865 0.1273509 -0.25765535 -0.27796966 -0.222912 -0.14102882 0.044256963
-0.20300096 -0.35929304 0.05379511 -0.18464662 0.1121433 -0.20514333 0.01725054 -0.21658705
0.0928324 -0.2030143 0.040787123 -0.6213074 0.254572 0.07037865 0.07034344 0.12564246
-0.27347705 -0.0990187 -0.24575812 0.07351843 0.49829876 0.32129642 0.39051995 0.3784486
0.21550094 0.08999134 0.25363493 0.5543321 -0.007015378 -0.19957736 -0.46563378 -0.009487227
0.16990605 -0.27893606 -0.05322321 -0.19204584 0.66084695 0.49780697 0.161134 0.15656343
0.040528182 -0.15484075 -0.5637008 -0.22484101 0.7427572 0.4827376 0.20896359 0.068762414
-0.11035461 -0.2514917 -0.17530522 -0.25585806 0.6706588 -0.025889084 -0.0066998787 0.1011914
-0.3065574 -0.18791182 -0.1565135 -0.45626867 0.22599985 -0.34406632 -0.13520874 -0.4049026
0.29021177 0.38317847 0.53121376 0.058477588 -0.41630417 -0.19085562 -0.39906678 -0.2956838
-0.043912146 -0.39449304 0.57438713 -0.16021147 -0.13153808 0.19328447 0.06562266 0.26207164
0.5965096 0.4460191 0.4780296 0.388304 0.6424134 0.035609864 0.046207912 -0.15269917
-0.13763587 -0.0595818 -0.09708968 -0.9704341 -0.31499276 -0.80514014 -0.26665956 -0.13324572
-0.04427147 -0.124435894 -0.04338082 -0.17665593 -0.1490564 0.32317597 -0.07987442 0.4616037
-0.18963364 -0.14027354 -0.089886025 -0.06672686 -0.33850226 -0.13998811 -0.2889754 -0.45076376
-0.026535252 -0.05290267 0.32338983 0.12303484 0.13757978 0.16071337 0.05968003 0.12754972
-0.025772072 -0.07115831 0.10123893 -0.3807459 0.29922786 0.29496405 0.13351344 0.09883775
-0.36792272 -0.41517976 -0.036523208 -0.25505313 -0.31716266 -0.041951112 -0.20820074 -0.03921649
-0.14615342 -0.2333513 -0.07999991 -0.050984867 -0.17506623 -0.12042276 -0.1874348 0.015144049
-0.3558645 -0.32296136 -0.5284553 -0.20782888 -0.08452231 0.27343172 -0.14927894 0.056499265
0.19351062 0.30208203 -0.0038003072 0.10060512 -0.039146017 -0.057875138 0.08416992 -0.12857367
0.11250562 -0.3209354 0.055673264 -0.25211412 0.25212067 0.37173328 0.035381325 -0.033051074
0.11741327 -0.23893149 -0.03995174 -0.2726839 -0.03791247 -0.7051439 -0.2177391 -0.07388228
0.102789864 -0.29557458 -0.40266496 -0.019136233 0.27304825 0.20123483 -0.066123694 0.16217074
-0.2041811 -0.15487732 -0.16877548 -0.017338362 0.04430324 -0.11667128 -0.16301896 -0.7463213

critic.0.bias f4 [64]
00000000: 1dfb cabd 2b67 233e 9105 1f3e a074 54be
00000010: c90b 803c 3d51 a53d bd21 29bd f838 943e
00000020: c911 4dbe 0755 2a3c 32f5 1b3e a226 943e
00000030: 3344 273e 5196 753d 1df5 393d b268 66be
00000040: 222d 07be edae 21be fcca bebd 0cc7 273e
00000050: 850c 463a 43fa 5b3e f9f2 ab3d e2ab 19be
00000060: a9f5 d1bd 2068 393e 5b59 5fbd 2c61 743e
00000070: 6c6c 89bd 64ac df3d eb4e c3bd d2a5 da3c
00000080: 1f7f 8b3e 3f8b 41be 0763 393d 17cc 4c3d
00000090: f8a0 873e 092d 8b3e 366c d1bc c013 4bbe
000000a0: 56cb 54bd d97e 3a3e 5f80 85bd aefe 1ebe
000000b0: 6602 0e3d dfd7 ef3d db95 1fbd 8862 7b3e
000000c0: 94f0 8bbe 035e 33bd bc72 b1bd e7a6 1ebe
000000d0: eb01 4bbe 2c00 383d 4b87 dd3d e381 523d
000000e0: f5f8 02be f1a3 f43d b865 cb3c 7420 b8bd
000000f0: cb42 03be 28a6 86bc a6e5 303d 9eb2 36bc
-0.09911177 0.15957324 0.15529467 -0.20747614 0.01563062 0.080721356 -0.04129194 0.28949714
-0.20026316 0.010396249 0.15230253 0.28935724 0.1633461 0.059957806 0.045399774 -0.22500876
-0.1320081 -0.15789385 -0.0931606 0.16384524 0.0007554966 0.21482186 0.08395953 -0.15006974
-0.10251934 0.18106127 -0.054528575 0.23865193 -0.06710133 0.10921553 -0.09536537 0.026690397
0.27245423 -0.18900774 0.045260455 0.049999323 0.26489997 0.27182797 -0.025564294 -0.19831753
-0.05195173 0.18212451 -0.065186255 -0.1552684 0.034670256 0.11711096 -0.038961273 0.24549305
-0.27331984 -0.04379083 -0.08664462 -0.15493356 -0.1982495 0.04492204 0.10816821 0.0513934
-0.12790282 0.11945332 0.024828777 -0.08990565 -0.12818448 -0.016436651 0.04318776 -0.011150984

critic.2.weight f4 [1, 64]
00000000: 54ac d0be ae15 21bf 1006 e5be 0d94 94be
00000010: de58 2c3f 6bc1 1cbe fa4b d03e 7758 62bd
00000020: c0ab b73e e4d4 313f cb42 f73e e29d 02bd
00000030: a3ec d7bd 1bd2 0c3f cba5 b2be af2d 7ebe
00000040: 5be1 0dbf 1341 043f e9a2 a83e 32b3 bb3e
00000050: d21b dfbe 8d5f 97bd d13c b2be 1058 b63e
00000060: 40c1 993e eccd 80be a281 5d3e 84fc 38be
00000070: 8106 093e 628f 8bbe 4a02 c23e 08cc 943e
00000080: a446 0bbe d5b5 bf3d ed63 9fbe 48fa c4be
00000090: 99f6 96bd b33d d7bd 9eac 963e 2237 473e
000000a0: 3f2a 8c3e 3fbf 9bbe 3fca 30bf 6cdd 1c3e
000000b0: fe18 c9be 3954 d3be 7143 913e 01d9 8fbe
000000c0: 246e 913d a0e3 eebe a6d9 13bf b5aa dabe
000000d0: a6f6 953e c0f5 bebe 11ab 453f 523c a7be
000000e0: 4cdc 843e f2c2 5a3e f681 9b3e a159 f43e
000000f0: 0e2b 2d3e cbe8 1a3f 41ce c2be d06d 733e
-0.40756476 -0.62923706 -0.44731188 -0.29019204 0.673231 -0.15308158 0.40682966 -0.055260148
0.35873222 0.6946547 0.48293146 -0.03188885 -0.10543182 0.55008096 -0.34892115 -0.24822114
-0.5542199 0.51661795 0.3293679 0.36660153 -0.43575913 -0.07391272 -0.34812024 0.3561406
0.3003025 -0.25157106 0.21631482 -0.18065077 0.13381387 -0.2725783 0.3789237 0.29061913
-0.13601166 0.093608536 -0.31130925 -0.384722 -0.073712535 -0.10509815 0.2942857 0.19454625
0.2737598 -0.30419347 -0.69058603 0.1531884 -0.3927688 -0.41275194 0.28371766 -0.28095248
0.07101086 -0.4665804 -0.5775398 -0.42708364 0.2928974 -0.37296867 0.7721415 -0.32663208
0.25949323 0.21363428 0.3037259 0.4772463 0.16910955 0.60511464 -0.38047984 0.23772359

actor.0.weight f4 [64, 4]
00000000: 535f f03c 7c22 a2be d673 d5bc 4105 5dbe
00000010: 301e cc3d 8dd8 71be 7bfb a83d e4c4 f5bd
00000020: 792b 5dbe b3dc ed3d 6065 023f a995 14be
00000030: 7a66 03be 0232 0abf dd4e a1bd 0e29 7e3e
00000040: 19e7 a2bd 44ae b4bd a780 af3e cd36 afbe
00000050: 4ca9 743f b0dc 7d3d bc2f 713e 1374 d5bd
00000060: d178 04be 1823 94be 828d 36be 9348 8dbe
00000070: 25ac adbe 4d83 5bbd 2f11 c53d 2ca5 923e
00000080: 891f a3bd 7539 6e3c 489b 343e 671a d5be
00000090: c7d2 aabd ac34 9dbe d502 033d 776a 0f3e
000000a0: 5b28 333e 6918 833d 633b 4ebe 30b9 28be
000000b0: 2594 4bbe 41c4 73be f118 24bd 80ae 58be
000000c0: a0ab 893d b09d dc3e 08af 653e 6717 1e3e
000000d0: 0f69 d5bd 0fc9 043a 789d 7f3c a32d ee3e
000000e0: f65c 5938 7ea2 e3be b08d d43d 8881 48be
000000f0: fb39 df3d 75f3 0cbd b706 06be 5fa5 0bbf
00000100: 3a89 83bd 2de4 9ebe fe43 bc3e f455 c8ba
00000110: 051d e63e b146 bb3b ec9c 04bf cf8d 1bbe
00000120: a37e aabe d1b8 ae3e 842e 02bf 8339 bb3e
00000130: 7896 83be 8f0c acbe 0b44 393e 8df7 31be
00000140: cd9c 0fbe f5df 023d c758 cb3d 7017 613e
00000150: 6086 0cbd 7c03 60bd 1647 2c3e a03a 63be
00000160: ce62 c1be ef6e 043e b105 9abe 49be 1abf
00000170: a0c0 06bf 0bcc 8ebd fd71 d0bd de9c 37bd
00000180: 3607 f43d 60c7 423e a47b 2bbe cd81 d43d
00000190: 85e7 363f 3dcc 183e ff7d 3d3f 4f81 7dbe
000001a0: 5a95 2f3e 8242 41be 5fd2 8c3d aa09 d2be
000001b0: 6c65 c0bd e940 4f3e 7c38 a7be c501 93bd
000001c0: 5a53 3c3e 28ac 8d3e 2e5a 52be f371 cfbd
000001d0: 009b 28be 6cb4 643e 7350 aabe 489c d0bd
000001e0: 7d59 2c3e ff22 16be 1855 30bf 531c 763e
000001f0: 4b9a d33d f1c5 e6bd 7f8c 18bd 8025 99bd
00000200: 7bc4 d2bc d20f b0bc 409c 80bf 3e27 f53d
00000210: 06bd 6fbe d719 06be 09ac 0fbe 65ac 723d
00000220: 1bd5 bdbd c53e dd3c 354d d73d da07 463f
00000230: 5477 9f3d 3552 523e 4743 44be 52de 94bd
00000240: 35aa 233e 7864 81be e43d 33be ecee 15be
00000250: a550 02bf b169 c53d 37b6 073f 01fb 7f3d
00000260: 5644 7ebd 982e a4bc fe2f 6e3e a9e8 863f
00000270: b130 b9bc c567 b0be e706 24bd 23b2 bfbe
00000280: e703 d43d 6a23 c9bd 31fe d23d 03a7 843d
00000290: 1124 d83d 8c5f 62be c0e3 b13d 95bb 44bc
000002a0: 86a3 683d 6e34 76bb ca8b 203f daee 83bd
000002b0: 5437 d43d a30b 91be 6480 3cbe 69e7 15be
000002c0: b0bc d9bd a112 823e 9ad5 d6be 8383 07be
000002d0: dcca 8cbd 92e5 233d 1697 93bd cb2e 3c3f
000002e0: 1f99 403e b86d 283b 9911 39be 4264 74bd
000002f0: 1417 f8bd 9866 40be 650d e83c 5298 09be
00000300: 9887 95bd 3594 c83d 9b3c 85bd ed2c 423e
00000310: 4a72 82bd c5d8 8c3d 4a4f f13e 764d 1cbe
00000320: 7432 223e d00c bbbc 7eed e0be b758 593c
00000330: a28e 8abd 3cdb 103e a19c 1fbe 0532 793e
00000340: cd61 033e db3a 0ebe 4b5e 393f 2eb3 263d
00000350: b5c4 b3bd bb87 75bc 02c2 c73d 1bc6 f9be
00000360: 096d 1cbe a5ac 183e 6182 423e a598 58be
00000370: ea75 8d3e 90f1 603d d746 a03d a20d ed3d
00000380: b039 dbbe 1130 e53e e234 eb3e 390e 0cbf
00000390: 0e25 94be 9b1e 0e3c 9bd1 4a3e 7c02 d53d
000003a0: b3b4 85be 5bb1 7c3e 6416 c23d 3823 fd3d
000003b0: d62d 4abe 3c09 b53d 5ab7 ef3e 389d afbd
000003c0: 1881 d73d f374 8bbd 3600 02bf 8dc8 ff3d
000003d0: 261d 94bd 79c2 0cbe 80e2 0a3e be17 58be
000003e0: a5c4 90be c366 a23e 5ac0 fabe 590d a83e
000003f0: 22be 033e 78c1 74bd 2e9f f0bd a831 70bf
0.02934233 -0.31666934 -0.026056211 -0.21584035 0.09966695 -0.23617764 0.08251091 -0.120004445
-0.21598615 0.11614361 0.50935936 -0.14510216 -0.1283206 -0.53982556 -0.0787637 0.24820349
-0.07954235 -0.08822301 0.3427784 -0.34221497 0.95570827 0.061978042 0.23553365 -0.1042253
-0.12936713 -0.28933024 -0.17827418 -0.27594432 -0.33920398 -0.053592015 0.09622418 0.2864164
-0.07964999 0.014540066 0.1763736 -0.41621706 -0.08340984 -0.30704248 0.031985123 0.14005457
0.17495863 0.0640114 -0.20139842 -0.16476893 -0.19880731 -0.23805334 -0.04006285 -0.21160316
0.06722188 0.43089056 0.2243005 0.15438615 -0.10420429 0.00050653605 0.015601508 0.46519193
5.182341e-05 -0.4445991 0.10378587 -0.19580662 0.10899731 -0.034411866 -0.13088499 -0.5454921
-0.06422658 -0.3103346 0.36770624 -0.0015284405 0.44944015 0.005715214 -0.51801944 -0.15190814
-0.3329974 0.3412538 -0.5085223 0.36567315 -0.25700736 -0.3360333 0.18092363 -0.1737959
-0.14024659 0.031951863 0.09929042 0.21981597 -0.034307837 -0.054690823 0.16823992 -0.22190332
-0.37770694 0.12932943 -0.30082467 -0.604466 -0.5263767 -0.06972512 -0.101779915 -0.044827335
0.11915438 0.19021368 -0.16746384 0.1037632 0.7144702 0.1492166 0.7402038 -0.24756359
0.17146817 -0.18873027 0.068760626 -0.41022998 -0.09394345 0.20239605 -0.32660282 -0.07178072
0.18391171 0.27670407 -0.20542213 -0.10129156 -0.16465378 0.2233445 -0.33264503 -0.10186058
0.16831012 -0.14661787 -0.6887984 0.24034242 0.103321634 -0.11268223 -0.037243363 -0.07477856
-0.025728455 -0.021491919 -1.0047684 0.119703755 -0.2341195 -0.13095795 -0.1403047 0.05924644
-0.09269162 0.02700747 0.10512773 0.7735573 0.07786432 0.20539172 -0.1916629 -0.07268967
0.15982898 -0.25271964 -0.17504078 -0.14641923 -0.50904304 0.096393 0.5301241 0.062495235
-0.06207689 -0.020041749 0.23260495 1.0539752 -0.022606226 -0.3445417 -0.040045645 -0.37440595
0.10352307 -0.09821208 0.103023894 0.064771675 0.10553754 -0.2210676 0.08686018 -0.012007614
0.056796573 -0.0037567872 0.627133 -0.06442042 0.103621155 -0.2832919 -0.18408352 -0.14639057
-0.106316924 0.25404838 -0.4195984 -0.13233761 -0.0687463 0.040013857 -0.07206552 0.735089
0.18808411 0.0025700163 -0.18073119 -0.059665926 -0.12113777 -0.18789136 0.0283267 -0.13437012
-0.07301253 0.09793893 -0.065057 0.1896245 -0.06369455 0.06877283 0.47130805 -0.15263924
0.15839559 -0.022833258 -0.43931192 0.01326578 -0.06765486 0.14146131 -0.15587093 0.24335487
0.12830277 -0.13889639 0.72409505 0.040698223 -0.08777753 -0.014985974 0.09753801 -0.48783955
-0.15275969 0.14909609 0.18995048 -0.2115198 0.27629024 0.054917872 0.07826012 0.11574866
-0.4281745 0.44763234 0.45938784 -0.547092 -0.2893452 0.008674289 0.1980652 0.104008645
-0.26114425 0.2467703 0.09476927 0.12360233 -0.19744048 0.08839652 0.46819574 -0.08574909
0.105226696 -0.06809416 -0.5078157 0.12489424 -0.07232122 -0.1374606 0.13562965 -0.21102807
-0.28275028 0.31719026 -0.48974878 0.32822683 0.12865499 -0.05975482 -0.11749111 -0.9382577

actor.0.bias f4 [64]
00000000: 75e9 1cbd 8750 3fbd 0489 023c 2422 04be
00000010: e09b 7dbd 0792 24bd fa1f 86bd 7b32 ecbc
00000020: 541a afbd bf41 06bc 6239 41bd 1d9f 58bd
00000030: a399 7e3c 1702 683c 8f01 be3c a4e0 35bd
00000040: d710 cebc 9d74 c03d 93b4 f7bc 8c7a 50bd
00000050: 92f0 943d ba63 d93d b452 2ebd 0b43 bebd
00000060: dd88 b73d e7bc 193c 466d 8c3d 972b 3abe
00000070: af06 5abd 1d7f 97bd 715a d3bc e499 9abc
00000080: f2f7 193e 3b34 a3bd ec5d 3a3c 707d 43bd
00000090: c17e 893d 72d6 dbbd 2c23 853c 2720 dabc
000000a0: 802f 333d da09 343d 423d 88bd c29c 2c3d
000000b0: 0067 09bd 720b 04be 2904 90bb 485a dcbd
000000c0: 0fe5 e1bc 696e ea3d ace9 d8bd 2ac9 073a
000000d0: 11fd 153e bb68 b03d d7e6 9e3c ec00 203d
000000e0: c214 3f3d 4efb 013e 42e1 c63d 9ab3 41bc
000000f0: 7fe7 5f3c 239b 433b d994 943c 974b e53c
-0.03830858 -0.046707656 0.007967237 -0.12903649 -0.061916232 -0.040178325 -0.06549068 -0.028832665
-0.085499436 -0.008194386 -0.047173865 -0.052886117 0.01553956 0.0141606545 0.023194103 -0.044403687
-0.025154514 0.09397242 -0.030237472 -0.05089812 0.07272448 0.106147245 -0.04255934 -0.09290131
0.089616515 0.009383417 0.0685678 -0.1818069 -0.05322903 -0.07397292 -0.025799962 -0.018872209
0.1503599 -0.079689465 0.011374932 -0.04772705 0.067136295 -0.107342616 0.016252123 -0.02662666
0.04374647 0.043954708 -0.06652309 0.042141683 -0.033545494 -0.12894991 -0.004395027 -0.10759407
-0.027575044 0.1144684 -0.105914444 0.0005179817 0.14647318 0.08613726 0.019397182 0.03906338
0.046650656 0.12693521 0.09710933 -0.0118226055 0.013666033 0.0029847107 0.018137382 0.027990146

actor.2.weight f4 [5, 64]
00000000: 87ae fabd e873 1c3e 092b a4be 50f5 e0be
00000010: f647 b7bd 9242 afbe 26fb 853e 731c 04be
00000020: 580a 90bd 6716 2a3d 8462 a03e 74cc 75be
00000030: 5ed7 a93e e7c3 c83e 3b78 ab3d 2441 5fbe
00000040: e7a6 8cbd c04c 5b3e 8181 ef3e b0de 1d3e
00000050: 29e5 8a3e 7dfb 31be 5ff2 2b3c 67f4 88be
00000060: 741c b9bd 32e0 b7be b3d5 23be bf83 333d
00000070: 3657 09be 5c7a 133f cc2c 1e3f c294 0fbe
00000080: ba1b 543d 7085 8b3d 77e6 853e 08b2 813d
00000090: 7d98 1dbe 9464 17bf ea14 ef3e 3546 903e
000000a0: 8718 abbd f1e1 a63e 22e8 c9be f288 a2bd
000000b0: a5a4 053f f901 113f c455 2d3e 60e9 e23e
000000c0: 375e 6e3d 2b08 dcbe de19 a23e 2549 453e
000000d0: c409 abbe 2ea7 dcbd c582 f1be f3f7 273e
000000e0: 225a 16bf 0f33 30bd c9ef 2d3e 75d2 9abe
000000f0: c91f 483f 7891 b0bd fdb2 ca3e 18cd dfbe
00000100: bad4 fb3e cc62 69bc 76a1 05bd afb6 583e
00000110: 6437 c0bd 986f c2be d6cc 56be 92ff cf3e
00000120: 46c9 8ebc ed77 073e df32 573e 6181 323e
00000130: 2703 c2be ab40 d73e a0da 873e e036 a93e
00000140: 7ba5 f13e 48a0 783e 4186 9c3c b341 433e
00000150: e332 23bd 374f 2ebd 57df d03e 2558 fe3e
00000160: 1708 a0be 886e 19be 0cc6 2b3e 049b 13be
00000170: 457a 23be b977 493e ecbf 313e f4a2 4fbd
00000180: 9e34 d63e 5502 233f e485 643e b678 87be
00000190: 051c 323e 487f 63bd ba75 aebd e505 123f
000001a0: 47f1 73bd 13a2 16be 69ae cfbe e3c2 8a3e
000001b0: b9e4 dc3d 1a8f 393c 4d0b 493d f362 acbd
000001c0: 3552 84bd f949 afb9 3b2e 2fbe fac4 febd
000001d0: 84af a5be bc91 133d c326 4ebe 5433 a2bc
000001e0: 3a1f a33b 62ae 803e 91d5 1c3e c171 5d3e
000001f0: eabf 29be 049c 09be d8fd 983d af65 9e3e
00000200: 62c5 7cbd fb51 b53e a114 263e 2c4a c4bc
00000210: c5f6 803e c561 a53e 3405 b3be e4d5 1b3e
00000220: b744 a4bd 4b91 60be ad07 8c3e 2b59 8ebe
00000230: dcf4 9c3d d5d1 8dbe fdb0 cd3d d03e 073f
00000240: 0276 323e a52d 573e 4155 86be 22ef 12bc
00000250: 3cc6 ab3d 727c 6e3e a5f8 9f3a 7e41 2dbe
00000260: 8b75 583e 3df6 023c b610 ae3e 7739 78be
00000270: 6d9c 99bd 760b 3dbe c9c4 593e 0706 383e
00000280: e6b1 2fbe eddb a6be b898 3ebe 60cc a7bd
00000290: 79c9 f13e 1a05 29bc f7e6 b6be c8d8 6f3d
000002a0: 0d9a babc 4992 ac3e 52c9 af3e 50e9 313e
000002b0: b562 913e d6e2 25be 67d2 303d a2ce b7bd
000002c0: 1e71 e8be 6035 043d 8250 3e3e 0813 00bf
000002d0: 8328 cb3e 0119 863e 978e 97be 7c60 80bc
000002e0: 09f1 32be 277e 043d 97df 89be b213 8ebd
000002f0: dda5 dc3e 408d 3abe eaaa 9b3e 28e1 083f
00000300: 1292 4a3e 316e 6dbe da42 433e 3a2f 53be
00000310: 9707 5abe d06c 543e a7cd 853e d2e6 6cbc
00000320: b8c4 913d 9831 ce3e ff16 b5bd c706 fdbe
00000330: 74b0 86bd b94a b23e 8eae fbbd 6ac8 debd
00000340: 44c4 99be 8b81 d8bd 37a1 b2be d0c2 aebe
00000350: 54a3 da3e a61d 03be a500 84be 4059 e9be
00000360: fa12 bfbc 11c9 303e 6347 37bd 2d15 52be
00000370: 79d5 c8be 6c18 b0be f86f e1be 3576 c3be
00000380: b8a3 c6be 337c 34bd c9d6 c4bc 0e90 e0bd
00000390: 40a5 8bbd 4853 e13e af5a b5bd 9048 26be
000003a0: 763b 8b3d ea9f 9f3d 9b98 cc3e 50d8 223d
000003b0: 09f4 b63c fdfb 86bc 11f5 8bbc 8ad2 46bd
000003c0: 3755 be3e cbb8 9e3e b6f7 e2be 7b10 8c3e
000003d0: 603f 403e 2b70 30be f37b d73d 9d9f 7ebd
000003e0: d4d7 4d3e 9229 f23d b273 4b3e 9c58 fc3e
000003f0: e2c3 1abf 87e3 11be 22fb 523d 53f6 893e
-0.1224032 0.1527859 -0.32064083 -0.4393716 -0.08949272 -0.34230477 0.26168174 -0.12901478
-0.07033223 0.04152527 0.3132516 -0.24003774 0.33172125 0.39211962 0.083725415 -0.21802193
-0.068677716 0.21415997 0.4677849 0.1541698 0.2712796 -0.17381091 0.0104947975 -0.26748964
-0.0903863 -0.35913235 -0.15999489 0.043826815 -0.13412175 0.5760858 0.61787105 -0.1402159
0.051784255 0.068125606 0.26152393 0.06332785 -0.15390201 -0.59137845 0.46695644 0.28178564
-0.083542876 0.32594255 -0.39434916 -0.079362765 0.5220435 0.56643635 0.16927248 0.44318676
0.05819532 -0.42974982 0.3166036 0.19266184 -0.33405888 -0.107740745 -0.47170082 0.16403179
-0.5873128 -0.043017443 0.16986002 -0.3023869 0.781735 -0.08621496 0.39589682 -0.43711162
0.49185735 -0.014244746 -0.032624684 0.21163438 -0.09385565 -0.37975764 -0.20976576 0.40624672
-0.017429959 0.13229342 0.210155 0.17432167 -0.3789303 0.42041525 0.26533985 0.3304968
0.47196564 0.24279892 0.019106986 0.19068031 -0.03984345 -0.042556014 0.40795395 0.49676624
-0.31256172 -0.1498357 0.16774768 -0.14414603 -0.15964611 0.19674577 0.17358369 -0.050692514
0.4183702 0.63675433 0.223167 -0.26459283 0.17393501 -0.055541307 -0.08518548 0.57040244
-0.059556272 -0.14710264 -0.40562752 0.27101812 0.10785813 0.011325622 0.049083043 -0.084173106
-0.06460992 -0.00033433715 -0.1710748 -0.12439914 -0.3236047 0.036027655 -0.20131974 -0.019799866
0.0049780877 0.25133044 0.15315844 0.21625425 -0.16577116 -0.13438421 0.07470292 0.30936953
-0.061711676 0.3541411 0.16218807 -0.02396115 0.2518827 0.32301155 -0.34964907 0.15218312
-0.08020919 -0.21930425 0.27349606 -0.27802405 0.07663891 -0.27699152 0.100435235 0.5283022
0.17427829 0.21013506 -0.2623692 -0.0089681465 0.083874196 0.2328966 0.0012204839 -0.16919515
0.21138589 0.007993278 0.33997124 -0.24240671 -0.07500539 -0.18461403 0.21266474 0.17971049
-0.17157707 -0.32589665 -0.18612945 -0.08193278 0.47224024 -0.010316158 -0.35723087 0.058556348
-0.022778535 0.33705357 0.34333283 0.17374158 0.2839562 -0.16199812 0.043169405 -0.08974959
-0.45398802 0.032277465 0.18585399 -0.5002904 0.39679345 0.2619095 -0.29600975 -0.015671007
-0.1747476 0.03234687 -0.26928398 -0.0693735 0.43095294 -0.18217945 0.30403835 0.5346856
0.19782284 -0.23186566 0.1906847 -0.20623484 -0.21291958 0.20744634 0.26133463 -0.014459329
0.07117599 0.40272212 -0.08842277 -0.49419233 -0.065766245 0.34822634 -0.12289153 -0.1087807
-0.3003255 -0.10571583 -0.34888622 -0.34133005 0.42702734 -0.12804279 -0.25781742 -0.45575905
-0.023324478 0.17264201 -0.044745814 -0.2051589 -0.39225367 -0.34393632 -0.44030738 -0.38176122
-0.38796782 -0.044063758 -0.024028199 -0.10964976 -0.06818628 0.4400885 -0.08855187 -0.16238618
0.06798451 0.07794173 0.3996018 0.039757073 0.022333162 -0.01647758 -0.01708463 -0.04854063
0.3717439 0.3100036 -0.44329613 0.27356324 0.18774176 -0.17230289 0.10521688 -0.062163938
0.20101863 0.11824335 0.19868353 0.49286354 -0.60455143 -0.14246951 0.05150903 0.26945743

actor.2.bias f4 [5]
00000000: 8ad0 fa3c 4f8c 5abe fb63 d53c 6393 483d
00000010: 246a ecbd
0.030617017 -0.21342586 0.026048651 0.048968684 -0.11543682

critic.0.weight f4 [64, 4]
00000000: ffc5 4fbe 39dc 493e eb4e 81be 9dd4 f63d
00000010: 9082 183f c043 ca3e f00f a63d 52fc a23e
00000020: eca2 123d 73f8 3abe 9c50 c23e e6b2 25bf
00000030: 6091 b7be f0ae 6dbe c61a 4ebe f613 6abe
00000040: 044f 1d3f 78a6 063e 3914 613e 7a49 933d
00000050: 59fb 97be 0a3b b9be 25b9 a7bd 59df 053d
00000060: 9793 abbe 42f6 fdbd 66c9 01bc 29cc a8bd
00000070: 410d 323e da01 3b3d 765e 7cbd 02e0 ca3e
00000080: a548 f6be 5b33 9dbd 0add 563e 9486 77be
00000090: 93d1 0e3e 710b 4f3e 6807 fb3c 2640 3d3e
000000a0: e113 98bd 93c1 4abd 3c43 8a3e 87da f6be
000000b0: 3be4 df3e e21e b33e c93b 3a3e f75e ac3e
000000c0: 91f8 c4be 1976 6bbe df0f 83be f0dc 5bbe
000000d0: 6e03 d7be 4829 91bd 9cfb 98be 9a96 643d
000000e0: 1dc9 c4bd 0901 03be e586 5b3e 5831 d3be
000000f0: 4cee 00bf 422f c8be b5e8 0abe 60e1 d53d
00000100: 5f28 d43e 6de1 003f f0ff c33e 5667 003e
00000110: 2948 a83e 150a 0b3f 9029 84be 4241 c0bd
00000120: 7d46 2fbf b632 d9bd 019f b33d 0528 9e3e
00000130: 73b0 25bd 49fe 2c3e 20fe 5cbe 50e9 efbe
00000140: 8638 303e 6494 bdbc de6d a53e 6d94 2c3d
00000150: 219e 8ebd 2a8d 423e aa79 e3bd 4f3d 663e
00000160: 9812 8bbe 96d2 9dbd d3c3 b8be 5d5e ab3d
00000170: 083d ae3d f322 eb3d 896b 9bbe a068 343f
00000180: 16aa 7cbe e74a afbe 3c89 9abe 8549 003d
00000190: c675 0c3f 627d 57bd 66be b73f 0608 afbc
000001a0: 118d bebd 5d4b 6cbe 84c3 2abe 8708 81bd
000001b0: 2127 983d 1b76 c83e 01be cbbd 26c3 a93e
000001c0: 012d 15bf 9b21 9abe 3ba4 8bbe b2a6 e33c
000001d0: 646d 5dbd ab80 293e 6135 c83d 4069 033e
000001e0: 6a99 b53e a372 e73d 9410 063f 1d64 ab3d
000001f0: 7787 a5be e44e ec3d 44eb 2a3d c8de edbd
00000200: 372f feba dd55 09bf b43f 28be 1c0b 1d3e
00000210: 527c f4be 05a9 08be 8b0b 41bd 55e7 4fbe
00000220: 8c63 af3b 7f33 663e 7426 413c 676c 2c3e
00000230: d162 46be ac40 9cbe c1ac 86be 667f 1dbd
00000240: 21fb ecbd 7c9d 7c3e df49 703e 1c8f 4d3d
00000250: 9734 3c3e c609 013f fcf3 753d 4ba9 b3bd
00000260: 97e3 833e 73d7 0a3e c155 c23d e006 113e
00000270: 6798 8b3e cf80 333e 876e c93d 7a76 163e
00000280: 9506 073e 3b83 863e 310c 653d 06da 443e
00000290: a90b b1be 6ae9 9abe 6c81 aa3d a0a9 9abd
000002a0: e6a4 7d3c baf9 d23d e8a1 13be 089d b93e
000002b0: 1bef 86be 123a 19bd 2626 f33d 5bad bf3e
000002c0: 1d42 bd3e 530b a23e 78c0 733e b3f9 1b3f
000002d0: 5896 843d 60c6 8d3d ae97 5ebe bc05 f93e
000002e0: 7388 1d3e 6b63 a2bc 09bb 4e3f 269a 32bc
000002f0: 247e b1be 2223 60be d334 2d39 247c 92bd
00000300: 730f a4bd cfee acbe 78b7 02bd e841 0abe
00000310: dbe5 1d3e 9c5f 093e 7d0d 973e 2328 54be
00000320: 105a 91bd 4978 313e 0246 e23d 70cf d43d
00000330: c12f 33bf 7fd6 62be 9c7d 093f ded1 523e
00000340: db4e 843e ac28 a83e 0a81 953d 8e62 613e
00000350: a560 b73e 5e90 333e 5da6 f83d f4cd 0e3e
00000360: 6866 023d 5484 a4be 42d2 6dbe a418 b0bc
00000370: 20c1 a13e 7621 423e 365b aa3e 4716 d6bd
00000380: 1d52 67bd 66a1 943e a446 0dbe 032a 2b3f
00000390: b342 c83e d264 173e 6a05 8a3c 28bf 8e3e
000003a0: dbc4 7b3e 76ce 4bbf 8d55 2d3e d278 f6be
000003b0: 859f 413e 0744 45be 6b80 f23e faa6 a1be
000003c0: 4701 bf3c 742e 4abe 0b10 e2bd 15a7 e8bd
000003d0: 7e29 213d 3b21 b13e 66f5 713e 98e8 093b
000003e0: 1fe3 58be d076 6fbe 4951 aabe 6856 383d
000003f0: d3b1 a7be 252b edbd 1f5e eabd a49e 28be
-0.20290373 0.19712915 -0.25255522 0.120522715 0.5957422 0.39504814 0.081085086 0.3183313
0.035799906 -0.18258838 0.37952125 -0.647261 -0.358531 -0.23211265 -0.20127401 -0.22859177
0.61448693 0.1314944 0.2198037 0.07191749 -0.2968395 -0.36177856 -0.081896104 0.032683704
-0.3351104 -0.124004856 -0.007921552 -0.082420655 0.17387868 0.045656063 -0.061613522 0.3962403
-0.48102298 -0.07675811 0.20982757 -0.24172431 0.13947134 0.20219208 0.03064318 0.18481502
-0.074256666 -0.049501013 0.2700442 -0.48213598 0.43728814 0.349845 0.18186869 0.33666202
-0.3847089 -0.2299427 -0.25598046 -0.21471 -0.41994804 -0.07087952 -0.29879463 0.055807687
-0.09608672 -0.12793364 0.21438177 -0.41248584 -0.5036361 -0.39098555 -0.13565333 0.104433775
0.4143705 0.5034397 0.38281202 0.1253942 0.32867554 0.5431226 -0.2581296 -0.09387447
-0.6846693 -0.106053755 0.08770562 0.30889907 -0.04045148 0.16893877 -0.21581316 -0.4685769
0.17209062 -0.023142047 0.32310385 0.042133737 -0.069637544 0.18999162 -0.1110719 0.22484325
-0.27162623 -0.07706182 -0.36086902 0.08367608 0.085077345 0.114812754 -0.3035548 0.70472145
-0.24674258 -0.34236833 -0.30182827 0.031320114 0.5486721 -0.05260981 1.435498 -0.02136613
-0.0930425 -0.23075624 -0.16676146 -0.063004546 0.07429338 0.39152607 -0.0994835 0.331567
-0.58271796 -0.30103764 -0.27273735 0.027789447 -0.0540594 0.16552989 0.09775806 0.12833118
0.35468608 0.11301162 0.52369046 0.083687045 -0.32329914 0.11538485 0.041728273 -0.11614758
-0.0019392733 -0.5364664 -0.16430551 0.15336269 -0.477511 -0.13345726 -0.04713015 -0.2030309
0.005352443 0.22480582 0.011788953 0.16838227 -0.19373633 -0.3051809 -0.26303676 -0.038451575
-0.115713365 0.2466945 0.2346568 0.050185308 0.18379436 0.5040554 0.060047135 -0.087725244
0.25759575 0.1355875 0.094890125 0.14162779 0.2726471 0.17529605 0.098355345 0.14693633
0.13186105 0.26271996 0.05591983 0.19223794 -0.34579208 -0.30256206 0.083254665 -0.07551885
0.015481209 0.10301538 -0.14417231 0.36252618 -0.26354298 -0.037408896 0.118725106 0.37436947
0.36964503 0.31649265 0.2380389 0.60927886 0.06473988 0.06922603 -0.21737549 0.48637187
0.15384082 -0.019822797 0.80754143 -0.01090101 -0.3466655 -0.21888402 0.00016518244 -0.07152584
-0.08010759 -0.33775946 -0.03191325 -0.13501704 0.15419714 0.13415378 0.29502478 -0.20718436
-0.07097256 0.17331041 0.11048509 0.10391128 -0.6999474 -0.22152136 0.5370729 0.2058787
0.25841412 0.3284353 0.07300003 0.22010252 0.3581592 0.1753554 0.12141106 0.13945752
0.031835943 -0.32132208 -0.23224738 -0.021496125 0.31592655 0.18958077 0.33272713 -0.10453468
-0.056474794 0.29029387 -0.13796479 0.6686098 0.39113387 0.14784554 0.016848285 0.27880216
0.24586813 -0.7961191 0.16927166 -0.48139054 0.18908508 -0.19264232 0.473636 -0.31572706
0.023316039 -0.19744283 -0.11038216 -0.11359993 0.03934621 0.34595665 0.23628768 0.0021043178
-0.2118039 -0.23385167 -0.3326514 0.04500428 -0.32752857 -0.11580495 -0.114437334 -0.16466767

critic.0.bias f4 [64]
00000000: f718 8dbd cade 283e 5c82 0abd da49 dbbd
00000010: ffdc 9b3d 3692 2cbd 4c8e 6ebe f5a5 433d
00000020: f3e1 f33c 072a 1c3e b82b 6cbe 6c41 fa3d
00000030: 8406 d4bd a88b 35be 800f f6bd 5681 c1be
00000040: f05a 4d3e c846 c23a f82d 96bd f629 a93b
00000050: da0d 363e 6ebc 573e 8ad7 46be ff75 10bd
00000060: 6355 4ebe 4b1a b93c 9cbe 5abe 6047 273e
00000070: bc1d 40be fd82 69bd 92a9 b13d e8ce 2f3d
00000080: 33b0 0bbe c9f0 41be 9bcb 293e 6b54 0abe
00000090: b2e0 b23d 52b1 263e bf01 5d3e a2fa 6c3e
000000a0: 1926 0b3e 293f b4bd 697b 603e fc77 21be
000000b0: 09ef c53d fc2c 4b3d 8125 153e 52ac 8abc
000000c0: 5410 9abe ba18 77bd 50e9 1d3b 9038 0dbd
000000d0: 5593 a43e cc00 113e ff51 55bd 130c e23d
000000e0: 32f9 6c3d 9f02 953e d174 b8bd eec3 c83d
000000f0: fe56 3e3c f5aa 123e decf e1bd 47d8 26be
-0.06889527 0.16491237 -0.033815727 -0.107074454 0.07610511 -0.042131625 -0.2329647 0.04776569
0.029770827 0.15250407 -0.23063552 0.122195095 -0.10352805 -0.17729056 -0.12014675 -0.37793988
0.20054221 0.001482212 -0.073329866 0.005162473 0.17778721 0.21067974 -0.19418159 -0.03526878
-0.2014976 0.022595545 -0.21361774 0.16335821 -0.18761343 -0.057009686 0.08674921 0.04292193
-0.13641433 -0.18939508 0.16581576 -0.13508765 0.087342635 0.1627858 0.21582697 0.23142484
0.13588752 -0.08801109 0.21922077 -0.15768427 0.09664733 0.049603447 0.14565088 -0.016927872
-0.30090582 -0.060326315 0.0024095364 -0.03447777 0.32143655 0.1416046 -0.05208015 0.11037459
0.05785484 0.29103562 -0.09006656 0.098029956 0.01161742 0.14323027 -0.11025976 -0.16293441

critic.2.weight f4 [1, 64]
00000000: b559 f4be ada0 51be a854 b13e a32a b73e
00000010: 7854 b0be a7c9 febe 8c53 0dbf 4fee e4be
00000020: 64f1 15bf b943 59be 147b 8f3e e2a4 63be
00000030: b06b 943e de79 e63e f18b 833e 55e4 8bbe
00000040: 3fd7 1fbe f23a 113f afff 6fbe 9aa6 353e
00000050: 887e c2be 37a6 05be 0c59 6b3e 6b70 91be
00000060: 51ad 963e c537 4dbe d488 24bf e3d1 3cbe
00000070: 555c d5be a40b c93e 4a7d 34be bcca f0be
00000080: ed12 18bf 051b b13e 7b90 39be ec1d d93e
00000090: 28aa e73e b784 b33e 419d b3be dd11 9fbe
000000a0: b750 48be e3b7 c9be 8104 bdbc 5f47 a1be
000000b0: 8d97 70be 9d05 25be 9352 cdbe eb9b cabe
000000c0: 3a14 193d 916f 843e 1548 0a3f 03cb f6be
000000d0: 83c0 01be eaec f3be 4cce 1abf 8db9 84be
000000e0: ea78 afbe d68e ccbd 9b49 093f e102 813e
000000f0: ddd7 2fbf c9e4 293f 7436 683e bfd3 d93e
-0.4772469 -0.20471449 0.346349 0.35774717 -0.34439445 -0.49763224 -0.5520561 -0.44713065
-0.5857146 -0.2121724 0.2802359 -0.22230867 0.2898841 0.45014852 0.25692704 -0.2732264
-0.15609454 0.5673057 -0.2343738 0.17739335 -0.3798716 -0.13051687 0.22983187 -0.2840608
0.29429105 -0.20040806 -0.64271283 -0.1843944 -0.41672006 0.39266694 -0.17625919 -0.47029674
-0.5940388 0.34590927 -0.18121521 0.4240564 0.45247006 0.3506219 -0.35080913 -0.31068316
-0.1956204 -0.39398107 -0.023073437 -0.31499764 -0.23495312 -0.16115423 -0.40102062 -0.3957208
0.037372805 0.25866368 0.5401624 -0.4820176 -0.12671094 -0.4764169 -0.60471034 -0.25922814
-0.34271938 -0.09988181 0.5362794 0.2519751 -0.68688756 0.66364723 0.22677022 0.42544362
