outputs/centerSquare_2a_PPO_wprior1_run0/last_status.pt (torch, 39317 bytes, 42 tensors)

actor.0.weight f4 [64, 4]
00000000: 9bfe 5ebe 0a7e 4d3e 23cd fbbe bc5e 1ebe
00000010: b6fa e63d 277c eb3e 8262 2abe 6f6c ba3e
00000020: f347 0dbe 98e3 e3bd 4c5a 573c fb3f 34bb
00000030: 1383 bf3c 15e5 c63e 7a83 713d 3d79 0c3e
00000040: 574d 6e3e 5358 3cbe 43cb 13be 27b0 a9be
00000050: e395 8dbe 8c4c ab3e 94ac 1d3d 4153 bd3e
00000060: 4887 0fbe 9a35 fd3d d1cb 18be 9deb b5bd
00000070: 222f 443b 175a 3bbe e2bf 8e3e d200 273e
00000080: b00e 18be 95c2 09bd fa35 bb3b 6f5f dd3d
00000090: c3ac a03e 843d b03e fac4 783e 0b3b 943e
000000a0: a406 d6bd 70ea 463d 7879 023e e3b3 b23e
000000b0: 5b88 883e da5b 76be 81f6 e03d 20ef cbbe
000000c0: 1db8 d13d e6f8 f33d 1054 e6bd 2bd4 febd
000000d0: 6ac1 b93d 17b7 5abe fe61 a1be 3c05 02be
000000e0: de48 813d 11f3 41bd 2f5a 8c3d 6ca4 eebe
000000f0: 8103 00be bc41 833d e558 723d a700 793e
00000100: 321e f1bd 84d3 a0be 42fe 6bbe 2f17 fcbd
00000110: 37e5 833e e9fc 1d3f e2f6 6b3e 52aa 80bd
00000120: 294d 853e e10c 70be ca6c ff3d 159d 653e
00000130: 9483 eabe c9fd 80bd bc8a bb3c dfdd ef3e
00000140: 6633 083e 1e23 e2bd 7a8b e73d c9d9 a23d
00000150: ea9f 8c3c 02b8 97be 4319 29be 3144 a23e
00000160: aa89 a1be c539 a63e 8bca b2be dd00 92be
00000170: df5e c33e b482 f33d 7129 753e 0f2b b4be
00000180: e511 ecbe 2ba6 f7be 03c9 0abe 0667 27be
00000190: 4f92 5a3e 9296 babe 5cdb 013e ac87 b23e
000001a0: 7453 2f3e 7fc4 1abd ae44 65bd 0dce a33e
000001b0: ab20 50be 6117 e5be 668f 343e 6948 f5be
000001c0: 2af1 5bbe 54f5 62be a0e9 783e 2cba 01be
000001d0: 47ae 94bd f8c8 643d a437 ecbe dc02 283e
000001e0: a0f6 f5bd 709c f53d 978d 56be 1765 c2bd
000001f0: fd0a 313d 9fae bb3d e83f fe3d 45d3 d43d
00000200: f4e1 5b3e 926c 203e 71f2 7c3c 1c72 6f3e
00000210: 9cc0 903d 0b35 1f3c 1432 883e ba4d 283c
00000220: 1bd2 17be a84a da3d 1149 b13e ef9c 933e
00000230: b3ef 193e 137f 913e 65aa d33d f615 a8be
00000240: ad1d 833e 830c 88be 4640 d0be 09f1 cebb
00000250: c134 4abd 91cb 9fbd 751c e53d 74b7 2b3f
00000260: ec11 1b3e 8926 69be 9f48 d2be dd76 02be
00000270: 002c 203d ea39 27be a1fe 393f f2eb 9d3d
00000280: 97c9 84be 86b9 c6bd fdb0 a93a 3efa 463e
00000290: 1c7d 49be 6913 11be f4df f93e ab0e a73d
000002a0: 7508 473c 4ccb 44be f23d 3fbd eb0c 21be
000002b0: 26fd 31be 2a28 663e 64e3 70be a727 3abf
000002c0: 11d6 cdbe 5111 dc3b 3b83 df3e 95ce 41be
000002d0: f69d 633e 3841 4cbe 9e38 ea3e 2446 203e
000002e0: a170 bbbc 5587 43bd 2efe 1d3e 69b4 473f
000002f0: ce74 8abd f1d9 8b3d 6d5c 0bbe 7cba 973e
00000300: a052 b1be 0bec d23e 9eab 463e 510b 053f
00000310: 7114 82be e87e 62bd e8db 223e f880 82bd
00000320: 8719 973d 1089 20bd d353 393e ecd0 12bf
00000330: 3991 0bbc 3d0e 0bbf 7e12 e43c 6ae8 e0bd
00000340: 4ad5 5c3d 919d a43e 83a2 803e a444 e13d
00000350: 1519 a73d 6dbf 15bd f6eb 6f3c 69e4 febe
00000360: ec7f b73e c8a2 d0be 1ca9 623e f264 bd3e
00000370: f60c 63bd c6b7 a3bb 8b34 b2bd df84 673e
00000380: 1f72 cabe ced9 87bd b5be 7b3e c9eb 9c3b
00000390: df79 80be 4dfa 09bf 10e6 0bbe e18f b8bc
000003a0: e43e 933e 775f bf3d 1a02 98be f71c cabc
000003b0: 889b a63e 74fc 4c3e 8d37 e4bd a6ed 6b3e
000003c0: a82c 953e 87ee f73d 82b1 353e 25fc 7cbe
000003d0: 6da3 7e39 0b41 093d 0e70 babe ffbf a4bd
000003e0: cc92 14bf 66de 923d bc4c f3be b64c 16bd
000003f0: 9dc2 d3bd 0f41 103e c895 7abe c59b dcbd
-0.21776812 0.20067611 -0.49179944 -0.15465826 0.11278288 0.45993158 -0.1663914 0.36410853
-0.13796978 -0.111273944 0.013144087 -0.0027503956 0.02337793 0.3884665 0.058963276 0.13718124
0.2327169 -0.18393068 -0.14433007 -0.33142206 -0.27653417 0.33456838 0.03849466 0.3697758
-0.1401645 0.12363739 -0.149215 -0.0888283 0.002993532 -0.18296085 0.2788077 0.16308907
-0.14849353 -0.033632834 0.0057132216 0.10809218 0.31381807 0.34421933 0.2429389 0.28951296
-0.10450485 0.04856342 0.12741649 0.34902868 0.2666653 -0.24058476 0.10984517 -0.39830875
0.10240195 0.11912708 -0.112465024 -0.124428116 0.09070094 -0.21358906 -0.31520075 -0.1269731
0.063127264 -0.047350947 0.06853139 -0.4660982 -0.12501337 0.06409022 0.059166808 0.24316655
-0.117733374 -0.31411374 -0.2304621 -0.123091094 0.25760815 0.61714035 0.23043397 -0.06282486
0.2603543 -0.23442413 0.12471922 0.22423203 -0.4580351 -0.06298406 0.022893302 0.46848962
0.13300857 -0.11041854 0.113059 0.079516955 0.017166097 -0.29632574 -0.16513543 0.3169265
-0.31550342 0.3246595 -0.34920153 -0.28516284 0.38158318 0.11890164 0.2394159 -0.351891
-0.46107402 -0.48368964 -0.13553242 -0.16347894 0.21344875 -0.36443 0.12681335 0.34869134
0.17121679 -0.03778505 -0.0559737 0.31993142 -0.20324962 -0.447444 0.17632827 -0.47906807
-0.21478716 -0.22163898 0.24307871 -0.12668675 -0.07259803 0.05585572 -0.461362 0.16407341
-0.120099306 0.11992729 -0.2095245 -0.094919376 0.04322337 0.09164166 0.12414533 0.10391859
0.21472913 0.15666416 0.015438662 0.23383373 0.07067987 0.009717236 0.26600707 0.010272438
-0.14826243 0.10658771 0.34626058 0.28830668 0.15032844 0.28417262 0.103352346 -0.32829255
0.25608578 -0.26572046 -0.40674037 -0.0063153547 -0.049366716 -0.07802499 0.111870684 0.670768
0.15143555 -0.22768606 -0.4107103 -0.12740655 0.03910446 -0.16330686 0.7265416 0.077110186
-0.2593505 -0.097033545 0.0012946423 0.19431397 -0.19676632 -0.1416756 0.48803675 0.081570946
0.012148012 -0.19218177 -0.046689935 -0.15727584 -0.17381725 0.22476259 -0.23524243 -0.72716755
-0.40202382 0.0067159315 0.43654808 -0.18926461 0.22228226 -0.19946754 0.4574632 0.15651757
-0.022880854 -0.047736485 0.15428993 0.7800966 -0.0676056 0.068286784 -0.13609476 0.29634464
-0.3463335 0.41195711 0.19401404 0.5197039 -0.2540622 -0.05529681 0.159042 -0.06372255
0.07377916 -0.039193213 0.18098383 -0.5735004 -0.0085185105 -0.543186 0.027840849 -0.109818295
0.053914346 0.32151464 0.25123987 0.1099942 0.08159081 -0.03655951 0.01464366 -0.49783638
0.35839784 -0.40749192 0.22134823 0.36991078 -0.055432282 -0.0049962727 -0.08701428 0.2260928
-0.39540192 -0.0663334 0.24584468 0.00478885 -0.2509298 -0.53897554 -0.1366198 -0.022529544
0.2875892 0.0934438 -0.29689103 -0.024672015 0.32540536 0.20018178 -0.11143408 0.23039874
0.29135633 0.12106042 0.17743495 -0.2470556 0.00024284208 0.033509295 -0.36413616 -0.08044433
-0.58036494 0.071713254 -0.4751948 -0.03669425 -0.10339854 0.14087318 -0.244712 -0.10771898

actor.0.bias f4 [64]
00000000: 7146 893d 9f21 c5bc 146c 4a3b e42f 30ba
00000010: 77c1 d3bd 1a11 01bd bd4f 7e3c 4324 bc3a
00000020: 5ccb db3d 7d86 cb3d 0167 a73d 57e9 e5bd
00000030: 8db1 203d b5b4 73bd d859 80bd 0775 893d
00000040: 2802 a2bd b286 283e b60f 75bd 3ff6 6ebd
00000050: 80b2 76bc f86a 3a3d 9c66 6abd 8ef2 cf3d
00000060: d55c edbd bc13 233e 0654 af3d 0f0d ab3d
00000070: cf8c b0bc 672f f93d b32b aebd 5d07 2c3b
00000080: 7faa 093e c63e 99bc f04c 3e3c 7a39 883d
00000090: e2a6 07bd 6f1d b2bc 06eb 993d 5330 2f3e
000000a0: ffbb 00be d360 cfbc 6a9b 99bd 4e09 8fbd
000000b0: 98de 3a3c 5869 6dbd a4ec ef3c 2301 f0bc
000000c0: 1bf9 b73c 57e8 943d 17f1 2abd 0c5e ff3c
000000d0: 0b5b 1a3e 9e2b 60bd 670d d13d a418 d7bc
000000e0: f95e ee3d dfb6 45be 1a4a 98bd 126c 2b3e
000000f0: 29ee bdbb 0aa6 6dbc 8123 653d a04c e4bd
0.06702889 -0.024063883 0.0030887173 -0.00067210034 -0.10339635 -0.03151045 0.015521941 0.0014354069
0.10732147 0.09937761 0.08173943 -0.11226147 0.039231826 -0.059498508 -0.06267136 0.06711774
-0.079105675 0.16457632 -0.059829436 -0.058340307 -0.015057206 0.04551217 -0.057226762 0.101536855
-0.11589972 0.15925497 0.08560948 0.083521 -0.021551518 0.121672444 -0.08504429 0.0026249506
0.13443945 -0.01870669 0.011615023 0.06651588 -0.033118136 -0.02174255 0.0751553 0.17108278
-0.12571715 -0.025314724 -0.07500346 -0.069841966 0.01140561 -0.05796179 0.029287644 -0.029297417
0.02245765 0.07270878 -0.041733827 0.031172775 0.15073793 -0.054729097 0.102076344 -0.026256867
0.11639208 -0.19308041 -0.07436009 0.16740444 -0.005796213 -0.014504919 0.055942062 -0.111474276

actor.2.weight f4 [5, 64]
00000000: ae73 f5be 25e4 973e 26f4 2bbe 2a50 b73d
00000010: fee9 a33e db2e a5be 0c91 49bd c38c 66be
00000020: f531 85be 9900 b7be d269 93be 44a7 f4bd
00000030: 3b63 463e df53 6b3e 5175 493e 8673 92bd
00000040: 9e5f 52bc c417 a2bc d2ea a93e 44cd 1ebd
00000050: d4e0 983e 5e59 04bd 0a9e 30be 7793 8d3e
00000060: ee45 633d a609 05bd 52d4 c3be fa42 c7be
00000070: 425e b8be 886c a13d a60a 14be 5f3d 063d
00000080: 421f dfbb 8922 a9bd 15d9 a8be c029 f4bd
00000090: 95c4 073f 7f51 ffbe 1b33 d6b9 4ff1 863e
000000a0: 5cea c03d 3311 49be 53e0 ac3d b728 47bb
000000b0: 7b45 2d3e 6eb5 ea3d fa4f 79be 40ae 09be
000000c0: 1da7 41bf 8512 4d3e 53e6 b03e 9059 8cbe
000000d0: 7304 ef3d f07b eb3d 25f9 d3bc 2054 33be
000000e0: 177d 3fbc c381 adbc 84e1 a83c 5b3d 5fbe
000000f0: 5381 44bd 41b5 5abe b616 e1bd 7863 a9be
00000100: 16b9 8fbe 5bb5 07be 7517 65bc 8dc1 93bc
00000110: f735 453d cef5 9bbb 0874 0b3d e3b1 a23e
00000120: e86f 393e b2f9 643e 700f 1bbe cf29 99be
00000130: febb bfbe 7842 90bd 2da7 be3e 3f9f b33d
00000140: 0186 14be 7455 f63d bed6 8e3e 2842 e83e
00000150: 7d46 a7bc 8961 223c 6193 fbbe 5de9 2dbe
00000160: 739c c2bd f27b 2f3f cebc 8b3e 24d9 6dbe
00000170: 05b8 14be 755a 953e 2e20 19bf b81c 07be
00000180: 860a 083e a63b 6b3d defc 173e fa77 eabd
00000190: 42e5 afbe 9b9a e7bd f22e 053e d70c 853e
000001a0: 7ae1 1cbd e26f 07be 9e62 dfbe a0e6 eb3e
000001b0: c15d 37bd 882e 313e 3a61 f8bd 489c 703e
000001c0: ace0 cfbd f5aa 053e a9b5 78be 5701 62bc
000001d0: 15f5 b83e bb6f c63d 9bfe f73e ea8d 00bc
000001e0: 07b5 e83e 875b 77be a28a 87bd 5c63 173e
000001f0: adbf 8cbe 050e 45be d5bb 24be c133 ddbd
00000200: 7d76 243f 07a6 ac39 d3de 47be 42ef 40be
00000210: a759 b0be 6ec6 f03d 3655 cb3e fd63 f3be
00000220: 091f 90bd f324 aebd 9bef 263e bf42 24bf
00000230: bf7d e73e 6e63 a63d 1dd9 68be e8d8 403e
00000240: a4ff 13be d2f4 f6bc 044c 28bf be1f e33d
00000250: 1e6a cfbe 9176 e2be 40f1 5c3f 8fcc bf3e
00000260: ee87 693d 8f3d f4be f85c 823e 71be 34bd
00000270: dc97 1fbe 48b3 863e aec9 b23e 9a9e 91bd
00000280: bc5a 093e 2062 56be 34f9 27be f988 ae3e
00000290: e5f3 6fbe ed99 2b3e 1d4a 82be ca69 a03c
000002a0: 34dd 46be 0b81 b8be 6ad5 f33e 870e a0bc
000002b0: 2a14 97be 395f 13bf dea2 053f 6992 5c3e
000002c0: e6ba 66be 5688 87bd 129a 8bbe b358 083e
000002d0: 8234 f2bc 7bf4 86be 1ae9 58bf ef1c 29bd
000002e0: e93c 11bd da80 4f3e 121c dd3e 008a f3bc
000002f0: 8504 0b3e 8b85 de3d cc6a 9b3e ad8d 293f
00000300: b4e1 fe3e f867 a8be 366e 2a3b e752 e8be
00000310: 538a b83c 031e 88be 286f 7dbe 2aba 513d
00000320: e07a 13be e087 b5be bca5 a5be cd3e a83e
00000330: 91c6 2d3d d872 0f3f 5d81 a6bd f0a9 f13d
00000340: 84ee 8dbe 08cb 04be 58e4 59be c8ee 723d
00000350: 6afd 883d 26d2 3b3d 0ad3 cf3d 8bd9 cabe
00000360: 9c15 1c3e 0e96 a73e 4398 5dbe cd10 9e3e
00000370: b9fe 113e a1d2 833e 0374 253e ddf4 56be
00000380: 8c5c ccbe 3a21 983c bda3 bdbe 1dcc f4be
00000390: bfe5 87be f824 113e 09b5 10bd 78ce 9d3e
000003a0: 2ca3 833e e7b3 9abd b88e ae3e b85f b73e
000003b0: c0ca 543e ed34 81be 0858 d3be 3b7e 9fbd
000003c0: e6fd 62bd 5458 063e fe0a 1a3e 311f ab3e
000003d0: 2ce5 5dbd c44f a9bd 8f66 723d 8d9a d9bd
000003e0: 0b18 063e 2b4c 8f3e 170b ecbe dff4 0dbf
000003f0: bb60 f53c ae23 af3e 1487 e33c 7b51 533e
-0.4793982 0.29666248 -0.16792354 0.08950837 0.3201446 -0.3226231 -0.049210593 -0.22514634
-0.26014677 -0.35742643 -0.28791672 -0.11945966 0.19373791 0.22981213 0.19673659 -0.071509406
-0.01284018 -0.019786723 0.33186966 -0.038769975 0.2985903 -0.03231179 -0.17247787 0.2765157
0.055486612 -0.032479905 -0.38247925 -0.38918287 -0.36009413 0.07882029 -0.14457187 0.03277337
-0.006809146 -0.0825854 -0.3297812 -0.11922026 0.53034335 -0.49866864 -0.00040855337 0.2635598
0.094197005 -0.19635467 0.08441224 -0.0030389258 0.16921036 0.11460386 -0.24346915 -0.13445377
-0.7564562 0.20026596 0.34550723 -0.2741208 0.116707705 0.114982486 -0.025875637 -0.1751256
-0.011687539 -0.02118004 0.020615347 -0.21800749 -0.047974896 -0.21358205 -0.1099066 -0.330837
-0.28070897 -0.13252775 -0.013982643 -0.018036628 0.048147168 -0.004759527 0.034046203 0.31776342
0.18109095 0.22360876 -0.15142608 -0.2991471 -0.37448114 -0.07043928 0.3723692 0.08770608
-0.14504243 0.12028018 0.2789821 0.45362973 -0.020419354 0.0099109495 -0.4913588 -0.16983552
-0.095024966 0.685485 0.27292484 -0.23227364 -0.14523323 0.29170576 -0.5981473 -0.13194549
0.13285264 0.057429932 0.14842555 -0.11448665 -0.34354597 -0.113087855 0.1300619 0.2598636
-0.03830097 -0.13226274 -0.43629926 0.4607439 -0.044767145 0.17302907 -0.121279195 0.23497117
-0.10150275 0.13053496 -0.24288048 -0.013794265 0.36124483 0.0968928 0.48436436 -0.007846335
0.45450613 -0.24156009 -0.06618239 0.14783996 -0.27489987 -0.1924363 -0.16087277 -0.10800887
0.642433 0.00032930096 -0.19518594 -0.1884127 -0.344434 0.117565975 0.39713448 -0.47537223
-0.070371695 -0.08503141 0.1630234 -0.64164346 0.45213124 0.081244335 -0.22739072 0.18832743
-0.14452988 -0.030146036 -0.6574099 0.11090039 -0.40510648 -0.44231084 0.8630562 0.37460753
0.0570144 -0.47703215 0.25461555 -0.04412693 -0.15585274 0.26308656 0.34919494 -0.07110329
0.13413519 -0.20935869 -0.16403657 0.34088877 -0.23432882 0.16757937 -0.2544717 0.019581694
-0.1942032 -0.36035952 0.4762376 -0.019538177 -0.2950757 -0.57567173 0.5220164 0.21540226
-0.22532234 -0.06617801 -0.27265984 0.13315086 -0.029566053 -0.263584 -0.84730685 -0.04128736
-0.03545848 0.20263997 0.43185478 -0.02972889 0.13575943 0.10865315 0.30354917 0.66231805
0.49781573 -0.32891822 0.0026005632 -0.4537575 0.022526896 -0.26585397 -0.24749434 0.05120293
-0.14402342 -0.35455227 -0.32353008 0.32860413 0.042425696 0.5603461 -0.08130143 0.11799991
-0.27721035 -0.12968075 -0.21278512 0.05930975 0.0668896 0.04585471 0.101476744 -0.39619097
0.15242618 0.3273167 -0.21640114 0.30872193 0.14257325 0.25746635 0.16157536 -0.20991845
-0.39914358 0.018570531 -0.37038985 -0.47811976 -0.2654247 0.14174259 -0.0353289 0.30821586
0.25710428 -0.07553845 0.3409326 0.35815215 0.20780468 -0.25235692 -0.412781 -0.077877484
-0.055417918 0.13119632 0.15043256 0.33422235 -0.054173633 -0.08267167 0.05917984 -0.10625181
0.13095109 0.279878 -0.4610221 -0.5545177 0.029953351 0.3420691 0.027774371 0.20636551

actor.2.bias f4 [5]
00000000: a004 473c 4cb0 573d c9b2 d63c 2ba4 56be
00000010: 6117 8bbd
0.012147099 0.052658364 0.026208298 -0.20961063 -0.067915685

critic.0.weight f4 [64, 4]
00000000: 0037 67be bb9e 22be 2b2f 3abd 5edc 06be
00000010: 08f2 c33e 582b 623e db9e a13e 8b55 1f3e
00000020: d85f eabd c966 673e 1f88 1cbd 169f 7c3e
00000030: 877b 6cbe cd15 a3be 7e33 a43e 0fb6 c63e
00000040: 3d56 7a3e 09ce 143e 6119 333e e4d7 15be
00000050: b032 813f d5b5 12bd 6d56 363e 246a 55be
00000060: 9e61 dcbb 2722 0c3b 4552 b8bd 6aa7 f8bd
00000070: 6f87 963e 9a2b d23d 319c 803d d4d6 f03d
00000080: d2a3 d03d 28f6 64be dd05 963d 38de c2be
00000090: 802a 453e 9243 c73e b915 da3c a194 863b
000000a0: 3651 823e 9b9c f93d 4995 a03d 871e f23d
000000b0: 7d1f f13e fabc 55bd 7984 1dbd 436c 213e
000000c0: 0c31 683e 4005 123e a675 9f3b d23b 073f
000000d0: 51ef a33e f818 3d3e 483f 27be 434d 05be
000000e0: 9387 b0be 9f64 cfbd 52b7 fc3d 4ec0 86be
000000f0: bc98 8cbe 71d2 68be 62cf 15be 3c0c 213d
00000100: ff43 57be 8cdf b8be 0cb6 3e3d c64b 41be
00000110: babd ec3d 1351 4fbe f781 9d3c cebe 5dbe
00000120: 99f9 c43d fd30 4dbe e6b6 2e3d 413a 1fbf
00000130: c6ab 823e 5d33 993d a0c3 993d f76b 063e
00000140: b85e 8abe e851 d3bd d751 81be 8dd4 8d3d
00000150: 4b54 013f bfef a43e d024 ca3e 3d8c c03e
00000160: a203 5c3e 00bf b53d 8041 823e d9fc 0d3f
00000170: d0d7 a9bb 856e 4bbe 874e edbe 77f6 45bc
00000180: 149c 313e d544 8dbe f24c 52bd 2d7e 44be
00000190: f86f 2b3f fd52 fc3e 72ab 223e d09e 1d3e
000001a0: 923b 383d d8fe 19be 7560 0fbf 75b7 67be
000001b0: ec61 403f 0a90 f43e 9b38 533e ab76 863d
000001c0: 6ae2 debd b771 80be 81f8 30be b7a1 82be
000001d0: 7a51 2c3f 9c7c 07bd 587a 42bc 9f6b c33d
000001e0: 46d1 9dbe 2dcf 41be 37de 21be 552a e9be
000001f0: 246c 6b3e 9b50 aebe 074c 08be 75a7 cebe
00000200: 40c2 973e d4c1 c43e 5cb6 073f 2d80 713d
00000210: 9de9 d6be 226c 42be e26a ccbe f38e 96be
00000220: bc5a 3ebd 38fe cabe f2a1 123f ac3d 27be
00000230: 9cb9 0abe 88fc 423e 75f2 803d 7a98 863e
00000240: ba0f 1b3f 32c3 e43e c7f5 f63e df6d c53e
00000250: 735e 253f b471 f33c 7dba 223d 7a42 22be
00000260: 73ea 0abe ec81 6ebd d504 c5bd d4c3 78bf
00000270: a09f a3be 4b2d 4ebf c078 88be 3bc0 06be
00000280: fb44 25bd 4be4 fbbd cf23 22bd 1452 34be
00000290: 456f 1bbe 5c22 a43e e663 a5bd b456 ec3e
000002a0: a90f 44be dfaa 13be 358a c2bd 92ca 93bd
000002b0: f844 aebe 1ec1 0fbe c975 95be 297b e6be
000002c0: 096a fabc 0a80 64bd 313a a43e fa18 fd3d
000002d0: 0d3c 0a3e 9bdf 233e 914e 683d d987 003e
000002e0: 53fc b4bc 5393 8dbd 115a d53d 6c4d c3be
000002f0: edcb 993e c58d 953e 7b11 063e 2e01 c43d
00000300: ec09 bcbe 2dee d3be 9ce9 0abd a71c 81be
00000310: ff6f a1be dcdc 3ebd 3cd6 5cbe 1bd4 32bd
00000320: 6c6c 19be d37c 72be eb22 afbd c820 67bd
00000330: d464 33be c8e4 fdbd c143 46be 25fc 333c
00000340: bb28 b9be b3f5 a5be 55ec 07bf 6b38 55be
00000350: 58de b2bd e9aa 8a3e 23ec 1abe 0c07 533d
00000360: 59c5 4b3e c752 9c3e 2081 fa3a b0c9 d73d
00000370: 316d 31bd 4624 79bd ede2 a43d 06df 08be
00000380: 466d eb3d 2964 a3be 37ba 683d 8299 80be
00000390: cad1 823e 4f2f c13e edac 213d bfd6 eabc
000003a0: d820 f83d 61c6 71be 2cae 19bd 05ab 8bbe
000003b0: 126c 09bd 49c8 34bf b700 58be 36f1 94bd
000003c0: 0aed d93d 1d64 95be 502a ccbe 5c6b b0bc
000003d0: 3ac7 8d3e f058 513e d0c8 7abd ed35 2b3e
000003e0: 37f3 50be bf6f 22be b6b8 32be 542d b4bc
000003f0: 415e 493d 435f e7bd 0fd6 22be e747 3fbf
-0.22579575 -0.15880863 -0.04545514 -0.13170001 0.38270593 0.22086847 0.3156651 0.15559976
-0.11444062 0.22597803 -0.038215753 0.24670061 -0.23093997 -0.3185257 0.32070535 0.38810775
0.2444696 0.14531721 0.1749015 -0.14633137 1.0093594 -0.03581794 0.17806406 -0.2084127
-0.006725504 0.002138266 -0.09000067 -0.12141307 0.29400203 0.102622226 0.06279791 0.11759725
0.10187496 -0.22359526 0.07325337 -0.38060164 0.19254494 0.3891874 0.026621686 0.0041070734
0.25452584 0.12188073 0.07840974 0.11822229 0.47094336 -0.052182175 -0.038456414 0.15763955
0.2267496 0.14259815 0.0048663197 0.52825654 0.3201852 0.18466556 -0.16332734 -0.13017754
-0.34478435 -0.10126614 0.12339653 -0.26318592 -0.27460277 -0.22736527 -0.14629892 0.03931831
-0.21022032 -0.36108053 0.046560332 -0.18876562 0.11559625 -0.20245771 0.019227011 -0.21654817
0.096179195 -0.20038219 0.042654894 -0.62198263 0.25521678 0.074805 0.07508016 0.13127123
-0.2702539 -0.10318357 -0.2525775 0.069253065 0.50519246 0.32214162 0.3948121 0.37606993
0.21485761 0.08874321 0.25440598 0.5546394 -0.0051831976 -0.19866379 -0.46348974 -0.012082688
0.17344695 -0.27591577 -0.051342912 -0.19188757 0.66967726 0.49282065 0.15885714 0.15392613
0.044978686 -0.15038621 -0.56006557 -0.22628577 0.75149417 0.47766143 0.20627062 0.06565603
-0.10883029 -0.25086758 -0.17282297 -0.25514004 0.67311823 -0.03307782 -0.011869989 0.095420115
-0.30823725 -0.18926688 -0.15807424 -0.4554011 0.22990471 -0.34045872 -0.13310252 -0.40362135
0.29640388 0.3842913 0.53012633 0.05896013 -0.41975108 -0.18986562 -0.39925295 -0.29405937
-0.04647325 -0.3964708 0.5727836 -0.1633212 -0.13547367 0.19041646 0.06296245 0.26288205
0.6057087 0.44680172 0.48234388 0.38560387 0.64597243 0.029717304 0.03972863 -0.15845671
-0.13565998 -0.058229372 -0.09620062 -0.9717381 -0.31957722 -0.8053786 -0.26654625 -0.13159268
-0.040348988 -0.12299403 -0.03958493 -0.17609435 -0.15179165 0.32057464 -0.08075695 0.461599
-0.19146599 -0.14420651 -0.09499017 -0.072163716 -0.34036994 -0.14038512 -0.29191425 -0.4501584
-0.03056814 -0.05578617 0.32075647 0.123582795 0.1349947 0.16003267 0.05671555 0.12551822
-0.022092974 -0.069128655 0.104175694 -0.38145006 0.30038396 0.29209724 0.13092606 0.095705375
-0.3672632 -0.4139265 -0.033914194 -0.25217173 -0.3153076 -0.046597347 -0.21566099 -0.04365931
-0.14982766 -0.23680429 -0.08551582 -0.056427747 -0.17518932 -0.12397152 -0.19361784 0.010985409
-0.36163887 -0.32414016 -0.5309499 -0.20822303 -0.08733815 0.2708352 -0.15129142 0.051520392
0.19899501 0.30531904 0.0019111969 0.10536516 -0.043317024 -0.06082561 0.08051095 -0.13366327
0.11495452 -0.31912354 0.056818213 -0.25117117 0.2555068 0.37731406 0.039471556 -0.028666852
0.121156394 -0.23610832 -0.03751962 -0.27278915 -0.03355033 -0.7061811 -0.21094023 -0.0727257
0.10640915 -0.29177943 -0.39876032 -0.021535568 0.2769106 0.20444083 -0.061226666 0.1671979
-0.20405279 -0.1586294 -0.17453274 -0.02199427 0.049162153 -0.112974666 -0.1590197 -0.7471909

critic.0.bias f4 [64]
00000000: a29d d2bd 0682 223e d264 1c3e b851 59be
00000010: e0ff a23c c30e 9e3d 2e1b 1ebd 3c40 923e
00000020: ea9d 4abe 41ed 773c 1d21 203e 29bd 8f3e
00000030: 41eb 263e 1b53 833d c8f6 2b3d bd4e 6bbe
00000040: 592d 0dbe 14d8 1ebe fc4f b9bd b7dc 2b3e
00000050: 361a 60bb e0c2 603e 1795 ac3d 3f76 19be
00000060: ab16 ccbd 76b9 363e 1707 51bd 0a31 713e
00000070: 89a2 88bd c536 d33d 18e5 c8bd 983c f53c
00000080: 718f 8c3e 3728 42be 0db6 303d 0f6b 3f3d
00000090: 6b08 8a3e c43a 883e 1a85 c8bc e94f 4dbe
000000a0: 646f 48bd ca64 383e 1282 8dbd d7af 21be
000000b0: b8e4 013d e05c ec3d c84f 13bd 951c 793e
000000c0: 9930 8bbe 8342 45bd 64e8 b9bd ca55 22be
000000d0: 3c6f 4ebe f26c 2d3d 946e e73d e51d 433d
000000e0: 5b2e 01be 747f fd3d a27c e43c 978e b2bd
000000f0: 9cb3 00be 1aa1 45bc ae43 213d ae43 e7bb
-0.10283972 0.15869913 0.15272835 -0.2122258 0.019897401 0.07717659 -0.03860014 0.28564632
-0.19786802 0.015132249 0.15637632 0.28074005 0.1630068 0.064123355 0.041983396 -0.22979255
-0.1378683 -0.15512115 -0.09048459 0.16783415 -0.003419531 0.21949339 0.08426874 -0.14986514
-0.09965261 0.17844185 -0.051032152 0.23553863 -0.06671626 0.10313181 -0.09809321 0.02993612
0.27453187 -0.18960653 0.043142367 0.04673296 0.26959547 0.26607335 -0.02447753 -0.20050015
-0.048934355 0.18007198 -0.069095746 -0.15789734 0.031712264 0.11541152 -0.035964757 0.2432731
-0.27185515 -0.048159134 -0.09077528 -0.15853038 -0.2015962 0.042340226 0.11300388 0.04763593
-0.1261534 0.123778254 0.02789146 -0.08718603 -0.12568516 -0.012062335 0.039371185 -0.0070576286

critic.2.weight f4 [1, 64]
00000000: a66f d2be 9133 20bf d82d e4be 203b 95be
00000010: 3f27 2d3f 212c 1abe 391f ce3e 4b33 54bd
00000020: 2ea3 b63e 20b3 323f ce05 f93e 7272 e9bc
00000030: e6d0 d0bd 4385 0d3f 2669 b4be efd5 80be
00000040: 4cc1 0ebf 79e3 033f 7ab3 a73e 0076 bd3e
00000050: 7ad6 e0be 6a4f 90bd 7a77 b0be 8c8b b43e
00000060: 6677 993e bd13 7ebe 5df7 593e 7874 35be
00000070: 5078 053e b0df 89be eb3d c03e dbf2 943e
00000080: 7ebe 07be 98a5 b83d b1ea 9fbe 0198 c4be
00000090: 79e6 8fbd f4bc d1bd 5ddd 943e f9ae 433e
000000a0: db5a 8a3e 09d6 9abe 78ab 31bf 1255 193e
000000b0: 372e c7be 958a d1be d02f 8f3e c414 8ebe
000000c0: 935d 8a3d daa1 f0be b6ba 14bf cb6c dcbe
000000d0: 9732 943e 9e04 bebe 7d8b 463f 681f a8be
000000e0: 8fde 833e 593b 5e3e 86c2 9a3e 3895 f23e
000000f0: cc8e 293e 3ec9 1b3f 7b90 c4be 2c13 703e
-0.41100806 -0.62578684 -0.44566226 -0.2914667 0.6763801 -0.15055896 0.40258196 -0.05180673
0.3567137 0.69804573 0.4863724 -0.028496955 -0.10196094 0.55281466 -0.35236472 -0.25163218
-0.557637 0.5151897 0.32754117 0.3700409 -0.43913633 -0.07046397 -0.34466153 0.35262716
0.29973906 -0.24812217 0.21285768 -0.1772021 0.13034177 -0.26928473 0.3754724 0.29091534
-0.13256261 0.090159595 -0.31233743 -0.3839722 -0.07026381 -0.10241118 0.29075137 0.19109716
0.27022442 -0.3024142 -0.69402266 0.14973858 -0.38902447 -0.40926042 0.27966166 -0.27750218
0.06756129 -0.46998483 -0.580974 -0.43051752 0.28944847 -0.37112898 0.7755659 -0.3283646
0.25755736 0.21702327 0.30226535 0.4737947 0.16558379 0.60853946 -0.3839148 0.23444813

actor.0.weight f4 [64, 4]
00000000: 4e61 d93c 24b0 a3be 888d e7bc fed0 5bbe
00000010: 505a ce3d 6376 73be 6d44 b53d bc3a febd
00000020: e3bd 5abe 832b ee3d 5579 033f e2d5 16be
00000030: d230 01be 764d 0bbf 083b a0bd 128f 793e
00000040: fe3a a5bd b0ab bcbd 22a0 b13e a81e b1be
00000050: 85d5 7b3f 3984 7c3d 984e 723e fe3d dbbd
00000060: 614b 06be 784a 93be a5ad 39be f91a 8bbe
00000070: a749 adbe 9361 4abd 25a9 d13d 7577 953e
00000080: cf94 a8bd 0f2d 833c aa45 2d3e f1ff d3be
00000090: ada1 adbd fdb2 9fbe a700 013d 9921 0b3e
000000a0: cf36 383e 94a3 823d eb71 4abe 2ab3 2dbe
000000b0: bb07 4cbe 4171 73be 54c0 26bd e56d 5cbe
000000c0: 8329 913d 2584 dd3e fa34 693e e44e 1e3e
000000d0: 7840 d3bd 19f8 b43b c153 3e3c 86d9 f23e
000000e0: 7bb2 9d3a e31d e2be 7822 d43d c4ff 48be
000000f0: 7625 df3d 3091 1cbd b7a5 01be 8402 0ebf
00000100: d6ca 67bd 53c5 9bbe 876a c13e 4a6e 46bb
00000110: 929a e93e 4fdc 293c f757 03bf 2579 21be
00000120: 8610 aabe d837 af3e 25ae 03bf 5164 be3e
00000130: 27f9 83be 91ae abbe e9a9 373e ce59 31be
00000140: 52d9 0fbe bac6 0e3d 5a1a c53d 5a95 673e
00000150: bc81 11bd 2d1a 72bd 9097 313e 3fed 67be
00000160: 3c71 c5be f06d f83d 3796 9dbe f0a3 1dbf
00000170: b3c7 0cbf 4c17 8dbd 919c d1bd 180a 2abd
00000180: 2c8c fb3d ebaa 483e 4c44 29be 1bdb d43d
00000190: 1283 3c3f 07b8 183e d6e8 3d3f c2ef 7fbe
000001a0: 179a 2a3e 1841 47be a752 913d df11 d6be
000001b0: e50f bbbd a19f 503e e3f7 a7be 40ea 8fbd
000001c0: c98e 3c3e 6cc0 8f3e 1094 53be 835f c7bd
000001d0: 654a 2bbe a606 643e e51c adbe 19f2 ccbd
000001e0: ff36 243e cf97 1abe 307a 32bf 9d0d 773e
000001f0: 67b1 d13d 4399 efbd 2a65 09bd 0f39 a1bd
00000200: d620 e7bc e4ef bdbc 2f34 81bf 8937 f73d
00000210: 59b5 77be 94d5 04be 981e 12be 10ff 7e3d
00000220: 2a91 bbbd a8a3 ff3c 73a7 ce3d a04d 483f
00000230: f8cb 9e3d ee67 543e dfa7 43be f023 8fbd
00000240: 1cf9 223e 9771 83be 85a5 2fbe bfc3 1dbe
00000250: 76ab 03bf 848e c03d 8dee 063f 6e6c 863d
00000260: b7bf 6dbd 4686 66bc 0edc 693e 2e17 883f
00000270: 2e7a bbbc 6121 afbe 5c7d 27bd f103 c0be
00000280: 71bb dd3d f916 c2bd 0491 d33d 7c1f 823d
00000290: 8440 d73d d28f 65be 733a bd3d 4bd5 44bc
000002a0: 9fee 613d 8dae 73bb dac9 213f eb09 86bd
000002b0: fb7a d03d c52e 93be 8273 3bbe 9b62 1cbe
000002c0: cb9b ebbd f7b2 803e 52f7 d9be 4eaa 04be
000002d0: c85f 86bd 17df 333d b50f 9dbd 3b3c 3e3f
000002e0: 6e36 463e 9098 353a 5b41 35be 0a1f 79bd
000002f0: 6e3b 01be fee7 43be f401 bd3c e731 0bbe
00000300: 17b6 90bd 4579 d33d 402c 8ebd e6b2 493e
00000310: 78fc 75bd 8cfc 913d 5e2a f53e cbd8 1cbe
00000320: 3fec 1b3e 9e6a f0bc caf9 e1be 105a 613c
00000330: 4d32 82bd 8230 173e 35e3 22be 9412 803e
00000340: 44b2 ff3d eed0 0fbe 0d2d 3a3f 2a31 213d
00000350: 0bc0 b1bd 58bf 88bc 0e35 cf3d 659f fdbe
00000360: 6bcc 1bbe a250 1d3e 3b3e 3f3e 0f1f 58be
00000370: 5609 8c3e 6048 5b3d 51d9 9b3d c8e2 ef3d
00000380: 5d91 dabe d492 e73e d59d ea3e 8eca 0bbf
00000390: 45d2 95be 5ef9 383c d06a 4a3e fe40 dc3d
000003a0: 0d89 84be 61df 803e 36d8 b93d 6ace 073e
000003b0: 7ee7 43be 825b bf3d dc9f f03e 73c2 b2bd
000003c0: 985a c53d 52ce 96bd dee6 03bf 4d02 013e
000003d0: 254e 9abd 6d9c 10be d9ad 073e 7f3d 5abe
000003e0: 13f0 93be 0655 9f3e 0875 febe fe4f a93e
000003f0: abc5 033e 5eaf 80bd 30db e5bd a852 72bf
0.026535656 -0.31970322 -0.02826573 -0.21466443 0.100758195 -0.2377563 0.08850942 -0.124135464
-0.21361499 0.11629393 0.51357013 -0.14730027 -0.1261628 -0.5441507 -0.07823759 0.24370983
-0.080678925 -0.09212434 0.34692484 -0.345937 0.9837268 0.061649535 0.23662794 -0.107051834
-0.13114692 -0.28767753 -0.18132646 -0.27169016 -0.33845255 -0.04940946 0.1023734 0.291927
-0.08231508 0.016012697 0.16921106 -0.41406205 -0.08478103 -0.31191245 0.031494763 0.13587035
0.17989658 0.06378856 -0.19770019 -0.16962877 -0.19924824 -0.23773672 -0.040710762 -0.21526296
0.07087996 0.4326488 0.22774115 0.15459782 -0.10315031 0.0055227396 0.011616648 0.47431582
0.0012031341 -0.44163427 0.10358137 -0.19628817 0.10895817 -0.0382244 -0.12660871 -0.5547259
-0.056589924 -0.30423984 0.37776586 -0.003027814 0.4562574 0.010367467 -0.513061 -0.15768869
-0.3321573 0.34222293 -0.514376 0.3718591 -0.25776026 -0.3353162 0.1793591 -0.17319414
-0.14047745 0.03485749 0.09624167 0.22615567 -0.035524115 -0.059106994 0.17342973 -0.22649096
-0.38562953 0.12130344 -0.30778667 -0.61578274 -0.54992217 -0.06889209 -0.10234941 -0.041513532
0.12282595 0.1959645 -0.1652996 0.103933536 0.736375 0.14913951 0.74183404 -0.24993804
0.16660343 -0.19458425 0.07095843 -0.4181051 -0.09133891 0.20373394 -0.3280631 -0.070271015
0.18413843 0.28076494 -0.2066195 -0.09735014 -0.16727598 0.22268161 -0.33811107 -0.10007114
0.16036604 -0.15096973 -0.69717693 0.24126287 0.10238915 -0.11699154 -0.033543743 -0.07872211
-0.0282139 -0.023185678 -1.009405 0.12071139 -0.24190272 -0.12972099 -0.14269483 0.062254965
-0.09158547 0.031205967 0.10090532 0.78243446 0.07753748 0.20742771 -0.19107006 -0.069892764
0.1591534 -0.256726 -0.17152984 -0.15406702 -0.51433504 0.09402183 0.5270775 0.0656365
-0.05804416 -0.014070099 0.2283785 1.0632074 -0.022885408 -0.34205154 -0.040891036 -0.37503007
0.10826767 -0.09477038 0.10330394 0.063536614 0.10510352 -0.22418144 0.09239664 -0.012013744
0.055159207 -0.0037182898 0.63198626 -0.065448605 0.10179707 -0.2874662 -0.18305781 -0.1527199
-0.115043245 0.2513654 -0.42571503 -0.12955591 -0.065612376 0.043913927 -0.076690115 0.74310654
0.19356701 0.00069273356 -0.17700712 -0.060820617 -0.12620327 -0.19131467 0.02307222 -0.13593255
-0.07065981 0.10325865 -0.06942034 0.1969715 -0.060055226 0.071282476 0.47883886 -0.15317075
0.1522684 -0.029347714 -0.44135886 0.013754383 -0.0635725 0.14764598 -0.15906985 0.25014174
0.12485173 -0.14044544 0.7272499 0.039353527 -0.086792074 -0.016692802 0.10117541 -0.4953567
-0.15214698 0.1536279 0.18676083 -0.21105598 0.27350873 0.05353582 0.07609809 0.11713177
-0.42689028 0.45229208 0.4582354 -0.5460595 -0.29261985 0.0112899225 0.19767308 0.10754584
-0.2588581 0.25170425 0.09074442 0.13262334 -0.19131276 0.093436256 0.46996963 -0.087284945
0.0963642 -0.07363571 -0.5152415 0.12598534 -0.07534436 -0.14122172 0.13249911 -0.21312521
-0.288941 0.31119555 -0.49698663 0.33068842 0.12868373 -0.06283449 -0.11223447 -0.94657373

actor.0.bias f4 [64]
00000000: dbdb 28bd f665 3abd d1ed 013c 964e 06be
00000010: e6e5 80bd 009c 27bd d7de 89bd 340f c3bc
00000020: b5b2 b4bd f4c8 2fbc 3e90 35bd b5cc 5abd
00000030: 3fea 9c3c c987 793c 0f5c c83c 81f8 35bd
00000040: bcac 8ebc 8897 cb3d ef6e f0bc 155b 53bd
00000050: a088 943d 081f d73d e26c 50bd df99 bbbd
00000060: 834a bf3d d335 133c c48c 823d 9f68 38be
00000070: 1298 54bd 89da 98bd 05e1 f8bc bfac a2bc
00000080: ec8e 183e 8093 a0bd 84fc 4c3c c550 3cbd
00000090: 1b47 883d dcda e2bd 4e2e a63c fb79 dbbc
000000a0: 4470 3e3d 3d86 323d 3fac 88bd ea9d 253d
000000b0: d64c 16bd a6d8 00be 2fb0 6abb 8f46 e8bd
000000c0: 0d8a cebc fa89 ef3d 14fb e3bd ddd7 943b
000000d0: ce10 143e 989f b23d e666 ac3c 796e 1d3d
000000e0: a084 4b3d b997 023e ff93 cb3d 2d3e fabb
000000f0: c066 023c 2c60 88b9 804d 433c 1702 e53c
-0.041225296 -0.045507394 0.007930235 -0.13115916 -0.0629385 -0.040920258 -0.067319565 -0.02381096
-0.08823148 -0.010729063 -0.044327013 -0.05341788 0.019154666 0.015230128 0.02445796 -0.044426445
-0.01741635 0.09941012 -0.029349772 -0.051600534 0.07252622 0.105039656 -0.05088509 -0.09160208
0.09340384 0.008985001 0.06374505 -0.1800866 -0.051902838 -0.07463557 -0.030380735 -0.019857762
0.1489827 -0.078406334 0.012511376 -0.045975465 0.06654187 -0.110769 0.020285752 -0.026791563
0.046493784 0.04358505 -0.06673478 0.0404338 -0.03669437 -0.12582645 -0.003581058 -0.11341583
-0.025212312 0.11696239 -0.11131874 0.0045423345 0.14459535 0.08721846 0.02104516 0.038435433
0.049687028 0.1275319 0.099403374 -0.0076368065 0.007959068 -0.00026011595 0.011920333 0.027955098

actor.2.weight f4 [5, 64]
00000000: 68ad fbbd c101 1c3e 4cd0 a8be 9d2e e1be
00000010: 467a b8bd 5587 b3be 4fb9 853e 0aa1 06be
00000020: f519 91bd 5221 2a3d 1330 a13e 2c51 76be
00000030: 3119 aa3e 2a2b c83e 7e72 aa3d 669d 5ebe
00000040: e8c7 8dbd d553 5e3e 9fcb ef3e 755a 1d3e
00000050: 4016 8a3e cd9b 32be 72be 233c af14 89be
00000060: ccfe b7bd 11e6 bdbe fd07 24be b377 363d
00000070: 906b 09be b68b 133f 8561 233f 2f3c 0fbe
00000080: 3e1e 8c3d ad74 8c3d ede2 853e 788f 813d
00000090: 28c0 1dbe ee32 18bf a232 ef3e aa04 903e
000000a0: 9b91 9fbd c9a9 a63e bed4 cebe cf5c a3bd
000000b0: 91b7 053f 6712 113f e8d2 2e3e 01a5 e23e
000000c0: 606e 6e3d 48ff e3be ae19 a43e a8b3 453e
000000d0: 3c72 aebe c5c3 ddbd 2523 f6be 9698 283e
000000e0: d278 1abf 5607 39bd 4e6b 2d3e 1fd8 9dbe
000000f0: 1079 4c3f 3da7 b1bd b013 cb3e 92ed dfbe
00000100: c297 fc3e 1e5e 48bc e8df 08bd be14 5a3e
00000110: 05a3 bbbd 5d29 c2be e26f 55be 7646 cf3e
00000120: cafa 75bc 46b4 083e 87bd 583e 54de 333e
00000130: 15b2 c2be 175f d63e 409b 883e fe98 aa3e
00000140: 3e7f f23e dc17 7a3e 5066 923c bea3 443e
00000150: c1b6 2bbd 2c77 24bd cf8d d13e 21e7 fe3e
00000160: 23ca a0be 1fd5 18be a9ce 2d3e b545 14be
00000170: 6da7 24be 0be8 483e 9693 313e da9d 44bd
00000180: cb3b d63e fc38 233f fee5 613e 8a10 88be
00000190: fdf4 333e ca62 69bd beac b3bd 1f62 123f
000001a0: 72a6 73bd 4762 14be 16b0 cfbe d48a 8b3e
000001b0: cef1 db3d 5a61 1d3c f34e 4e3d c093 a9bd
000001c0: 0c21 89bd d00a 01b9 6044 2dbe 39a8 01be
000001d0: 18dd a5be f48c 1c3d 762c 4dbe a259 acbc
000001e0: 0ec5 bc3b 0fed 7f3e 1e3b 1a3e 44fa 5b3e
000001f0: 848e 29be 96e4 07be 2a79 963d b7a3 9f3e
00000200: 26c2 74bd 2db3 b93e bd00 2f3e 4700 c0bc
00000210: 914b 863e d01e a53e 37c1 b2be 626b 1c3e
00000220: 098b 91bd 1a99 5fbe 636f 8a3e a413 8ebe
00000230: 81df 9b3d d59e 8dbe 4f99 d13d f0c5 053f
00000240: 41bf 3c3e 85da 563e c568 87be 2a67 0bbc
00000250: 47d6 b03d e75d 773e 7b2c dd3a 3abd 2cbe
00000260: aa8e 563e 9738 f53b b950 b03e 1a51 7ebe
00000270: cc21 9bbd bb08 41be e328 563e 3bf2 3b3e
00000280: eb9a 30be d999 a6be 5a9e 3abe 9695 b2bd
00000290: 6374 f23e 16b1 23bc a34b b3be 2b91 733d
000002a0: 5ecb a2bc 75ce b03e e943 b03e 8de4 323e
000002b0: 66ee 8d3e 5ca5 28be 80d6 253d 5134 b6bd
000002c0: 2a39 ebbe 8927 0e3d 22c1 343e f30a 02bf
000002d0: 42d7 cb3e d503 893e 840f 95be 8476 84bc
000002e0: e773 2ebe 0fba 083d f044 8bbe 6b5a 76bd
000002f0: 9031 da3e 21b8 35be c234 9a3e 7778 083f
00000300: 0f76 483e 5ca1 74be 4681 3d3e 5f62 54be
00000310: d44b 63be 87b1 583e c438 853e 9d3c 6bbc
00000320: a7a9 843d fe52 cd3e a88a b0bd 899c fdbe
00000330: be59 84bd c14b b23e 8440 ffbd f2a6 d9bd
00000340: 4155 9ebe 928b dabd fee4 b1be fb4b afbe
00000350: 3612 da3e a9d5 09be 1e8f 84be 0604 eabe
00000360: b5ee aebc 2633 363e 737e 45bd 5b83 4cbe
00000370: f817 c8be b654 aebe 39cb e1be aab1 c4be
00000380: 25de c7be a42c 3bbd 9717 d4bc 5c62 d5bd
00000390: 2f85 8ebd 24d5 e13e c8a3 bfbd 39ab 27be
000003a0: 8c4c 853d 0e90 913d 5a3b cd3e 4540 1d3d
000003b0: 56a5 ec3c 1e2c 70bc 578d 70bc aa35 4cbd
000003c0: d264 c03e 23e6 9e3e c360 dfbe de42 8f3e
000003d0: 4c75 403e 9fb7 34be 237d d73d 462d 7abd
000003e0: e818 513e d33b f13d ddd0 4d3e b6ff f83e
000003f0: a54f 1abf 5a2c 16be f480 5b3d b395 8a3e
-0.12288934 0.15235044 -0.32971418 -0.43980876 -0.09007697 -0.35064188 0.26117942 -0.13147369
-0.07085029 0.041535683 0.3148199 -0.24054402 0.33222345 0.39095432 0.08322619 -0.2173973
-0.06922895 0.21711667 0.46835038 0.15366538 0.269701 -0.17442246 0.009994136 -0.26773593
-0.089841455 -0.3708959 -0.16018672 0.044547748 -0.13419938 0.57635057 0.6382068 -0.13987802
0.06841706 0.06858192 0.26149693 0.063261926 -0.15405333 -0.5945271 0.46718317 0.28128558
-0.07791444 0.3255141 -0.40396684 -0.07976686 0.52233225 0.56668705 0.17072642 0.44266513
0.05821073 -0.44530702 0.32050842 0.19306815 -0.3407153 -0.10828356 -0.48073688 0.16464457
-0.6034061 -0.04517301 0.16935465 -0.3082895 0.79872227 -0.08674476 0.39663458 -0.4373594
0.49334532 -0.012229471 -0.03341666 0.21296975 -0.09161953 -0.37922183 -0.20843461 0.40483445
-0.015013406 0.13350019 0.21166049 0.1756528 -0.3802649 0.41869423 0.26680946 0.3331985
0.47362703 0.24423164 0.017871052 0.19203088 -0.041922335 -0.040152714 0.40928504 0.49785712
-0.31404218 -0.14925049 0.16973366 -0.14479716 -0.16079493 0.19619767 0.17341456 -0.0480021
0.41842493 0.63758826 0.22060391 -0.26575118 0.17573924 -0.05697898 -0.08773182 0.5718097
-0.059484906 -0.14490615 -0.4056403 0.27254355 0.1073948 0.00960573 0.05036826 -0.08280134
-0.06695756 -0.00012306427 -0.16920614 -0.12661828 -0.32395244 0.03822036 -0.20036492 -0.021038834
0.0057607954 0.24992774 0.15061614 0.21482188 -0.16558272 -0.13270792 0.07347329 0.31179592
-0.059755467 0.36269513 0.17090125 -0.023437632 0.26229528 0.3225007 -0.34913036 0.15275338
-0.07106597 -0.21835747 0.27038106 -0.2774936 0.07610989 -0.27660242 0.102343194 0.52255154
0.18432333 0.20981796 -0.2644712 -0.008508483 0.0863462 0.24156915 0.0016874218 -0.16869059
0.2095286 0.0074835527 0.34436586 -0.24835625 -0.075748056 -0.18850987 0.20914035 0.18354122
-0.17246597 -0.3253925 -0.18224469 -0.087199375 0.4735442 -0.009990951 -0.35018644 0.059464615
-0.019872364 0.34532514 0.3442681 0.17469998 0.27720946 -0.1646933 0.040487766 -0.08896697
-0.4594205 0.034705672 0.176518 -0.5079796 0.39812666 0.26760736 -0.291134 -0.016169794
-0.170364 0.033380564 -0.27201033 -0.060144823 0.42615938 -0.17746021 0.30118376 0.53308815
0.19576286 -0.23889679 0.18506345 -0.2074065 -0.22196895 0.21161471 0.2601987 -0.014357713
0.06477671 0.4010238 -0.086201966 -0.4953349 -0.064624295 0.3482342 -0.12463477 -0.106275454
-0.3092442 -0.10671152 -0.3474502 -0.34237656 0.4259202 -0.13460411 -0.2589044 -0.45706195
-0.021354059 0.17792949 -0.048216294 -0.19971983 -0.39080787 -0.34049004 -0.4410036 -0.38416797
-0.3903667 -0.04569687 -0.025890155 -0.10419151 -0.069589965 0.44107926 -0.09357411 -0.1637391
0.06508741 0.071075544 0.40084344 0.03839137 0.028887432 -0.014658956 -0.014682136 -0.049855866
0.3757692 0.31034955 -0.4362851 0.27980703 0.18794745 -0.17648171 0.10521915 -0.061078332
0.20419657 0.11778989 0.20099206 0.48632592 -0.6027778 -0.14665356 0.053589776 0.27067336

actor.2.bias f4 [5]
00000000: 20f0 fe3c a9e7 5bbe ee44 d13c ca2e 4d3d
00000010: a195 ffbd
0.03112036 -0.2147509 0.025545564 0.05009345 -0.12479711

critic.0.weight f4 [64, 4]
00000000: 57ad 55be c75e 433e aa62 83be 1643 ee3d
00000010: 7ed2 183f 4669 c83e e77a a43d 1659 a23e
00000020: f313 1b3d b452 37be 47d0 c33e beac 25bf
00000030: 9332 b8be 5a7b 6abe 3a14 4fbe 299a 66be
00000040: 6703 1d3f 26fe 013e 85bf 613e 8f01 8a3d
00000050: 78ed 96be 6143 bbbe ed64 acbd 5d3c f53c
00000060: b6e4 abbe 5f3b 02be d19b 2cbc bb36 afbd
00000070: daed 313e f407 303d 9ecc 80bd ea18 c93e
00000080: cb2b f8be 5018 a5bd 750e 543e 194a 7abe
00000090: 9901 113e 119e 4f3e e4dd 023d 869c 3b3e
000000a0: 9974 98bd f273 3fbd 648c 8a3e 772c f6be
000000b0: afe7 e03e 16ca b23e 6b24 3b3e cd56 ab3e
000000c0: bdf3 c4be e19a 66be 0782 83be 49e9 56be
000000d0: d552 d5be 7435 8ebd 0445 9abe 2d50 6d3d
000000e0: 1d21 c5bd aa04 00be 8c18 5d3e 34fa d2be
000000f0: e2c0 01bf 9c4a cabe b02c 0dbe 345f d03d
00000100: b438 d43e bce2 fd3e 1c70 c33e e09f f73d
00000110: 605d a93e b06e 0b3f bbaf 82be c533 bcbd
00000120: b661 2fbf d319 d5bd 2478 bd3d 8bcc 9e3e
00000130: 974b 1cbd 3479 323e cd10 5bbe b013 ebbe
00000140: c9d1 293e afe0 e0bc e17b a73e 7d39 1e3d
00000150: 4d34 90bd 3078 3f3e 130a e8bd c0d0 643e
00000160: f8f1 87be ee3f 9abd 2a72 babe a7ae af3d
00000170: bcbf ae3d 7e98 e53d d4ca 9bbe a44c 343f
00000180: e175 7cbe 2bce abbe 5540 9abe a61e 153d
00000190: 0d55 0b3f 97aa 5abd ea95 ba3f 5f64 babc
000001a0: bf03 babd 8661 6fbe d495 29be 3906 8ebd
000001b0: 88da 9b3d f368 c93e 4e8f cabd e6e3 a93e
000001c0: f8ed 15bf e515 9dbe 63e4 8cbe 1e97 bb3c
000001d0: 32e5 5ebd d385 2c3e c322 c83d 072f 0d3e
000001e0: 345d b23e 5e0f d33d 5623 093f fa6b 933d
000001f0: 348d a8be e0e9 e53d bce0 1e3d 0553 f2bd
00000200: d235 b63a 9294 09bf 264c 29be 51fc 193e
00000210: 1726 f4be e137 06be d97a 3cbd 0ddf 4dbe
00000220: b345 fc3b 900d 673e 1c2f 563c 26ab 2a3e
00000230: 1219 48be 3428 9abe b62e 87be a19e 0cbd
00000240: 8470 f1bd 7428 7e3e 3215 6d3e e52d 7c3d
00000250: 5841 3a3e c7fe 013f 55e5 7e3d eb36 aebd
00000260: 303d 843e a184 083e e416 c33d afcd 0e3e
00000270: a33e 8c3e 1e45 313e b1e6 c93d 5a43 143e
00000280: b589 093e ee5d 873e 19ea 6b3d 3b55 433e
00000290: 9ecd b0be 95d1 9cbe b9c5 a53d 5012 a0bd
000002a0: 0420 7a3c d3cd cd3d b6ff 14be b2aa b73e
000002b0: 78d6 89be 7ba1 3dbd 551c eb3d 09db ba3e
000002c0: 216d be3e 7805 a33e 5854 763e 66b9 1a3f
000002d0: a963 843d e9d7 873d 9dbb 5fbe 24d7 f73e
000002e0: a464 143e d9e7 d1bc f594 523f 0a27 80bc
000002f0: 1b00 b1be 5fa8 63be 1d86 10bb 6542 98bd
00000300: facb a8bd 5d29 aebe 1f6c 07bd 58ca 07be
00000310: 271e 243e 6adf 0a3e d6c5 973e f5e1 52be
00000320: ba49 92bd 5570 343e 29c4 e13d dc5e e83d
00000330: 22d0 34bf 8f6f 64be 35ef 093f c3dc 503e
00000340: 8272 853e 3fd9 a83e d5b3 973d 8603 603e
00000350: 4868 b73e e584 303e fb6b f73d 8443 0c3e
00000360: 0020 123d 4b4b a4be 8a42 6abe cf21 f3bc
00000370: 25f6 9e3e 5621 3d3e 832c ab3e a0ac e0bd
00000380: d706 66bd b291 933e 030a 0fbe 7132 2b3f
00000390: cbac c83e 191b 153e 2990 843c 6ab0 8d3e
000003a0: b383 793e 80fb 4bbf 2cad 2d3e 053e f7be
000003b0: 00ff 463e 484f 3fbe 3f62 f43e a682 9fbe
000003c0: 49af cb3c bbf8 4bbe b8d4 dfbd f544 fabd
000003d0: 78c5 113d 5aa6 b13e 70cb 6f3e 60bf 0c3c
000003e0: d52d 55be 22f6 67be 631a abbe 5f3f 563d
000003f0: 0f6e a7be 1abb e7bd 2570 eabd 0121 26be
-0.20866905 0.19079123 -0.25661212 0.116338894 0.59696186 0.39142817 0.08031254 0.31708592
0.037860822 -0.17902642 0.3824484 -0.6471671 -0.35976085 -0.22898617 -0.2022256 -0.22519745
0.61333317 0.12694606 0.22045715 0.067385785 -0.2947805 -0.36574844 -0.084176876 0.02993601
-0.3357293 -0.12717961 -0.010535196 -0.08555361 0.1737589 0.042976335 -0.06289028 0.3927682
-0.4847091 -0.08061278 0.2070864 -0.24442329 0.14160766 0.20275141 0.031949893 0.18321428
-0.07444114 -0.046741433 0.27060235 -0.480808 0.4392676 0.34919804 0.18275611 0.3346466
-0.38467208 -0.22520019 -0.2568514 -0.20987429 -0.41664758 -0.06943789 -0.3013078 0.05793779
-0.096254565 -0.12501779 0.21591395 -0.41206515 -0.5068494 -0.39510047 -0.13786578 0.101744086
0.4144951 0.49587047 0.3817147 0.120910406 0.33079052 0.5446577 -0.25524697 -0.09189562
-0.6850847 -0.10405316 0.09251431 0.3101543 -0.038158026 0.17429048 -0.21393128 -0.45913458
0.16583933 -0.027450887 0.327117 0.038629044 -0.070412256 0.18698192 -0.113300465 0.22345257
-0.26551795 -0.07531725 -0.36415225 0.08578234 0.08532664 0.11210726 -0.30428183 0.70429444
-0.24654342 -0.3355573 -0.30127206 0.03640618 0.5442665 -0.053385343 1.4577 -0.022752939
-0.09082746 -0.23377046 -0.16561061 -0.06934781 0.07610041 0.39337882 -0.098906144 0.33181685
-0.58566236 -0.30680767 -0.27517995 0.022899207 -0.054417796 0.16847925 0.09772255 0.13787471
0.34836733 0.103056654 0.53569543 0.07198329 -0.3292023 0.11226249 0.038788542 -0.11832241
0.0013901538 -0.53742325 -0.16532955 0.15037657 -0.4768531 -0.13107254 -0.046015594 -0.20104618
0.0076987385 0.22563767 0.013072755 0.1666685 -0.19540814 -0.30108798 -0.26402825 -0.034330968
-0.11789039 0.24820119 0.23152617 0.061567206 0.18188989 0.50779384 0.062230427 -0.085065685
0.25827932 0.13331844 0.095258504 0.1394565 0.27391538 0.17311522 0.09858454 0.14478818
0.13431437 0.2643885 0.0575963 0.19075482 -0.34531873 -0.30628648 0.08094353 -0.07815993
0.015266422 0.100490235 -0.14550671 0.35872418 -0.2692144 -0.046296578 0.11480013 0.36495236
0.37192634 0.3184011 0.24055612 0.60439146 0.06464321 0.066329785 -0.21848913 0.48406327
0.14491516 -0.025623249 0.8225854 -0.015643615 -0.34570393 -0.22232197 -0.0022052594 -0.07434539
-0.082420304 -0.34015933 -0.033062097 -0.13260782 0.16027127 0.13561788 0.29643124 -0.20594008
-0.071429685 0.17620976 0.11023743 0.11346218 -0.70630085 -0.22308181 0.53880626 0.20396714
0.26063925 0.32978246 0.07407347 0.21876344 0.35821748 0.17238195 0.120811425 0.1369763
0.03567505 -0.32088694 -0.22876945 -0.029679207 0.31047168 0.18469748 0.33432397 -0.109704256
-0.056158867 0.28822094 -0.13968663 0.6687384 0.3919433 0.14561118 0.016182022 0.27673656
0.24366646 -0.79680634 0.16960591 -0.48289505 0.19433212 -0.18682587 0.47731206 -0.31154364
0.024863856 -0.19919102 -0.10929245 -0.12220184 0.03558871 0.3469723 0.23417449 0.008590549
-0.20818265 -0.22652486 -0.3341857 0.05230653 -0.32701156 -0.11314984 -0.11447171 -0.16223527

critic.0.bias f4 [64]
00000000: 5d5a 98bd 15b2 273e acd8 01bd 228a d8bd
00000010: 7c87 923d e47e 37bd 2daa 71be 54cd 423d
00000020: 2271 dc3c c20d 1e3e 1e4a 6cbe 655d fb3d
00000030: a2f5 ccbd d447 33be 9e46 f6bd 52e2 c2be
00000040: c85b 493e 9ced 713b 31a7 93bd 8898 003c
00000050: 0776 313e c4dd 563e 3750 44be 60b0 0fbd
00000060: d99c 49be 15e9 ab3c 66b5 5abe 1515 293e
00000070: b820 45be fcc4 69bd 0078 9b3d 5d5f 223d
00000080: ba32 0cbe 14e9 3fbe 6b14 2c3e 2797 08be
00000090: c84a af3d 4a1d 293e b90a 5c3e 7537 6c3e
000000a0: d06c 0d3e cd6a b9bd 6e32 603e 8940 28be
000000b0: eb31 ca3d c481 4a3d a4d7 0e3e aed0 a0bc
000000c0: b815 9bbe 12e4 6ebd 726a 153b 0b7e 18bd
000000d0: fe55 a53e 6ac3 0e3e 73f5 48bd d689 d73d
000000e0: cd02 6e3d fc91 943e 00d8 bcbd 1159 d33d
000000f0: 5db0 513c a502 113e 9ee0 d3bd 1ece 24be
-0.074391104 0.16376527 -0.031700775 -0.10573222 0.07154748 -0.044798747 -0.23600073 0.047559097
0.026909415 0.15434936 -0.23075148 0.12273673 -0.10007788 -0.17507869 -0.12025188 -0.38063294
0.19663918 0.0036915308 -0.072096236 0.007848866 0.1733018 0.20983034 -0.19171225 -0.035080314
-0.19688739 0.020985166 -0.2135826 0.16511948 -0.19250762 -0.057072625 0.075912476 0.039641727
-0.13691226 -0.18741256 0.16804664 -0.1333891 0.08559185 0.16515079 0.21488465 0.2306803
0.1381104 -0.09053574 0.21894237 -0.16430868 0.09872802 0.04944016 0.13949448 -0.019630756
-0.30290008 -0.058322974 0.0022799042 -0.03722958 0.3229217 0.13941732 -0.049062204 0.10524337
0.05810814 0.29017627 -0.09220886 0.103197224 0.012798396 0.14161165 -0.10345577 -0.16094252

critic.2.weight f4 [1, 64]
00000000: 0b3c f4be 3b49 4fbe c328 ae3e e8fe b53e
00000010: f529 afbe aef2 ffbe 0ee8 0dbf f1a7 e3be
00000020: 1e85 16bf 58d3 56be 87e9 8b3e 734d 61be
00000030: 0240 933e 8958 e53e 5674 813e 7a0d 8dbe
00000040: d57f 1dbe b9c3 113f a170 72be 45c4 343e
00000050: 8a6b c1be c0ac f2bd ac24 693e 431f 8dbe
00000060: f581 953e 267e 4bbe de1f 25bf 15f5 39be
00000070: 1b87 d6be 1cdc ca3e 522c 32be c0df f1be
00000080: 47ab 18bf 3fef af3e 051a 36be 12f2 d73e
00000090: f834 e93e 59ae b43e cf70 b2be b3e5 9dbe
000000a0: d5e6 45be 9ae0 cabe ea52 88bc cc23 a2be
000000b0: 1540 6ebe ef79 1dbe 6b79 ccbe f0c4 cbbe
000000c0: 0a31 0f3d b76c 853e 3d35 0b3f 340b f8be
000000d0: 67d0 febd 36c1 f2be 876d 1bbf fd9a 83be
000000e0: 48aa aabe 66df c7bd 509a 063f 40cb 803e
000000f0: f092 30bf 467c 2a3f 2de6 653e f7a7 d83e
-0.4770206 -0.20242779 0.34015474 0.3554604 -0.34211698 -0.49989837 -0.5543221 -0.44464067
-0.5879687 -0.20979059 0.27326605 -0.22002201 0.28759772 0.4479411 0.2528407 -0.27549344
-0.15380795 0.56939274 -0.23675777 0.17652996 -0.37777358 -0.11849356 0.22767895 -0.27562913
0.29200712 -0.1987234 -0.6450175 -0.18159898 -0.41899952 0.39621055 -0.1739972 -0.4724102
-0.5963635 0.34362218 -0.17783363 0.42176872 0.45548224 0.35289267 -0.3485169 -0.3083931
-0.19326337 -0.39624482 -0.016641099 -0.31667936 -0.23266633 -0.15378545 -0.39936385 -0.3979869
0.034958877 0.26059505 0.5437811 -0.48446047 -0.12442093 -0.47413033 -0.60714 -0.25704184
-0.3333304 -0.09759407 0.5257921 0.25155067 -0.6897421 0.66595876 0.22451086 0.42315647
