outputs/centerSquare_1a_PPO/best_status.pt (torch, 15773 bytes, 21 tensors)

actor.0.weight f4 [64, 2]
0.14852856 -0.16959308 -0.19992526 -0.03510995 0.023960331 0.07200508 0.13874123 0.18324466
0.019150764 0.06496485 0.5027482 0.037262987 -0.39823398 -0.052400354 -0.119333334 -0.021888621
-0.22229603 0.13025089 0.08663862 -0.3038809 0.21964961 -0.08519827 0.37963787 0.036630735
-0.36703536 -0.2200905 -0.4104848 -0.10007575 -0.036846377 -0.09343295 -0.042136047 0.53177613
-0.120937385 0.06042321 0.14173459 -0.12303722 -0.2641249 -0.14766063 0.05628327 -0.101472385
0.27613035 0.26254147 -0.110512026 0.21623327 0.015669383 -0.4351483 -0.1603875 0.16449448
-0.011773324 -0.23051216 0.1498713 0.14310619 0.038246814 -0.20919888 0.25518605 -0.13441725
0.22426444 -0.3988519 0.24883927 0.22791703 -0.042522956 -0.33437356 0.0041829213 -0.04665812
0.102799654 0.34527907 -0.512879 -0.08358189 0.30977356 0.13255084 -0.1355916 0.05492597
0.1310321 -0.23711593 -0.38568968 -0.20936796 -0.14151567 0.21667016 0.27307773 -0.39516187
-0.5202174 -0.08521612 -0.12188353 0.25375077 0.18028751 -0.14526674 -0.39174178 -0.10248618
0.045356534 -0.2228962 0.34316388 -0.30168992 0.19011426 0.33933613 0.060776528 -0.19033171
-0.054445803 -0.23416996 0.32837725 0.018064179 0.32307762 0.05611159 -0.1406474 -0.10253602
0.27744126 -0.21775153 -0.0076051173 0.73211986 -0.0041347756 -0.44570464 -0.17272353 -0.006252867
0.019374652 -0.26816037 -0.26724908 0.17330219 -0.06678398 -0.20090416 -0.058870874 0.030888567
0.31936836 0.14786178 -0.008323938 0.27595317 -0.17425206 0.12744848 -0.25969988 -0.147864
00000000: df17 183e cfa9 2dbe 35b9 4cbe 73cf 0fbd
00000010: 7548 c43c 6677 933d 2e12 0e3e 7da4 3b3e
00000020: 10e2 9c3c 4b0c 853d 1bb4 003f 13a1 183d
00000030: 53e5 cbbe c1a1 56bd 0965 f4bd c44f b3bc
00000040: 92a1 63be 7d60 053e 976f b13d 4796 9bbe
00000050: d4eb 603e 6e7c aebd e55f c23e 1c0a 163d
00000060: 0fec bbbe 675f 61be 102b d2be 84f4 ccbd
00000070: 3aec 16bd c659 bfbd d996 2cbd 7b22 083f
00000080: 05ae f7bd 547e 773d df22 113e f0fa fbbd
00000090: 613b 87be 5934 17be 4989 663d c1d0 cfbd
000000a0: f560 8d3e d66b 863e 2154 e2bd 416c 5d3e
000000b0: 145d 803c c2cb debe 9f3c 24be 3e71 283e
000000c0: e6e4 40bc 610b 6cbe dd77 193e 6e8a 123e
000000d0: b1a8 1c3d 3b38 56be bfa7 823e ada4 09be
000000e0: 94a5 653e 5136 ccbe b9cf 7e3e 1563 693e
000000f0: 8d2c 2ebd 0333 abbe e310 893b 961c 3fbd
00000100: a088 d23d 6bc8 b03e 0a4c 03bf fb2c abbd
00000110: a49a 9e3e 68bb 073e 86d8 0abe 0efa 603d
00000120: 472d 063e 85ce 72be 1e79 c5be 8e64 56be
00000130: 7ce9 10be c8de 5d3e d8d0 8b3e a852 cabe
00000140: f82c 05bf ca85 aebd 129e f9bd 9feb 813e
00000150: 4a9d 383e cec0 14be 6192 c8be 46e4 d1bd
00000160: c6c7 393d e73e 64be 2db3 af3e 1a77 9abe
00000170: 50ad 423e 77bd ad3e cff0 783d 51e6 42be
00000180: 9002 5fbd 40ca 6fbe 1021 a83e 54fb 933c
00000190: 6e6a a53e 44d5 653d df05 10be 68fe d1bd
000001a0: c80c 8e3e 42fa 5ebe 5934 f9bb 356c 3b3f
000001b0: 037d 87bb 6633 e4be 70de 30be dae4 ccbb
000001c0: 97b7 9e3c 514c 89be dfd4 88be 2176 313e
000001d0: 0ac6 88bd d2b9 4dbe 9622 71bd 050a fd3c
000001e0: 4084 a33e 1469 173e 2061 08bc bc49 8d3e
000001f0: 226f 32be db81 023e 62f7 84be a969 17be

actor.0.bias f4 [64]
0.10356402 -0.08308947 -0.11388711 0.051034946 -0.025236666 -0.013109955 -0.11804942 0.051987387
-0.09589727 -0.10321481 0.07210022 0.10725758 -0.053378116 0.007500204 0.08392289 -0.09949679
-0.09939821 -0.01151497 -0.05400233 -0.06787806 0.12276675 -0.08857783 0.05517555 0.056095146
-0.0016114746 -0.086230844 0.056244418 0.0109727895 0.023965366 0.08127914 -0.041856248 -0.115695335
-0.0100956615 -0.1264466 0.0027503811 -0.027518177 0.07946642 -0.09761199 0.07098945 -0.03191809
-0.10149644 -0.04475898 0.04243421 -0.11544844 0.084656216 0.058409043 -0.02547547 0.09781354
0.09439962 -0.022876732 0.0034108162 -0.012077628 0.07152044 0.042567637 -0.037259094 -0.026811207
-0.072992414 -0.04575314 -0.098165475 0.00048728022 0.10121114 0.10353002 -0.1239759 -0.07326463
00000000: 5f19 d43d d02a aabd a53d e9bd 050a 513d
00000010: 20bd cebc 23cb 56bc e5c3 f1bd baf0 543d
00000020: ca65 c4bd 4962 d3bd 48a9 933d dda9 db3d
00000030: 03a3 5abd 45c4 f53b c4df ab3d f9c4 cbbd
00000040: 4a91 cbbd 49a9 3cbc 8c31 5dbd a703 8bbd
00000050: 226d fb3d 4b68 b5bd c2ff 613d 06c4 653d
00000060: 1d38 d3ba cc99 b0bd 8c60 663d 37c7 333c
00000070: 0453 c43c ae75 a63d 7571 2bbd adf1 ecbd
00000080: 4668 25bc 387b 01be bd3f 343b cd6d e1bc
00000090: 4abf a23d cce8 c7bd eb62 913d 8bbc 02bd
000000a0: 5edd cfbd 3155 37bd 7fcf 2d3d 3b70 ecbd
000000b0: 3d60 ad3d 523e 6f3d efb1 d0bc 7752 c83d
000000c0: 9754 c13d fc67 bbbc 0088 5f3b 3ee1 45bc
000000d0: 4f79 923d 675b 2e3d fe9c 18bd 2da3 dbbc
000000e0: 0c7d 95bd a567 3bbd fb0a c9bd a579 ff39
000000f0: c947 cf3d 8c07 d43d 14e7 fdbd c40b 96bd

actor.2.weight f4 [4, 64]
0.048950747 0.13661684 0.039301276 0.18582636 0.15366122 -0.19334003 -0.15283968 0.30185616
-0.2084786 -0.21266049 -0.014692182 0.19829525 -0.17614067 -0.12076576 0.04544343 0.27850902
-0.15050086 -0.056994285 0.044048734 -0.061140183 -0.05090511 0.08288566 0.04990596 0.07902007
0.22956926 -0.343976 -0.21957879 0.22276841 -0.05161464 0.28245625 -0.08525368 -0.19170253
0.41218886 -0.13526472 0.3375009 -0.004536393 -0.033743314 -0.44578153 0.28039587 -0.11284949
-0.39936295 -0.21705063 -0.4046389 -0.22537373 0.48303446 0.23885454 0.23187113 -0.14509875
-0.016997928 -0.09064851 0.117946595 -0.37813997 0.0086947 0.29954094 -0.22416498 0.26995525
-0.12841436 -0.28575912 -0.26075283 -0.020328222 -0.008294171 0.2670858 0.10912123 -0.45812362
-0.30178916 0.313462 0.29306975 0.043023366 -0.091103725 -0.11176003 0.20635363 -0.036284424
0.16174519 0.35061625 -0.0989913 -0.15745963 0.31443128 -0.06110602 -0.3697816 0.4318251
0.10518941 -0.14645346 0.13276953 -0.018981524 -0.37567464 0.3888414 0.09314822 0.015599017
0.19601001 -0.07287528 -0.1998777 0.109272115 0.11199327 -0.22560465 0.07036245 0.2680566
0.025397584 0.12623858 -0.054258574 -0.045397513 -0.14780779 0.52117306 -0.03989944 -0.004227354
0.4018179 -0.06998065 -0.4745611 0.5210986 0.006705476 0.017426806 -0.035197716 -0.38377282
-0.16616343 -0.10796345 -0.15252076 -0.24076422 -0.40778497 -0.044444066 0.16307215 0.09024494
0.58991206 0.15553463 0.19887766 0.055223953 -0.41593137 -0.20168339 0.5305945 0.19817641
0.12765911 -0.11656795 -0.078588076 0.18370777 -0.51121527 0.069977164 -0.32255012 -0.06969342
-0.090753846 0.0029251066 0.23899867 0.30446672 0.2883896 0.03994562 -0.06115815 0.09313207
-0.106471 -0.12902494 -0.24050729 -0.07881962 -0.02734986 -0.3060481 0.34898448 0.027493604
0.013123645 -0.37061703 0.13499136 0.12962057 0.5030206 0.01778054 -0.15924561 -0.1895809
-0.28047082 -0.17115127 -0.34864992 -0.2723721 0.38467267 -0.030392503 0.023870548 0.091808125
-0.26651955 -0.1031166 0.2839695 -0.23219605 0.25698683 0.26549843 -0.31855568 0.12597202
0.41547862 -0.08509101 -0.37811863 -0.16227792 -0.029045653 -0.08046881 0.26267216 -0.45383745
0.14641517 0.1596434 -0.29676375 -0.037190165 0.11143182 0.085276105 0.06942845 -0.058033396
-0.2900689 0.006921647 0.09475658 -0.19939321 0.23850949 -0.041979656 -0.09188535 -0.0063847816
0.11405452 0.107223324 -0.012217727 -0.07498892 0.18487625 0.32139263 0.14064184 0.4839114
-0.13960415 0.17559509 -0.17105877 -0.014412599 -0.2473124 -0.232477 0.24266726 -0.076904684
-0.16361941 0.051549967 -0.19834407 0.23817275 0.15630355 0.20002972 -0.36778617 -0.121439226
0.16009292 -0.046890076 0.037625346 0.60462624 -0.19690908 0.03549346 0.1673089 0.1264766
0.21057482 -0.021847967 0.22309169 0.105273694 0.15052064 -0.3237087 0.098071866 -0.36456394
0.05478101 0.17156939 -0.2456188 0.07446857 0.24099258 -0.055872 0.21435654 0.13410884
-0.3993507 0.010262802 0.23426363 -0.3031671 0.1325086 0.191825 0.25088957 0.36129278
00000000: 9480 483d 49e5 0b3e 60fa 203d 4449 3e3e
00000010: 5e59 1d3e eefa 45be 0182 1cbe e48c 9a3e
00000020: 6a7b 55be acc3 59be 7ab7 70bc e90d 4b3e
00000030: 385e 34be 0a54 f7bd e422 3a3d bc98 8e3e
00000040: e61c 1abe d772 69bd 726c 343d 216e 7abd
00000050: e081 50bd f5bf a93d 316a 4c3d 46d5 a13d
00000060: 3414 6b3e 9f1d b0be 43d9 60be 671d 643e
00000070: df69 53bd 1b9e 903e 7b99 aebd ab4d 44be
00000080: 6b0a d33e d682 0abe ebcc ac3e 06a6 94bb
00000090: 6e36 0abd 7a3d e4be 0c90 8f3e a21d e7bd
000000a0: 4d79 ccbe 8542 5ebe d42c cfbe 5fc8 66be
000000b0: 4b50 f73e 4996 743e a06f 6d3e c494 14be
000000c0: 3d3f 8bbc eda5 b9bd fc8d f13d 909b c1be
000000d0: 3774 0e3c 6e5d 993e 818b 65be 9337 8a3e
000000e0: 0e7f 03be 054f 92be 6581 85be 5f87 a6bc
000000f0: 46e4 07bc 78bf 883e f47a df3d 2e8f eabe
00000100: 1c84 9abe 177e a03e 3d0d 963e 4539 303d
00000110: 9794 babd 71e2 e4bd 5e4e 533e fa9e 14bd
00000120: 88a0 253e f983 b33e f3bb cabd 193d 21be
00000130: 23fd a03e 4e4a 7abd 0454 bdbe 2e18 dd3e
00000140: 8c6d d73d e5f7 15be bcf4 073e 247f 9bbc
00000150: 6d58 c0be 3816 c73e 7ec4 be3d 0593 7f3c
00000160: d9b6 483e a33f 95bd bdac 4cbe 0fca df3d
00000170: ba5c e53d e804 67be 301a 903d b73e 893e
00000180: 980e d03c b044 013e 3d3e 5ebd bef2 39bd
00000190: ed5a 17be 996b 053f 986d 23bd 9e85 8abb
000001a0: 13bb cd3e 0452 8fbd acf9 f2be b866 053f
000001b0: 9cb9 db3b a9c2 8e3c 7b2b 10bd df7d c4be
000001c0: bf26 2abe f11b ddbd 672e 1cbe e58a 76be
000001d0: 31c9 d0be fb0a 36bd 63fc 263e 57d2 b83d
000001e0: 7a04 173f 7844 1f3e 96a6 4b3e 8332 623d
000001f0: f5f4 d4be 1786 4ebe 0bd5 073f c2ee 4a3e
00000200: 12b9 023e 2dbb eebd c9f2 a0bd e41d 3c3e
00000210: 01df 02bf 3050 8f3d 4a25 a5be 6cbb 8ebd
00000220: 27dd b9bd 25b3 3f3b 11bc 743e 10e3 9b3e
00000230: cda7 933e 059e 233d f880 7abd 07bc be3d
00000240: 780d dabd 1d1f 04be 8b47 76be 2e6c a1bd
00000250: d00c e0bc 56b2 9cbe 18ae b23e 443a e13c
00000260: 8f04 573c 84c1 bdbe 2d3b 0a3e 41bb 043e
00000270: f5c5 003f 7fa8 913c 4811 23be 7f21 42be
00000280: df99 8fbe 4742 2fbe 3e82 b2be 5b74 8bbe
00000290: d1f3 c43e b3f9 f8bc 2b8c c33c e605 bc3d
000002a0: 4075 88be cc2e d3bd 7364 913e cdc4 6dbe
000002b0: c793 833e 69ef 873e bb19 a3be cffe 003e
000002c0: 9db9 d43e 3244 aebd c498 c1be 2f2c 26be
000002d0: 26f1 edbc d5cc a4bd f77c 863e 625d e8be
000002e0: dced 153e 8f79 233e 6bf1 97be b754 18bd
000002f0: 5e36 e43d 3da5 ae3d 8130 8e3d 6db4 6dbd
00000300: e983 94be fcce e23b bd0f c23d bc2d 4cbe
00000310: d53b 743e dcf2 2bbd 632e bcbd 6e37 d1bb
00000320: 6b95 e93d e797 db3d dc2c 48bc ca93 99bd
00000330: 3350 3d3e 938d a43e 6a04 103e 3cc3 f73e
00000340: 64f4 0ebe 33cf 333e 082a 2fbe d222 6cbc
00000350: 763f 7dbe 730e 6ebe c47d 783e 3480 9dbd
00000360: d98b 27be 0f26 533d b51a 4bbe 8fe3 733e
00000370: 0a0e 203e 97d4 4c3e 784e bcbe 21b5 f8bd
00000380: 66ef 233e cf0f 40bd 091d 1a3d c9c8 1a3f
00000390: 89a2 49be 9761 113d 0653 2b3e 1583 013e
000003a0: eda0 573e 82fa b2bc 2672 643e bc99 d73d
000003b0: 1522 1a3e 26bd a5be e7d9 c83d 20a8 babe
000003c0: 0d62 603d e3af 2f3e 7f83 7bbe fa82 983d
000003d0: c2c6 763e 0ada 64bd 4880 5b3e d453 093e
000003e0: b277 ccbe 5025 283c cee2 6f3e b838 9bbe
000003f0: 56b0 073e c66d 443e 9974 803e 5efb b83e

actor.2.bias f4 [4]
0.057064064 -0.11155217 0.0615137 -0.022236545
00000000: 02bc 693d 7775 e4bd caf5 7b3d 6a29 b6bc

critic.0.weight f4 [64, 2]
-0.2571734 0.3105578 0.1696348 0.10081203 -0.17676412 0.10905134 0.107916534 0.35945192
-0.2236097 -0.04523291 -0.08530226 0.008869149 0.16428874 0.177626 -0.044708204 -0.2592866
0.17811805 0.003335495 -0.002043247 0.2778825 0.035575923 0.23953798 -0.38853398 -0.19755541
0.002796074 0.18576658 -0.11362819 0.20165843 0.24501614 -0.07961444 0.19913135 0.0050073424
0.06432 0.02542347 0.24195375 0.056411996 0.1341098 0.11038398 0.20125552 0.16656087
0.11959979 0.1262974 0.43441758 0.108826086 0.027539048 0.46999606 -0.020994194 0.16989052
-0.10414624 -0.2188376 -0.04156535 0.13124444 0.010475378 -0.012284281 -0.20617354 -0.024265356
0.11818171 -0.16237417 -0.14064425 -0.019861039 0.36447996 -0.14568053 0.23504922 -0.09636798
-0.06300359 0.30955136 0.115074374 0.40777713 0.2073957 -0.13387045 0.13607909 0.0029853727
-0.029083287 -0.076881416 -0.057936117 0.3691998 0.18127397 -0.025719121 0.076370195 0.04505205
0.18868823 0.059676778 0.060843974 0.20865823 0.06868967 0.056821287 -0.35315302 0.2473426
0.37075928 -0.36777386 0.04835204 0.14563486 0.22755143 0.25727 -0.062015116 0.16896106
0.0119985035 -0.11669741 0.14188384 0.20316029 -0.25115535 -0.29088438 0.101566605 0.019100558
0.16354406 0.25189564 -0.038606107 0.33982933 -0.13294384 -0.39446017 -0.41406035 0.07453003
0.18255237 -0.011966118 -0.14926644 0.031044276 -0.44169804 0.008134022 0.14571597 0.19545847
0.77533174 0.09455445 0.32341102 -0.5755245 0.085481666 -0.026918495 -0.11898946 -0.023101259
00000000: 3bac 83be 6f01 9f3e bfb4 2d3e 8a76 ce3d
00000010: a701 35be 4f56 df3d 5803 dd3d 150a b83e
00000020: f1f9 64be 2546 39bd f4b2 aebd e84f 113c
00000030: 4f3b 283e 97e3 353e f31f 37bd 37c1 84be
00000040: 9464 363e 5298 5a3b ffe7 05bb 9d46 8e3e
00000050: 0fb8 113d 7249 753e eded c6be f74b 4abe
00000060: 563e 373b 9839 3e3e e5b5 e8bd 8c7f 4e3e
00000070: 83e5 7a3e e50c a3bd 17e9 4b3e a214 a43b
00000080: 34ba 833d e244 d03c b9c2 773e 4410 673d
00000090: 1454 093e ff10 e23d ed15 4e3e ef8e 2a3e
000000a0: bcf0 f43d 1b54 013e fb6b de3e 36e0 de3d
000000b0: 9299 e13c 53a3 f03e 04fc abbc c8f7 2d3e
000000c0: a04a d5bd f716 60be 6e40 2abd f164 063e
000000d0: eba0 2b3c 0244 49bc 281f 53be 24c8 c6bc
000000e0: 4109 f23d 6a45 26be 0c05 10be 9eb3 a2bc
000000f0: 1e9d ba3e 472d 15be beb0 703e 935c c5bd
00000100: 0708 81bd 847d 9e3e 1dac eb3d 2ac8 d03e
00000110: 8a5f 543e 5615 09be 5158 0b3e 3ea6 433b
00000120: 1340 eebc 0174 9dbd 6c4e 6dbd c207 bd3e
00000130: e29f 393e e8b0 d2bc fa67 9c3d 8088 383d
00000140: 7d37 413e a36f 743d 8837 793d 81aa 553e
00000150: 2bad 8c3d 70bd 683d 79d0 b4be 6147 7d3e
00000160: 29d4 bd3e db4c bcbe ca0c 463d 4e21 153e
00000170: 3e03 693e e5b8 833e 9003 7ebd 2104 2d3e
00000180: 5f95 443c 0dff eebd ff49 113e 4009 503e
00000190: 6f97 80be ccee 94be 2702 d03d c678 9c3c
000001a0: 1878 273e 77f8 803e 7021 1ebd 1cfe ad3e
000001b0: 6e22 08be aff6 c9be b8ff d3be 33a3 983d
000001c0: 02ef 3a3e 890d 44bc 4dd9 18be 9150 fe3c
000001d0: 3f26 e2be 9044 053c 9136 153e 4426 483e
000001e0: 247c 463f c3a5 c13d 2196 a53e 9355 13bf
000001f0: 0311 af3d 2d84 dcbc bfb0 f3bd da3e bdbc

critic.0.bias f4 [64]
-0.030142488 0.02499343 0.024305368 0.026373465 -0.034584656 0.023183377 0.026985181 0.022725163
0.027977953 -0.022352252 0.023608703 -0.036754943 0.023378644 -0.024450507 0.027694369 0.025634332
0.026241416 0.026664829 -0.023839938 -0.023997813 0.024878426 0.027419232 -0.022483082 -0.022469686
0.022314 -0.022973567 0.024065023 0.024710141 -0.023507359 -0.025510482 0.04289394 0.026594829
0.023511639 -0.023783294 0.02834691 -0.023465095 -0.024160722 -0.005731555 -0.021163976 -0.022980835
0.026356151 0.024424829 0.024674209 0.024031369 0.026581869 -0.022563875 -0.02513382 0.024013942
-0.02644224 -0.024239894 0.025681553 0.025364818 0.025969181 0.023289774 -0.025486618 0.018512413
-0.024391087 0.017682316 0.024111342 -0.024073673 0.027525067 0.031788263 0.025606453 -0.024892822
00000000: 61ed f6bc 06bf cc3c 0d1c c73c 2a0d d83c
00000010: a4a8 0dbd 11eb bd3c 0710 dd3c 1f2a ba3c
00000020: 0532 e53c 121c b7bc 0a67 c13c 5a8c 16bd
00000030: 9284 bf3c 6e4c c8bc 4ddf e23c 17ff d13c
00000040: 3df8 d63c 3370 da3c f94b c3bc 1097 c4bc
00000050: d7cd cb3c 4c9e e03c 712e b8bc 5912 b8bc
00000060: dacb b63c 1033 bcbc 0324 c53c ec6c ca3c
00000070: 8192 c0bc 5cfb d0bc 8eb1 2f3d 66dd d93c
00000080: 7b9b c03c 2fd5 c2bc c737 e83c df39 c0bc
00000090: b5ec c5bc c5cf bbbb 1360 adbc 4e42 bcbc
000000a0: dbe8 d73c 9416 c83c 9121 ca3c 6fdd c43c
000000b0: 38c2 d93c e0d7 b8bc 71e5 cdbc e3b8 c43c
000000c0: 669d d8bc be92 c6bc 1f62 d23c e1c9 cf3c
000000d0: 52bd d43c 32ca be3c 50c9 d0bc 58a7 973c
000000e0: d1cf c7bc 81da 903c 2685 c53c 2736 c5bc
000000f0: 407c e13c 6934 023d a0c4 d13c 08ec cbbc

critic.2.weight f4 [1, 64]
0.0311097 -0.6291438 -0.28387162 -0.077050515 0.00714877 -0.464672 -0.007269191 -0.30748767
-0.05600913 0.1586098 -0.26387867 0.023717888 -0.23317881 0.20083292 -0.0748908 -0.25814852
-0.06499672 -0.12723272 0.23585372 0.100434445 -0.23307295 -0.14808258 0.21090972 0.13594194
-0.073376104 0.14356653 -0.1283689 -0.26123372 0.3218004 0.15601133 -0.009388948 -0.13251661
-0.28298908 0.23055272 -0.053499505 0.16436177 0.14385416 -0.015851287 0.04090155 0.33456767
-0.11823051 -0.1512861 -0.14230675 -0.07848801 -0.3921645 0.23203997 0.20877098 -0.16625108
0.020685108 0.32318902 -0.34885123 -0.1214244 -0.14188112 -0.25999308 0.16867147 -0.016031707
0.25383544 -0.025077181 -0.060314197 0.21471804 -0.33055583 0.019826928 -0.09851267 0.22983901
00000000: c5d9 fe3c 910f 21bf 9f57 91be a9cc 9dbd
00000010: 3b40 ea3b 7de9 edbe 6532 eebb 066f 9dbe
00000020: d469 65bd 9b6a 223e 1b1b 87be 044c c23c
00000030: 6dc6 6ebe 25a7 4d3e 5960 99bd 0b2c 84be
00000040: 001d 85bd 4b49 02be a383 713e 93b0 cd3d
00000050: adaa 6ebe f6a2 17be b8f8 573e 5d34 0b3e
00000060: 3646 96bd 1b03 133e 2373 03be 6dc0 85be
00000070: 06c3 a43e 6fc1 1f3e 1ad4 19bc 6fb2 07be
00000080: f2e3 90be 0316 6c3e 4c22 5bbd 744e 283e
00000090: 814e 133e 8fda 81bc 6288 273d 744c ab3e
000000a0: d622 f2bd beea 1abe dcb8 11be 52be a0bd
000000b0: c9c9 c8be e39b 6d3e 0fc8 553e b93d 2abe
000000c0: d173 a93c 0879 a53e a19c b2be 5bad f8bd
000000d0: 4949 11be d01d 85be 37b8 2c3e ed54 83bc
000000e0: b8f6 813e a96e cdbc 050c 77bd 0cdf 5b3e
000000f0: 9d3e a9be 156c a23c 03c1 c9bd eb5a 6b3e

exp_avg f4 [64, 2]
-0.0036507216 -3.759508e-05 0.0019163133 -2.5240888e-05 0.0072946157 4.671923e-06 -0.0026386445 -3.91899e-05
0.03749652 -5.0412666e-05 0.000654184 3.6959245e-05 0.0002739485 4.663066e-06 0.008283572 -6.842868e-05
0.0008474118 5.165429e-05 -0.005699788 5.551007e-05 -0.0020494903 1.6650378e-05 -0.0008815311 -2.899695e-05
0.0009809438 7.9494406e-05 0.0012322776 5.5523284e-05 0.0064259754 -1.2766875e-05 0.010728516 8.758955e-06
-0.00082115596 1.2824059e-05 0.0031955966 1.3336954e-05 0.0004869879 -3.7432303e-05 0.0013734129 4.3086084e-06
-0.00096938905 -2.3845168e-05 0.008199729 -4.8382764e-05 -0.014351717 3.675289e-05 -0.00012361996 -1.9761874e-05
0.008068934 -5.188412e-05 0.0036756939 4.4229997e-05 -0.01742537 2.8817562e-05 0.0005549675 -9.222326e-06
-0.0034437277 5.849403e-05 0.00080742966 -4.0658673e-05 0.0010161601 -2.3674482e-05 0.0008319952 2.145359e-05
0.020239009 -7.984746e-05 0.0001832931 1.3677863e-05 0.0005896612 -9.163676e-05 0.010219707 3.6028665e-05
-0.0102492375 1.2147877e-05 0.001615241 9.935838e-05 0.005167672 -3.7519225e-05 9.581733e-05 3.497553e-05
0.0014009592 9.109237e-05 -0.0013642183 3.06485e-05 -0.005534683 0.000108120905 0.001129154 5.2933705e-05
0.0072297277 -6.318529e-05 -0.0019114503 -5.5240867e-05 0.0063870084 -5.7372607e-05 -0.01329978 -8.095898e-06
-0.021182833 3.399194e-05 0.0009484219 2.4671188e-05 -0.00033251182 -8.0658734e-05 -0.0014380515 6.294173e-05
0.0008370819 5.2348623e-06 0.01755344 -4.2660336e-05 -0.022572797 7.2854345e-05 0.009836722 -7.353792e-05
-0.017651504 1.6879983e-05 -0.00057670433 7.514911e-05 0.005906074 5.437061e-05 -0.001845137 -2.5500502e-05
4.20019e-05 8.377095e-06 0.009172513 -3.162868e-05 0.0014967378 2.4374505e-05 0.0018611918 0.00012347501
00000000: f240 6fbb 69af 1db8 ce2c fb3a 65bc d3b7
00000010: ac07 ef3b 83c3 9c36 1ced 2cbb d65f 24b8
00000020: f395 193d 3072 53b8 8c7d 2b3a b004 1b38
00000030: bfa0 8f39 6f77 9c36 d2b7 073c 5e81 8fb8
00000040: d824 5e3a 5fa7 5838 4ac5 babb 7cd3 6838
00000050: be50 06bb 6aac 8b37 8d16 67ba 7a3e f3b7
00000060: 0393 803a 3cb6 a638 6084 a13a ace1 6838
00000070: fd90 d23b 5031 56b7 a8c6 2f3c 6df3 1237
00000080: d842 57ba ea26 5737 376d 513b c8c1 5f37
00000090: 6952 ff39 a100 1db8 1704 b43a aa92 9036
000000a0: 991e 7eba 1c07 c8b7 2858 063c 99ee 4ab8
000000b0: 7723 6bbc 1d27 1a38 fb9f 01b9 4dc6 a5b7
000000c0: 9033 043c 269e 59b8 e9e3 703b 9983 3938
000000d0: a6bf 8ebc 3ebd f137 3d7b 113a 97b9 1ab7
000000e0: 2ab0 61bb 7d57 7538 b0a9 533a eb88 2ab8
000000f0: ad30 853a 9098 c6b7 411a 5a3a 3cf7 b337
00000100: 47cc a53c c773 a7b8 5e32 4039 f979 6537
00000110: 7e93 1a3a 1c2d c0b8 8f70 273c 7c1d 1738
00000120: 6bec 27bc bcce 4b37 7fb6 d33a a05e d038
00000130: 9355 a93b f65d 1db8 8af1 c838 b0b2 1238
00000140: 64a0 b73a d808 bf38 92cf b2ba 948c 0038
00000150: 495c b5bb f8be e238 1f00 943a 2205 5e38
00000160: 5ae7 ec3b 5882 84b8 a189 faba 6eb2 67b8
00000170: 1c4a d13b 5ea3 70b8 52e7 59bc 9ed3 07b7
00000180: 9f87 adbc 9192 0e38 849f 783a f9f4 ce37
00000190: fb54 aeb9 5427 a9b8 007d bcba 96ff 8338
000001a0: 9e6f 5b3a 20a7 af36 3bcc 8f3c 30ee 32b8
000001b0: 96ea b8bc 61c9 9838 342a 213c 5f38 9ab8
000001c0: e399 90bc 7d99 8d37 f92d 17ba 5f99 9d38
000001d0: bd87 c13b ff0b 6438 86d8 f1ba e9e9 d5b7
000001e0: 322b 3038 598b 0c37 4f48 163c 09a9 04b8
000001f0: 302e c43a da77 cc37 3cf3 f33a 1279 0139

exp_avg_sq f4 [64, 2]
4.8203947e-05 8.455539e-06 5.9467107e-05 7.811044e-06 7.377736e-05 3.4492625e-06 2.7112328e-05 5.799312e-06
0.0020969682 5.2199735e-05 8.8340075e-06 6.5143995e-06 1.5079765e-05 6.4927003e-06 0.00028216405 1.8679086e-05
2.3631135e-05 6.6822367e-06 0.00015948419 9.911129e-06 4.7715734e-05 6.9122116e-06 1.6356273e-05 7.4749846e-06
4.9045208e-05 2.0186078e-05 1.13305005e-05 8.399597e-06 8.828376e-05 9.515531e-06 0.00013785798 3.7669474e-06
7.5635417e-06 1.8198721e-06 2.0993177e-05 5.0011477e-06 4.5770976e-05 8.287676e-06 3.7619202e-06 3.5054197e-07
1.0960948e-05 2.6647942e-06 0.00030154502 1.9025008e-05 0.0003514994 4.295505e-06 7.4248082e-06 1.2392182e-06
0.00033027015 9.5965825e-06 4.1288586e-05 9.9476565e-06 0.0004744436 1.0705033e-05 5.587528e-06 1.6857715e-06
0.00020425131 2.1135678e-05 3.9709597e-05 1.0401203e-05 7.029442e-05 3.9632296e-06 3.2173404e-05 6.011665e-06
0.0010206451 3.3833003e-05 2.356731e-06 1.6516749e-06 0.00016468432 4.5482553e-05 0.0002074109 3.5797457e-05
0.00028719334 2.0782332e-05 6.1502564e-05 3.2977165e-05 0.00010354008 7.752625e-06 2.2903057e-05 3.1229104e-06
2.9396404e-05 2.6401118e-05 3.0468385e-05 2.5267004e-06 0.00048264404 5.4478238e-05 3.442662e-05 1.713868e-05
0.0002785068 1.2382775e-05 2.7091874e-05 1.17614545e-05 0.00027110722 2.1841579e-05 0.00026766252 1.23004875e-05
0.0007157669 1.6848267e-05 5.972461e-06 4.3984105e-06 8.027182e-05 2.5431324e-05 8.050825e-05 9.904366e-06
1.5632051e-05 9.607081e-06 0.00062564 3.849709e-06 0.0010612105 1.2992272e-05 0.0005671211 5.643841e-05
0.00040348148 2.5923544e-05 9.492417e-05 2.2843058e-05 0.00011816598 1.3011591e-05 2.4245579e-05 4.979343e-06
1.7768678e-05 6.9895514e-06 0.00014723637 5.808588e-06 2.231578e-05 5.2350633e-06 0.00012434395 3.5511304e-05
00000000: 982e 4a38 43dc 0d37 526c 7938 2e0c 0337
00000010: ebb8 9a38 e179 6736 486f e337 b697 c236
00000020: 4a6d 093b 0af1 5a38 c635 1437 4496 da36
00000030: 19ff 7c37 dfdb d936 6bef 9339 08b1 9c37
00000040: 7a3b c637 fa37 e036 363b 2739 fa47 2637
00000050: 6122 4838 72ef e736 d434 8937 a1d1 fa36
00000060: e4b5 4d38 4655 a937 2118 3e37 ffeb 0c37
00000070: fc24 b938 e5a4 1f37 f88d 1039 aacb 7c36
00000080: 54ca fd36 5442 f435 811a b037 88cf a736
00000090: 36fa 3f38 4c0b 0b37 4c75 7c36 1f32 bc34
000000a0: eae4 3737 d1d4 3236 b018 9e39 e597 9f37
000000b0: 7349 b839 1b22 9036 9e22 f936 3753 a635
000000c0: 1c28 ad39 0201 2137 482d 2d38 dce4 2637
000000d0: bebe f839 c499 3337 807c bb36 ab42 e235
000000e0: 4b2c 5639 864c b137 db8d 2638 d480 2e37
000000f0: 086b 9338 e2fb 8436 eef1 0638 cfb7 c936
00000100: 2bc7 853a e9e7 0d38 5528 1e36 1eaf dd35
00000110: 1caf 2c39 85c4 3e38 717c 5939 3a25 1638
00000120: 7092 9639 b855 ae37 f0fa 8038 f650 0a38
00000130: a823 d938 4511 0237 f11f c037 3193 5136
00000140: 4c98 f637 f877 dd37 5c96 ff37 6290 2936
00000150: 630b fd39 907f 6438 4d65 1038 09c5 8f37
00000160: 8d04 9239 9dbf 4f37 5b43 e337 1053 4537
00000170: 6523 8e39 6f38 b737 0e55 8c39 315e 4e37
00000180: 4ea2 3b3a 6155 8d37 0d67 c836 0f96 9336
00000190: 9b57 a838 5a55 d537 8ad6 a838 ee2a 2637
000001a0: 9321 8337 192e 2137 fd01 243a c02c 8136
000001b0: 5118 8b3a 62f9 5937 daaa 143a 48b8 6c38
000001c0: 5e8a d339 6376 d937 0712 c738 189f bf37
000001d0: e1cf f738 5c4c 5a37 fc62 cb37 3b14 a736
000001e0: f20d 9537 ca87 ea36 7663 1a39 64e7 c236
000001f0: c632 bb37 daa8 af36 5362 0239 f9f1 1438

exp_avg f4 [64]
-0.00203794 0.001316673 0.0020370444 -0.0012862718 0.007041463 -0.00044199196 0.0013382671 0.0012043717
0.0009178068 0.00023810424 -0.0013137754 -0.0014078463 2.9142258e-05 0.00021177279 0.0005359234 0.0028006944
0.00028397987 0.00090347783 0.00091526983 0.00042719 -0.0010904665 0.0026291225 -0.0025413875 -0.00023297746
0.0010418345 0.0018694925 -0.003530483 0.00016857605 -0.001724692 -0.00016444089 0.0002137498 0.0012085283
0.0040050154 0.00070024934 0.0010868139 0.0032979266 -0.0034051174 0.001271944 0.000753693 -0.000106218125
0.0016848485 4.3012027e-05 -0.0023598233 0.001942279 0.00016414632 -0.0013755376 0.0020333694 -0.003661851
-0.0045813695 0.0003855232 0.00053500605 7.6495206e-05 -0.00034326623 0.0023287286 -0.0031219805 0.003313194
-0.002322923 -0.00024792802 0.002772744 -0.0005520123 -0.0010588613 0.0007387532 0.0014203211 0.0013194772
00000000: f68e 05bb 3794 ac3a ef7f 053b 1f98 a8ba
00000010: 13bc e63b 28bb e7b9 cb68 af3a 02dc 9d3a
00000020: f998 703a 9fab 7939 fd32 acba 7c87 b8ba
00000030: 8676 f437 530f 5e39 367d 0c3a db8b 373b
00000040: 22e3 9439 5fd7 6c3a b8ee 6f3a 79f8 df39
00000050: fced 8eba 5b4d 2c3b 688d 26bb 694b 74b9
00000060: 2a8e 883a c209 f53a ad5f 67bb cac3 3039
00000070: 0f0f e2ba c46d 2cb9 0622 6039 7b67 9e3a
00000080: 813c 833b f090 373a 6c73 8e3a 0722 583b
00000090: 6428 5fbb 5cb7 a63a 7b93 453a 6cc1 deb8
000000a0: 22d6 dc3a d067 3438 44a7 1abb 1294 fe3a
000000b0: b11e 2c39 624b b4ba 4742 053b aafb 6fbb
000000c0: 501f 96bb 0c20 ca39 a63f 0c3a 0d6c a038
000000d0: 6af8 b3b9 959d 183b 249a 4cbb 2c22 593b
000000e0: 2e3c 18bb 56fc 81b9 edb6 353b ebb4 10ba
000000f0: 7dc9 8aba e3a8 413a 112a ba3a 4ff2 ac3a

exp_avg_sq f4 [64]
4.342366e-05 3.273085e-05 2.2831435e-05 2.1823318e-05 0.00019295838 1.3095091e-05 3.5460558e-05 5.9767124e-05
2.6933913e-05 6.4149695e-05 2.329843e-05 3.513215e-05 5.209406e-05 2.2137365e-05 4.108966e-05 3.1430725e-05
9.119135e-06 1.4092149e-05 3.0267436e-05 1.1149237e-06 2.0232565e-05 9.928882e-05 3.1192998e-05 4.267119e-06
4.058791e-05 4.168554e-05 4.9533992e-05 3.8134967e-06 7.578108e-05 4.038029e-05 2.2276565e-05 4.015041e-05
0.00015145597 1.0347688e-05 0.000103749255 0.00010168545 8.285353e-05 0.00013532583 2.9870936e-05 1.2396398e-05
0.00010911808 8.727946e-06 0.00018494423 0.00010052818 5.590529e-05 4.443934e-05 8.073762e-05 6.211241e-05
9.346549e-05 1.0637911e-05 5.5986053e-05 3.128235e-05 4.2422904e-05 5.268642e-05 8.9913614e-05 0.0001634249
0.00013069165 5.7391895e-05 7.4885254e-05 1.4765922e-05 4.3008677e-05 3.8089805e-05 3.5575693e-05 0.000117723925
00000000: cd21 3638 7c48 0938 2286 bf37 3811 b737
00000010: df54 4a39 fdb2 5b37 7cbb 1438 76ae 7a38
00000020: 23f0 e137 1b88 8638 ff70 c337 dc5a 1338
00000030: 927f 5a38 a1b3 b937 b057 2c38 7cd4 0338
00000040: 63fe 1837 526d 6c37 d3e6 fd37 7da4 9535
00000050: 1ab9 a937 4839 d038 3ad5 0238 462e 8f36
00000060: f03c 2a38 82d7 2e38 b8c2 4f38 60eb 7f36
00000070: a8ec 9e38 025e 2938 8fde ba37 2d67 2838
00000080: 27d0 1e39 fb9a 2d37 f593 d938 f63f d538
00000090: a6c1 ad38 40e6 0d39 5993 fa37 20fa 4f37
000000a0: 53d6 e438 3e6e 1237 97ed 4139 a8d2 d238
000000b0: d97b 6a38 6164 3a38 ae51 a938 5942 8238
000000c0: e702 c438 7b79 3237 91d2 6a38 2b35 0338
000000d0: 3fef 3138 9dfb 5c38 0190 bc38 0a5d 2b39
000000e0: 460a 0939 14b8 7038 b70b 9d38 27bb 7737
000000f0: 3764 3438 9ec2 1f38 1c37 1538 8de2 f638

exp_avg f4 [4, 64]
0.004783061 -0.005081384 0.0004579375 0.004518965 0.00073621405 0.0045892294 -0.0049184905 -0.0040003257
-0.0051904633 0.0030359654 0.00516636 0.0049766325 -0.004986561 -0.0048992294 -0.0011470281 -0.0024029207
-0.004402415 0.0045233998 -0.0051688566 0.0021043965 0.0051410934 -0.0042198454 0.0010728588 -0.004699103
-0.00048128306 0.0044555394 0.0019853648 0.0052274223 0.0052263243 0.0051519624 -0.0019920361 -0.00044818578
0.0037029926 -0.0045577004 0.005145939 -0.004477656 0.004541714 -0.004927721 -0.0044154967 0.0052845315
-0.0045274785 -0.0043446263 0.004985108 -0.004928358 0.0024296367 0.005150082 0.004909762 0.0029833445
-0.0018406422 0.0051436755 0.005138419 -0.0045014294 0.005237238 -0.00020675785 -0.0003361224 -0.004883001
0.00049669883 -0.0052363016 -0.0031034043 -0.0024894478 0.005102023 0.00017460117 -0.0050093317 -0.0051704855
0.00031125912 -0.00030366957 -0.00023566595 0.00020204695 -4.234597e-05 0.0002524607 -0.00047880586 4.2907486e-05
-0.0003383016 -0.0001866831 0.00028711202 0.00044762675 -0.00033480107 -0.00022329995 0.00016173915 -0.00022814366
-0.00028978172 5.6439032e-05 -0.00028059646 -0.00012040083 0.00043672833 -0.00025470296 0.00011775453 3.210154e-05
-1.7912595e-05 -9.51475e-05 0.00014030655 0.00017309774 0.00017535576 0.00033325437 -0.00012869685 -0.00025525285
5.0506133e-05 -0.0005431685 0.0001944462 -0.00014057239 0.0002462172 -0.0004358137 7.881992e-05 8.217037e-05
-0.0004959593 -0.00016407591 0.0001977332 -0.00047211372 0.00020721572 0.00031666082 7.005735e-05 0.00024594806
0.00016934611 0.0001457426 0.00020049849 -0.000114960676 0.00031350233 0.00011052399 -9.916133e-05 -0.00016379767
-0.00015949542 -0.00025392018 -0.00026296513 -3.305823e-05 0.00040997044 0.00023345585 -0.00037171989 -0.00031937158
-0.0066366317 0.0071929875 -0.00010537319 -0.006101872 -0.00081522536 -0.007501331 0.007973211 0.0049005235
0.00745761 -0.0033334994 -0.007326034 -0.00794004 0.0077499547 0.007580419 0.001089805 0.0033092732
0.006055695 -0.0057934397 0.007510919 -0.002317915 -0.007815427 0.005718234 -0.0014833865 0.005886704
0.0006426721 -0.005454872 -0.0026618063 -0.0073145595 -0.007168822 -0.0075393445 0.0027053542 0.001039306
-0.004718194 0.007904183 -0.0074924375 0.005893443 -0.006150151 0.007898541 0.005374393 -0.007254823
0.007818246 0.0057165218 -0.006774793 0.007962244 -0.00333181 -0.007781419 -0.006515213 -0.0041006305
0.0019350026 -0.0074581625 -0.007534235 0.0059037954 -0.0076642935 -2.5913781e-05 0.0006401389 0.0065701893
-0.00026793548 0.0075195744 0.004328015 0.003097635 -0.007856616 -0.00068735506 0.0071251886 0.0075673754
0.0015423239 -0.0018079503 -0.00011689899 0.0013808544 0.00012135691 0.002659647 -0.0025758832 -0.0009431288
-0.0019288159 0.0004842208 0.0018725146 0.0025157898 -0.0024286048 -0.0024578294 -0.00010451957 -0.00067822286
-0.0013635195 0.0012136296 -0.0020614818 0.0003339195 0.0022375747 -0.0012436956 0.00029276987 -0.001219714
-0.00014347858 0.0010944699 0.0005361336 0.0019140366 0.0017671577 0.0020540606 -0.00058462814 -0.00033586888
0.00096470164 -0.0028033247 0.0021520655 -0.0012752289 0.0013622184 -0.0025350233 -0.0010377464 0.0018881023
-0.0027948215 -0.0012078338 0.0015919695 -0.0025617504 0.00069496373 0.002314714 0.0015353927 0.0008713219
-0.00026371476 0.0021687474 0.0021953264 -0.0012874237 0.0021134946 0.00012214742 -0.00020485494 -0.0015233927
-6.926809e-05 -0.0020293563 -0.00096162077 -0.00057512656 0.0023446165 0.0002793039 -0.0017441269 -0.0020774968
00000000: 39bb 9c3b bd81 a6bb 5517 f039 d313 943b
00000010: 7dfe 403a 3f61 963b 4a2b a1bb 2a15 83bb
00000020: c314 aabb 0cf7 463b 924a a93b 0513 a33b
00000030: 4e66 a3bb b789 a0bb e057 96ba 527a 1dbb
00000040: 2242 90bb 0739 943b 835f a9bb eae9 093b
00000050: 9e76 a83b a146 8abb 2b9f 8c3a effa 99bb
00000060: b854 fcb9 c6ff 913b e51c 023b cc4a ab3b
00000070: 9641 ab3b cbd1 a83b d28c 02bb 7afa eab9
00000080: e8ad 723b c358 95bb 449f a83b 4db9 92bb
00000090: a9d2 943b b878 a1bb dfaf 90bb dd29 ad3b
000000a0: 3e5b 94bb 5e5d 8ebb 1e5a a33b 107e a1bb
000000b0: 8a3a 1f3b 05c2 a83b 12e2 a03b 3784 433b
000000c0: b441 f1ba 478c a83b 2f60 a83b ba80 93bb
000000d0: 239d ab3b 23cd 58b9 9639 b0b9 9501 a0bb
000000e0: e534 023a 4895 abbb 7c62 4bbb 0126 23bb
000000f0: df2e a73b 2515 3739 5225 a4bb 2d6d a9bb
00000100: 7e30 a339 d735 9fb9 191d 77b9 91dc 5339
00000110: a49c 31b8 b45c 8439 3c08 fbb9 90f7 3338
00000120: 125e b1b9 5dc0 43b9 8687 9639 72af ea39
00000130: 3d88 afb9 a025 6ab9 8698 2939 d939 6fb9
00000140: d8ed 97b9 f3b8 6c38 051d 93b9 b47f fcb8
00000150: aff8 e439 a789 85b9 fbf2 f638 c4a4 0638
00000160: 0143 96b7 ed89 c7b8 411f 1339 9281 3539
00000170: b4df 3739 a5b8 ae39 ccf2 06b9 75d3 85b9
00000180: 8cd6 5338 6c63 0eba 41e4 4b39 9d66 13b9
00000190: b716 8139 ed7d e4b9 1f4c a538 e252 ac38
000001a0: 4403 02ba cb0b 2cb9 9a56 4f39 0886 f7b9
000001b0: 0c48 5939 7f05 a639 c1eb 9238 97f2 8039
000001c0: 8092 3139 7bd2 1839 e73c 5239 0b17 f1b8
000001d0: 925d a439 1ec9 e738 d5f4 cfb8 1ac1 2bb9
000001e0: 3a3e 27b9 9720 85b9 95de 89b9 01a8 0ab8
000001f0: 4df1 d639 d4cb 7439 66e3 c2b9 5471 a7b9
00000200: 1a78 d9bb 27b3 eb3b cdfb dcb8 36f2 c7bb
00000210: d9b4 55ba bacd f5bb 12a2 023c 9294 a03b
00000220: f85e f43b d776 5abb 3a0f f0bb f116 02bc
00000230: 55f3 fd3b 2a65 f83b cad7 8e3a 64e0 583b
00000240: da6e c63b e5d6 bdbb 281e f63b 29e8 17bb
00000250: 470c 00bc 0660 bb3b 316e c2ba 41e5 c03b
00000260: ff78 283a c8be b2bb b371 2ebb f9ae efbb
00000270: 70e8 eabb 9b0c f7bb 504c 313b 5339 883a
00000280: 149b 9abb 8c80 013c 1f83 f5bb c81d c13b
00000290: 3587 c9bb e268 013c ad1b b03b deb9 edbb
000002a0: 1a18 003c a951 bb3b 15ff ddbb 1274 023c
000002b0: 7f5a 5abb 46fb febb 917d d5bb 955e 86bb
000002c0: ea9f fd3a 9a63 f4bb bee1 f6bb a074 c13b
000002d0: c124 fbbb 6c61 d9b7 ffce 273a be4a d73b
000002e0: b179 8cb9 c366 f63b 05d2 8d3b b101 4b3b
000002f0: 09b9 00bc 9e2f 34ba 6a7a e93b bff7 f73b
00000300: cd27 ca3a bff8 ecba ab27 f5b8 c9fd b43a
00000310: ff80 fe38 794d 2e3b 26d0 28bb 4d3c 77ba
00000320: 52d0 fcba 04df fd39 2a6f f53a f3df 243b
00000330: 3a29 1fbb 8913 21bb 8431 dbb8 c4ca 31ba
00000340: 1fb8 b2ba a712 9f3a ed19 07bb eb11 af39
00000350: 46a4 123b 8003 a3ba e87e 9939 cfde 9fba
00000360: bd72 16b9 5174 8f3a 518b 0c3a 69e0 fa3a
00000370: f99f e73a 6b9d 063b bb41 19ba 8f17 b0b9
00000380: 08e4 7c3a fcb7 37bb ab09 0d3b 9525 a7ba
00000390: 778c b23a a222 26bb fe04 88ba 337a f73a
000003a0: 5329 37bb 2d50 9eba a2a9 d03a 0ae3 27bb
000003b0: 3a2e 363a 75b2 173b 3b3f c93a 6c69 643a
000003c0: 3243 8ab9 8b21 0e3b 77df 0f3b c5be a8ba
000003d0: 8e82 0a3b b314 0039 54ce 56b9 94ac c7ba
000003e0: 0644 91b8 f3fe 04bb 4715 7cba 17c4 16ba
000003f0: 23a8 193b 896f 9239 309b e4ba 9d26 08bb

exp_avg_sq f4 [4, 64]
7.8036814e-05 0.000106118925 4.330118e-06 7.1815346e-05 1.1361777e-06 0.00020762235 0.00019265215 4.7234967e-05
0.00011664575 3.9452683e-05 0.000112019996 0.00018413403 0.00018362391 0.00018384874 8.916067e-06 4.0020645e-05
5.726398e-05 6.426413e-05 0.00013859392 1.4225409e-05 0.00015955871 5.659595e-05 1.9812544e-05 7.356431e-05
9.386958e-06 6.670489e-05 1.4816417e-05 0.00012571384 0.00012027682 0.00013871343 2.7104326e-05 5.4475036e-06
5.207391e-05 0.00022548516 0.00015218586 6.180658e-05 6.860166e-05 0.00019363631 6.247247e-05 0.00013897015
0.0002246705 6.154155e-05 8.979925e-05 0.00019184686 1.984949e-05 0.00016854421 0.000102892685 2.8344388e-05
1.3946928e-05 0.000153665 0.00015466282 6.4695494e-05 0.0001418899 4.417206e-05 2.1039037e-05 8.408279e-05
1.2462995e-05 0.00013622595 3.6520778e-05 1.5224889e-05 0.00016677062 1.3560085e-05 9.34615e-05 0.00013791626
5.2639166e-06 7.1370705e-06 1.4355887e-06 5.177249e-06 1.592864e-07 2.1037591e-05 1.981822e-05 2.1757917e-06
8.5279535e-06 5.5319833e-06 6.9884736e-06 1.7937664e-05 1.8657096e-05 1.7031283e-05 1.1703795e-06 7.668222e-06
3.4655504e-06 3.849508e-06 1.086219e-05 1.6322015e-06 1.6310198e-05 3.7953314e-06 4.5427146e-06 4.8043853e-06
2.3163823e-06 4.512354e-06 1.4650229e-06 9.390667e-06 9.566667e-06 1.24089765e-05 5.0184844e-06 1.8475474e-06
5.2963437e-06 2.7366834e-05 1.3059495e-05 2.8601723e-06 4.5205015e-06 2.0713245e-05 4.3401647e-06 1.2152137e-05
2.6950862e-05 4.8504344e-06 5.0455187e-06 1.9945042e-05 2.7481462e-06 1.5213549e-05 9.058981e-06 2.5076235e-06
2.108079e-06 1.2443238e-05 1.3011867e-05 3.5613214e-06 1.1387843e-05 1.2538861e-05 5.911709e-06 4.401118e-06
3.2720975e-06 1.1006224e-05 4.6076752e-06 6.0710676e-07 1.546755e-05 4.238638e-06 6.6101024e-06 1.14427285e-05
8.088934e-05 0.00010515357 3.8569397e-06 6.8818204e-05 1.0348258e-06 0.00020612116 0.00019195069 4.5978242e-05
0.00012057672 3.9361086e-05 0.00011360116 0.00018428917 0.00017891411 0.00018238804 7.818418e-06 4.032932e-05
5.8621274e-05 6.5660715e-05 0.0001342163 1.4099346e-05 0.00015295981 5.8899674e-05 1.9093977e-05 7.4859876e-05
7.794591e-06 6.339476e-05 1.5460826e-05 0.00012963128 0.0001256578 0.00013404866 2.3352235e-05 5.010159e-06
4.6997622e-05 0.0002245119 0.00015015512 6.252414e-05 7.13623e-05 0.0001891351 6.342329e-05 0.00014496419
0.00022427064 6.422921e-05 9.180737e-05 0.00019031067 2.0566831e-05 0.00017719364 9.57625e-05 2.9662386e-05
1.2144107e-05 0.00015351566 0.00015500972 6.3411986e-05 0.00014789037 3.897507e-05 1.7905048e-05 8.341412e-05
1.1471457e-05 0.00014195062 3.415296e-05 1.524414e-05 0.00016308777 1.2007751e-05 9.636876e-05 0.00013540653
6.4554715e-06 9.121924e-06 1.2781184e-06 6.901076e-06 2.2162341e-07 2.68855e-05 2.2766246e-05 3.873131e-06
1.0886459e-05 7.2886046e-06 9.244228e-06 2.0979758e-05 2.3126648e-05 2.2315608e-05 1.6693064e-06 1.0193679e-05
4.1691037e-06 6.303933e-06 1.4633027e-05 2.283652e-06 1.900765e-05 4.8765505e-06 6.190133e-06 7.664291e-06
3.4234472e-06 7.3280416e-06 1.8425922e-06 1.380123e-05 1.4006053e-05 1.550309e-05 6.7444125e-06 1.5229335e-06
7.760432e-06 3.0052188e-05 1.7651217e-05 4.253854e-06 5.957372e-06 2.4318982e-05 6.6770294e-06 1.7974484e-05
3.0150712e-05 7.312346e-06 7.3873252e-06 2.292281e-05 3.671503e-06 2.0332354e-05 1.325641e-05 2.7437954e-06
2.9915939e-06 1.7516037e-05 1.758541e-05 5.349026e-06 1.5502146e-05 1.5842194e-05 7.5234148e-06 6.5485224e-06
3.9883225e-06 1.528419e-05 4.973244e-06 1.1416777e-06 1.8707566e-05 4.636568e-06 7.630751e-06 1.4349475e-05
00000000: b2a7 a338 2a8c de38 6e4b 9136 929b 9638
00000010: c57e 9835 33b5 5939 ab02 4a39 291e 4638
00000020: b69f f438 ff79 2538 47ec ea38 1a14 4139
00000030: 2b8b 4039 85c7 4039 3796 1537 d7db 2738
00000040: bb2e 7038 8bc5 8638 8653 1139 aba9 6e37
00000050: 374f 2739 7061 6d38 1d33 a637 8a46 9a38
00000060: ad7c 1d37 eae3 8b38 0794 7837 0dd2 0339
00000070: 203d fc38 9a73 1139 195e e337 b3c9 b636
00000080: ef69 5a38 3670 6c39 1594 1f39 289e 8138
00000090: 3cde 8f38 da0a 4b39 a703 8338 84b8 1139
000000a0: 8795 6b39 de0f 8138 9b52 bc38 802a 4939
000000b0: 7582 a637 3ebb 3039 17c8 d738 1cc5 ed37
000000c0: 9afd 6937 2221 2139 fc2c 2239 21ad 8738
000000d0: 48c8 1439 6345 3938 fd7c b037 9b55 b038
000000e0: 2818 5137 e0d7 0e39 e32d 1938 666e 7f37
000000f0: 26df 2e39 1f80 6337 c300 c438 9d9d 1039
00000100: b3a0 b036 f87a ef36 74ae c035 3bb8 ad36
00000110: 5008 2b34 e279 b037 4e3f a637 d103 1236
00000120: 4813 0f37 609f b936 887e ea36 d778 9637
00000130: cf81 9c37 67de 8e37 ef15 9d35 c3a6 0037
00000140: b491 6836 062b 8136 c03c 3637 0412 db35
00000150: e2d1 8837 4cb3 7e36 9f6d 9836 5b35 a136
00000160: 2573 1b36 d368 9736 cea1 c435 9c8c 1d37
00000170: 8680 2037 2630 5037 7464 a836 3ff9 f735
00000180: 3fb7 b136 d491 e537 1b1a 5b37 63f1 3f36
00000190: d0ae 9736 5bc1 ad37 bba1 9136 08e1 4b37
000001a0: 8914 e237 eac0 a236 ad4c a936 a74f a737
000001b0: cb6c 3836 b23d 7f37 07fc 1737 a548 2836
000001c0: 8578 0d36 4dc3 5037 8b4d 5a37 09ff 6e36
000001d0: 6a0e 3f37 ff5d 5237 325d c636 51ad 9336
000001e0: 3596 5b36 5fa7 3837 a19b 9a36 0ff8 2235
000001f0: 50c0 8137 a039 8e36 59cc dd36 25fa 3f37
00000200: 22a3 a938 e585 dc38 dc6a 8136 7e52 9038
00000210: 58e4 8a35 3a22 5839 5f46 4939 c3d8 4038
00000220: 22de fc38 a517 2538 293d ee38 bf3d 4139
00000230: e49a 3b39 6b3f 3f39 da2b 0337 4727 2938
00000240: 1de0 7538 54b3 8938 6abc 0c39 3b8c 6c37
00000250: d663 2039 0b0b 7738 012c a037 17fe 9c38
00000260: 83c5 0237 cdf2 8438 dfb1 8137 a2ed 0739
00000270: 02c3 0339 6a8f 0c39 8be4 c337 f01c a836
00000280: 501f 4538 f46a 6b39 f572 1d39 641f 8338
00000290: 58a8 9538 9152 4639 1f02 8538 8701 1839
000002a0: 312a 6b39 cbb2 8638 b588 c038 228e 4739
000002b0: ef86 ac37 0ecd 3939 1ad4 c838 7dd3 f837
000002c0: 8bbe 4b37 0cf9 2039 1b8a 2239 0dfc 8438
000002d0: 0513 1b39 2a79 2338 cc32 9637 9dee ae38
000002e0: 8875 4037 94d8 1439 763f 0f38 15c1 7f37
000002f0: 8a02 2b39 e674 4937 9619 ca38 eafb 0d39
00000300: 149c d836 5e0a 1937 d08b ab35 cb8f e736
00000310: 61f7 6d34 2c88 e137 24fa be37 f1f5 8136
00000320: fca4 3637 a390 f436 a817 1b37 b0fd af37
00000330: 1900 c237 6732 bb37 ee0c e035 8505 2b37
00000340: 54e4 8b36 5f86 d336 5f80 7537 d840 1936
00000350: 9e72 9f37 40a1 a336 d6b4 cf36 e195 0037
00000360: 60be 6536 66e3 f536 fc4e f735 d58b 6737
00000370: 8afb 6a37 a20c 8237 104e e236 9967 cc35
00000380: cd32 0237 9518 fc37 b311 9437 54bc 8e36
00000390: 70e5 c736 9e00 cc37 3f0b e036 e9c7 9637
000003a0: 29ec fc37 935c f536 a4e0 f736 5c4a c037
000003b0: f163 7636 668f aa37 d967 5e37 0c22 3836
000003c0: 31c3 4836 67ef 9237 6184 9337 c97b b336
000003d0: 9b0a 8237 dae4 8437 a471 fc36 61bb db36
000003e0: 6ed3 8536 8c36 8037 d7df a636 bf3b 9935
000003f0: 31ee 9c37 d193 9b36 d305 0037 87be 7037

exp_avg f4 [4]
0.0056277537 0.0022267585 -0.011102405 0.0032478955
00000000: 0569 b83b cfee 113b dde6 35bc a5da 543b

exp_avg_sq f4 [4]
0.0005192701 0.00023788451 0.0004895236 0.00016288666
00000000: a01f 083a a370 7939 5f53 003a 8ecc 2a39

exp_avg f4 [64, 2]
-0.0019884428 -6.2705767e-06 0.04203961 0.00013474397 0.019913843 6.0683542e-05 0.0024948549 1.44960495e-05
-0.0004870327 -1.5478221e-06 0.0013448241 0.00010100993 0.00047610878 1.5174245e-06 -0.015485953 6.3299034e-05
0.0038197008 1.2175583e-05 0.012365982 -3.23538e-05 -0.014796871 5.3616033e-05 -0.0009669443 -4.8895417e-06
-0.018150486 4.8581634e-05 -0.007539555 -4.2352767e-05 0.004937095 1.6254537e-05 0.018020298 5.611713e-05
-0.0012838211 1.4101869e-05 0.00845159 2.7494514e-05 -0.012287241 -5.093732e-05 -0.007305107 -2.141355e-05
0.0099251885 4.9569644e-05 0.005178247 3.162737e-05 0.014253761 -3.7803016e-05 0.009450324 -2.8945298e-05
0.0018751082 1.5366277e-05 0.0070869788 -3.087136e-05 -0.009698882 2.7928223e-05 0.019026173 5.6839595e-05
-0.012708035 -6.76644e-05 -0.008802838 -3.387534e-05 0.00041520075 2.0273676e-06 0.008924217 2.8697174e-05
-0.0076534953 5.5225286e-05 -0.008438522 -4.3438242e-05 0.0037205142 1.1515075e-05 -0.008780475 -3.5750483e-05
0.009004451 -3.0982206e-05 -0.00048358407 3.0327615e-06 -0.0028972193 -8.880371e-06 0.0029705984 -7.276751e-05
0.008202273 2.553594e-05 -0.0037214926 3.119048e-05 -0.0020040898 3.075691e-05 0.003939654 1.5875745e-05
0.017287381 7.6137294e-05 0.0106676305 -4.973542e-05 -0.014987115 -4.305854e-05 -0.0047277096 3.486989e-05
0.0015873538 -4.4131084e-06 -0.018419784 -6.811672e-05 0.024035536 7.079814e-05 0.0031529416 2.6366104e-05
0.009267965 2.8603197e-05 -0.014885323 4.9725353e-05 -0.008778698 -3.0916315e-05 0.0006419248 3.4538405e-06
-0.01806545 -5.5158645e-05 0.0015273958 5.445247e-06 0.002207641 1.3104602e-05 -0.012694609 -4.5373577e-05
0.003989702 7.083771e-05 -0.0010254806 -3.2444455e-06 0.0007542451 2.1431888e-05 -0.0096746655 -4.989332e-05
00000000: 8950 02bb d867 d2b6 ba31 2c3d 0f4a 0d39
00000010: 5b22 a33c 7586 7e38 b880 233b 0f34 7337
00000020: 6c58 ffb9 c3be cfb5 cf44 b03a 4bd5 d338
00000030: 3d9e f939 4faa cb35 cbb8 7dbc 69bf 8438
00000040: f253 7a3b bb45 4c37 b09a 4a3c a1b3 07b8
00000050: 936e 72bc c7e1 6038 897a 7dba d810 a4b6
00000060: 54b0 94bc 22c4 4b38 5f0e f7bb f0a3 31b8
00000070: 5bc7 a13b 5a5a 8837 4e9f 933c 4f5f 6b38
00000080: e345 a8ba 1197 6c37 8a78 0a3c 05a4 e637
00000090: 6d50 49bc 88a5 55b8 ae5f efbb 40a1 b3b7
000000a0: 429d 223c 00e9 4f38 49ae a93b a1a7 0438
000000b0: 9b88 693c ae8e 1eb8 88d5 1a3c 8ecf f2b7
000000c0: 31c6 f53a d4e6 8037 e339 e83b df7b 01b8
000000d0: 0fe8 1ebc 6747 ea37 c7dc 9b3c 0d67 6e38
000000e0: 5d35 50bc 0ce7 8db8 c739 10bc 5f15 0eb8
000000f0: 4daf d939 e90d 0836 e136 123c b6ba f037
00000100: 2cca fabb b3a1 6738 ba41 0abc 7531 36b8
00000110: dfd3 733b df30 4137 fbdb 0fbc caf2 15b8
00000120: 6887 133c e4f2 01b8 8e89 fdb9 7286 4b36
00000130: 46df 3dbb e7fc 14b7 5fae 423b c29a 98b8
00000140: d462 063c 0336 d637 49e4 73bb 86d2 0238
00000150: 0c57 03bb fb00 0138 3718 813b e72c 8537
00000160: 449e 8d3c e6ab 9f38 49c7 2e3c 009b 50b8
00000170: 848c 75bc c199 34b8 e7ea 9abb 4241 1238
00000180: c10e d03a 5014 94b6 16e5 96bc e3d9 8eb8
00000190: 2ce6 c43c 7679 9438 95a1 4e3b c72c dd37
000001a0: aad8 173c e6f0 ef37 92e1 73bc 3190 5038
000001b0: 87d4 0fbc 24ac 01b8 d846 283a 87c8 6736
000001c0: fffd 93bc 255a 67b8 e632 c83a 51b6 b636
000001d0: 12ae 103b d6db 5b37 0dfd 4fbc 824f 3eb8
000001e0: 0cbc 823b b58e 9438 6b69 86ba 26bb 59b6
000001f0: 88b8 453a a1c8 b337 7d82 1ebc 8b44 51b8

exp_avg_sq f4 [64, 2]
0.0068552517 0.0019874626 1.7040006 0.61596817 0.33452025 0.1301965 0.02280589 0.003649567
0.00019111649 5.7438425e-05 1.284028 0.3799438 0.00017674401 3.805451e-05 0.6540102 0.10872332
0.012971775 0.004979906 0.20211974 0.032054026 0.42011157 0.07882836 0.00047634466 0.0002571437
0.34627157 0.06902935 0.3006135 0.07696842 0.019559916 0.008880318 0.26788154 0.11254606
0.025441192 0.006970047 0.051633604 0.023927081 0.2744362 0.085715696 0.0394583 0.013766676
0.26470104 0.08027711 0.02925906 0.024872957 0.31350896 0.027208157 0.16235954 0.03501914
0.032325063 0.007319684 0.19511606 0.047564976 0.116511896 0.027799733 0.25853688 0.11425131
0.4536192 0.13154012 0.11749039 0.041668303 0.00018144229 8.4022904e-05 0.06546724 0.028613353
0.43351144 0.070180774 0.26330873 0.03447368 0.013581872 0.005033231 0.13070501 0.04652098
0.12921293 0.03176779 0.00042789796 4.2431402e-05 0.006619289 0.0028227721 0.69533616 0.194158
0.05447083 0.021457477 0.12426318 0.02672266 0.118569545 0.033534344 0.013420311 0.0077591403
0.3692749 0.14685868 0.3780067 0.08406975 0.140774 0.04188609 0.108130515 0.022784475
0.00089103763 6.258049e-05 0.4840969 0.12614027 0.3415662 0.09939033 0.080819264 0.025623715
0.07579796 0.01938779 0.39926195 0.054980163 0.111519605 0.017387008 0.00073885027 0.00071178743
0.26706004 0.11109498 0.0022586056 0.0008812389 0.0061382838 0.0064404765 0.21363685 0.05765257
0.03624515 0.10670441 0.00047483778 8.1123064e-05 0.06072447 0.018126173 0.2746554 0.09220939
00000000: 05a2 e03b 1740 023b b11c da3f 17b0 1d3f
00000010: 3d46 ab3e 3b52 053e 6bd3 ba3c 932d 6f3b
00000020: 7166 4839 0aea 7038 085b a43f fe87 c23e
00000030: 5c54 3939 b89c 1f38 366d 273f 55aa de3d
00000040: 9187 543c 7b2e a33b 7af8 4e3e 154b 033d
00000050: dd18 d73e c370 a13d e6bd f939 3ed1 8639
00000060: 824a b13e 435f 8d3d 03ea 993e 9ea1 9d3d
00000070: 1e3c a03c c17e 113c c527 893e 8c7e e63d
00000080: 0c6a d03c fe64 e43b c27d 533d ba02 c43c
00000090: e782 8c3e b68b af3d 079f 213d a08d 613c
000000a0: e586 873e 5368 a43d b2b0 ef3c 5fc2 cb3c
000000b0: 3f84 a03e a4e3 de3c 9441 263e 3b70 0f3d
000000c0: 4967 043d f6d9 ef3b 81cc 473e 7ed3 423d
000000d0: ca9d ee3d 44bc e33c f25e 843e 97fc e93d
000000e0: c740 e83e 74b2 063e cd9e f03d 62ac 2a3d
000000f0: 8b41 3e39 7435 b038 b013 863d 8d66 ea3c
00000100: 36f5 dd3e f0ba 8f3d 67d0 863e 4634 0d3d
00000110: 8086 5e3c cded a43b 89d7 053e c88c 3e3d
00000120: 6550 043e f11e 023d 7e57 e039 5ff8 3138
00000130: 9fe6 d83b 42fe 383b 8d01 323f 5bd1 463e
00000140: ce1c 5f3d 97c7 af3c b27d fe3d 7be9 da3c
00000150: 97d4 f23d 4f5b 093d dde0 5b3c 6340 fe3b
00000160: 9a11 bd3e 1f62 163e 188a c13e c32c ac3d
00000170: 0f27 103e c090 2b3d 8873 dd3d 82a6 ba3c
00000180: 8694 693a a53d 8338 8ddb f73e ea2a 013e
00000190: c4e1 ae3e 288d cb3d 9284 a53d d3e8 d13c
000001a0: f63b 9b3d 24d3 9e3c 106c cc3e e132 613d
000001b0: 6464 e43d 336f 8e3c 67af 413a 3f97 3a3a
000001c0: 18bc 883e c485 e33d 1d05 143b f102 673a
000001d0: a823 c93b a20a d33b 9ec3 5a3e 1a25 6c3d
000001e0: cb75 143d d787 da3d a6f3 f839 9d20 aa38
000001f0: 39ba 783d 577d 943c a29f 8c3e 47d8 bc3d

exp_avg f4 [64]
-0.0012035328 0.027866598 0.012849459 0.0033993903 -0.00029305572 0.01988394 0.00032298642 0.01176696
0.002456667 -0.0056543387 0.009900642 -0.00070553 0.008315316 -0.008922163 0.0029684023 0.011050233
0.0026343802 0.005074672 -0.010793363 -0.0044269115 0.010403713 0.004081409 -0.007730878 -0.0049443496
0.0032579289 -0.0054708635 0.0046024304 0.011445969 -0.014556726 -0.0070066075 0.00029153464 0.0053516794
0.011410285 -0.010388736 0.0022587664 -0.007526797 -0.005317514 0.00063150324 -0.0018410168 -0.014004281
0.0051284786 0.006074843 0.005834373 0.0026291218 0.012166473 -0.008973484 -0.008860198 0.006687563
-0.0007412719 -0.0148225045 0.014225967 0.0053189774 0.006309246 0.0097830985 -0.007566039 0.00047647455
-0.011431751 0.0011475891 0.0017152217 -0.009850249 0.0056037097 -0.00066951156 0.0041974764 -0.01025588
00000000: dcbf 9dba 7e48 e43c 8a86 523c 4ec8 5e3b
00000010: 46a5 99b9 a5e3 a23c 8156 a939 35ca 403c
00000020: 0800 213b 0848 b9bb 4d36 223c 51f3 38ba
00000030: f73c 083c 442e 12bc 8789 423b 090c 353c
00000040: 91a5 2c3b 6f49 a63b a5d6 30bc a00f 91bb
00000050: 5674 2a3c 57bd 853b 4e53 fdbb 3604 a2bb
00000060: fa82 553b ee44 b3bb fccf 963b e087 3b3c
00000070: 567f 6ebc af97 e5bb 1ed9 9839 245d af3b
00000080: 34f2 3a3c 8435 2abc d007 143b 59a3 f6bb
00000090: 8a3e aebb 778b 253a 464e f1ba 3672 65bc
000000a0: cc0c a83b 7a0f c73b 452e bf3b 584d 2c3b
000000b0: e355 473c 8505 13bc 5d2a 11bc 5823 db3b
000000c0: ea51 42ba 17da 72bc 0814 693c d14a ae3b
000000d0: cbbd ce3b 4a49 203c 89ec f7bb 55cf f939
000000e0: 3d4c 3bbc b36a 963a 4ad1 e03a f062 21bc
000000f0: 539f b73b 2982 2fba fc8a 893b 4708 28bc
