outputs/centerSquare_1a_PPO/last_status.pt (torch, 15773 bytes, 21 tensors)

actor.0.weight f4 [64, 2]
0	0x3e2eca71	0.17069413
1	0xbe7599e4	-0.23984486
2	0xbe8b6894	-0.27228224
3	0x3dba4bc3	0.09096482
4	0x3d18d867	0.037315752
5	0x3e5924cf	0.21205448
6	0x3dde9646	0.10868506
7	0x3e5e76c5	0.21724994
8	0x3d5108a9	0.05103365
9	0x3e5e9033	0.21734695
10	0x3f0d854d	0.55281526
11	0xbdc175d5	-0.09446303
12	0xbefc5783	-0.49285516
13	0x3dac186c	0.084030956
14	0xbe0794b3	-0.13240318
15	0x3dcf6d43	0.10128262
16	0xbe70dc70	-0.2352159
17	0x3d18ee65	0.037336726
18	0x3db1b9a2	0.08677985
19	0xbed3ef46	-0.4139349
20	0x3e8b5da9	0.27219895
21	0xbe6907af	-0.22756837
22	0x3ee3d4d3	0.4449831
23	0xbd37c497	-0.044865217
24	0xbeb50ce4	-0.35361397
25	0xbeb5ffed	-0.35546818
26	0xbebff5be	-0.37492174
27	0xbe4800b3	-0.19531517
28	0x3d716f23	0.05894388
29	0xbc2a45fc	-0.010392662
30	0xbc54e9ed	-0.012995225
31	0x3f2dec8a	0.67939055
32	0xbe6720b4	-0.22571069
33	0xbd004a1a	-0.03132067
34	0x3e55c373	0.20875339
35	0xbd81a1ed	-0.06329713
36	0xbeab7b55	-0.33492532
37	0xbcc2706d	-0.02373525
38	0x3de93d12	0.11388601
39	0xbddec853	-0.108780526
40	0x3eb00de9	0.34385613
41	0x3e7efe35	0.2490166
42	0xbe254e1e	-0.1614308
43	0x3eaed3d0	0.34145975
44	0x3c25500a	0.010089884
45	0xbf1481f7	-0.5801081
46	0xbe5861ba	-0.2113103
47	0x3e7dbe4f	0.24779628
48	0xbd9bbb70	-0.0760411
49	0xbe143b41	-0.14475729
50	0x3e3e846d	0.18605204
51	0x3e353d0c	0.17699069
52	0x3cbec571	0.023287507
53	0xbeb7647b	-0.35818848
54	0x3e981464	0.29703057
55	0xbca80df9	-0.020514475
56	0x3e856115	0.2605063
57	0xbf0a922a	-0.5412928
58	0x3e8c97e6	0.2745964
59	0x3ec71827	0.38885614
60	0xbe219920	-0.15781069
61	0xbea0445a	-0.31302148
62	0xbd9ac61b	-0.07557317
63	0xbe2574af	-0.16157793
64	0x3de6d304	0.11270717
65	0x3f0083a8	0.5020089
66	0xbf1e72c3	-0.6189386
67	0xbb2f99ef	-0.0026794632
68	0x3e927835	0.28607336
69	0x3e900b68	0.28133702
70	0xbdc6a22d	-0.09698901
71	0x3e13ca15	0.14432557
72	0x3e0d4412	0.13795498
73	0xbec95ec3	-0.3933011
74	0xbecfcdde	-0.40586752
75	0xbea66958	-0.32502246
76	0xbe0e1810	-0.13876367
77	0x3eb1d442	0.34732252
78	0x3ea3dd5e	0.32004827
79	0xbf05182e	-0.5199002
80	0xbf116418	-0.56793356
81	0xbe1b4f73	-0.15167026
82	0xbdf8b537	-0.12143939
83	0x3e097a5e	0.13425586
84	0x3e6dfe2f	0.23241495
85	0xbe8b0c7e	-0.27157968
86	0xbeee1044	-0.46496785
87	0xbdca2ca2	-0.09871794
88	0x3d526cce	0.051373295
89	0xbddfe6d8	-0.10932702
90	0x3eba12e1	0.36342528
91	0xbeaba8ea	-0.3352731
92	0x3e3daa51	0.18522002
93	0x3f00dc8b	0.5033652
94	0x3d25320a	0.040330924
95	0xbea67250	-0.3250909
96	0xbd8b21bf	-0.06793546
97	0xbecb4c29	-0.39706543
98	0x3ebce112	0.36890465
99	0x3c176346	0.009239977
100	0x3e9604cf	0.29300544
101	0x3e473e74	0.19457418
102	0xbdea0b03	-0.114278816
103	0xbe5a98bc	-0.21347326
104	0x3ec47b79	0.38375452
105	0xbe452c59	-0.19255199
106	0x3b4a5528	0.003087351
107	0x3f5fb719	0.8738876
108	0xbc7b1e43	-0.015327039
109	0xbf1649d1	-0.58706385
110	0xbe46d342	-0.19416526
111	0x3e0f7a58	0.14011514
112	0xbd3ffda9	-0.04687277
113	0xbec3f3d4	-0.38271964
114	0xbe833945	-0.2562963
115	0x3d020cbb	0.031750422
116	0xbcb1c551	-0.021700533
117	0xbe540715	-0.20705827
118	0xbe2fed5a	-0.17180386
119	0x3d499495	0.049213964
120	0x3ee57300	0.448143
121	0x3d7016b0	0.058615386
122	0x3cfa155e	0.030527767
123	0x3edb9a55	0.42891183
124	0xbe85f0a6	-0.26160163
125	0x3e4e7c7f	0.20164679
126	0xbe792b48	-0.24332917
127	0xbe80ff46	-0.25194758

actor.0.bias f4 [64]
0	0x3e33474e	0.1750767
1	0xbe485c7e	-0.19566533
2	0xbe5b85a7	-0.21437703
3	0x3d7488bd	0.059700716
4	0x3b40ccff	0.0029419062
5	0x3c5172bd	0.012783703
6	0xbe7671da	-0.24066868
7	0x3d799f2e	0.06094282
8	0xbe3e25e4	-0.18569142
9	0xbe2ae201	-0.16687776
10	0x3e11ff5d	0.1425757
11	0x3e4217cc	0.1895439
12	0xbde88a83	-0.11354544
13	0x3d2a2aac	0.0415446
14	0x3e896cbb	0.26840767
15	0xbe0d5ee3	-0.13805728
16	0xbe96482b	-0.29351935
17	0x3dc716fa	0.09721179
18	0xbe18a245	-0.14905651
19	0xbe04ebad	-0.12980528
20	0x3e75e90d	0.24014683
21	0xbe4c7f71	-0.1997049
22	0x3dbb0110	0.09131062
23	0x3c9d9042	0.019233827
24	0xbdba9032	-0.09109534
25	0xbdcabd99	-0.09899444
26	0x3da43cfd	0.08019445
27	0x3e138039	0.14404382
28	0x3d4d9a08	0.050195724
29	0x3e51cb1f	0.20487641
30	0xbe4dbcef	-0.20091604
31	0xbe92f82f	-0.28704974
32	0x3c2dcad2	0.010607438
33	0xbe87a3e4	-0.26492226
34	0x3cfd1e10	0.030898124
35	0x3c4f8bc5	0.012667601
36	0x3de186c0	0.1101203
37	0xbe4ff3f2	-0.20307902
38	0x3debecea	0.11519797
39	0x3c2400cd	0.010009957
40	0xbe4229f9	-0.18961324
41	0xbde48f24	-0.111601144
42	0x3de7969c	0.11308023
43	0xbe6e61a2	-0.23279431
44	0x3e2a42e4	0.16627079
45	0x3d859298	0.06522101
46	0xbb7eef60	-0.0038900003
47	0x3e125031	0.14288403
48	0x3e052b6e	0.13004848
49	0x3d921ee9	0.07134802
50	0x3ca41062	0.020027343
51	0x3b784e3c	0.0037888428
52	0x3e7ec9d0	0.24881673
53	0x3d5426f6	0.05179497
54	0xbd502d82	-0.05082465
55	0xbd2151e6	-0.039384745
56	0xbe55c5be	-0.20876214
57	0xbddc958f	-0.107707135
58	0xbe16cc78	-0.14726436
59	0xbe03a4bc	-0.1285581
60	0x3e8bf6ab	0.2733663
61	0x3e61e2b3	0.22059135
62	0xbe89f378	-0.26943564
63	0xbde21f30	-0.11041105

actor.2.weight f4 [4, 64]
0	0x3d275f32	0.04086227
1	0x3e0e2b7f	0.1388378
2	0x3d2b6205	0.041841526
3	0x3e5255e7	0.20540582
4	0x3e37be55	0.179437
5	0xbe53f108	-0.20697415
6	0xbe18ae72	-0.14910296
7	0x3e9e11ba	0.308729
8	0xbe4ff8fd	-0.20309825
9	0xbe8704ab	-0.2637075
10	0xbcc892f0	-0.024484128
11	0x3e471964	0.1944328
12	0xbe3a0b71	-0.18168427
13	0xbdefd066	-0.11709671
14	0x3d379c40	0.044826746
15	0x3eadfca6	0.33981818
16	0xbe19abb2	-0.15006903
17	0xbd913727	-0.070905976
18	0x3d350717	0.044196215
19	0xbdb6348b	-0.088967405
20	0xbd2b3a20	-0.04180348
21	0x3dca658f	0.09882652
22	0xbd19649d	-0.037449468
23	0x3dd330c0	0.10312033
24	0x3e384c68	0.17997897
25	0xbeaeef78	-0.34167075
26	0xbe81a507	-0.25321218
27	0x3e57abeb	0.21061675
28	0xbda9489f	-0.082658045
29	0x3e95f539	0.29288653
30	0xbdf001f9	-0.11719126
31	0xbe60a3e8	-0.21937525
32	0x3ee3f176	0.44520158
33	0xbe086331	-0.13319089
34	0x3eadc859	0.33941916
35	0xbb5edafa	-0.0034005032
36	0xbd4b9211	-0.049699847
37	0xbee72fc4	-0.4515363
38	0x3e9e2b7c	0.3089255
39	0xbe171b9c	-0.14756626
40	0xbecbb080	-0.39783096
41	0xbe505908	-0.20346463
42	0xbed6f6f8	-0.41985297
43	0xbe6702d6	-0.22559676
44	0x3ef1dbf4	0.47238123
45	0x3e5ed270	0.21759963
46	0x3e80dccb	0.25168452
47	0xbe210f4a	-0.15728489
48	0xbd6dbd8c	-0.058042094
49	0xbdce6c6f	-0.10079276
50	0x3decfc90	0.1157161
51	0xbec925be	-0.39286608
52	0xbbe5ec1f	-0.007016673
53	0x3ed186f3	0.4092327
54	0xbea263d5	-0.3171679
55	0x3e8c3f7c	0.27392185
56	0xbe40828b	-0.18799798
57	0xbe8c9cdc	-0.27463424
58	0xbe96e529	-0.2947171
59	0xbc4b8445	-0.012421672
60	0xbbf4fb5f	-0.007476255
61	0x3ea62c10	0.32455492
62	0x3dee0887	0.1162272
63	0xbeee84dd	-0.46585742
64	0xbefd6158	-0.4948833
65	0x3eff28db	0.49835858
66	0x3ef9a7a4	0.48760712
67	0xbe0c1e08	-0.13683331
68	0xbda94bd4	-0.08266416
69	0xbe73d5c5	-0.23812015
70	0x3ec64d43	0.3873082
71	0xbd457a06	-0.048212074
72	0x3eb319ab	0.3498052
73	0x3efe84b3	0.49710616
74	0xbe8e6ced	-0.2781748
75	0xbeacbfc0	-0.33740044
76	0x3ef5df1b	0.48021778
77	0x3d820b3a	0.063497975
78	0xbf117110	-0.56813145
79	0x3f185c3d	0.59515744
80	0x3e9e3fe5	0.30908123
81	0xbe942d37	-0.28940746
82	0x3e9b5110	0.30335283
83	0x3dfe80af	0.12426888
84	0xbf0fb027	-0.5612816
85	0x3f145182	0.5793687
86	0xbd5068ba	-0.050881125
87	0x3d390c7c	0.04517792
88	0x3ea6637a	0.3249777
89	0xbcc0cd65	-0.02353544
90	0xbec0abc9	-0.37631062
91	0xbd5211a8	-0.05128637
92	0xbcbf64a7	-0.023363424
93	0xbed02bfe	-0.40658563
94	0x3e77f2b2	0.24213675
95	0x3ef32fa0	0.47497272
96	0xbdd8fe69	-0.105954
97	0x3e9c7fd5	0.30566278
98	0xbe475a88	-0.19468129
99	0x3dc83e6b	0.0977753
100	0xbea832cc	-0.32851255
101	0x3f330ec9	0.69944435
102	0xbdb9970b	-0.09062012
103	0xbdc09295	-0.09402958
104	0x3f13b0c0	0.57691574
105	0x3dd7861d	0.10523627
106	0xbf24828c	-0.642617
107	0x3f33f73f	0.7029914
108	0xbe3e229f	-0.18567894
109	0xbe12da20	-0.1434102
110	0xbe1658b6	-0.14682278
111	0xbf1384ce	-0.5762452
112	0xbea19f9a	-0.3156708
113	0xbe73ffdb	-0.2382807
114	0xbe9550a7	-0.29163095
115	0xbdb335fe	-0.087505326
116	0xbf165825	-0.5872825
117	0xbe3d962e	-0.1851432
118	0x3ea16a60	0.3152647
119	0x3e7935c4	0.24336916
120	0x3f44d9c1	0.76894766
121	0x3ea484cd	0.3213257
122	0x3ec6cbd5	0.38827386
123	0x3e68f290	0.2274878
124	0xbf1941cf	-0.5986604
125	0xbec61269	-0.3868592
126	0x3f3a349c	0.72736526
127	0x3ec067f6	0.37579316
128	0x3e08de54	0.13366061
129	0xbde5681f	-0.112015
130	0xbe001fff	-0.12512206
131	0x3e1de0bc	0.1541776
132	0xbf166ec0	-0.5876274
133	0x3d9dd925	0.07707433
134	0xbea6b40e	-0.32559246
135	0xbd4c7e9c	-0.04992543
136	0xbdbcb7f6	-0.09214775
137	0x3c2fe66a	0.010736087
138	0x3e787fb3	0.24267463
139	0x3e9d1abf	0.30684468
140	0x3e9aaae0	0.30208492
141	0x3d3e929b	0.046526533
142	0xbd27d252	-0.04097206
143	0x3cb25a2c	0.021771513
144	0xbdd08694	-0.10181919
145	0xbe08933e	-0.13337418
146	0xbe6d5ec9	-0.23180689
147	0xbdcef51d	-0.101053454
148	0xbd25b80a	-0.040458716
149	0xbea2b71f	-0.31780335
150	0x3ee2252c	0.44168985
151	0x3cdebd60	0.02718991
152	0x3dc058a8	0.0939191
153	0xbed11ab3	-0.40840682
154	0x3e30dcea	0.17271772
155	0x3e05dcec	0.13072556
156	0x3f066ae2	0.5250684
157	0xba811a4c	-0.0009849756
158	0xbde234d3	-0.11045232
159	0xbe37a72b	-0.17934863
160	0xbeae4b2a	-0.3404172
161	0xbe329c36	-0.17442402
162	0xbeba2c25	-0.36361805
163	0xbe877f27	-0.26464197
164	0x3ecb2c76	0.39682359
165	0xbca718c9	-0.02039756
166	0x3cafe228	0.021470144
167	0x3de88e6d	0.113552906
168	0xbe88e939	-0.26740435
169	0xbddde7f7	-0.108352594
170	0x3e943e21	0.2895365
171	0xbe6bf5c3	-0.2304297
172	0x3e8a66ed	0.2703165
173	0x3e911608	0.2833712
174	0xbeb8babe	-0.36079973
175	0x3e13de9f	0.14440392
176	0x3f05b4a4	0.5222876
177	0xbdb454cd	-0.08805237
178	0xbec68582	-0.38773733
179	0xbe0702b7	-0.1318463
180	0xbc9339f8	-0.017971978
181	0xbe5783ed	-0.2104642
182	0x3ec70f45	0.38878837
183	0xbee440b3	-0.44580612
184	0x3e521133	0.20514373
185	0x3e203fda	0.15649357
186	0xbe850f0c	-0.25988042
187	0xbccb1a34	-0.024792768
188	0x3ddac8f3	0.10682859
189	0x3d074703	0.033026706
190	0x3d835475	0.06412593
191	0xbd2edddc	-0.04269205
192	0xbe4bca79	-0.19901456
193	0xbdac602b	-0.0841678
194	0x3cec3704	0.028834827
195	0xbdcd53c2	-0.10025741
196	0x3eb8bfb5	0.3608376
197	0x3cbb6a82	0.022877935
198	0xbe294295	-0.16529305
199	0xbde4245c	-0.111397475
200	0x3ce67e34	0.02813635
201	0x3e20fa4d	0.15720482
202	0x3d9ae270	0.07562721
203	0xba8eba50	-0.0010889266
204	0x3dd9ca4c	0.10634288
205	0x3e7f241b	0.24916117
206	0x3e622c08	0.22087109
207	0x3ecdec36	0.40219277
208	0xbe7207ad	-0.2363574
209	0x3e90b1e8	0.28260732
210	0xbe838bda	-0.25692636
211	0x3d26f126	0.04075732
212	0xbe293f54	-0.16528064
213	0xbea9f174	-0.33192027
214	0x3ea2710f	0.31726882
215	0xbe350629	-0.17678131
216	0xbe9018c0	-0.28143883
217	0x3e15d168	0.14630663
218	0xbdd446f9	-0.103650995
219	0x3ea6d594	0.32584822
220	0x3e78e9c3	0.24307923
221	0x3e93679e	0.2878999
222	0xbef6979b	-0.4816254
223	0xbe5c276e	-0.21499416
224	0x3e8cc037	0.27490398
225	0xbded5786	-0.115889594
226	0x3df6da0d	0.12053309
227	0x3f014d94	0.50509
228	0xbdce0d81	-0.100611694
229	0xbd293385	-0.0413089
230	0x3d9d5667	0.076824956
231	0x3e54f2c6	0.20795736
232	0x3e110de6	0.14165458
233	0xbdfd136d	-0.12357221
234	0x3ea3069b	0.31840977
235	0x3cfd9ad7	0.030957622
236	0x3e7f0e03	0.24907689
237	0xbe7fea4d	-0.24991722
238	0x3e4a8da0	0.19780588
239	0xbe8aa156	-0.27076215
240	0xbc12c2e3	-0.008957597
241	0x3e8124b8	0.25223327
242	0xbe28ce37	-0.16484915
243	0xbcf2e031	-0.029647918
244	0x3ea52dfc	0.32261646
245	0xbc73981e	-0.0148678105
246	0x3e091bdb	0.13389532
247	0x3d14a9bf	0.036294695
248	0xbef8ea81	-0.48616412
249	0xbd98e123	-0.074648164
250	0x3e0a2f95	0.13494714
251	0xbedae1f6	-0.4275052
252	0x3e58d730	0.21175838
253	0x3e8e6f8d	0.27819481
254	0x3e271478	0.16316402
255	0x3e8d4e6d	0.27598897

actor.2.bias f4 [4]
0	0x3d9d378a	0.07676609
1	0xbe94a80d	-0.29034463
2	0x3d7e019c	0.062013254
3	0x3d6b3e7a	0.05743263

critic.0.weight f4 [64, 2]
0	0xbe7ef0d7	-0.2489656
1	0x3e9dcfd8	0.30822635
2	0x3e27cbe9	0.1638638
3	0x3dd95e96	0.10613744
4	0xbe4457f2	-0.19174173
5	0x3de9adb9	0.11410088
6	0x3de25722	0.110517755
7	0x3ebbfa10	0.3671422
8	0xbe5d14d8	-0.21589983
9	0xbd4b5488	-0.049641162
10	0xbda904af	-0.082528464
11	0x3c623ade	0.01380798
12	0x3e2838d3	0.16427927
13	0x3e419e6c	0.1890809
14	0xbd027ee6	-0.0318593
15	0xbe81cf25	-0.2535335
16	0x3e2feae3	0.17179446
17	0x3c11ec52	0.008906441
18	0xbc96a1f6	-0.018387776
19	0x3e8b7c88	0.27243447
20	0x3d4b6c8c	0.049664065
21	0x3e7b6087	0.24548541
22	0xbea96a6c	-0.33089006
23	0xbe4f74ee	-0.20259449
24	0x3ca9c777	0.020724995
25	0x3e441264	0.1914764
26	0xbde80044	-0.11328176
27	0x3e49620b	0.19666307
28	0x3e6ac454	0.22926456
29	0xbd98c408	-0.07459265
30	0x3e42bd9c	0.19017643
31	0x3c26cf03	0.010181191
32	0x3d96f39d	0.07370684
33	0x3cff3284	0.031152017
34	0x3e66bed2	0.2253373
35	0x3d7d1df4	0.061796144
36	0x3e109a90	0.14121461
37	0x3dd77d0a	0.10521896
38	0x3e63c72e	0.2224395
39	0x3e25042d	0.16114874
40	0x3df42268	0.11920625
41	0x3e06fa05	0.13181312
42	0x3eb740e8	0.35791707
43	0x3dea27c5	0.11433367
44	0x3c3e47f9	0.011613839
45	0x3eed2b39	0.4632204
46	0xbd100384	-0.035159603
47	0x3e291729	0.16512741
48	0xbdd9483c	-0.10609481
49	0xbe5af3f0	-0.21382117
50	0xbd5645bb	-0.052312594
51	0x3e01b2a8	0.12665808
52	0x3ce1cdfc	0.027564041
53	0xbbeb119e	-0.007173731
54	0xbe6a77f9	-0.22897328
55	0xbc9d01be	-0.01916587
56	0x3dfbf79d	0.12303088
57	0xbe2bc28d	-0.16773434
58	0xbe0d44cb	-0.13795774
59	0xbcce11a9	-0.025154905
60	0x3ef37cb9	0.47556093
61	0xbe224fbd	-0.1585073
62	0x3e626034	0.22107011
63	0xbdbaf795	-0.09129254
64	0xbd5bbda8	-0.053647667
65	0x3ea1b650	0.31584406
66	0x3df36e6a	0.11886294
67	0x3ecd50cc	0.40100706
68	0x3e4ba1d4	0.19885951
69	0xbe0406b8	-0.12893188
70	0x3e131e17	0.14366947
71	0xbaf1e29b	-0.0018454375
72	0xbd357451	-0.04430038
73	0xbda8ae28	-0.08236343
74	0xbd302a3b	-0.043009024
75	0x3ec50bf3	0.3848568
76	0x3e4b076c	0.1982705
77	0xbcf871c2	-0.030327681
78	0x3d923ffa	0.07141109
79	0x3d243bda	0.04009614
80	0x3e39294e	0.18082163
81	0x3d8566fe	0.06513785
82	0x3d90a7af	0.07063233
83	0x3e5bd51f	0.21468018
84	0x3d9ce48e	0.07660781
85	0x3d7ee693	0.06223161
86	0xbeef2c0c	-0.46713293
87	0x3e824408	0.2544253
88	0x3ea4fb72	0.32223088
89	0xbeb98dc1	-0.36240962
90	0x3d156fcd	0.036483575
91	0x3e0fdd1a	0.14049187
92	0x3e858a08	0.26081872
93	0x3e80850e	0.25101513
94	0xbd51a4fd	-0.051182736
95	0x3e3386b2	0.17531851
96	0xbc6cc485	-0.014451151
97	0xbe090446	-0.13380536
98	0x3e1a0e36	0.15044484
99	0x3e4a35a8	0.1974703
100	0xbe986c32	-0.29770046
101	0xbe9184dd	-0.2842168
102	0x3dd4a701	0.10383416
103	0x3cc87fcb	0.024474999
104	0x3e22156c	0.15828484
105	0x3e8443f4	0.25833094
106	0xbcc0035c	-0.023439102
107	0x3eb14ff1	0.34631303
108	0xbe066f95	-0.13128503
109	0xbecdb523	-0.4017726
110	0xbf147732	-0.5799438
111	0x3dac2a3d	0.08406494
112	0x3e4b583a	0.19857875
113	0xbc8adc5a	-0.016950775
114	0xbe25809d	-0.16162343
115	0x3d0f01b5	0.034913737
116	0xbf1406b8	-0.5782275
117	0x3c726668	0.014794923
118	0x3e1e9799	0.15487517
119	0x3e427373	0.18989353
120	0x3f1ed90d	0.62049943
121	0x3dce0539	0.1005959
122	0x3f272c74	0.65302205
123	0xbf1ec859	-0.62024456
124	0x3db8ec3d	0.09029434
125	0xbcb0b00a	-0.021568317
126	0xbdf2dd12	-0.11858572
127	0xbce7fa07	-0.028317465

critic.0.bias f4 [64]
0	0xbca6e147	-0.020371092
1	0x3b5a4be7	0.0033309401
2	0xb91870d8	-0.00014537887
3	0x3a1be369	0.00059466675
4	0xbcd25dcd	-0.025679493
5	0x3b6333b7	0.0034668276
6	0xba911525	-0.0011068924
7	0x3b86ab73	0.004109794
8	0x3bcc9f54	0.0062445793
9	0xbba76ee7	-0.005109656
10	0x3b4e7ffa	0.0031509385
11	0xbbe87ac2	-0.007094712
12	0x3b842fd2	0.004034021
13	0xbbc06a1a	-0.0058720233
14	0x3b9b2cb7	0.004735555
15	0x3b589d8a	0.0033052885
16	0x3b85d0c6	0.0040837256
17	0x3aec4b39	0.0018027789
18	0xbb263abd	-0.00253646
19	0x3b229c2d	0.0024812326
20	0x3b6ab31a	0.003581232
21	0xbbc713f2	-0.0060753757
22	0xbb51a310	-0.0031988062
23	0xbbba8336	-0.005691911
24	0x3b5a8db7	0.0033348629
25	0xbbbfcc54	-0.005853215
26	0x3b98a469	0.004658271
27	0xbb0b989d	-0.0021300681
28	0xba5c9a98	-0.000841537
29	0xbb940bd9	-0.004518014
30	0x3d98c8c9	0.07460172
31	0x3b60d8b4	0.0034308853
32	0x3af0c238	0.0018368429
33	0xba5a40eb	-0.00083257136
34	0x3c131bed	0.008978826
35	0xbb168fd6	-0.0022973916
36	0xbb82828c	-0.0039828476
37	0xbd307e3c	-0.043089136
38	0x3b8f774d	0.0043782354
39	0xbb786c4d	-0.003790635
40	0x3b7de687	0.0038742141
41	0x3b3166e8	0.0027069394
42	0x3b7b3e34	0.0038336636
43	0xbc9b4b8c	-0.018956922
44	0xbba94def	-0.005166761
45	0xbb9b3b5d	-0.0047373013
46	0x3bc5ffa8	0.0060424395
47	0x3a9c788d	0.0011937782
48	0x3cbb82c3	0.0228895
49	0xbaefd48d	-0.0018297598
50	0xbc137bf0	-0.009001717
51	0x3b8efb9b	0.00436349
52	0x3b12b2c1	0.0022384378
53	0x3b25e7a1	0.0025315064
54	0xba5ef7c9	-0.0008505551
55	0xbcb7ddfc	-0.022444718
56	0xb751429a	-1.2472878e-05
57	0xbbafd776	-0.005366261
58	0xbbdf6f64	-0.0068186987
59	0xbae7c4bc	-0.0017682533
60	0x3c6a47e1	0.014299364
61	0x3e0cf47f	0.13765143
62	0x3b9e3ef3	0.0048292815
63	0xbb8b1daf	-0.004245482

critic.2.weight f4 [1, 64]
0	0x3c770515	0.015076895
1	0xbf21e6be	-0.6324271
2	0xbe8ddb27	-0.27706262
3	0xbda8c4be	-0.082406506
4	0x3bb2c2da	0.005455357
5	0xbee5c136	-0.4487397
6	0xbc389002	-0.011264803
7	0xbe976823	-0.29571638
8	0xbd7010f9	-0.058609936
9	0x3e1e4a94	0.15458137
10	0xbe8ae1c2	-0.27125365
11	0x3c6ac321	0.014328749
12	0xbe743efe	-0.23852155
13	0x3e59523d	0.21222778
14	0xbd92fe79	-0.07177443
15	0xbe84f692	-0.25969368
16	0xbd963447	-0.0733419
17	0xbe01785a	-0.12643567
18	0x3e698c86	0.22807512
19	0x3dc676d5	0.09690634
20	0xbe74257e	-0.23842427
21	0xbe098f9a	-0.13433686
22	0x3e4db4ff	0.20088576
23	0x3e0aafe9	0.13543667
24	0xbd84813c	-0.06469962
25	0x3e19211a	0.14954033
26	0xbe0463c9	-0.1292869
27	0xbe844992	-0.2583738
28	0x3e997669	0.29973152
29	0x3e24e859	0.16104259
30	0x3cb7acfc	0.022421353
31	0xbe055578	-0.13020885
32	0xbe8d732c	-0.27626932
33	0x3e64864e	0.22316858
34	0xbd57d6c8	-0.052695066
35	0x3e1eac9e	0.15495536
36	0x3e1ac593	0.15114431
37	0xbc8e7fba	-0.01739489
38	0x3d134c63	0.03596152
39	0x3ea4091c	0.320382
40	0xbdf6ba15	-0.12047211
41	0xbe221fe1	-0.15832473
42	0xbe19c764	-0.15017468
43	0xbdddc862	-0.108292356
44	0xbeb98e83	-0.3624154
45	0x3e5fefe7	0.21868859
46	0x3e53b5f1	0.20674874
47	0xbe1715a5	-0.1475435
48	0x3cdd6942	0.02702773
49	0x3ea21121	0.31653693
50	0xbeb2778e	-0.34856838
51	0xbe03bbe4	-0.12864643
52	0xbe14eb5c	-0.14542907
53	0xbe836b2d	-0.25667706
54	0x3e3174ac	0.17329663
55	0xbd3fb277	-0.046801057
56	0x3e7e982a	0.24862733
57	0xbc8b4566	-0.017000865
58	0xbdb55808	-0.08854681
59	0x3e553858	0.20822275
60	0xbe957525	-0.29190937
61	0x3e06a540	0.13148975
62	0xbddc9d9e	-0.107722506
63	0x3e71c786	0.23611268

exp_avg f4 [64, 2]
0	0xb9d25223	-0.00040115518
1	0x39061b6e	0.00012789454
2	0xb8a81364	-8.014476e-05
3	0xb985f9db	-0.00025553894
4	0x39608768	0.00021412747
5	0xb94159ed	-0.00018439414
6	0xba0a7678	-0.00052819354
7	0xb7c9d4bd	-2.4060131e-05
8	0x3ac411f4	0.0014958964
9	0xba5b451b	-0.00083644845
10	0x3836e70f	4.360737e-05
11	0x3999992f	0.00029296565
12	0x37ab9548	2.0454303e-05
13	0xb948cb20	-0.00019149156
14	0xb9d52a44	-0.00040658016
15	0xb9b73d2b	-0.00034950054
16	0x3939dd29	0.00017725363
17	0x38ce8bb9	9.848871e-05
18	0x3a163732	0.00057302706
19	0x3949368a	0.00019189171
20	0xb822ef87	-3.8846887e-05
21	0x39966f97	0.0002869337
22	0xb8e5127e	-0.00010923015
23	0x3915ddfe	0.00014292446
24	0x380a498b	3.2970256e-05
25	0x39d989d4	0.00041492155
26	0x3971438a	0.00023008711
27	0x39157b87	0.00014255765
28	0x39e32190	0.0004332182
29	0xb8e0343c	-0.00010690882
30	0x3a1cb127	0.00059773255
31	0xb98f5b32	-0.0002734303
32	0xb8de13ee	-0.00010589497
33	0x386d9871	5.6647175e-05
34	0x3a03dee0	0.00050304644
35	0xb8ddff45	-0.00010585649
36	0xb8f72137	-0.000117840646
37	0xb98dd757	-0.00027054056
38	0x399a129d	0.00029387037
39	0xb7d3ad24	-2.5233785e-05
40	0xb89e630a	-7.5524746e-05
41	0x373d9b97	1.1301504e-05
42	0xb98c7e38	-0.0002679692
43	0xb9d9328e	-0.00041427132
44	0x3904066c	0.00012590893
45	0x39cff0a6	0.00039661414
46	0xb9b59c50	-0.00034639472
47	0xb85c0652	-5.2457974e-05
48	0xba5d5070	-0.0008442467
49	0xb8442946	-4.676848e-05
50	0x3a6d3293	0.00090483687
51	0xb9019563	-0.0001235805
52	0xb98cf15b	-0.00026882705
53	0x39e00de7	0.00042734967
54	0x390cb0b4	0.00013417267
55	0xb8d10093	-9.9660036e-05
56	0xb64c1eb9	-3.0416252e-06
57	0x3a0693ec	0.00051337364
58	0x390792b2	0.00012929252
59	0xb9773011	-0.00023573662
60	0xba07da91	-0.000518241
61	0x381075a1	3.4441826e-05
62	0xb81824cf	-3.6273905e-05
63	0x381943c6	3.654116e-05
64	0x3a1adda0	0.00059076585
65	0xba2fe337	-0.0006709578
66	0x36e6e51c	6.881206e-06
67	0xb83bbb66	-4.4758803e-05
68	0x3927ffe0	0.00016021682
69	0xba3655d8	-0.0006955541
70	0x3ab680e2	0.0013923908
71	0xb9b04432	-0.00033620145
72	0xba084c81	-0.0005199388
73	0x39f4db53	0.00046702716
74	0x38da72c2	0.00010416425
75	0x39b165b9	0.0003383586
76	0xb9004fda	-0.00012236778
77	0xb97e5b23	-0.00024257279
78	0x395699f6	0.00020465985
79	0x395101ff	0.00019932537
80	0x3910ef1f	0.0001382199
81	0x38ab2475	8.160706e-05
82	0x382bfe09	4.1006166e-05
83	0x38ce5d09	9.8401746e-05
84	0x39d3aa52	0.00040371955
85	0x3a37e645	0.0007015209
86	0x38cfe624	9.913396e-05
87	0xb7ef6b0e	-2.8540871e-05
88	0xb956b616	-0.00020476463
89	0xb954dd8a	-0.00020300425
90	0xb9bf53a8	-0.00036492688
91	0x38ed11fb	0.0001130439
92	0x39f4ab87	0.00046667104
93	0xba0c7a51	-0.0005358803
94	0xba2b20d7	-0.0006528026
95	0x39b12100	0.00033784658
96	0xba3c79a8	-0.0007189759
97	0x3a1d5e04	0.0006003084
98	0x3980d8cc	0.0002457559
99	0xb7b3159c	-2.1348525e-05
100	0xb76dfab2	-1.418467e-05
101	0xba061893	-0.0005115356
102	0x39d7143c	0.0004102307
103	0x39800564	0.0002441808
104	0x39348c16	0.00017218324
105	0xb83eadea	-4.54615e-05
106	0xb8a7111a	-7.966366e-05
107	0xb99fc60d	-0.00030474403
108	0x378c5bdb	1.6732074e-05
109	0x3a0525f8	0.0005079205
110	0x3981f3bf	0.00024786402
111	0xba4af014	-0.0007741463
112	0xba91b1e8	-0.0011115642
113	0x39b1489e	0.00033814175
114	0xb810b58f	-3.4501365e-05
115	0x39f10f92	0.00045978703
116	0x3a6fd7eb	0.0009149301
117	0xb696ecba	-4.497907e-06
118	0xba1a8348	-0.0005894196
119	0x37ed2169	2.826816e-05
120	0x3887ef5d	6.4818865e-05
121	0x38c7e799	9.532198e-05
122	0x3997033a	0.00028803368
123	0xb963ae8e	-0.00021713434
124	0x387efea3	6.0795468e-05
125	0xb883f605	-6.2923915e-05
126	0x3a14ef95	0.00056814525
127	0x39b7c8a1	0.0003505396

exp_avg_sq f4 [64, 2]
0	0x38aaf5f1	8.152042e-05
1	0x34aee5b8	3.2577168e-07
2	0x37a6cc18	1.988378e-05
3	0x34c27cca	3.6226112e-07
4	0x3908a529	0.00013031498
5	0x3371824b	5.6230686e-08
6	0x395498f7	0.0002027488
7	0x34e1df24	4.2071872e-07
8	0x3b733aa6	0.0037113815
9	0x35aec7ea	1.3022193e-06
10	0x371d0f64	9.361513e-06
11	0x34e062de	4.1795187e-07
12	0x363ef101	2.845249e-06
13	0x33860de9	6.2423915e-08
14	0x39ac23b7	0.00032833006
15	0x3591c0fa	1.0859505e-06
16	0x379c78c0	1.8652878e-05
17	0x349a8096	2.8778294e-07
18	0x3a1f90a6	0.0006086923
19	0x35141112	5.5159137e-07
20	0x37baf6b8	2.2287815e-05
21	0x344b8b45	1.8956514e-07
22	0x37249afa	9.811245e-06
23	0x34729699	2.2592793e-07
24	0x383e6bd6	4.539996e-05
25	0x351aa43e	5.7608474e-07
26	0x380c0257	3.338078e-05
27	0x353c26ac	7.009173e-07
28	0x3936cc9f	0.000174331
29	0x34246e58	1.5313833e-07
30	0x3a282d70	0.0006415462
31	0x3412be71	1.3666592e-07
32	0x36b2b1d2	5.3255144e-06
33	0x33163ab9	3.4978004e-08
34	0x38ec2a8b	0.00011261281
35	0x3530a7c6	6.580925e-07
36	0x37bcc983	2.2505183e-05
37	0x35189ffa	5.685721e-07
38	0x38823fdd	6.2107785e-05
39	0x33aa1578	7.920147e-08
40	0x3652b414	3.1397258e-06
41	0x335f3faf	5.1979153e-08
42	0x391e968e	0.0001512414
43	0x35a2d154	1.2130863e-06
44	0x3a6ae5e9	0.0008960651
45	0x35342cbe	6.7120334e-07
46	0x3873e9a8	5.8153324e-05
47	0x34c08443	3.585902e-07
48	0x3a339476	0.00068504305
49	0x35848fc5	9.876609e-07
50	0x39d360d7	0.00040317207
51	0x35a6bf7d	1.2423694e-06
52	0x3a26370d	0.00063406007
53	0x34d9a1f4	4.0537236e-07
54	0x371ee8be	9.471723e-06
55	0x33ae17ec	8.106858e-08
56	0x39188463	0.00014545168
57	0x3554ee31	7.932277e-07
58	0x37e900d6	2.7776154e-05
59	0x33c6b870	9.2536425e-08
60	0x390f153e	0.00013645456
61	0x34dd33bc	4.12021e-07
62	0x3633c26d	2.678625e-06
63	0x31300c6f	2.5618438e-09
64	0x3a9a41b2	0.0011768846
65	0x3563434a	8.466201e-07
66	0x343afb8e	1.7414115e-07
67	0x31ae11a5	5.0660725e-09
68	0x393b28a7	0.00017848854
69	0x3588d6da	1.019532e-06
70	0x3ac2cdf2	0.0014862402
71	0x35c34efb	1.4551619e-06
72	0x39a2e1f7	0.00031067405
73	0x34c8fe2f	3.7437846e-07
74	0x37e6fdb7	2.7536282e-05
75	0x353ff6e7	7.1512335e-07
76	0x3916e268	0.00014389458
77	0x349aa828	2.8807085e-07
78	0x382a51dd	4.06074e-05
79	0x34fab41d	4.6697178e-07
80	0x37925add	1.7446868e-05
81	0x35a46613	1.224866e-06
82	0x374a6beb	1.2065265e-05
83	0x335afd36	5.0987374e-08
84	0x399651da	0.00028671214
85	0x366d2de6	3.5342468e-06
86	0x36f28ba2	7.2284174e-06
87	0x34975d05	2.8193622e-07
88	0x392c2aa3	0.00016419082
89	0x34b3c292	3.3482917e-07
90	0x389519a1	7.1096474e-05
91	0x35862ac5	9.996226e-07
92	0x39c4c0b8	0.0003752762
93	0x3502db12	4.8747563e-07
94	0x3a185b92	0.0005811985
95	0x3487b743	2.527905e-07
96	0x3ab5358e	0.0013825165
97	0x35231694	6.075509e-07
98	0x38038d88	3.1364645e-05
99	0x352aa914	6.3575976e-07
100	0x38b1b9a5	8.474597e-05
101	0x355b7d65	8.176633e-07
102	0x3983c807	0.000251353
103	0x3544e881	7.335403e-07
104	0x378f8852	1.7110407e-05
105	0x351517cf	5.554147e-07
106	0x3ac4e7e5	0.0015022723
107	0x34c35e4b	3.6390188e-07
108	0x3af4299a	0.0018628121
109	0x357bd7dd	9.381891e-07
110	0x39b9ed95	0.00035462962
111	0x35ae48f0	1.2985238e-06
112	0x3ac41b0d	0.0014961675
113	0x34e0780a	4.181059e-07
114	0x3886b6e5	6.423685e-05
115	0x3517c97b	5.6545076e-07
116	0x3a807ed6	0.0009803425
117	0x354b11e8	7.564945e-07
118	0x3932e504	0.00017060718
119	0x356b4e8c	8.765862e-07
120	0x3682c909	3.8977055e-06
121	0x3466b883	2.1487544e-07
122	0x39986dc8	0.00029073493
123	0x33b6a5b9	8.50518e-08
124	0x362fee00	2.6215566e-06
125	0x32a44dff	1.9127581e-08
126	0x3962c9b2	0.00021628177
127	0x3623a99b	2.4387616e-06

exp_avg f4 [64]
0	0xbbfba093	-0.007679054
1	0x3b582b1c	0.003298468
2	0x3ba5f071	0.0050640632
3	0xbbab69ce	-0.0052311188
4	0x3c635865	0.013876055
5	0xbaff9c63	-0.0019501563
6	0x3bb74e81	0.005594075
7	0xbadae2a7	-0.0016699628
8	0x3b8dbf59	0.004325789
9	0x3baefe90	0.005340405
10	0xbb95d2cb	-0.0045722476
11	0xbbeeff5a	-0.007293624
12	0xb9e85e47	-0.0004432073
13	0x3b4bb36f	0.0031082293
14	0x38f990ef	0.00011900241
15	0x3bfb6c4f	0.0076728235
16	0x3a441544	0.00074799755
17	0x3b8e498d	0.004342264
18	0x3b0ff8b3	0.0021968305
19	0x3b4ef028	0.003157625
20	0xbb925c3a	-0.0044665607
21	0x3b83c01d	0.0040207044
22	0xbb649647	-0.0034879611
23	0xbb34ba2b	-0.0027576785
24	0xbb79a3d5	-0.0038092036
25	0x3c1a20de	0.00940725
26	0xbbc214d8	-0.005922895
27	0x3aa24346	0.0012379668
28	0xbbb95ad6	-0.0056565804
29	0x3a370f54	0.000698318
30	0xbb2eae85	-0.0026654315
31	0x3b5598cf	0.0032592302
32	0x3c00e11d	0.007866171
33	0x3b57d0ff	0.0032930968
34	0x3bbc4212	0.005745181
35	0x3c419fee	0.011817915
36	0xbc1ff36b	-0.009762625
37	0x3b9b1510	0.0047327355
38	0xba16c181	-0.000575088
39	0x3a0d699d	0.0005394461
40	0x3c270708	0.0101945475
41	0x3aa8c35b	0.0012875603
42	0xbb650da3	-0.0034950755
43	0x3c0ac549	0.008469888
44	0xbb5fe755	-0.0034164984
45	0xbc1803a1	-0.009278209
46	0x3bf0274e	0.0073289042
47	0xbc12853f	-0.008942901
48	0xbc2cde47	-0.010551042
49	0x3b668886	0.003517659
50	0x3b186c76	0.0023258007
51	0x3b141e03	0.0022600896
52	0x3a696fdb	0.00089049124
53	0x3acf17fe	0.0015799997
54	0xbb197321	-0.002341457
55	0x3c0f57ed	0.0087489905
56	0xbb9d3ffa	-0.0047988864
57	0xba8406c3	-0.0010072816
58	0x3c1468a9	0.009058156
59	0xbb76e740	-0.0037674457
60	0xbb2013ed	-0.002442594
61	0x3912929d	0.00013978263
62	0x3b9c9809	0.004778866
63	0x3bf6e91e	0.007535114

exp_avg_sq f4 [64]
0	0x37c8c770	2.3934728e-05
1	0x375cab15	1.3152855e-05
2	0x37594537	1.2950323e-05
3	0x37e8ab35	2.773628e-05
4	0x39a0c455	0.00030663857
5	0x371bfcfe	9.297624e-06
6	0x36dd4882	6.5947543e-06
7	0x385fc80c	5.335365e-05
8	0x37256922	9.8592445e-06
9	0x3872c9ab	5.7885114e-05
10	0x374decb5	1.2274065e-05
11	0x373fe72c	1.1438311e-05
12	0x37f38ab1	2.903244e-05
13	0x37a5a97b	1.9748453e-05
14	0x37ab8c5b	2.0450147e-05
15	0x385b2049	5.2243737e-05
16	0x368def90	4.230016e-06
17	0x3817fdaf	3.6237467e-05
18	0x378808ad	1.6216503e-05
19	0x36edf0b6	7.091173e-06
20	0x36965da3	4.481249e-06
21	0x384d41f0	4.8937218e-05
22	0x389effc2	7.581666e-05
23	0x378f941c	1.7115897e-05
24	0x388d099a	6.725192e-05
25	0x38b24225	8.500022e-05
26	0x3871252e	5.7493504e-05
27	0x36bace54	5.5672517e-06
28	0x3883864a	6.27158e-05
29	0x378c5d6f	1.6732809e-05
30	0x380dd9a7	3.3819724e-05
31	0x36a2e74e	4.8549036e-06
32	0x3931d2fb	0.00016958632
33	0x36155877	2.2254223e-06
34	0x38a89bf7	8.039915e-05
35	0x3932a2f2	0.00017036105
36	0x3889fcf5	6.579786e-05
37	0x37f0e1ac	2.8715316e-05
38	0x37d20da0	2.5040295e-05
39	0x37b44d05	2.1493537e-05
40	0x37edc531	2.8344426e-05
41	0x363b596c	2.7917222e-06
42	0x38ff4368	0.00012171903
43	0x3774cce3	1.4591237e-05
44	0x379c4268	1.8627572e-05
45	0x383a11ce	4.4362438e-05
46	0x38c6cda0	9.4796764e-05
47	0x3868978f	5.545426e-05
48	0x390290c9	0.00012451703
49	0x37ae4618	2.0775056e-05
50	0x38262e9f	3.9620903e-05
51	0x38163577	3.581258e-05
52	0x3795c7e4	1.7855265e-05
53	0x38fe5155	0.00012126813
54	0x39208944	0.00015309924
55	0x38e1a149	0.00010758878
56	0x390d41f9	0.00013471385
57	0x37f37783	2.902351e-05
58	0x389b7f2a	7.414662e-05
59	0x383657e8	4.347405e-05
60	0x370f703a	8.549594e-06
61	0x37f11772	2.8740356e-05
62	0x36aa3b20	5.073278e-06
63	0x38bf34dc	9.1174355e-05

exp_avg f4 [4, 64]
0	0xb9a473b4	-0.00031366723
1	0x3a1427c7	0.0005651679
2	0x3993fd77	0.0002822687
3	0xb9ecc75b	-0.0004516196
4	0xb98c4b44	-0.00026758958
5	0xb9765c6b	-0.00023494817
6	0x3a406a02	0.0007340015
7	0xb91084c2	-0.00013782366
8	0x3a1713cb	0.0005763142
9	0x3a36efd9	0.0006978489
10	0xb99ff2cc	-0.0003050774
11	0xba2a8bf7	-0.0006505842
12	0x3a595024	0.0008289835
13	0x39b5e074	0.0003469024
14	0xba342030	-0.00068712514
15	0xb99759ea	-0.00028867956
16	0x3a662d29	0.0008780533
17	0xb9aeb3be	-0.00033321785
18	0x3a1cf68b	0.00059876655
19	0x39abd46c	0.00032773928
20	0xba82dcb8	-0.0009983992
21	0x398b5e8a	0.00026582583
22	0x39a62cf0	0.00031695468
23	0xb9025827	-0.00012430605
24	0x39e39cc1	0.00043413605
25	0xb8be49c2	-9.0736445e-05
26	0x390ecd47	0.00013618647
27	0xba0a3dad	-0.00052734726
28	0x395066ac	0.00019874674
29	0xba84842c	-0.0010110191
30	0x3a691ebb	0.0008892824
31	0x3a69e2c8	0.00089220377
32	0xba1a8aba	-0.00058953057
33	0x3a68ded5	0.0008883302
34	0xba11b3c3	-0.00055580976
35	0xb8c4cf51	-9.384624e-05
36	0x370bd7eb	8.335318e-06
37	0x3a836868	0.0010025622
38	0xb9ff1bd7	-0.00048658132
39	0x397a5857	0.00023874767
40	0x3a62374c	0.00086294557
41	0x3976cbd7	0.00023536324
42	0xb9365438	-0.00017388246
43	0x3a67dfeb	0.0008845317
44	0xb9b22f15	-0.00033985885
45	0xb8720fa7	-5.7711874e-05
46	0xba2077c7	-0.0006121364
47	0xb87c8aa9	-6.021062e-05
48	0x390b4913	0.00013283295
49	0xb9dc2c53	-0.00041994694
50	0xb9ece02f	-0.00045180458
51	0x399d36b8	0.00029986142
52	0xba21d3b4	-0.0006173209
53	0xba568fb3	-0.0008184865
54	0x3a2cdffc	0.00065946556
55	0x38e606c2	0.000109685134
56	0x3a66a10a	0.00087978004
57	0x39d81c1b	0.0004121967
58	0x3a1789f9	0.00057807524
59	0x39d1b9ba	0.00040001963
60	0xba73c0a2	-0.0009298419
61	0xba720239	-0.00092318986
62	0x3a20bd84	0.00061317557
63	0x3a33cf02	0.00068591547
64	0x3a87cb58	0.0010360284
65	0xba978e29	-0.0011562753
66	0xbaa597a4	-0.0012633693
67	0x39ba34b3	0.0003551595
68	0x37a1bc9b	1.9280522e-05
69	0x389b961c	7.418936e-05
70	0xbab8d8f9	-0.0014102749
71	0x39bf478e	0.0003648367
72	0xba8fe47d	-0.0010978129
73	0xba81ca83	-0.0009902272
74	0x3a5dcb3d	0.0008460766
75	0x3a928a25	0.0011180086
76	0xba31bd05	-0.000678018
77	0x39839b06	0.0002510177
78	0x3ace188b	0.0015723867
79	0xba5738d6	-0.00082100683
80	0xbae02c5b	-0.0017103063
81	0x3a18c007	0.0005826954
82	0xba682423	-0.00088554824
83	0xba4a471a	-0.00077162834
84	0x3ab8803d	0.0014076304
85	0xba9ac737	-0.0011808638
86	0x3a0f0721	0.00054560794
87	0x38ef4299	0.00011408813
88	0xba0f105a	-0.00054574537
89	0xba1aadce	-0.00059005327
90	0x39faccb7	0.0004783624
91	0x3a611d89	0.000858747
92	0x399ccffd	0.00029909602
93	0x3a9ed699	0.0012118398
94	0xba9bf6ff	-0.0011899172
95	0xbadb173a	-0.0016715296
96	0x38878ace	6.463156e-05
97	0xbacaad19	-0.0015462964
98	0x39437cf9	0.00018643205
99	0x38a3ae13	7.8048695e-05
100	0x3a2bc5b9	0.00065525953
101	0xba9d2c6c	-0.0011991388
102	0x3a344c77	0.0006877849
103	0x387b9350	5.998026e-05
104	0xba92ac8f	-0.0011190342
105	0xba2e2bce	-0.00066441006
106	0x3a30cefa	0.0006744709
107	0xbab300af	-0.001365682
108	0x3a814985	0.000986383
109	0x39cb2c0d	0.00038751998
110	0xb7b93e04	-2.2082597e-05
111	0x3a5e80d5	0.00084878254
112	0x3a4ae539	0.00077398453
113	0x39e09f3b	0.00042843245
114	0x38fd216e	0.00012070207
115	0x37c7ddd6	2.3825949e-05
116	0x3abfade1	0.0014623964
117	0x39a2c56c	0.0003104614
118	0xb99fd21c	-0.00030483387
119	0xb9755494	-0.00023396529
120	0xbaa1e4d9	-0.0012351527
121	0xba28c934	-0.0006438673
122	0xba654593	-0.0008746024
123	0xba49566d	-0.000768042
124	0x3ad154f0	0.0015970748
125	0x3aaaa843	0.0013020117
126	0xbace195e	-0.0015724113
127	0xba2c6882	-0.0006576852
128	0xbb5da82b	-0.003382216
129	0x3b6cd3dd	0.0036137023
130	0x3b75428b	0.0037423696
131	0xba6f7fdb	-0.00091361784
132	0x38df5cdf	0.00010650767
133	0xba38534e	-0.00070314563
134	0x3b8f24d0	0.004368402
135	0xba40f6e0	-0.0007361006
136	0x3b5d2461	0.0033743607
137	0x3b14a61f	0.0022682024
138	0xbb3e4649	-0.0029033592
139	0xbb66154c	-0.0035107909
140	0x3af3af81	0.0018591733
141	0xba14bac1	-0.00056735805
142	0xbb945399	-0.004526567
143	0x3b4725a9	0.0030387437
144	0x3ba3f92b	0.0050040684
145	0xbaffd076	-0.0019517082
146	0x3b351372	0.0027629999
147	0x3af8905c	0.0018963921
148	0xbb82f1f6	-0.003996129
149	0x3b7f115c	0.003892026
150	0xbb0da9ea	-0.002161617
151	0x395788ac	0.00020554912
152	0x3ac33105	0.0014891928
153	0x3ad3fe8e	0.0016173886
154	0xbae886eb	-0.0017740404
155	0xbb329122	-0.002724715
156	0xbadcfe24	-0.0016860408
157	0xbb588748	-0.0033039618
158	0x3b53c34c	0.003231245
159	0x3b989fac	0.0046577062
160	0x3937f8c4	0.00017544912
161	0x3b98e91c	0.0046664607
162	0xba091b83	-0.0005230235
163	0x389d02d2	7.486869e-05
164	0xbb209a27	-0.0024505944
165	0x3b5c6a1e	0.0033632587
166	0xbab6c1a5	-0.0013943209
167	0xba868aa9	-0.0010264713
168	0x3b5a0a12	0.0033270163
169	0x3b0f2bed	0.002184625
170	0xbb20bc8c	-0.0024526445
171	0x3b84b5a5	0.004049974
172	0xbb43254c	-0.002977687
173	0xbae9cb80	-0.0017837137
174	0x39b661d1	0.00034786624
175	0xbb382559	-0.0028098433
176	0xbb24f7ba	-0.002517207
177	0xbac7d396	-0.0015245553
178	0xb9e30090	-0.00043297233
179	0xb916c5ba	-0.00014378774
180	0xbb97317f	-0.0046140547
181	0xb903a373	-0.00012554023
182	0x39a36b02	0.0003116951
183	0x3a89485f	0.0010473839
184	0x3b50f4fa	0.0031884299
185	0x3b0adb24	0.0021187747
186	0x3b15901f	0.0022821499
187	0x3b1ee4cf	0.0024245267
188	0xbb9afd43	-0.004729898
189	0xbb59d2bd	-0.0033237182
190	0x3ba013bf	0.0048851664
191	0x3af1fd07	0.0018462249
192	0x3b2e50fa	0.0026598559
193	0xbb4616ca	-0.0030225986
194	0xbb34f642	-0.0027612601
195	0x3a846491	0.0010100772
196	0x3914b051	0.00014180063
197	0x3a627794	0.00086390343
198	0xbb71f79b	-0.0036921266
199	0x3a057457	0.00050908834
200	0xbb3af720	-0.0028528646
201	0xbb017cc1	-0.0019758197
202	0x3b1ad1d2	0.0023623598
203	0x3b47732f	0.0030433645
204	0xbb03bc81	-0.002010137
205	0xb8002fce	-3.05621e-05
206	0x3b6ea2d2	0.0036412966
207	0xbafcd875	-0.0019290583
208	0xbb88b3ac	-0.004171809
209	0x3adf1d60	0.0017022304
210	0xbb22482a	-0.0024762251
211	0xbabe61dc	-0.0014525014
212	0x3b6b1227	0.0035868974
213	0xbb43199a	-0.0029769898
214	0x3aaa4500	0.0012990534
215	0xb94cd1f1	-0.00019533165
216	0xbab49014	-0.0013775849
217	0xba758619	-0.00093659904
218	0x3a97fa19	0.0011594921
219	0x3b1cd92e	0.002393316
220	0x3a9bbd45	0.0011881968
221	0x3b4b5e0f	0.0031031405
222	0xbb400f6e	-0.0029306072
223	0xbb7e2c8a	-0.0038783872
224	0x39b73664	0.00034945004
225	0xbb8359b7	-0.0040084976
226	0x3a69f004	0.000892401
227	0xb877c3e9	-5.9071845e-05
228	0x3aea39a8	0.0017869966
229	0xbb4f880f	-0.003166679
230	0x3a9c624a	0.0011931148
231	0x3a3ec5ff	0.00072774285
232	0xbb4941a8	-0.00307093
233	0xbae61b3d	-0.0017555725
234	0x3affdc1d	0.0019520555
235	0xbb69e2de	-0.0035688202
236	0x3b18c679	0.0023311658
237	0x3abe910f	0.001453908
238	0x3996217a	0.00028635171
239	0x3b047753	0.0020212724
240	0x3ad313b1	0.0016103891
241	0x3ac6b6e2	0.0015160704
242	0x3a484c39	0.00076407526
243	0xb93ca381	-0.00017989987
244	0x3b7700f1	0.003768977
245	0x3a2615cf	0.0006335647
246	0xba2eac4a	-0.00066632463
247	0xba71fc73	-0.0009231038
248	0xbb39aac7	-0.002833055
249	0xbaf758c0	-0.0018871054
250	0xbb022136	-0.001985622
251	0xbb06c681	-0.0020565095
252	0x3b85202c	0.004062673
253	0x3b40ff13	0.002944891
254	0xbb80a503	-0.003925921
255	0xbaf5b04c	-0.0018744557

exp_avg_sq f4 [4, 64]
0	0x390776ca	0.00012918856
1	0x3942e37b	0.00018586025
2	0x371a83cf	9.209804e-06
3	0x38843abf	6.305193e-05
4	0x3730aedf	1.0531133e-05
5	0x397be47e	0.00024022345
6	0x398b52ee	0.00026573933
7	0x3867c671	5.5259505e-05
8	0x392d208f	0.00016510695
9	0x379df212	1.8828581e-05
10	0x3935bdea	0.00017332254
11	0x397f0fa2	0.00024324519
12	0x3951d093	0.00020009493
13	0x39377e24	0.00017499231
14	0x388b6cbf	6.648292e-05
15	0x37995d60	1.8282502e-05
16	0x394504a9	0.0001878912
17	0x3909ae29	0.00013130218
18	0x39523a75	0.00020048938
19	0x38059f7a	3.1858195e-05
20	0x3969e546	0.00022306023
21	0x39082500	0.00012983754
22	0x3714edc3	8.876846e-06
23	0x38e4bbb3	0.00010906849
24	0x38283ec6	4.0112784e-05
25	0x38a73083	7.9722166e-05
26	0x3759e2a5	1.2986978e-05
27	0x39417aab	0.00018451612
28	0x391caa09	0.00014940662
29	0x39472f09	0.00018995641
30	0x3904aefc	0.00012653688
31	0x38b3b070	8.568249e-05
32	0x3856e7b2	5.123736e-05
33	0x399b8f47	0.00029670654
34	0x3922bc20	0.00015519606
35	0x38360761	4.3399054e-05
36	0x38c66470	9.460084e-05
37	0x397797d4	0.00023612316
38	0x38619d93	5.3790933e-05
39	0x392efb21	0.00016687486
40	0x398ff54e	0.00027457852
41	0x38a4893d	7.845692e-05
42	0x391bee44	0.00014870713
43	0x3986f842	0.00025743438
44	0x38286b74	4.0154395e-05
45	0x394992b9	0.00019223512
46	0x38cae780	9.675231e-05
47	0x380ccfb3	3.3572036e-05
48	0x372175ee	9.623805e-06
49	0x394e1ee3	0.00019657197
50	0x3922f1b8	0.00015539571
51	0x385d5e51	5.2778345e-05
52	0x397a0dfb	0.00023847066
53	0x369bac0c	4.639389e-06
54	0x36af47ae	5.223751e-06
55	0x38eb84db	0.000112304195
56	0x3835c35e	4.3335713e-05
57	0x3924e8af	0.0001572694
58	0x37b8e472	2.2040887e-05
59	0x38f49db8	0.00011664204
60	0x39893a9d	0.00026174347
61	0x3813739b	3.5155197e-05
62	0x394f05a2	0.00019743157
63	0x391fbaaa	0.0001523296
64	0x34d5347d	3.9712532e-07
65	0x350e0087	5.289989e-07
66	0x3509b342	5.129733e-07
67	0x3370364d	5.592874e-08
68	0x30dbece9	1.6001681e-09
69	0x342ce774	1.610295e-07
70	0x3562f9ec	8.4555245e-07
71	0x33407575	4.481031e-08
72	0x34fafae5	4.6748679e-07
73	0x34a5432b	3.0782516e-07
74	0x34a75a93	3.1172075e-07
75	0x3519639d	5.71419e-07
76	0x348d4201	2.631132e-07
77	0x33af6463	8.167333e-08
78	0x355e6dbd	8.2861135e-07
79	0x346f5d15	2.2292473e-07
80	0x358cf298	1.0501417e-06
81	0x342e4b8e	1.62325e-07
82	0x34c47f0b	3.660028e-07
83	0x3445583b	1.8379153e-07
84	0x35500877	7.7498356e-07
85	0x3507c4b4	5.057766e-07
86	0x33d4a4e1	9.9020106e-08
87	0x32e943b7	2.7155563e-08
88	0x33eb87e7	1.0967761e-07
89	0x33f11d1e	1.12277334e-07
90	0x33a70103	7.7767275e-08
91	0x34b68551	3.3997142e-07
92	0x33af1284	8.1524405e-08
93	0x351ca8a8	5.8359956e-07
94	0x350a45e0	5.151069e-07
95	0x357aa6b8	9.3374865e-07
96	0x322fa7f9	1.0224533e-08
97	0x358b94bc	1.0399594e-06
98	0x339a0d5b	7.173613e-08
99	0x31e61cc4	6.6971513e-09
100	0x34343d7a	1.6786171e-07
101	0x35289967	6.2808107e-07
102	0x341eaea6	1.4778433e-07
103	0x3389fddc	6.4257364e-08
104	0x352a3d63	6.3419265e-07
105	0x3433cfa6	1.6746216e-07
106	0x34601b2f	2.0871515e-07
107	0x3554a89c	7.9221513e-07
108	0x34b04b28	3.2837238e-07
109	0x3418702d	1.4196912e-07
110	0x32b06807	2.0536403e-08
111	0x3482af61	2.4341992e-07
112	0x344996de	1.8774469e-07
113	0x34332146	1.6682779e-07
114	0x3387663c	6.305024e-08
115	0x32006995	7.474587e-09
116	0x35673445	8.613027e-07
117	0x33084df8	3.173588e-08
118	0x3306b39d	3.1362664e-08
119	0x334f064a	4.8201663e-08
120	0x35099d8c	5.126574e-07
121	0x345d3aeb	2.0603663e-07
122	0x3488931d	2.5439013e-07
123	0x347f02e3	2.3749776e-07
124	0x3589715a	1.0240285e-06
125	0x351710f3	5.627655e-07
126	0x3571eacd	9.0121176e-07
127	0x345ae96c	2.038775e-07
128	0x3909ed9b	0.00013153853
129	0x3947be81	0.00019049087
130	0x371a704a	9.20526e-06
131	0x3883cbbe	6.284517e-05
132	0x372c9e17	1.0288807e-05
133	0x398152ec	0.0002466658
134	0x398e8bbf	0.0002718847
135	0x386a219d	5.5821252e-05
136	0x3930acf4	0.00016849098
137	0x3791c54f	1.7377226e-05
138	0x393a7298	0.00017781032
139	0x3982aad9	0.00024922824
140	0x3955c991	0.00020388352
141	0x393c5419	0.00017960406
142	0x388d8494	6.7480985e-05
143	0x379062be	1.7212118e-05
144	0x3948b0f7	0.00019139411
145	0x390c924d	0.00013405942
146	0x395789df	0.00020555359
147	0x38044034	3.1531046e-05
148	0x396e8690	0.00022747577
149	0x390b11d2	0.00013262712
150	0x3708a52c	8.144689e-06
151	0x38e8d919	0.0001110306
152	0x382acb03	4.0720228e-05
153	0x38a91671	8.062728e-05
154	0x3758f41b	1.29314385e-05
155	0x3945f33a	0.00018877993
156	0x391fc44c	0.00015236548
157	0x394a081a	0.00019267239
158	0x39063cf3	0.00012801941
159	0x38b45341	8.598576e-05
160	0x38522468	5.0101808e-05
161	0x399ea8c0	0.00030261837
162	0x3925c26f	0.00015808058
163	0x3834998c	4.3058346e-05
164	0x38c8fc9a	9.583794e-05
165	0x397c2d17	0.0002404939
166	0x385f8ba3	5.329739e-05
167	0x3932c9ec	0.00017050625
168	0x3992f0df	0.00028026753
169	0x38a56a49	7.88761e-05
170	0x391fae79	0.00015228418
171	0x3989e880	0.00026303902
172	0x3827f92a	4.0047955e-05
173	0x394ec5c3	0.00019719363
174	0x38cae727	9.675166e-05
175	0x380d60e4	3.3707256e-05
176	0x37143815	8.834545e-06
177	0x39536cdd	0.00020163083
178	0x39264ab4	0.00015858823
179	0x385b02e0	5.2216346e-05
180	0x397fd89a	0.00024399385
181	0x3607e863	2.0251834e-06
182	0x3670e20d	3.5894366e-06
183	0x38f09ccb	0.00011473297
184	0x38337b6c	4.279187e-05
185	0x3928498a	0.00016049124
186	0x37b3ba14	2.1425112e-05
187	0x38f97c9c	0.000118964555
188	0x398c1643	0.00026719467
189	0x380e87d2	3.398193e-05
190	0x3953e76a	0.00020208737
191	0x392269fd	0.00015489008
192	0x3920a6fa	0.00015320993
193	0x39646265	0.00021780429
194	0x371851a4	9.078914e-06
195	0x38a01d50	7.6348544e-05
196	0x375e9f5c	1.3269335e-05
197	0x3990be50	0.00027607614
198	0x399d79bc	0.00030036073
199	0x3893b370	7.042929e-05
200	0x394bb727	0.00019427818
201	0x37c4e96b	2.3473714e-05
202	0x3956b149	0.00020474674
203	0x3991b342	0.00027790113
204	0x3974fe9d	0.00023364504
205	0x395b3e0b	0.0002090858
206	0x38a1e1b2	7.719117e-05
207	0x37a35f7c	1.9475578e-05
208	0x3964a2a4	0.00021804363
209	0x39261b24	0.00015841104
210	0x3975979d	0.00023421501
211	0x382ceb3c	4.1227075e-05
212	0x3986969a	0.0002567068
213	0x3921ad92	0.00015418816
214	0x37203436	9.5488995e-06
215	0x390d5b7f	0.00013480893
216	0x384fe738	4.9567985e-05
217	0x38d40020	0.00010108971
218	0x377dbc74	1.5123853e-05
219	0x3963575f	0.00021680955
220	0x393be3d9	0.0001791859
221	0x396846e2	0.0002215165
222	0x391de12a	0.00015056567
223	0x38cf7ea3	9.894117e-05
224	0x3883fb9d	6.2934334e-05
225	0x39ad90d1	0.00033105028
226	0x39433876	0.00018617683
227	0x385f9dd2	5.3314325e-05
228	0x38eee8b9	0.00011392072
229	0x398dc76a	0.0002704219
230	0x388f68c1	6.838283e-05
231	0x3950e096	0.0001992009
232	0x39a23952	0.00030941755
233	0x38c52b18	9.401719e-05
234	0x393a8b75	0.00017790294
235	0x39992348	0.0002920872
236	0x3841eccb	4.6235316e-05
237	0x396ca5db	0.000225685
238	0x38f9598b	0.00011889924
239	0x3822df6d	3.883189e-05
240	0x37418195	1.1533867e-05
241	0x39720013	0.00023078946
242	0x3943a3da	0.00018657689
243	0x3887b11f	6.470293e-05
244	0x398ec860	0.00027233642
245	0x3681aaf5	3.8644016e-06
246	0x36ad4768	5.1641146e-06
247	0x39103956	0.0001375427
248	0x3852b572	5.0236886e-05
249	0x3944142f	0.00018699536
250	0x37ce9c63	2.4629937e-05
251	0x3913a5f7	0.00014080839
252	0x399b5694	0.0002962841
253	0x382544a7	3.9403003e-05
254	0x396fd5ff	0.00022872536
255	0x393e3b7d	0.00018141973

exp_avg f4 [4]
0	0xbb22f2bb	-0.0024863917
1	0x3bc4a6c7	0.0060013267
2	0xbc8ab82b	-0.016933521
3	0x3c5bd9a3	0.013418588

exp_avg_sq f4 [4]
0	0x39defbe4	0.00042530813
1	0x37468b39	1.1834135e-05
2	0x39dfbebb	0.0004267598
3	0x39f0bd57	0.00045917436

exp_avg f4 [64, 2]
0	0xb705cd16	-7.975168e-06
1	0x34b237e4	3.319575e-07
2	0x39274076	0.00015950375
3	0xb780a936	-1.5337584e-05
4	0x38ca8444	9.656747e-05
5	0xb6dd8c12	-6.6026196e-06
6	0x36a8d216	5.0312474e-06
7	0xb5ef7696	-1.7841401e-06
8	0xb6213177	-2.4019662e-06
9	0x3410cf21	1.3486398e-07
10	0xb74fb8f3	-1.2381223e-05
11	0xb7360575	-1.0849316e-05
12	0x363f79ad	2.8532043e-06
13	0xb49010f5	-2.6834428e-07
14	0xb826f188	-3.9802428e-05
15	0xb6e1f2ed	-6.733803e-06
16	0x378b044a	1.6572088e-05
17	0xb5bfc9e0	-1.4289362e-06
18	0x37bd3da3	2.2559258e-05
19	0x36695606	3.4769778e-06
20	0xb7ecdc10	-2.8235867e-05
21	0xb6d09128	-6.2157815e-06
22	0xb7249ddd	-9.811917e-06
23	0x34bcce35	3.5167764e-07
24	0xb81055e3	-3.4412264e-05
25	0xb6ba9637	-5.5607193e-06
26	0xb784b7c8	-1.5821206e-05
27	0x36a46a71	4.8999723e-06
28	0x380d5ca5	3.37033e-05
29	0xb5e8ecbf	-1.7354249e-06
30	0x38bba99c	8.948447e-05
31	0xb6d49fb9	-6.3366865e-06
32	0xb66a2d64	-3.4895138e-06
33	0xb5ee39a0	-1.7749153e-06
34	0x38721722	5.771884e-05
35	0xb6502db3	-3.1021016e-06
36	0xb82015a1	-3.8167116e-05
37	0x36b8d193	5.508025e-06
38	0xb835d92d	-4.3356024e-05
39	0x361cc7bc	2.3362072e-06
40	0x37ba2939	2.2192124e-05
41	0xb6c0212f	-5.725909e-06
42	0x38ca7ba1	9.655138e-05
43	0xb6613bfb	-3.3562526e-06
44	0x3800518e	3.0593532e-05
45	0x3685ba48	3.985395e-06
46	0x37904405	1.7197812e-05
47	0x36558e97	3.1822472e-06
48	0x363f18b5	2.84756e-06
49	0xb5cb1a21	-1.5132283e-06
50	0x3773e895	1.4538081e-05
51	0x366e3e89	3.5501164e-06
52	0xb79470cf	-1.7695505e-05
53	0xb651a928	-3.1241889e-06
54	0x38fd309d	0.00012073035
55	0xb6d44333	-6.3259154e-06
56	0xb802e8f4	-3.121137e-05
57	0x36eb0cb4	7.0050246e-06
58	0xb7d85fd0	-2.5793823e-05
59	0x36835a6e	3.9146316e-06
60	0xb7850ed1	-1.5861735e-05
61	0x35138f8e	5.4970667e-07
62	0x3872d378	5.789424e-05
63	0xb651f490	-3.128578e-06
64	0xb7e34caa	-2.7096208e-05
65	0xb6c9c402	-6.013085e-06
66	0xb7a55900	-1.9710977e-05
67	0x369dd250	4.703448e-06
68	0x37a6a2ba	1.9864518e-05
69	0xb5a83adb	-1.2534105e-06
70	0xb7e566a1	-2.7346718e-05
71	0x367c5119	3.7598131e-06
72	0x378f60cf	1.7092008e-05
73	0x3673e745	3.6344438e-06
74	0xb5f75767	-1.8428372e-06
75	0xb4c54832	-3.6746638e-07
76	0xb7604072	-1.3366445e-05
77	0x356a2e95	8.723958e-07
78	0x379b5d73	1.8520956e-05
79	0x3701f310	7.745592e-06
80	0x381e0065	3.7670503e-05
81	0xb6453e0d	-2.9391406e-06
82	0xb7175e2f	-9.02223e-06
83	0xb67761c1	-3.6862768e-06
84	0xb6cb0807	-6.050806e-06
85	0xb6738067	-3.6284562e-06
86	0x38a9c3d5	8.0950245e-05
87	0xb6262927	-2.4759881e-06
88	0x3980300a	0.00024449854
89	0xb6f7bf61	-7.383453e-06
90	0x37eb9ecd	2.808813e-05
91	0x36ae6110	5.1969037e-06
92	0xb8ef9662	-0.00011424419
93	0x36a320e7	4.861609e-06
94	0xb77ded5c	-1.513524e-05
95	0xb6672fa1	-3.4449406e-06
96	0x36887a21	4.0673335e-06
97	0x352ae4b9	6.366277e-07
98	0xb8854de2	-6.356441e-05
99	0x36fb0bff	7.4817794e-06
100	0x3966843e	0.00021983773
101	0xb7082faf	-8.117334e-06
102	0x36b5f540	5.422771e-06
103	0xb65156a2	-3.1193854e-06
104	0x380d03c2	3.362052e-05
105	0xb66258e0	-3.3728356e-06
106	0xb81a91cc	-3.6852245e-05
107	0xb6b825d4	-5.488031e-06
108	0xb7c0ffd5	-2.3007315e-05
109	0x36772885	3.6829454e-06
110	0x38087390	3.2532553e-05
111	0xb59e70e6	-1.1804775e-06
112	0xb8c19585	-9.230807e-05
113	0x36cb074b	6.0507205e-06
114	0x368b4565	4.1506014e-06
115	0xb4dc6019	-4.1048114e-07
116	0x38838867	6.271974e-05
117	0xb6184b36	-2.2693544e-06
118	0xb83d594e	-4.5144283e-05
119	0x36a5a8da	4.93704e-06
120	0x394e2101	0.00019657986
121	0xb70002ce	-7.630048e-06
122	0xb899561c	-7.311648e-05
123	0x362211e8	2.4150304e-06
124	0xb2849e37	-1.543877e-08
125	0xb62ed843	-2.6053901e-06
126	0xb7b56746	-2.1624972e-05
127	0x36c04a0a	5.730665e-06
