outputs/centerSquare_2a_PPO_wprior0.995/best_status.pt (torch, 39317 bytes, 42 tensors)

actor.0.weight f4 [64, 4]
000000 16 da 83 bd a0 77 66 3d ac 5a 87 be 35 49 c1 be
       -0.06438081 0.056266427 -0.26436365 -0.37751165
000010 5a 30 86 be c6 b6 30 be 98 74 aa 3e 23 76 80 3e
       -0.26208764 -0.17257223 0.3329208 0.2509013
000020 03 82 7c be 3b 36 28 3e 1e c9 61 3e 4e 7a 6f 3e
       -0.2465897 0.16426937 0.22049376 0.233865
000030 04 96 55 3e fa a6 6a be f1 c1 c5 bd 1b cd ba 3e
       0.20858008 -0.22915259 -0.09656132 0.36484608
000040 3b 68 e5 3d d0 75 65 3e 9e c7 d1 3d b8 04 44 be
       0.11201521 0.22408223 0.10243152 -0.19142425
000050 f6 ad 2f be f4 64 ce bb 35 d6 3a 3e f9 25 a2 be
       -0.17156205 -0.0062986556 0.18245776 -0.31669596
000060 48 ba c9 3d 1d c4 13 3e 0e 24 df 3e 56 0e cf 3b
       0.098499835 0.1443028 0.43582195 0.0063188476
000070 50 89 8a bc a2 74 c2 3e 20 2a 34 bf 7f 88 9d 3d
       -0.016911179 0.3797961 -0.7037678 0.0769205
000080 84 9c 05 3e 67 58 34 be cf 06 1e 3e d2 59 34 3e
       0.13047987 -0.17611848 0.15432285 0.17612389
000090 59 40 58 3e 21 c8 0f 3e 79 2e 0a bf 32 95 42 be
       0.21118297 0.14041187 -0.5397716 -0.19002226
0000a0 6d 1a b6 3c c4 8e eb 3c 65 d0 1d 3e 96 90 06 bf
       0.022229398 0.0287546 0.15411527 -0.5256437
0000b0 56 d7 63 be 5e 9f 88 3e 57 df 0a 3e 6e 42 8e bd
       -0.22250113 0.26684088 0.1356176 -0.06946264
0000c0 c6 87 79 3e 83 37 94 be e3 77 51 be 95 fd b3 3d
       0.243682 -0.28948602 -0.2045589 0.08788601
0000d0 74 64 5d 3d f2 d7 80 3e 7a 07 7e be 6c ea a7 3e
       0.054050878 0.25164753 -0.2480754 0.32796037
0000e0 d0 ce c4 3e 2d 54 6d 3e 67 7c 4b 3e 21 9f 5e 3e
       0.38439035 0.23176642 0.19871674 0.2174039
0000f0 96 fc 7d be 43 2a 52 3e cf ba 94 bd 21 c0 4b be
       -0.24803385 0.20523934 -0.072621934 -0.1989751
000100 3e bc d3 be 6c 4e 3c be f0 17 18 3d 1e 78 92 be
       -0.41354555 -0.1838929 0.037132204 -0.28607267
000110 00 3f 16 3d a2 bd 22 bd 03 4b 0f be d8 6a 4e 3e
       0.036681175 -0.03973163 -0.13993458 0.20157945
000120 c4 da 47 3e 77 fa 8b be 05 2d a0 be f5 98 c9 3d
       0.19517046 -0.27339527 -0.31284347 0.09843627
000130 8c a5 8c 3e 67 06 a7 3d e5 d2 16 be c8 1a 81 be
       0.27470052 0.08155518 -0.14728887 -0.25215745
000140 58 90 83 be c6 d0 de be 5f 81 b6 bd 17 a9 82 be
       -0.25696063 -0.43518656 -0.08911394 -0.2551963
000150 0b b8 9d bd 15 cb b0 3d 93 2b 9d 3e 69 95 b0 3d
       -0.07701119 0.08632485 0.30697307 0.08622248
000160 86 2c c6 bc 8a 03 71 3c db ed 83 3e 78 84 53 bb
       -0.024191152 0.014710316 0.25767407 -0.0032275002
000170 a5 e2 73 be 5f 4a 3c bd 8c b0 53 bc a4 a5 f3 bd
       -0.23816927 -0.045969363 -0.01292051 -0.11896828
000180 5a d8 f2 3c 58 c2 7d 3e b7 41 5e be 8d 36 71 bd
       0.02964418 0.24781168 -0.21704756 -0.058889914
000190 e8 2c da bd b1 d3 ec bd 56 8c ce bd 1f f8 12 bd
       -0.106530964 -0.115638144 -0.10085361 -0.035881158
0001a0 d5 0c ce bd 2c 35 be be d4 ef 9e 3d f7 f4 60 3d
       -0.10061041 -0.37149942 0.07760587 0.054921117
0001b0 87 8c d8 be 0f 89 c6 3c 2d 33 b5 bd ed 15 85 bb
       -0.42294714 0.024235277 -0.08847652 -0.0040614516
0001c0 87 40 38 3e c0 78 a6 bd b3 25 aa be 84 fe c3 3e
       0.17993365 -0.081285 -0.33231887 0.38280118
0001d0 ee 79 68 3d 81 db 80 bd 47 45 13 bd d3 1b fd 3d
       0.056756906 -0.06291867 -0.03595474 0.12358823
0001e0 7e 17 36 be 55 e5 57 be 92 43 67 3e 0d 3b 09 be
       -0.17782399 -0.21083577 0.2258437 -0.13401432
0001f0 56 4e b1 be c7 04 9f bc 38 bc 8e be b0 30 99 3e
       -0.34630078 -0.019411458 -0.27877975 0.29919958
000200 e4 50 5c bd ff c7 2c 3d d7 ec 02 3e 7e 52 1a be
       -0.05378808 0.04218292 0.1278566 -0.15070531
000210 40 bb 22 be a6 db 87 be c8 05 b9 3c 71 86 16 3e
       -0.15891743 -0.26534766 0.022585765 0.14699723
000220 8a 3c 04 3e 1b db 57 bd 38 f9 ff bc 80 46 ed be
       0.12913719 -0.05269919 -0.031246766 -0.4634285
000230 75 78 06 be 57 74 aa be 7a b0 92 3e 3d d8 f2 3d
       -0.13131888 -0.33291885 0.28650266 0.118576504
000240 00 41 e5 3e 1f 57 4c be 07 0e 32 be d6 23 a2 3e
       0.44776154 -0.19955109 -0.17388164 0.31667966
000250 d7 2c 21 be 72 81 81 3e f8 40 a7 3d 5a 37 86 3e
       -0.15739761 0.2529407 0.08166689 0.26214105
000260 1a b9 3e 3e 12 0d 6b bd 68 c7 bd be 71 10 36 be
       0.18625298 -0.05738551 -0.37066197 -0.1777971
000270 60 b7 cf 3e a8 1a 8a be 65 5c 28 bf 94 c8 bb be
       0.40569592 -0.26973462 -0.6576598 -0.36676466
000280 6b 29 69 3e 9f e9 67 3e a4 0f 0b bd 05 67 ec 3e
       0.22769706 0.22647713 -0.033950463 0.46172348
000290 d1 bf 07 3e 8b f5 fa bd 6d bb 0c 3e 75 2d 9a 3d
       0.13256766 -0.12253865 0.13743372 0.075282015
0002a0 3a bb 84 be 9d f2 cd be a6 d1 35 3e d1 84 c1 3e
       -0.25924093 -0.40224162 0.17755756 0.37796643
0002b0 68 f7 32 3e 31 91 2d 3e 2a 03 24 3d c7 ff 32 be
       0.1747719 0.16949917 0.04004208 -0.17480384
0002c0 a0 f3 63 3d 82 80 13 be 58 06 e0 3d b0 57 59 3e
       0.05565226 -0.1440449 0.1093871 0.21224856
0002d0 ba e1 c6 bd 8d d8 7e be 8c e9 6a be 5c 3f 57 3e
       -0.09711023 -0.24887295 -0.22940654 0.21020263
0002e0 4a 2d 7a bd 39 88 ab 3e 5c ed a2 bd e8 d6 2d 3e
       -0.061078347 0.33502367 -0.07955429 0.16976511
0002f0 81 76 87 3e ef 22 a9 bd 3e 03 a3 be 4e f7 4b be
       0.264576 -0.08258616 -0.3183841 -0.19918558
000300 a8 34 92 3e 4b 1a 40 3e de 87 44 3e a9 3c 40 3e
       0.285558 0.1876003 0.19192454 0.1877314
000310 ef 6b 3e 3e e1 49 01 3d 2e e8 22 3e cb 02 f5 bd
       0.18595861 0.031564597 0.15908882 -0.11963423
000320 07 75 bc be c4 54 c9 3e 82 07 d9 be bc 4f b0 bd
       -0.36808035 0.39322484 -0.4238854 -0.08608958
000330 3a db 5b 3d 06 f5 21 3d 74 35 c8 3d f4 6b 70 3d
       0.053675868 0.039540313 0.097758204 0.058696702
000340 13 21 ee be b6 08 16 be 90 e6 3c be db 3e 12 3e
       -0.4650961 -0.1465176 -0.18447328 0.1428179
000350 e4 65 ff bd ce 89 a8 bc ca 85 80 3e bc 61 d0 3d
       -0.12470606 -0.020573523 0.25102073 0.10174891
000360 82 d6 66 bd e9 12 95 3e 09 f7 b9 bc fe 09 0a be
       -0.056356914 0.2911599 -0.022700803 -0.13480374
000370 56 03 41 3e 5d 2e 4f be 87 ad c7 3e 0d 2e 7f 3e
       0.18848929 -0.2023253 0.38999578 0.2491991
000380 39 5d d3 bd 58 f3 8c be d3 af 29 be 01 45 87 be
       -0.10320515 -0.27529407 -0.16570978 -0.26419833
000390 a1 a1 80 be c3 b7 9c 3e 6d 3d aa ba d5 9d 98 3e
       -0.25123313 0.3060895 -0.0012988277 0.29807916
0003a0 1a 29 8e 3c f8 bd 19 bc f8 fd 85 bc 25 51 fe bd
       0.017353583 -0.009383671 -0.016356453 -0.12417821
0003b0 6c 45 11 3c b3 83 a8 be e2 a6 ef 3e 44 24 ab bc
       0.008866649 -0.3291298 0.4680701 -0.020891316
0003c0 c7 c4 55 be 3c 01 84 3e 8f d8 dd 3e 15 fb 29 3e
       -0.20875846 0.25782192 0.43329284 0.16599686
0003d0 91 35 df bc 01 8e 2d be 93 37 46 be ab a9 90 be
       -0.027247222 -0.16948701 -0.19357137 -0.28254446
0003e0 df 87 3e 3e bb 77 ea bd 97 26 0b be e5 ff ce bc
       0.18606518 -0.11448618 -0.1358894 -0.025268504
0003f0 ba e8 c9 3d 12 c0 b5 bd 4c ac 9f be 23 e9 9e bd
       0.09858842 -0.08874525 -0.3118614 -0.07759311

actor.0.bias f4 [64]
000000 39 ab f4 3c ea 61 07 bd 64 e2 0c bd 3c d3 92 bd
       0.029866802 -0.033052363 -0.03439559 -0.07169196
000010 c5 c4 c2 3c a7 1e 88 bd 1c ff b8 bd e3 55 08 bd
       0.023775468 -0.066464715 -0.09033033 -0.033285033
000020 f9 fa fb bc 78 c9 3c 3c 0e 4e 5e bd 73 32 d0 bd
       -0.030759322 0.011522643 -0.054273658 -0.101658724
000030 27 fa 99 bd aa a8 28 3d 1e 42 77 3c a5 42 f7 3c
       -0.07518416 0.041176476 0.015091447 0.030183146
000040 2f fe 3d bc 67 11 3c 3d 1e 2e 8e 3d d8 3d e3 bd
       -0.011596247 0.045915034 0.0694239 -0.1109578
000050 89 59 23 bd 7d 85 a7 bd 57 ed 62 bd 4b fc 0a bd
       -0.03988031 -0.08179758 -0.055402126 -0.03393201
000060 be 4e 41 3d a2 58 de bd 75 95 af 39 f0 65 5a bd
       0.047194235 -0.10856749 0.00033489955 -0.05331987
000070 48 e3 a9 bd 85 4c 1b 3d 0b 3a c0 bc 1f 6e b5 3d
       -0.082953036 0.03791477 -0.023465177 0.088588946
000080 0b 77 32 bd 94 36 24 bd 34 36 da bd 4d cb 28 bd
       -0.04357056 -0.040091112 -0.1065487 -0.041209508
000090 f7 96 51 3d cb 24 9c bd ae 7d 05 3c f7 75 cc 3c
       0.051169362 -0.07624205 0.00814764 0.024958594
0000a0 12 66 33 3c ed ba f6 bc 7d f3 3d bb c0 61 a8 3c
       0.010949628 -0.03011843 -0.0028984242 0.020554423
0000b0 eb dc af 3c 02 a8 8d bc 3f 44 ad 3d 6c 2e fe bd
       0.021467647 -0.017292026 0.084602825 -0.12411198
0000c0 b4 6b 27 3d 96 9f 93 bd e1 e8 ad bd 25 41 ce 3d
       0.040874198 -0.07208173 -0.08491684 0.10071019
0000d0 08 07 85 bd 1b 27 1a 3d 54 6a f2 bc cc 20 ba 3d
       -0.06495482 0.03763495 -0.029591717 0.09088287
0000e0 30 ef 45 bd 3f 27 ac 3d 36 3b 45 3c e7 45 a6 bc
       -0.04832381 0.08405923 0.012038043 -0.020297004
0000f0 6f 4c a1 bc ad 5f 62 bd 78 4f de bd 49 53 a1 bd
       -0.019689767 -0.055267025 -0.10855001 -0.078772135

actor.2.weight f4 [5, 64]
000000 60 33 55 3e bb fa e1 bd cf dc aa be 5c 16 4d 3d
       0.2082038 -0.11034151 -0.3337159 0.05007015
000010 04 dc 3e 3e 93 23 56 3d 7e b6 34 3c d4 da ba bd
       0.18638617 0.05228002 0.011029838 -0.091237694
000020 f9 5c b4 3d 20 e4 de 3c 2f f5 5e be 18 bf 14 bd
       0.088067956 0.027208388 -0.21773218 -0.036315054
000030 4e 83 82 be cb 03 8c be d1 64 c5 3c c1 3f 2a 3e
       -0.25490803 -0.27346644 0.024095925 0.16625883
000040 2d 62 10 bd c9 c1 80 3d f7 85 c2 be 8d 89 ee 3c
       -0.035249878 0.062869616 -0.37992832 0.029118324
000050 e3 1c 8c 3d 4c 7c 32 bd f5 e2 18 3e 91 f4 b8 3e
       0.06841447 -0.04357557 0.14930327 0.3612409
000060 bd 76 05 bf 1b 20 81 3d 4c bc 24 be ed 54 24 ba
       -0.52134305 0.06304952 -0.16087455 -0.00062687584
000070 52 65 b2 bc 3b 92 82 be ad 8b 91 3e d0 3d 80 bd
       -0.021776829 -0.2550219 0.28426877 -0.0626179
000080 9f c4 75 be 21 e2 15 bd 5d cc 45 3e f6 d0 86 bd
       -0.24000786 -0.036592606 0.1931624 -0.06582825
000090 19 39 c1 3d 1e 18 67 3e 13 e3 40 3e 14 84 6f be
       0.09434719 0.22567794 0.18836622 -0.23390228
0000a0 b9 b9 80 be 75 c2 83 bd 68 1e aa bd ba 15 c0 be
       -0.25141695 -0.06433574 -0.08306581 -0.37516576
0000b0 7f 1b 8f be 5c 86 f3 3e 31 bd bd bd 13 70 9f be
       -0.27950665 0.47563446 -0.09264601 -0.31140193
0000c0 84 0c 30 be ba 35 30 3e 15 b5 f2 3d 72 28 ee be
       -0.17192274 0.17207995 0.11850945 -0.46515232
0000d0 37 42 c9 3e 26 19 02 bd e2 46 44 be d8 14 a9 be
       0.3930833 -0.031762265 -0.19167665 -0.33023715
0000e0 21 c8 07 3d d2 42 3d be b6 67 57 be f1 d8 8d be
       0.033149842 -0.18482521 -0.21035656 -0.27704576
0000f0 1c e7 1e 3e 0a 95 d8 3c f2 20 12 3d d7 e9 9e be
       0.15517849 0.026438255 0.03567595 -0.3103778
000100 93 dc 05 be 6d 67 ad be 61 f0 9e be ae 13 70 3e
       -0.13072424 -0.3386797 -0.3104277 0.23445007
000110 24 97 ac 3e ef 58 9d be 96 a1 91 be 38 1a a3 3e
       0.3370906 -0.30731913 -0.28443593 0.3185594
000120 49 ee 85 bc af 3b 96 3e 85 7a 48 be 63 45 de bd
       -0.016348975 0.2934241 -0.19577987 -0.10853078
000130 9f c9 68 3d 9f 08 30 3e fa d0 1f 3e 23 52 ca bd
       0.056832906 0.17190789 0.15607062 -0.098789476
000140 d7 a1 15 3e c4 ac 83 3e 82 74 44 bd 16 b8 0c 3f
       0.14612518 0.25717747 -0.047962673 0.5496839
000150 2d 15 90 3d e6 cd 1f bf 86 5e 87 be 19 74 98 3d
       0.07035289 -0.6242355 -0.26439303 0.07444019
000160 8a 23 25 3e 79 fd 64 bd e7 8d 94 be 40 39 85 3d
       0.16126838 -0.055905793 -0.29014513 0.0650506
000170 11 dc df 3d db 6a 7a 3e 43 b5 c5 3d e8 c4 16 bf
       0.10930646 0.24454825 0.096537136 -0.58894205
000180 f6 73 6e be ee b5 76 be c2 e7 8b be 34 33 14 be
       -0.23286423 -0.24092838 -0.27325255 -0.14472657
000190 b2 49 cf 3d 91 89 9f be 97 77 68 3e 64 44 41 3e
       0.10121478 -0.31159642 0.2270187 0.18873745
0001a0 02 e8 ab be 9a 61 20 3e 5e 0f ec 3d 0e 8c a6 3e
       -0.33575445 0.15662232 0.115263686 0.32528728
0001b0 84 1f 83 bd c8 90 33 be b4 72 cf 3d f1 15 4a 3e
       -0.064024955 -0.17535698 0.101293 0.19734932
0001c0 11 21 e3 3d 74 c1 2f 3d ef 4f 86 be ae a6 04 3d
       0.11090291 0.0429091 -0.2623286 0.03238552
0001d0 78 92 31 3e 50 2a c8 be bc d2 24 3e ea 80 aa 3e
       0.1734103 -0.39094782 0.16096014 0.3330148
0001e0 29 11 4e be b1 ab 0f 3e 19 b9 38 be 47 17 8a be
       -0.20123734 0.14030339 -0.18039359 -0.26970884
0001f0 69 74 3d bf a9 ae 0d be ca 18 58 bb 0e 00 f4 3d
       -0.7400575 -0.13836159 -0.003297376 0.11914073
000200 4a eb 3d 3e ef 58 3c 3e 55 d4 6b 3e f7 f0 2f bd
       0.18546787 0.183933 0.23030217 -0.04295441
000210 e9 a9 be 3d 03 a5 03 bf 06 45 3a be 54 17 af bd
       0.093097515 -0.5142366 -0.18190393 -0.08549371
000220 15 ad 29 be 37 35 0d bf 86 ef 94 3d 2c 15 17 be
       -0.16569932 -0.55159324 0.07272248 -0.1475417
000230 3a 3c e3 bd 91 39 3a 3e 3d 15 d1 3e e2 cf 12 be
       -0.11095472 0.18186022 0.40836516 -0.14337113
000240 67 84 4b 3c 28 d6 43 bd bd f2 23 be e9 45 dc bd
       0.012421704 -0.047811657 -0.16010566 -0.10755522
000250 c4 4c 0b be 04 49 7d 3c 61 41 84 3e b6 64 87 be
       -0.13603503 0.015459303 0.2583113 -0.26444024
000260 8f 51 9d 3d 8d 33 32 be eb 5f 1e be 6d 92 09 bf
       0.07681572 -0.17402478 -0.15466277 -0.53739053
000270 8a 04 e5 bd 33 3a 36 3e 31 96 ab 3c 40 91 88 bd
       -0.111825064 0.17795639 0.02094564 -0.06668329
000280 1d 22 9f 3e f7 b2 7b bd de 23 af 3e 8d f6 85 3d
       0.31080714 -0.06144997 0.34207052 0.065411665
000290 8d 55 88 3e 61 61 03 3f 96 15 d3 be e9 b6 03 bf
       0.2662777 0.51320463 -0.41227406 -0.51450974
0002a0 ee 4b 15 3e e7 18 44 3e 74 64 c8 3e bf 83 a0 3d
       0.14579746 0.19150124 0.3913914 0.078376286
0002b0 a0 bc fb 3b 65 3e 84 bd b1 99 9d 3e 31 5e 50 be
       0.007682398 -0.06457213 0.3078132 -0.20348431
0002c0 c7 b9 b4 3e b3 a3 75 be e4 59 85 bd b9 df 05 3d
       0.35297987 -0.23988228 -0.06511286 0.03268406
0002d0 ce a9 22 be 43 c8 3a 3e 05 b5 20 be a7 43 10 3e
       -0.15885088 0.18240456 -0.15694053 0.14088307
0002e0 ac c7 72 be 0f 91 53 3e c1 70 f3 bd d8 b1 1c 3e
       -0.23708981 0.20660804 -0.118867405 0.15302217
0002f0 bf bb f0 3e 10 9e 72 be 09 eb b5 be 9b e6 12 bf
       0.4701824 -0.23693109 -0.3553088 -0.57383126
000300 b2 6e 8d 3c 75 f1 4e 3e 8e 34 59 3d 90 ad 0c be
       0.017264698 0.20209296 0.053028636 -0.13738084
000310 75 86 a5 3d 93 4d 8e bd d8 6d b1 be ad 59 97 bc
       0.08082286 -0.0694839 -0.34654117 -0.018475378
000320 8b cc 46 be 09 34 8b bc f1 8f e1 3d df 44 3f 3e
       -0.19413964 -0.016992586 0.11013783 0.18678616
000330 f0 c5 97 bc 8c 08 0c bf 53 a4 a5 bc 37 6c 4c 3e
       -0.018527001 -0.5470054 -0.020219957 0.19963156
000340 0a c3 4c be fa f6 34 3e 5f 40 3c bd 0d 27 65 bd
       -0.19996276 0.17672339 -0.045959827 -0.055945445
000350 f1 bc 67 3e 99 bd 1f be 83 d6 80 3e aa 3a 75 3e
       0.22630669 -0.1559967 0.2516366 0.2394816
000360 f1 c9 24 3e 77 07 7a 3e f0 69 9b 3c 77 d3 76 be
       0.1609266 0.2441691 0.018971413 -0.24104105
000370 18 08 9a 3d e5 75 48 bf c3 d8 b8 be c4 cf 27 3e
       0.07521075 -0.7830489 -0.36102876 0.1638785
000380 00 48 6a 3e cc ff 87 3e 58 79 28 3e 90 8a 13 bd
       0.22879028 0.26562345 0.16452539 -0.036020815
000390 29 ac 2f 3d 65 2e dc bd 6c d6 22 3e f2 f2 28 bd
       0.042888794 -0.107510366 0.15902108 -0.041247316
0003a0 00 78 df 3c 1f a6 8e bd a3 d5 28 3e a0 03 ad 3d
       0.0272789 -0.06965279 0.16487746 0.08447957
0003b0 63 85 75 be fe d1 d8 be fa 80 69 be 81 f6 b3 3e
       -0.23976664 -0.4234771 -0.22803107 0.35149005
0003c0 14 19 9d 3d f0 2d 4d 3d 81 32 f3 3e d2 62 29 bd
       0.07670799 0.050092638 0.4749947 -0.041354008
0003d0 23 11 fb 3d b4 0b 2a be 91 21 b4 3e f6 7f b6 bc
       0.12259128 -0.16606027 0.3518186 -0.022277813
0003e0 a8 78 f2 3e b2 52 37 3e 19 e3 93 be b7 ae 4a be
       0.47357678 0.1790264 -0.288842 -0.19793211
0003f0 a5 c1 95 3e 0f 81 ce bd 14 b9 16 be e7 fd 0a be
       0.29249302 -0.1008321 -0.14719039 -0.13573419

actor.2.bias f4 [5]
000000 e7 4a 54 bd 74 6f 1c 3d 24 dc 95 3d 43 fa d6 bc
       -0.051829245 0.038192227 0.07317379 -0.026242381
000010 df 5b f7 bd
       -0.1207807

critic.0.weight f4 [64, 4]
000000 15 b9 1f 3b 01 f0 b1 bd 0b 21 c6 bd 22 62 4d 3e
       0.0024371792 -0.08688355 -0.09674271 0.20056966
000010 9e a0 4b bb 75 12 69 3e c9 1d 89 3d 2c 75 91 3d
       -0.0031071077 0.22760947 0.06695134 0.07102427
000020 e5 0e 12 be 0d d1 59 3e 0a 6d 9f bc 0e 8d 81 bc
       -0.14263494 0.21271153 -0.019461174 -0.01581433
000030 1a eb 42 3e 47 a8 a0 be d0 cd 35 3e b2 fb 33 3c
       0.19034997 -0.31378385 0.17754292 0.010985302
000040 e3 92 8a bc c7 c9 75 be c2 eb f3 3d bd a4 a2 bd
       -0.016915744 -0.24002753 0.119102016 -0.079415776
000050 83 8c 94 bd ce 6d cf 3e 87 d7 2d 3e 16 ca 85 3d
       -0.07253363 0.40513462 0.16976748 0.065326855
000060 67 b8 bf be 55 11 c3 be ca e3 b8 be 60 76 bb bc
       -0.37445375 -0.3809916 -0.3611129 -0.022883594
000070 cd 95 26 bc e5 1d 6f 3e 38 09 4b 3e 89 7a 7a 3d
       -0.010167551 0.23351248 0.19827735 0.061152015
000080 b0 24 ff 3d a6 e2 e0 3d 85 75 a0 3e f5 03 ae 3e
       0.124581695 0.1098073 0.3133966 0.33987394
000090 66 93 11 3e d4 e0 01 3e ed 91 00 be 65 83 0b bd
       0.14216384 0.12683421 -0.12555666 -0.034060854
0000a0 c7 21 d8 3d 14 db 6a 3e 6f 43 5d be 5b cf db bd
       0.105533175 0.22935134 -0.21607755 -0.10732909
0000b0 2b 3e 83 3e 30 e8 84 be 90 74 95 be f6 3e 4e be
       0.25633368 -0.25958395 -0.29190493 -0.20141205
0000c0 38 00 75 3e 6c 4f a7 3e d0 74 36 3e 4f a0 6e 3e
       0.23925865 0.32677782 0.17817998 0.2330334
0000d0 6e 84 4d 3e 51 d3 09 be a6 43 82 3d 00 09 5a 3e
       0.20070049 -0.13459517 0.06360559 0.21292496
0000e0 49 9f 33 bd a1 6b 62 3e ed 2b 57 be 60 ea f1 bd
       -0.043853078 0.2211137 -0.2101285 -0.118122816
0000f0 a5 e0 31 3d fd b7 08 3e 17 b3 54 be 6d 7e 9e 3d
       0.04342713 0.13351436 -0.20771442 0.077389576
000100 f6 81 f6 be 95 d7 4d be cd d5 48 3e 7e 5f 87 be
       -0.48146027 -0.2010177 0.19612809 -0.26440042
000110 a7 e5 0a 3e 9c 5a 7e 3e 8f 57 85 bd fc d6 c9 3d
       0.13564168 0.24839252 -0.06510841 0.09855458
000120 84 3f 33 3e 59 14 68 3e fa d4 55 3e 01 a9 9f 3e
       0.17504698 0.22664012 0.20882025 0.31183627
000130 76 ca 85 be 0c 27 d2 bd 5c ac eb bd ff 18 2c be
       -0.26131028 -0.10261354 -0.11507484 -0.1680641
000140 73 4e 61 3e d8 a6 55 3e 96 20 7b be 6d ab 99 3d
       0.22002582 0.20864427 -0.2452415 0.075034
000150 07 86 6b be db c7 22 3e 26 f9 0f 3c 7c 52 4b 3d
       -0.23000346 0.15896551 0.008787429 0.04963921
000160 e4 ed 87 3e 47 dd 0d be 73 11 00 be 6b 93 2d 3d
       0.26548684 -0.13853942 -0.12506656 0.042376917
000170 5e 17 8c be 13 9f 33 3e e8 49 02 be ea ed 0f 3e
       -0.27361578 0.17541151 -0.12723505 0.14055601
000180 80 bd be 3c 4a 05 5f be 8b e3 82 bb 68 15 84 3e
       0.02328372 -0.21779361 -0.0039944104 0.25797582
000190 ba 0c 47 3e ab 46 05 be b2 a6 36 3e 2c 64 d9 be
       0.19438449 -0.13015239 0.17837027 -0.42459238
0001a0 d9 16 17 3d 9a 5d c4 3d f0 ba 2d be 5a 7b 37 3b
       0.036887024 0.095881656 -0.16965842 0.0027997107
0001b0 b2 1b eb 3e c6 b4 eb 3e 87 1b 8e 3e d4 29 bd bd
       0.45919567 0.46036357 0.27755377 -0.09236494
0001c0 57 c5 41 3e 8e 00 0c 3e d8 42 6b 3e 03 27 6c 3e
       0.18922935 0.13672087 0.22974718 0.23061757
0001d0 fa 09 40 be 0d 4d 57 3e b3 ae e1 3e d1 81 79 be
       -0.18753806 0.21025486 0.44078597 -0.24365927
0001e0 41 b9 0d 3e 27 7a de bd ad d2 47 3e 4d 72 87 be
       0.138402 -0.108631425 0.1951396 -0.26454392
0001f0 41 b9 cc bd f4 50 1c be 7e 11 b4 bd 5b f9 8a 3c
       -0.09996272 -0.15265256 -0.08792399 0.016964605
000200 41 92 72 be 4c fe 7f be 10 d9 21 3e ab 88 36 be
       -0.23688604 -0.2499935 0.15805459 -0.17825572
000210 67 0f a7 3c 89 b6 61 3e 68 ce 1c be 30 9c 11 3e
       0.020393087 0.22042288 -0.15313113 0.14219737
000220 4a cd b5 be 36 77 4a 3e 9c 2e d4 3d d3 82 32 3e
       -0.35508186 0.19772038 0.103604525 0.17432718
000230 1e c0 95 bc 0d 53 60 3e b7 80 10 3d cb 99 93 3e
       -0.018280085 0.21906681 0.035279002 0.28828272
000240 11 cf 23 3e ba 3c 15 be 47 f5 18 be 2b a2 20 3e
       0.15996958 -0.14573947 -0.14937316 0.15686862
000250 62 ba 9c 3e f3 e7 b6 3b e8 e8 f4 3c 3a 4b 02 be
       0.3061095 0.0055818497 0.029896215 -0.12724009
000260 c1 c5 98 be 17 fa 93 3d c1 db d5 bd ae f5 c4 bd
       -0.29838374 0.07225435 -0.10442305 -0.09617172
000270 c5 fa f6 bb 4d 00 da be d8 35 82 be 03 06 77 3e
       -0.0075372183 -0.42578354 -0.25431705 0.24123387
000280 24 e7 a6 3e 42 40 e0 bd 2f 1d 31 3e 3c 74 0a be
       0.3259822 -0.10949756 0.17296289 -0.13520902
000290 40 48 b5 3e 25 fe 88 3e 2b 97 09 3e 47 19 3e 3e
       0.35406685 0.26756397 0.13436572 0.1856433
0002a0 34 53 96 3e e6 ae 11 be df 89 c9 3d c4 0b 89 bd
       0.29360354 -0.14226875 0.0984075 -0.06691697
0002b0 ee 6a 91 bd 93 38 91 be 1d 6d 05 3e f9 b5 14 bd
       -0.07100473 -0.28363475 0.13029905 -0.036306355
0002c0 6c d8 4c bc 90 b8 88 3e 86 f6 cb bd aa 13 3a 3e
       -0.012502771 0.2670331 -0.0995913 0.18171564
0002d0 de 9d 28 3e 5c a0 ce bd 8e 8d 61 be 4d d7 1a be
       0.16466472 -0.1008918 -0.22026655 -0.15121193
0002e0 66 9b 5f be c5 e6 9a be b7 b3 fb 3e 8a 0a 62 be
       -0.21836624 -0.30254188 0.4916055 -0.22074333
0002f0 10 4f 0a 3e 39 4f bd be 38 ed 0a 3a 6c f7 91 3b
       0.13506722 -0.36974505 0.00052996306 0.004454544
000300 15 c2 ec bd 85 ef 96 bd a0 4f 3b 3e dc a2 a6 3e
       -0.11560456 -0.073699035 0.18292093 0.32546127
000310 a3 ba a6 3e 56 f4 3c bd ef 04 96 bd a9 33 7e be
       0.32564268 -0.046131454 -0.0732516 -0.24824394
000320 f5 73 48 bc 73 96 8f be 7a e7 9b 3e 62 c5 e9 3e
       -0.012234678 -0.2804447 0.3045004 0.45658404
000330 b0 d9 84 ba 05 61 3f be a4 f4 30 3e 0b b5 89 be
       -0.0010135677 -0.18689354 0.17280823 -0.26895937
000340 f3 74 17 be 44 13 2b bf c6 67 17 3d cf 31 16 3e
       -0.14790706 -0.6682627 0.0369642 0.14667438
000350 6b 64 b1 be 27 52 f1 be d4 05 4c be ee 05 67 3c
       -0.34646925 -0.4713299 -0.19924098 0.014100535
000360 50 59 05 be 7f 9f e7 3c 6c 4b a0 3e 86 56 44 be
       -0.13022351 0.028274296 0.31307542 -0.19173631
000370 b3 a7 1c 3e e1 46 bf 3d 04 98 12 be 3b 5f 5f 3e
       0.15298347 0.09339691 -0.14315802 0.21813671
000380 5b d9 f4 3d 57 ce bf 3d 6e f3 9b 3e 43 aa 18 be
       0.1195552 0.09365528 0.3045916 -0.149087
000390 b6 4c ac 3d 91 bd 4f be 79 b5 d6 bb 2c 17 0c be
       0.08413069 -0.20287158 -0.006552395 -0.13680714
0003a0 63 64 d0 3e c0 c1 94 3c ff 3b 37 be 9a 5d 61 be
       0.4070159 0.018158793 -0.1789398 -0.22008362
0003b0 7c 28 37 3e 98 c2 04 be 94 a2 92 3d 5e ac a2 bd
       0.17886537 -0.12964857 0.071599156 -0.07943033
0003c0 ff 19 c1 bd 75 3a f0 bc a1 6d 79 3d fb 68 6d 3e
       -0.094287865 -0.02932475 0.060895566 0.23184578
0003d0 3d bc 16 3e e5 32 f3 bd 6c 4c 69 3e 1b cb 02 bf
       0.14720245 -0.11874942 0.22783059 -0.51091164
0003e0 bd f1 a2 3b 72 c7 59 3e 97 8b 07 3e c8 d4 89 3c
       0.004972665 0.21267489 0.13236843 0.016825095
0003f0 2a cb 8b be 20 61 b4 3e 38 11 b0 3e bd ef 10 be
       -0.2730344 0.3523035 0.34388137 -0.14153953

critic.0.bias f4 [64]
000000 9a 50 57 bb 0b 3c 8f 3c 16 92 22 3d b6 4f 43 bd
       -0.0032854439 0.017484685 0.0396901 -0.04768344
000010 e5 77 d7 bc 4b b0 90 3e 76 e9 83 bd 4c 65 9c 3c
       -0.026302287 0.282595 -0.064410135 0.01909127
000020 92 e9 13 bd 05 62 3b 3c 88 61 71 3d d5 94 16 bc
       -0.036111422 0.011436944 0.058930904 -0.009190758
000030 5f 59 20 3d e5 96 bd bc 47 1f 8b 3d 18 bc cf 3c
       0.03914773 -0.023143241 0.06793075 0.025358245
000040 6e a8 85 bd f9 f2 36 3d 17 2c 18 3d f7 f2 75 bd
       -0.06526266 0.04466531 0.037151422 -0.060046162
000050 e7 76 60 3c 83 c6 76 ba b9 a2 6f 3c 7c e3 c4 3a
       0.0137002235 -0.0009413736 0.014626198 0.0015021409
000060 45 aa 50 bd d8 2c 40 bc c6 41 a2 3d bc 8f a0 3d
       -0.05094363 -0.011729442 0.079227015 0.07839915
000070 e8 d0 0c 3d 2d 61 6c 3b f6 6a 81 bc b8 bd 83 3c
       0.034378916 0.0036068663 -0.015798073 0.016081676
000080 f9 0b 2d 3c 9f 73 a0 bb 16 68 05 bc a0 c7 fa 3c
       0.010561937 -0.0048965956 -0.008142492 0.030612767
000090 2d da ab bc 61 18 34 3d c8 2b 03 bd 1c 23 f3 bc
       -0.020978058 0.043968562 -0.032024175 -0.029679827
0000a0 13 ac 8c bc b9 d0 15 bc b0 11 5d 3d 0b 98 10 bd
       -0.017171895 -0.009144002 0.053971946 -0.03530125
0000b0 2c 84 66 3e a6 f5 c8 3c 2e c3 1c bc 25 1d 11 bd
       0.22511357 0.024531197 -0.009568019 -0.035428185
0000c0 18 ae fd bc c4 3f 81 3c 22 2a 0d bd bd 00 14 bd
       -0.030966803 0.015777476 -0.03446401 -0.036133517
0000d0 8e 74 7e bd c3 db 8a bd 6c b1 ee bc e0 50 39 3d
       -0.062122874 -0.067801975 -0.029137336 0.045243144
0000e0 3b 12 c3 bb 97 41 30 bb 78 e0 c3 bb 3b 66 07 bc
       -0.005953101 -0.0026894563 -0.0059776865 -0.00826412
0000f0 59 22 27 bc 96 8c 85 3c e3 33 19 3c eb 56 a7 3b
       -0.01020106 0.016302388 0.00935075 0.005106797

critic.2.weight f4 [1, 64]
000000 7c dc 2f be c2 90 e1 bd be 0e f9 bc 5a 58 52 3d
       -0.17173952 -0.110139385 -0.030402537 0.05135379
000010 c7 91 13 be cf e6 f2 3e 01 fd d0 3e f3 0b c8 bd
       -0.14411078 0.47441718 0.40818027 -0.09767904
000020 74 ea c4 3d f1 3b ce be 72 67 c0 bc 8a d2 91 3d
       0.09615031 -0.40280107 -0.023486827 0.07120235
000030 f7 64 31 be e1 14 80 be e5 99 b0 3e da 9b bd 3d
       -0.17323671 -0.2501593 0.34492412 0.09258242
000040 48 58 d8 3e 73 13 1b bd d9 4d 00 be 1e d8 51 3b
       0.42254853 -0.037860345 -0.12529697 0.0032019685
000050 ef 67 96 be 3b a9 b2 bd ca d2 c1 3d d7 c9 9d be
       -0.2937617 -0.087236844 0.09464033 -0.30818054
000060 5e bc 03 3d 95 0f 43 3e 1f b9 a0 3e 96 8f 91 bc
       0.032162063 0.19048913 0.31391236 -0.017768662
000070 5e 8a 6b be df 46 80 be 41 2d 8d 3e 46 df b6 be
       -0.23002002 -0.2505407 0.27573588 -0.3571722
000080 ae e5 b8 bd 53 1e 6c 3e 29 e1 3d be df b6 37 be
       -0.09028183 0.23058443 -0.18542923 -0.17940854
000090 3f 24 23 3e b9 ff 65 bd 3e 93 be 3e e5 5b 46 3e
       0.15931796 -0.05615208 0.37221712 0.19370992
0000a0 42 78 c2 3e 40 d8 30 3d 4d 2c 09 bd 11 03 4d 3d
       0.37982374 0.043174982 -0.033489514 0.050051752
0000b0 48 93 c0 3d b1 ec 34 be 1f c8 0b 3e df 8f 3f bd
       0.09403092 -0.17668416 0.13650559 -0.046768066
0000c0 e2 81 e8 3d 31 c5 21 3e 02 2d d5 3d 33 29 a4 3d
       0.11352898 0.15797879 0.10408975 0.080156706
0000d0 dd 27 a5 3c 52 3f bf 3c 27 f9 b4 3d 29 18 37 bd
       0.02016061 0.023345623 0.088365845 -0.044700775
0000e0 d7 d5 56 3e 3a 15 85 be 3f b5 c2 3e cf f0 b6 3e
       0.20980011 -0.25992757 0.38028905 0.35730597
0000f0 1f 8d 28 be 94 a8 5d be 8a 81 56 be c6 46 86 3e
       -0.16460083 -0.21646339 -0.20947853 0.2622587

actor.0.weight f4 [64, 4]
000000 0c c7 0b 3e 21 99 fa 3b 73 75 d3 ba 8f 1f 4a bd
       0.13650149 0.007647649 -0.0016133025 -0.049346503
000010 ac a2 a9 bd 7c 75 b8 be ca 9b 9e 3e c4 78 9e be
       -0.0828298 -0.36027133 0.30978233 -0.30951512
000020 29 f7 d3 bd 2f 3e 0c 3e 89 ba 29 be 99 86 b1 be
       -0.103498764 0.13695596 -0.16575064 -0.34673002
000030 e0 98 f0 3d 04 98 fd bd 5a 95 6e 3e 69 74 01 be
       0.117479086 -0.1238251 0.2329916 -0.12642063
000040 17 1d 06 3d d6 09 5b 3e e4 a5 07 bf b4 b2 79 bc
       0.032742586 0.21390471 -0.52987504 -0.01524036
000050 c6 fb 02 bd 27 09 01 3f 8e 12 59 be e3 ac b3 3c
       -0.03197839 0.5040459 -0.21198484 0.021933025
000060 fe 81 5d 3e 5e 20 dc 3d 7d 66 ef bc 35 c9 59 3e
       0.2163162 0.10748361 -0.029223675 0.2126816
000070 dc 3e 51 be 21 0f 04 be 17 5f f5 3d 72 4c b3 bd
       -0.20434135 -0.12896396 0.119810276 -0.08754815
000080 d7 4a 1a 3e b4 64 47 bc 14 79 81 3e 4f a0 19 be
       0.15067612 -0.012170006 0.25287688 -0.15002559
000090 cb db d2 3e b2 ed d7 be 4f b1 32 bf 1d 02 95 be
       0.41183314 -0.42173535 -0.698018 -0.29103175
0000a0 d0 b8 b7 bd 7e de 9d 3d 5b 8a d1 bd fb 96 38 be
       -0.08970797 0.07708453 -0.10231467 -0.18026344
0000b0 41 b8 b9 3d 35 5c 9a 3e 60 05 29 3e 7b c9 90 3e
       0.09068347 0.30148473 0.16505957 0.28278717
0000c0 c4 78 9b 3c 90 04 ac bd 25 17 30 3e 0e 97 c4 b9
       0.018978484 -0.08399308 0.17196329 -0.00037496578
0000d0 bc 7f 87 3d b7 77 1b be 93 97 22 3e 29 17 ed 3e
       0.0661616 -0.15182386 0.15878133 0.46306732
0000e0 f1 62 d9 bd 1d b0 10 3e 4c 51 21 be d9 90 55 3e
       -0.10614575 0.14129682 -0.15753669 0.20856036
0000f0 ba ef 80 bd 9c ea 53 3d 96 c7 ba 3e f4 59 f8 3c
       -0.06295724 0.051737413 0.36480397 0.03031633
000100 4c 45 a3 3e c4 b7 af 3e 75 48 6c 3d d4 16 a4 be
       0.31888807 0.3431989 0.057686288 -0.32048666
000110 2c 2d a6 3d d1 19 53 be 97 61 65 bf e7 62 9f bc
       0.081140846 -0.20615317 -0.89602035 -0.01945634
000120 48 05 41 be 0a dc 4c 3e 45 62 1d be 22 bf 4d be
       -0.18849671 0.20005813 -0.15369518 -0.20092443
000130 44 e7 9b bb 56 92 04 3f 77 71 98 bb 2b aa f8 bd
       -0.0047577936 0.5178579 -0.004652198 -0.12141832
000140 5e 5e 48 be 0b 9e f3 3d a7 02 c5 bd 65 58 06 be
       -0.19567248 0.11895379 -0.096196465 -0.13119657
000150 17 b4 04 3e a5 6e 38 be 9d f4 48 bc 4c d6 f8 3e
       0.12959324 -0.18010958 -0.012265352 0.48600996
000160 5f c3 f7 3d 34 18 c2 3e de 2b 5a bf 6d db a3 bd
       0.12097811 0.3790909 -0.85223186 -0.080008365
000170 9b 49 d5 3d 5f 6b 05 3d a6 5b ba 3e bd f0 be 3d
       0.1041443 0.0325731 0.36398047 0.09323261
000180 4b ee 97 3e a6 a1 86 3e 0b 0a 06 bd 79 1e e9 bc
       0.2967399 0.26295203 -0.03272442 -0.028456913
000190 63 a8 cd bd 59 d6 25 3b ca 41 20 be e4 12 93 3d
       -0.10041883 0.0025304763 -0.15650097 0.071813375
0001a0 f2 67 6b 3d f1 50 10 be bb bd 39 3f a4 52 bc bd
       0.057472177 -0.14093377 0.7255513 -0.0919545
0001b0 18 9d 37 3e 6f 1c fd bd 31 60 0b 3e ac 34 24 be
       0.1793102 -0.12358939 0.13610913 -0.16035718
0001c0 53 72 dc 3d 54 7b 4f be 26 fa 3c bf 22 df 7c bd
       0.10763993 -0.2026189 -0.73819196 -0.061736234
0001d0 af a7 1c 3e 5a de f5 bd 76 6e 2a be 71 85 a0 be
       0.15298341 -0.12005301 -0.166437 -0.31351808
0001e0 ea 2e 92 be bb 25 1e 3d 6e 2c c3 3d 51 03 46 be
       -0.28551418 0.0386102 0.09529959 -0.19337203
0001f0 5a f6 87 bc 45 e8 01 bc 4f eb a1 bd 13 30 04 3e
       -0.016596962 -0.0079289125 -0.0790621 0.12908964
000200 00 b8 90 3d 5c 3e a6 3e 55 a9 49 3b d1 cb b2 36
       0.07066345 0.3246945 0.0030771096 5.3285407e-06
000210 80 b6 2e bd 31 f0 ae be 71 03 23 3e b6 78 55 3d
       -0.042654514 -0.34167627 0.15919282 0.052117072
000220 fc f2 5e bc eb 1c c8 be 64 3f 7f 3e 4e 3d f0 3c
       -0.013607737 -0.39084563 0.24926525 0.029326107
000230 17 01 95 3a 07 58 7a 3d 69 cd 35 bf 46 b7 33 3d
       0.0011368123 0.061119106 -0.71016556 0.043875955
000240 ad 63 09 be d1 81 c1 be bf 98 c8 3d da c4 22 bd
       -0.1341693 -0.37794355 0.09794759 -0.039738514
000250 14 b6 e6 3d 61 a4 d4 bd a1 27 d7 3d d6 1c a6 be
       0.112651974 -0.10382915 0.105056055 -0.32443875
000260 d7 01 ca 3e 1d 19 71 bd 12 1c 49 3e 27 92 27 3c
       0.3945453 -0.05886184 0.19639614 0.0102277165
000270 01 f1 9c be b2 41 23 bd 7a 3a 2a 3e 2c e9 52 be
       -0.3065262 -0.039857574 0.1662387 -0.2059676
000280 29 bb 0b 3f 71 ea a2 bd 37 eb be 3c 01 96 d8 3e
       0.5458246 -0.079548724 0.023305519 0.42301944
000290 f6 f6 58 3e bc 43 a3 bd b7 94 9d 3e 73 10 9a 3e
       0.21187958 -0.07971904 0.30777523 0.30090675
0002a0 53 34 2a bd cc fb 54 bc 04 55 3c be f6 3a 05 3f
       -0.041553807 -0.012999486 -0.18391806 0.5204309
0002b0 71 48 fa 3d 91 42 b1 3d 1f 3a cd 3e 7e f1 e4 bd
       0.12220848 0.08655275 0.40083405 -0.111788735
0002c0 81 98 1b 3f 62 25 43 3d 64 6b 28 3e ef 24 ad bd
       0.6077958 0.047643073 0.16447216 -0.0845431
0002d0 8c 6f 8d 3e f1 fd 31 3e ae 23 ec 3c 2f 68 3e 3d
       0.27624166 0.17382027 0.028825607 0.046486076
0002e0 b5 8e 18 3e 36 87 0b bd 6e 5d 09 be 6a fd 06 bf
       0.14898188 -0.034064494 -0.13414547 -0.5273043
0002f0 f9 40 f3 bd 5e 9e 08 3e d1 36 1c be 55 2b b6 be
       -0.11877627 0.13341662 -0.15255286 -0.35579935
000300 52 30 df 3e fb 11 f3 3d c3 52 ac 3e 60 74 06 be
       0.43591553 0.11868664 0.33656892 -0.13130331
000310 74 51 96 be 9a b3 75 3e 6c 84 bb 3e b3 ac 82 3e
       -0.2935902 0.23994294 0.36624467 0.25522384
000320 90 df 42 be 2f 02 a8 be 44 27 83 3e cf 0e 30 3e
       -0.19030595 -0.32814166 0.25615895 0.17193149
000330 48 69 63 be 8d 6d 10 3e ba 2b d8 bd c4 51 98 3e
       -0.2220813 0.1410429 -0.10555215 0.29749882
000340 92 48 7b 3e 0c 09 c4 3d 56 df 10 bf d2 0f 4c be
       0.24539402 0.09572038 -0.56590784 -0.1992791
000350 2a 61 8d bd e7 6f 08 3e a3 18 1a bc 95 30 2d bf
       -0.06903298 0.13323937 -0.009405288 -0.67652255
000360 a5 8c bb be bc 17 cb bd ea 48 2b be 53 65 df bc
       -0.3663074 -0.09916636 -0.16727033 -0.027269995
000370 fd be d2 bd 46 5c 0e 3e a0 e4 68 3e 7e c6 47 3d
       -0.102903344 0.13902387 0.22743464 0.04877328
000380 60 c1 0b 3d d9 62 54 3d 06 a0 0f be 5f 68 bb 3d
       0.034119964 0.05185208 -0.14025888 0.091507666
000390 18 fb 10 3d 0c cf 3a 3e b9 05 a9 3c f6 ae 91 3e
       0.03539571 0.18243045 0.020632612 0.28453797
0003a0 87 b3 09 be 13 83 40 3e de cd 64 3e f2 e9 9a be
       -0.1344739 0.18800001 0.22344157 -0.3025661
0003b0 0f 9a 94 be f2 23 98 3d 87 bc 5a 3d 6f e1 9f be
       -0.29023787 0.07428731 0.05340245 -0.3122668
0003c0 bd d4 3c be 9d 34 28 3e d1 79 66 3e 64 ec 7d bd
       -0.18440528 0.1642632 0.22507407 -0.061993018
0003d0 2f 7c 90 3e 20 4e f8 3e cc c9 de be f8 04 ff 3e
       0.28219745 0.48497105 -0.43513334 0.49808478
0003e0 70 ab 30 be 5b 3e 39 be 4a f1 a5 3e 7a 40 06 3e
       -0.17252898 -0.18090193 0.3241065 0.13110533
0003f0 e4 ce 35 3d 0b 15 75 be 36 fb 8a 3d 70 d1 85 3e
       0.04438676 -0.23933809 0.06786196 0.2613635

actor.0.bias f4 [64]
000000 44 47 c5 bb 4a 19 d5 bc 10 e6 8d bc f6 60 d2 3d
       -0.0060204584 -0.026013035 -0.017321616 0.102724
000010 7a e3 10 3d 62 45 90 3b 80 8e 7d 3d e3 a5 a1 bc
       0.03537319 0.0044028023 0.061903477 -0.019732421
000020 20 21 8e 3b 6e 07 18 be 92 d7 69 bd 05 b2 57 bc
       0.004337445 -0.14846584 -0.05709035 -0.013165002
000030 ec d1 22 3d ad 5c 10 bd 6c 14 f2 bc 16 13 25 3d
       0.03975098 -0.035244633 -0.029550754 0.040301405
000040 0e bb b4 bd 92 2b fb bb 3a 62 c4 bc 7f 51 76 bb
       -0.0882474 -0.007665106 -0.02397262 -0.0037585197
000050 3f 4a 73 bd b5 17 ee 3c b9 1c 8b 3d f7 a4 0d 3b
       -0.05939698 0.029064039 0.06792588 0.002161322
000060 64 87 f0 3c cc cd 80 bb 7e a1 0e bd 16 18 bf 3d
       0.029361434 -0.003930783 -0.03482198 0.09330766
000070 ba a8 8e 3d 2b dd 9c bd 73 a3 3b bd e1 f5 a0 3d
       0.06965776 -0.07659372 -0.045810174 0.07859398
000080 6d ca d0 bd 0a f2 4a 3d 4f 79 54 bd e2 ac c0 3c
       -0.1019486 0.049547233 -0.0518735 0.023519937
000090 35 1c d4 bc 54 f2 f1 bc 5e bd da ba be c5 8d bc
       -0.025892356 -0.029534496 -0.0016688516 -0.017306205
0000a0 c6 13 e8 39 95 96 72 3d 5d e9 b8 3d 45 d3 86 3c
       0.0004426522 0.059225637 0.090288855 0.016458163
0000b0 e9 f1 ea 3b fe 23 7b 3d 18 d5 84 bc 12 c3 e3 3b
       0.007169951 0.06131362 -0.016214892 0.0069507444
0000c0 45 a8 f0 3c ab 73 02 3d a3 0b 45 3d 21 eb 64 bd
       0.029377112 0.03184859 0.0481068 -0.0558883
0000d0 af 29 a6 bd 6f fc 9c bd a9 49 72 bd 6a 2d 91 3d
       -0.08113419 -0.076653354 -0.05915228 0.0708874
0000e0 27 7e 00 3e ce ad 86 3d ec 00 ab b7 f1 c0 e4 bc
       0.12548123 0.06576119 -2.0385218e-05 -0.027924033
0000f0 5a fb 76 bd 2b 91 16 3d f1 58 d0 3d d7 9a 8f 3b
       -0.0602983 0.036759537 0.10173214 0.004382472

actor.2.weight f4 [5, 64]
000000 07 5e 2e bd 13 05 17 3d c9 42 a5 be 46 a4 16 bd
       -0.04257014 0.036870074 -0.32277516 -0.036777757
000010 29 d0 a8 3e 6e 84 0c 3f a3 a3 0f 3e 0d 3b dc bd
       0.32971314 0.5488957 0.14027266 -0.107534505
000020 7f d3 8a 3d 66 43 7c 3d b3 e7 47 bd 2f 5e 10 be
       0.06778621 0.061587714 -0.04880495 -0.14098428
000030 e8 1e 16 be 95 29 ae 3e 00 1e 8f 3e 1c 9f 11 bd
       -0.14660227 0.340161 0.27952576 -0.03555213
000040 c8 32 05 3f ab 27 97 3e dd ba cf be 49 44 af 3e
       0.5203061 0.29522452 -0.40572253 0.34231785
000050 6e ee 83 be 7d 5e 61 3e 23 ff e3 3e e8 bf 68 be
       -0.25767845 0.220087 0.4453059 -0.22729456
000060 9c 80 20 3e fc 4a 56 be ea 7e 98 be 48 61 1f bd
       0.1567406 -0.20927042 -0.29784328 -0.038911134
000070 e1 3e 88 3e df 72 cc bd 6b 5e 85 bc f9 76 a7 3e
       0.26610473 -0.099828474 -0.016280374 0.32707956
000080 53 d0 01 be 71 42 d0 be 47 51 2a bf ac 5e 30 3e
       -0.12677126 -0.4067569 -0.6653027 0.17223614
000090 ad 86 29 bd 67 c4 c0 bd af ed 12 3e 11 29 3c 3d
       -0.041388202 -0.09412461 0.14348482 0.0459376
0000a0 cb 9c a9 3e 1f 6e 88 3d 92 0b cd 3e 56 c5 40 be
       0.33127436 0.06661629 0.4004789 -0.18825278
0000b0 20 ed 05 3e 8a 9c 7b bd 07 27 94 3a fa 5f 93 be
       0.13078737 -0.061428584 0.0011303135 -0.28784162
0000c0 0d 8a 71 be 83 ba 02 be 73 4a ce be 6f e7 58 be
       -0.23587818 -0.12766461 -0.40291175 -0.21182035
0000d0 1c 00 b6 3d 7d ca 8e be 2e 04 27 3d a8 d0 79 be
       0.088867396 -0.2788886 0.04077547 -0.24396002
0000e0 45 02 ea 3d b6 20 9d 3b 06 7d 84 bd df b5 af bd
       0.11426214 0.004795159 -0.06469159 -0.08579611
0000f0 1a 5e aa be de 18 94 bd b2 cf 2a bf 84 c6 f7 3c
       -0.3327492 -0.072313055 -0.6672317 0.030246027
000100 b2 b8 39 be 54 1e 50 3e d4 cf 2f 3d 6f f0 52 be
       -0.18136862 0.2032407 0.04292281 -0.2059953
000110 6a 60 d0 3d 2d 7d 4f be bd a1 8b 3e 9f ad d1 3e
       0.101746395 -0.20262595 0.27271834 0.40952775
000120 5c ce 14 3f 0a bd 14 be 1a e9 67 bd c3 0d ee b8
       0.5812738 -0.14525238 -0.056618787 -0.00011351288
000130 4b 1e e5 bd d4 48 9d bc 76 d0 60 3d fb 21 cc 3d
       -0.111874186 -0.019199766 0.054886304 0.09967419
000140 ca f6 47 be 38 64 8a 3d ab 51 e5 3d c1 38 f7 bd
       -0.19527736 0.067573965 0.111972176 -0.12071372
000150 1b 6d 3a 3c 04 bb b8 be e5 51 66 3a 5d 36 c0 38
       0.011378552 -0.36080182 0.0008786007 9.1653994e-05
000160 db 5f 1b 3e a5 37 91 3e bf 33 00 bf 19 e1 9f 3e
       0.15173285 0.28362766 -0.5007896 0.31226423
000170 c1 65 81 bc 2c 47 20 3e 5c 49 65 3b d4 e9 a2 bd
       -0.01579559 0.1565215 0.0034986353 -0.079547554
000180 07 c0 36 3e 2d 4c 29 bd 77 41 18 be 9f 2b bb be
       0.1784669 -0.041332413 -0.14868723 -0.36556718
000190 e4 8f 63 3e 93 fd b6 3e e6 f8 c0 be e0 a6 32 3e
       0.22222859 0.35740337 -0.37689894 0.1744647
0001a0 de 54 23 be 1b cb 97 3d cc 38 a3 3d 67 ea 7b be
       -0.15950343 0.07411786 0.079698175 -0.24601136
0001b0 b7 0d 98 3e c6 73 c5 3c 8d 67 74 be 73 41 ab 3d
       0.29697964 0.024103057 -0.23867626 0.08362093
0001c0 98 21 98 be f7 c6 ab bd 73 23 1f 3e b9 27 28 3e
       -0.2971313 -0.08387559 0.15540867 0.16421403
0001d0 d2 4a e8 bd ba 7c 1e 3d 8b 76 b6 bd b5 e5 67 be
       -0.11342396 0.038693167 -0.08909329 -0.2264622
0001e0 eb 53 a2 be 91 e7 14 3d 93 6c 50 be 40 60 9b be
       -0.3170465 0.03635365 -0.20353918 -0.3034687
0001f0 55 3f 8e 3e 77 d5 85 be cf 6b a6 3d bf 63 28 be
       0.27782694 -0.26139423 0.081260316 -0.164443
000200 0c 70 3c be 92 a6 72 3e 3e 49 8d 3e 1e 82 b7 3e
       -0.18402117 0.23696354 0.27594942 0.3584146
000210 a6 19 19 be 5c 43 49 3d 78 e5 88 3d 5b 8b e9 bc
       -0.1495119 0.049136505 0.06684393 -0.028508833
000220 81 ca 40 3e e6 cb 39 3e 81 e8 c9 3d 5e 2e 96 be
       0.18827249 0.18144187 0.098588 -0.2933225
000230 63 fa 93 bc e8 e7 00 bf 92 07 d1 be 10 bb 7c 3e
       -0.01806373 -0.5035386 -0.40826088 0.24680734
000240 f5 aa 9f 3c 27 54 86 3d 6d 99 ea 3d ed 5f 4c 3d
       0.019490698 0.065590195 0.11455045 0.04989617
000250 48 ac ff bd a4 1c ed be 9b e2 d8 3d 5a 27 a9 bc
       -0.12484032 -0.46310914 0.105900966 -0.020648647
000260 b9 ef 4b 3e 04 3e 0b bf e3 13 19 3e bf ae d2 3e
       0.19915666 -0.54391503 0.14948992 0.41148946
000270 e3 26 98 be 44 c8 79 3e 3e 16 69 3d b2 20 17 be
       -0.29717168 0.24392802 0.056905977 -0.14758566
000280 df 84 cf 3e 2c 15 67 be d1 11 e4 3d 83 fc 86 3e
       0.4053106 -0.2256667 0.11136211 0.26364526
000290 72 34 78 3d 98 78 7a 3d 45 c0 54 bc 76 2d 8f be
       0.06059689 0.061150163 -0.012985294 -0.2796437
0002a0 57 2e bb bb 00 5d 66 be 75 f6 7f be b3 fd ea bd
       -0.0057123112 -0.22496414 -0.2499636 -0.114741705
0002b0 07 b4 f5 bd b4 d8 a5 bc 28 c2 84 3d 05 9f 2c 3e
       -0.11997228 -0.020244934 0.06482345 0.16857536
0002c0 f9 d1 a6 bd 90 f4 1e be 40 02 7a bd c0 57 42 3d
       -0.08145518 -0.1552298 -0.061037302 0.047446966
0002d0 66 ca c0 bd 54 d2 ef 3c 93 64 8b 3e 35 ff 0c 3c
       -0.094136044 0.029275097 0.2722517 0.008605768
0002e0 fb b2 2d be 80 54 b4 3d 1c 68 d7 3e ea c7 01 3e
       -0.16962807 0.088051796 0.42071617 0.12673917
0002f0 b5 aa 3b be 27 a4 94 be bc 55 07 bf 96 44 6b be
       -0.18326838 -0.29031488 -0.52865195 -0.22975382
000300 7b db ba 3b 52 e5 10 bd 2a 0f b4 3e 7c 83 fb 3e
       0.0057024336 -0.035374947 0.3516782 0.49123752
000310 f9 21 a0 be 3b a9 0b bd 84 ab af 3e a7 46 12 be
       -0.3127592 -0.034096938 0.34310544 -0.14284764
000320 9a 1b d8 3d 6a f9 f6 be 53 0a 6f b8 76 9b ce bd
       0.105521396 -0.48237163 -5.6991656e-05 -0.100882456
000330 10 c9 60 3e 2e 55 0d 3e c0 ed ae bc 93 9f a3 3e
       0.219517 0.13802025 -0.021353602 0.31957683
000340 8d f1 84 be ee 30 f0 bd 86 c6 4c 3e 98 88 5d be
       -0.2596554 -0.117280826 0.19997606 -0.21634138
000350 36 6f 5a be 5d cf ae be 2d 60 12 be b3 81 7a 3e
       -0.21331486 -0.3414258 -0.142945 0.24463539
000360 d7 02 e8 3d 5d d8 83 be d4 6e d2 3e a1 25 7a 3d
       0.11328667 -0.2575101 0.4110018 0.061071042
000370 13 e1 99 be 59 f1 74 be 38 b9 95 be 40 cd 91 3b
       -0.3005453 -0.23920192 -0.29242873 0.0044495165
000380 b9 e5 8f be 77 ce 91 3e 7f 5e 76 3e 4d b0 a4 be
       -0.28104952 0.28477833 0.24059485 -0.32165757
000390 fb 73 c5 3c cc 3e d7 bb 4e 47 21 3e ac dc 7e bd
       0.024103155 -0.0065687653 0.15749857 -0.062222168
0003a0 39 6f b5 3e 34 11 f9 3e 0e 45 83 bc f7 34 ef bb
       0.3543642 0.48645937 -0.016024139 -0.007300015
0003b0 27 99 67 3d 87 1c 93 3e c0 ba dd 3d 0d 89 99 be
       0.05654254 0.28732702 0.10826635 -0.29987374
0003c0 3b bc 57 bd 4d de c2 3e 24 cd 03 3e e6 7c e7 bd
       -0.052669745 0.38060227 0.12871224 -0.11303119
0003d0 e8 9f 09 bf 79 69 c8 bd f7 a2 31 bf 9b ca 64 3e
       -0.5375962 -0.09785742 -0.6938929 0.22342913
0003e0 09 22 c1 3d c9 4e 8b 3e 1c 3f 78 3e f4 52 a9 be
       0.0943032 0.27208546 0.24242824 -0.330711
0003f0 5f 13 86 3e e7 dd 30 3e 8b ba a2 bd f3 5b 9c 3e
       0.26186654 0.17272149 -0.079457365 0.30538902

actor.2.bias f4 [5]
000000 32 de 2f 3c bc 29 2b bd 14 74 44 3d 1b be b7 3d
       0.010734128 -0.041787848 0.047962263 0.089718066
000010 96 61 f8 bd
       -0.12127988

critic.0.weight f4 [64, 4]
000000 fa 21 dd 3e 48 97 09 3d 16 37 0b 3e 95 23 c4 3d
       0.43189985 0.03359154 0.13595232 0.09577099
000010 b9 c0 dd bd c0 c7 ae be e6 1e 4d be ee 64 59 3e
       -0.108277746 -0.34136772 -0.20031318 0.21229908
000020 22 9b 07 bd d3 02 b4 3d 7a 4a 62 be 15 b1 dc 3e
       -0.03310693 0.08789601 -0.22098723 0.43103853
000030 47 ef 97 bd d5 b3 fa 3d 8a 73 25 3f cb 3d b3 ba
       -0.074186854 0.122413315 0.64629424 -0.0013675032
000040 bd 12 cc 3c 4b 98 23 3e f7 72 d5 39 0a ef 06 bc
       0.024911279 0.15976064 0.0004071218 -0.008235702
000050 1d 4f 17 3e 4c dd a2 3d 33 50 77 3c ce f3 15 3e
       0.14776273 0.07952365 0.015094805 0.14643785
000060 51 d8 84 be 32 0b cd be cc 5d bf be a0 7f 33 bd
       -0.25946286 -0.40047604 -0.3737625 -0.043822885
000070 89 56 f9 bd a8 0c cd be b6 b7 3f bd 1e fa 41 be
       -0.121747084 -0.40048718 -0.04680606 -0.18943068
000080 5f 2b d0 3e 50 cc de 3d 02 a9 89 be 5d ca 9b 3d
       0.4065809 0.10878813 -0.26886755 0.07606957
000090 35 7b 1f be b3 67 62 3d ad 75 d9 3d 32 e2 d2 3d
       -0.15574344 0.055274677 0.10618148 0.102970496
0000a0 b4 bf a2 bd 33 70 db 3c f9 04 2c 3d 49 e1 e8 bd
       -0.07946721 0.0267869 0.04199693 -0.11371095
0000b0 0b 4d 09 bf 76 cf ae bc c9 a2 1c 3e 60 5c 32 be
       -0.53633183 -0.02133916 0.15296473 -0.17418051
0000c0 b4 36 44 3e d5 75 49 3e 10 c2 95 3b f6 6a 09 be
       0.19161493 0.19673856 0.004570253 -0.13419709
0000d0 4b 70 7e be c1 d0 3d 3d 6c ac 4c 3e 35 46 f4 3e
       -0.24847524 0.04634166 0.19987649 0.47709814
0000e0 6a 9b 80 3e 23 fa 97 3e 0c 86 09 be 00 33 29 3e
       0.25118572 0.29683027 -0.13430041 0.16523361
0000f0 c2 5b 82 bc 74 b9 46 3e 8b c3 22 3c 13 eb ea be
       -0.015912894 0.19406682 0.009934316 -0.45882472
000100 fa 32 98 3d 40 49 87 be 9a 6f f7 bd 52 95 8d 3c
       0.07431598 -0.26423073 -0.12081833 0.017283116
000110 1e 68 c2 bd 9c 06 45 bc 81 cd 92 3e 04 18 be be
       -0.09492515 -0.012025502 0.28672412 -0.37127697
000120 97 fa 85 3e 82 f6 af 3e 07 89 07 bf 8a b6 ba bd
       0.26167747 0.34367758 -0.5294346 -0.09116848
000130 8b 2e 24 3e dc e1 f5 3d 59 57 a0 3c 7c 15 48 bc
       0.1603338 0.1200597 0.0195729 -0.0122121535
000140 49 64 85 be 2c 50 0c bd 71 ec bf be b1 80 80 3e
       -0.26053074 -0.034256145 -0.37485078 0.25098184
000150 bd 06 76 3b 51 de 71 3e 3f 1d 07 3e c3 64 3e 3c
       0.0037540637 0.23619963 0.1319475 0.011620703
000160 71 2d 5e 3d c7 8f 03 3e 47 db ed bd 26 0c 83 3b
       0.054242555 0.12847815 -0.116140895 0.003999251
000170 d7 48 df bc bd 48 92 3e 6e 1b 0a 3e a9 03 17 be
       -0.027256412 0.2857112 0.13487026 -0.1474749
000180 1d 22 dd 3d bb ad 59 3d fb 31 06 3e b4 14 3e 3e
       0.10797522 0.053144198 0.13105004 0.18562585
000190 4d 5b bb 3d 7b 62 26 be e8 f2 cb 3d 06 1a 9d be
       0.091482736 -0.16248505 0.0995844 -0.30683917
0001a0 47 d4 b8 bc 30 98 96 be 65 f7 50 be 58 63 63 bb
       -0.02256216 -0.29412985 -0.20406874 -0.0034696665
0001b0 3a 0e 6c be 2e 3c d5 3d af 0a c8 3d 5d b4 13 3b
       -0.23052302 0.10411869 0.09767663 0.0022537925
0001c0 25 0a 32 bf 80 d2 86 3e 9d a1 a9 bd 3a ea cb bd
       -0.6954673 0.26332474 -0.082827784 -0.099567845
0001d0 a8 b3 b1 bd 19 8e 65 be e5 5d 4b 3e a4 02 4a be
       -0.08676845 -0.22417487 0.19860037 -0.1972757
0001e0 aa 63 24 bc 9a 4e 21 3f a8 2b 27 bd 91 b3 82 be
       -0.010033527 0.6301056 -0.04081312 -0.25527623
0001f0 54 71 43 bd 34 d3 48 3e c8 25 d0 3d a8 b7 fa 3e
       -0.0477155 0.19611818 0.10163456 0.48968244
000200 8b a8 66 3d 62 9d cc bd 91 fb 06 bd 73 7b d2 3d
       0.05631308 -0.09990956 -0.032954756 0.10277452
000210 39 5f 86 bd da f7 9b bd 53 54 81 3e 31 4a 29 be
       -0.06561131 -0.07615633 0.25259647 -0.16532208
000220 a5 31 45 3e 75 4a a2 3d c9 db d6 3d 82 d9 47 bd
       0.19257219 0.07924358 0.104911394 -0.048791416
000230 97 c5 aa be 54 e2 8f 3e 4d 95 8c 3d dc 97 0a 3c
       -0.33353874 0.28102362 0.06864414 0.008459058
000240 7e c4 10 be dd b5 28 3e a3 b1 1b 3d f4 39 d4 3d
       -0.14137456 0.16475625 0.038011204 0.10362616
000250 e6 65 d9 3e 48 b0 73 3e ff 4a 08 be fc f2 b9 3d
       0.42460555 0.23797715 -0.13309859 0.09079549
000260 80 6e e3 3e 7c 98 ec 3e c3 25 93 3d a4 dc 49 bd
       0.44420242 0.46210086 0.07184937 -0.049282685
000270 58 54 06 3f 7c 11 26 3e eb ba ff 3d ce 54 39 3d
       0.5247245 0.16217607 0.12486824 0.04524689
000280 1f ae 5f 3d 4c 53 57 3d 8a c5 25 bb d7 4a d6 bd
       0.054609414 0.052569672 -0.0025294744 -0.10463493
000290 e5 4d 33 be d0 bb 24 be ac fb 90 be e3 48 30 be
       -0.17510183 -0.1608727 -0.2831701 -0.17215304
0002a0 d7 9b 4c 3d 7c 55 8a 3e 8f 5d d1 bd 29 8b 01 3e
       0.049953308 0.27018344 -0.10222923 0.12650742
0002b0 ce 6c b8 3e f8 4b 8d 3e d3 db 7c 3e ad 8b f4 3d
       0.3602051 0.27597022 0.24693231 0.119407035
0002c0 58 2c 01 3e 6b b0 28 be c2 33 f6 3c fa b6 6f be
       0.12614572 -0.16473548 0.030053977 -0.23409644
0002d0 24 0d b9 3d 8b 3f 64 be bb 8d 9b bc df 94 53 3e
       0.090357095 -0.22289865 -0.01898848 0.20662259
0002e0 db 30 c4 be bb 85 40 be 54 20 a6 3d c0 3e 41 3e
       -0.38318524 -0.18801014 0.08111635 0.18871593
0002f0 98 c7 da bd c4 be 1d bd 4b 0b c3 3c e6 b6 07 3e
       -0.10682601 -0.038512006 0.023809096 0.13253364
000300 d9 3f 9e 3d 4d 49 6c be dc 75 25 bc 8f 64 b8 3d
       0.07727022 -0.23074837 -0.010098901 0.09003555
000310 ae 3d d8 3d f9 46 82 3d 8d 5e 5a 3e 63 ea 4f be
       0.105586395 0.06361193 0.21325131 -0.20304255
000320 98 81 1c 3e 3d 75 1e be f6 5b 8e be 7e b0 78 3d
       0.15283811 -0.1547441 -0.27804536 0.06071519
000330 bf c1 2e be ad fb bb 3e 52 36 81 bd 5d 0e a1 3d
       -0.17066096 0.3671545 -0.06309189 0.07864068
000340 02 a7 0d bd 56 6a fe be ac 86 09 be ec 1e af bd
       -0.0345831 -0.49690503 -0.1343028 -0.0855082
000350 95 93 9f bb 64 f2 53 bc d1 04 4f be 1c d1 52 3e
       -0.004869888 -0.012936208 -0.20216681 0.20587581
000360 f2 06 f2 bc 0a 44 6e bd e3 97 17 3e 65 97 3c be
       -0.029544327 -0.058170356 0.14804034 -0.18417127
000370 e0 c4 c9 3d 90 79 91 3d 7b 50 3a be 4b b1 c4 3d
       0.09852004 0.07103264 -0.18194763 0.096041285
000380 08 64 bb bd 91 58 5f 3d f1 ee b1 bd 4c 89 e4 3d
       -0.09149939 0.054527823 -0.086881526 0.11159
000390 99 29 dd 3c 74 cd 90 3e d9 0f 98 bc 04 be a2 3d
       0.026997374 0.28281748 -0.018562244 0.07946399
0003a0 23 a2 0f 3d a2 e9 28 be e6 53 20 3e c5 c8 c6 bd
       0.035066735 -0.16495374 0.15657005 -0.097062625
0003b0 30 68 4b 3e b5 95 f9 be ee a9 64 3d e4 12 5f be
       0.19863963 -0.4874703 0.05582612 -0.2178455
0003c0 44 f2 72 3d 27 11 6c 3e 69 b8 1e be a0 74 b5 3d
       0.059313074 0.23053418 -0.15500034 0.08860135
0003d0 78 fb af 3d a1 87 99 be 17 cf 38 bd 51 e5 88 be
       0.08592886 -0.2998629 -0.04511937 -0.26737455
0003e0 a5 88 0c be a5 39 11 be 06 34 06 be ed e2 ab 3c
       -0.13724001 -0.14182146 -0.13105783 0.02098223
0003f0 4c 0f 18 bd 1a 1d 73 be 3c 75 60 bd 37 fa a6 bd
       -0.037123963 -0.2374157 -0.054799303 -0.081531934
