outputs/centerSquare_2a_PPO_wprior0.995/last_status.pt (torch, 39317 bytes, 42 tensors)

actor.0.weight f4 [64, 4]
00000000: fc83 8abd 70ba 6b3d feef 83be c3ba ccbe
00000010: 4fdf 89be 0566 11be 7f55 c23e d915 813e
00000020: 5ae5 81be ce85 2e3e 8f0e 883e 522c 713e
00000030: 87c9 5b3e 43ed 68be b4b1 d0bd dce2 c53e
00000040: 43c1 f43d 0a3c 5c3e 6ea2 893d 5840 46be
00000050: 30b9 32be f2ea 25bc 4aea 333e 211c a5be
00000060: 0c1e 8b3d ab46 183e 4726 f93e 8fc0 79bc
00000070: 16f7 5fbc a663 be3e 5ece 3fbf 3e64 933d
00000080: e394 0f3e daeb 2ebe 399a 163e edb5 413e
00000090: 5375 603e 23f6 e63d c6ad 15bf 13c8 42be
000000a0: 6971 7c3c 9d8e da3c 9b7c 233e 759e 0bbf
000000b0: 2989 67be ddb9 873e 3f08 033e 9b52 a3bd
000000c0: 315c 833e 117b 8ebe 93c3 56be be49 ac3d
000000d0: 29ec 643d 5f2e 813e 6ca8 77be fd35 ab3e
000000e0: 91fb c63e 82d5 6e3e babe 4e3e 444b 623e
000000f0: 44f7 7dbe 1507 533e 045b a3bd 3975 54be
00000100: bc1a d5be 2ab5 3ebe 91b5 033d 4810 95be
00000110: ad8d 2b3d 43db 1ebd 466a 15be 72b2 533e
00000120: 7c4f 593e 6c9c 83be c8a9 a0be f3f8 ca3d
00000130: 1891 8f3e e4a9 643d 2794 43be 868c 82be
00000140: 4be7 85be 07b0 dfbe a74b c2bd e420 86be
00000150: 176f b8bd dd80 ad3d 3ba7 b43e 2903 ad3d
00000160: b99a f5bc 3d96 5f3c 5b3a 9a3e 62d1 303b
00000170: e39e 7abe ed87 4bbd c61d 89bc 79be febd
00000180: 6079 393d 1dcf 763e 299c 80be 1437 56bd
00000190: 887f e0bd 4b01 f2bd de0f e2bd 56a3 36bd
000001a0: 5ca1 d3bd cfb5 b3be 6a5d e53d 1507 753d
000001b0: db9f ddbe 1e91 9c3c 7230 c0bd 550e 28bc
000001c0: f05f 303e 2f02 bcbd 8504 b0be 93ec c13e
000001d0: 3956 7a3d 4dcb 7bbd faab 06bd 5d69 083e
000001e0: 3f84 3bbe 22cb 58be a352 623e 9848 0fbe
000001f0: 815e b0be 647e 243c 107a 7ebe edef 9d3e
00000200: 0711 6cbd e95d 2d3d 3ab9 053e 1194 1cbe
00000210: f662 26be de7a 77be fbdd 7d3d c764 1b3e
00000220: 5828 f43d c1ec 68bd a210 d0bc b2e5 f5be
00000230: 1619 0dbe ffe4 9ebe 5ff6 aa3e 735f f73d
00000240: 30e2 e83e 5c43 45be adf0 29be eda4 a53e
00000250: c124 4ebe 2dfe 753e cf53 0f3e bd3e 6e3e
00000260: 72ce 473e 4df4 84bd 141a d4be 1b67 35be
00000270: fa3d d33e bf3b 90be 751b 32bf ca3e bbbe
00000280: e95c 6b3e 6853 6d3e e0bf f6bc 8504 ef3e
00000290: 36c5 0a3e a207 f8bd 1c68 143e aa69 b03d
000002a0: 6dc1 8fbe 2cce c3be 242a 583e a135 ba3e
000002b0: 378a 383e 9d3d 183e 6bd7 243c 0c37 36be
000002c0: a4b4 673d ac48 12be 9018 f33d 1b2a 5e3e
000002d0: ead4 d4bd dfae 7cbe 5b76 6abe 30bd 553e
000002e0: 7900 8abd 4aea ab3e dd15 84bd a0c5 303e
000002f0: 6f26 863e d899 c6bd af20 b9be d82d 57be
00000300: 26d6 943e c130 433e 6f43 4a3e bd4b 473e
00000310: bb3e 3b3e 1aed 3f3c 974d ee3d 4587 08be
00000320: 62e2 bebe d57f c83e 6b53 d7be c868 ccbd
00000330: e249 7b3d 86f3 2b3d 33eb d03d cb07 8b3d
00000340: abc3 f3be 23a3 1dbe aedc 41be 73d5 0a3e
00000350: d3e4 04be 8146 6bbc 2c5f 963e 0d3c d93d
00000360: 106b 5ebd f638 973e ff1a 08bd 7f2e 14be
00000370: 9d1d 453e 5a17 4fbe c352 c53e 090b 883e
00000380: 0107 d6bd 960a 8dbe 55c5 2cbe 79a1 89be
00000390: 877f 87be 15b3 9a3e fd48 ee3c 8b00 953e
000003a0: c05b 693c 9d08 13bc 92ee 673b d621 fdbd
000003b0: 8686 a0b9 af37 a2be d1e5 033f 084f aebc
000003c0: ae57 5cbe 76c3 7f3e ba9d f43e 9619 323e
000003d0: ebf7 bcbc 1fb9 2cbe cf6a 4dbe daa2 8cbe
000003e0: ea72 2c3e 7f0c f5bd 85a1 26be 6b5f 74bd
000003f0: 65bc dc3d 4d2c b4bd 583f b6be 7807 a4bd
-0.06763455 0.057550848 -0.25769037 -0.39986238 -0.26928183 -0.14199074 0.37955853 0.2521198
-0.25370294 0.1704323 0.26573607 0.23552063 0.21463595 -0.22746758 -0.10190144 0.38649642
0.11950924 0.21507278 0.06720434 -0.19360483 -0.17453456 -0.010126816 0.17569843 -0.32248023
0.0679284 0.14870708 0.48662016 -0.015243663 -0.01366975 0.371854 -0.74924266 0.07196854
0.1402164 -0.17082158 0.14707269 0.18917055 0.21919756 0.112774156 -0.5846828 -0.19021635
0.015407898 0.026679331 0.15965502 -0.5453866 -0.22610916 0.2650899 0.12796114 -0.0797474
0.25656274 -0.27828267 -0.20973043 0.08412503 0.055889282 0.2523069 -0.24185342 0.33439627
0.38863805 0.23323634 0.20189944 0.22099024 -0.24801356 0.2060817 -0.07976344 -0.20747842
-0.4162196 -0.18623796 0.032155577 -0.29113984 0.04188316 -0.038783323 -0.14591321 0.2067354
0.21221727 -0.25705278 -0.31379533 0.099107645 0.28040385 0.055826083 -0.19099484 -0.25497836
-0.26153025 -0.43688986 -0.09487086 -0.2619697 -0.09005564 0.08471844 0.35283837 0.084478684
-0.029981004 0.013646659 0.30122647 0.002698027 -0.24474673 -0.049690176 -0.01673783 -0.124386735
0.045281768 0.24102445 -0.2511914 -0.05229862 -0.10961825 -0.11816653 -0.11038183 -0.044589363
-0.10333511 -0.35099646 0.11199458 0.059821207 -0.43286023 0.019112166 -0.0938424 -0.010257323
0.17224097 -0.09180104 -0.34378448 0.37875804 0.061117385 -0.06147318 -0.032878853 0.13321443
-0.18312167 -0.21171239 0.22101836 -0.13992536 -0.344471 0.0100398995 -0.2485125 0.3084711
-0.057633426 0.042325888 0.1305894 -0.15290858 -0.16248688 -0.24167964 0.061979275 0.15175162
0.119217575 -0.05686641 -0.025398556 -0.48026806 -0.13779101 -0.31034085 0.3339109 0.12078752
0.45485067 -0.19263977 -0.16595717 0.3235239 -0.20131208 0.24022742 0.13996814 0.2326612
0.19512346 -0.06491909 -0.41426146 -0.17715113 0.41258222 -0.28170583 -0.69573146 -0.36571342
0.22984661 0.23176348 -0.03012079 0.46683136 0.13551793 -0.12110831 0.1449284 0.08613904
-0.2807726 -0.38243234 0.21109825 0.3636904 0.18021475 0.14867254 0.010061125 -0.17794436
0.056568757 -0.14285535 0.11869919 0.2169575 -0.10392173 -0.24676083 -0.22896712 0.2087295
-0.067383714 0.33577186 -0.064494826 0.17262888 0.26201198 -0.09697312 -0.36157748 -0.21013582
0.29069632 0.19061567 0.19752286 0.19462486 0.18285649 0.011714244 0.11635893 -0.13332851
-0.3728209 0.39160028 -0.4205583 -0.09980923 0.061349757 0.04198029 0.10201111 0.06788596
-0.4761022 -0.15394263 -0.18931839 0.13557987 -0.12977915 -0.014360071 0.29369485 0.10607157
-0.05430132 0.29535645 -0.03322887 -0.14470862 0.19249578 -0.20223752 0.38539705 0.2657092
-0.10450555 -0.2754714 -0.16872151 -0.26881006 -0.26464483 0.30214754 0.029087538 0.29101977
0.014243066 -0.008974222 0.0035390002 -0.12359969 -0.00030617806 -0.31683108 0.51522547 -0.02127792
-0.21517822 0.24976906 0.47776586 0.17392573 -0.023067435 -0.16867493 -0.20060275 -0.27467996
0.16840711 -0.11965274 -0.16272552 -0.05966131 0.10778121 -0.08797512 -0.35595202 -0.08009237

actor.0.bias f4 [64]
00000000: 7d07 ea3c ad6b 06bd 1380 09bd b13b 8abd
00000010: 9876 c43c ee9c 94bd 17fa e7bd 1cae 16bd
00000020: 73e6 bcbc ff91 493c 9ec2 71bd 556b d9bd
00000030: ace6 88bd 90f3 413d 349f 8d3c 37fc fa3c
00000040: 80a5 89bc 4e00 483d 7f22 ab3d a696 e6bd
00000050: 2c49 3cbd c123 b2bd 56f8 5bbd 3aae 22bd
00000060: 143c 643d 0144 edbd 6f6b 873b e027 75bd
00000070: b445 c1bd 9742 293d edf5 eebc 3a73 c63d
00000080: c0e3 38bd 40b2 15bd 3df9 e9bd c7ea 24bd
00000090: c82e 7b3d dceb dfbd 4e6f 1a3c f455 c83c
000000a0: 5b17 643c a8ad e0bc fdc5 8ebc e389 9a3c
000000b0: 60da ba3c 6fde a8bc 2e76 b03d cb2b 09be
000000c0: 3b8e 3e3d 0544 acbd fab5 b4bd 9d54 de3d
000000d0: b6b4 93bd bd1c 243d 8a82 05bd b2cb be3d
000000e0: 50c4 4bbd 9787 9a3d 9849 3b3c 6aef b5bc
000000f0: aa7f 98bc ee69 57bd 4783 08be 6fb9 9ebd
0.028568024 -0.03281753 -0.033569407 -0.067496665 0.023982331 -0.072564945 -0.11326998 -0.036787137
-0.023059106 0.012302875 -0.059023492 -0.10616175 -0.06684622 0.04735142 0.017287828 0.030637844
-0.01680255 0.048828416 0.08356189 -0.11259203 -0.04596822 -0.08698226 -0.05370363 -0.039716937
0.055721357 -0.11585236 0.00413268 -0.05985248 -0.09437123 0.04132327 -0.02917 0.096899465
-0.045139074 -0.036546946 -0.114244916 -0.040262964 0.06132391 -0.109336585 0.009425951 0.024455048
0.013921584 -0.027426556 -0.017428393 0.018864578 0.022809207 -0.020613877 0.08616291 -0.13395612
0.04652236 -0.08411411 -0.08823772 0.108559825 -0.07212202 0.04006647 -0.032595195 0.093161955
-0.049747765 0.07545393 0.01143112 -0.022208888 -0.018615562 -0.052591257 -0.13331328 -0.077502124

actor.2.weight f4 [5, 64]
00000000: b45f 5f3e ab30 e1bd 9d6a abbe 2300 273d
00000010: dcb9 403e 44fa 803d 6eb5 253b fe0b bdbd
00000020: e956 a23d 96c5 e13c ae78 55be 8475 e8bc
00000030: dd54 86be 9aaf 91be 46fc 653c 7944 343e
00000040: 1d29 cebc cf89 573d b7ac c5be 8166 e53c
00000050: b8c2 a03d 83fa 40bd 93eb 173e 597b be3e
00000060: 846e 05bf 7f0d 9b3d a641 1ebe 1cd8 2b3c
00000070: 8fea ffbc 0cda 88be 0e6b 963e 3bd8 68bd
00000080: 628f 6abe 02e6 07bd 9ea1 4e3e ea14 84bd
00000090: 92cc ab3d f6d4 603e f263 423e 1a52 6dbe
000000a0: 0fe0 85be f5e1 97bd a3f3 afbd 7da9 c1be
000000b0: e414 93be 72d0 f23e 4bd9 d4bd 97ef 9fbe
000000c0: ff5c 3abe e167 293e 2b5c 033e bcb7 f4be
000000d0: 570a cf3e b1b2 00bd 0438 3ebe 0e3d aebe
000000e0: a01b 313d fd64 45be 0831 4fbe 56a7 8dbe
000000f0: 98bb 1a3e a90a 163d d543 f73c 66c2 9cbe
00000100: fc09 0abe 6056 c0be 7547 bdbe b7db 773e
00000110: bba3 b13e 0790 9ebe ffe1 93be 3cd5 b03e
00000120: 4d63 51bc 158e aa3e c49c 4dbe fd2c eabd
00000130: bdc4 7f3d 290a 323e 5ec8 213e c804 d6bd
00000140: 6caa 133e 6f59 853e 7306 31bd 8e98 153f
00000150: e125 8c3d edba 29bf 5041 9fbe 6147 943d
00000160: fcf0 343e a27a 6ebd 06ce 99be f82c 813d
00000170: aba1 e93d 3aa4 7d3e 5c41 c13d a9c2 1bbf
00000180: 170b 72be a536 84be 2caa 8cbe b67d 2dbe
00000190: e8e9 d33d 0417 a7be 7c0f 8d3e b774 813e
000001a0: 07ec aabe 0f23 243e cf70 cc3d 492a b03e
000001b0: 88c4 80bd bc1e 39be 80c7 d03d 8408 733e
000001c0: fc11 e73d 0e67 593d a7ee 89be f2a0 0b3d
000001d0: e865 2f3e 1ad2 d9be 0062 283e 3e3f ad3e
000001e0: ea02 50be 7908 f23d 1be7 36be b965 95be
000001f0: 85dc 4cbf 2b7a 0fbe 912d 123c bf1f 393e
00000200: 6e8c 3b3e f78f 643e 6113 953e 146d 33bd
00000210: 1f79 a73d c35d 04bf 1ca1 30be 9311 e8bd
00000220: 3e1c 27be 41f3 17bf 5662 923d c704 16be
00000230: f715 e6bd 2c37 3d3e 44ba d23e 127f 13be
00000240: 0229 173c a40f 3bbd e800 25be 6c46 14be
00000250: 1796 0ebe e92c 5e3d a9ff 9a3e f2ee 88be
00000260: f404 773d ff48 35be d89e 15be a653 0abf
00000270: 903d e4bd aed7 383e fdca 9e3c 310c 47bd
00000280: 8658 9e3e 1575 34bd 4406 ad3e 1414 bb3d
00000290: 11cd 893e 8722 083f 3425 edbe 42bf 14bf
000002a0: ce95 183e 019a 463e 3322 d13e af64 713d
000002b0: 162c 423c e847 70bd 38e0 9f3e 9a5e 7bbe
000002c0: 545e b63e 40b8 7cbe 9040 85bd 8f55 173d
000002d0: 9e4c 25be df00 613e 3f8a 27be 93a7 113e
000002e0: 3619 76be af81 6e3e b2e7 00be d276 343e
000002f0: 98a2 073f 2125 76be b5fa babe 25c1 21bf
00000300: f4c6 dd3c a9d9 513e 9cc6 663d 424c 17be
00000310: 1e22 a13d f139 86bd 2ff3 b2be 7766 b0bc
00000320: e0a5 4ebe dd61 a2bc 47b9 f23d eb9e 473e
00000330: c6c1 d5bc edee 0cbf 6024 c2bc f1bf 553e
00000340: f632 49be 36af 2c3e 3480 54bd 8387 70bd
00000350: e84c 6b3e 2f62 1fbe 57b0 823e 66e1 783e
00000360: f82b 223e 5aa9 7d3e d618 b53c da3b 73be
00000370: 5b5a 8e3d 449e 4abf 1f0d b7be 41dc 2a3e
00000380: c25c 723e da7d 893e e95f 2e3e 89ad 07bd
00000390: 9e48 203d 7a80 dfbd 8550 203e a9ac 35bd
000003a0: d6ef c23c 6768 a1bd 24e8 2a3e 034a a73d
000003b0: 6f5d 7abe becf d7be faf0 6cbe 1e8f b23e
000003c0: 9bf7 953d 0300 413d 9226 f93e a7cc 3bbd
000003d0: 811e 013e 9b79 27be 71ad b33e b74c 09bd
000003e0: a241 f43e 92c5 353e e4d7 90be 8ecb 47be
000003f0: 0e9a 963e 920c c7bd e484 1bbe 44ca 0cbe
0.21813852 -0.10995611 -0.33479777 0.040771615 0.188209 0.062977344 0.0025285142 -0.09230803
0.07926733 0.027560037 -0.20846817 -0.028376348 -0.2623662 -0.28454286 0.014037197 0.17604245
-0.025166089 0.05262166 -0.38608333 0.02800298 0.0784964 -0.047113907 0.14835958 0.37203482
-0.5212176 0.075709336 -0.1545473 0.010488536 -0.031239776 -0.26728857 0.2937855 -0.05684684
-0.22906259 -0.033178337 0.2017884 -0.064493015 0.08388628 0.21956238 0.18983439 -0.2317585
-0.26147506 -0.07416145 -0.08591392 -0.37824622 -0.28726876 0.47424656 -0.10393008 -0.3123748
-0.18199538 0.16543533 0.12828128 -0.47796428 0.40437576 -0.031420413 -0.18576056 -0.34030956
0.043239236 -0.19276805 -0.20233548 -0.2766673 0.15110624 0.03663126 0.030183712 -0.30617064
-0.13480371 -0.375659 -0.3696858 0.24204908 0.3469523 -0.3096926 -0.2888336 0.34537685
-0.012780023 0.33311525 -0.20079333 -0.11434362 0.062443484 0.17386688 0.1579909 -0.10450131
0.1442048 0.26044795 -0.04321904 0.58435905 0.06843162 -0.6630085 -0.31104517 0.07240177
0.17670053 -0.05822242 -0.30039996 0.06307405 0.11407789 0.24769679 0.094362944 -0.608439
-0.23637043 -0.2582294 -0.2747358 -0.16942486 0.103473485 -0.32634747 0.27550876 0.2528436
-0.333832 0.16028999 0.09982454 0.3440726 -0.06287485 -0.1807813 0.101943016 0.23733717
0.11282727 0.053076796 -0.2693989 0.034089036 0.17128718 -0.42543107 0.16443634 0.33837312
-0.20313612 0.11818022 -0.17861597 -0.2917917 -0.80023986 -0.14011447 0.008921997 0.18078516
0.18315288 0.22320543 0.29116347 -0.043805197 0.08177399 -0.5170557 -0.17248958 -0.11331477
-0.16319367 -0.5935555 0.07147662 -0.1465026 -0.11234658 0.18478078 0.41157734 -0.14403942
0.009226086 -0.045669213 -0.16113627 -0.14479989 -0.13924442 0.05424205 0.30273178 -0.267448
0.060307458 -0.17703627 -0.14611375 -0.5403389 -0.111445546 0.18051025 0.019383902 -0.04859561
0.30926913 -0.04405697 0.33793843 0.09134689 0.26914266 0.53177685 -0.46317446 -0.58104336
0.14900896 0.19394685 0.40846404 0.05893391 0.011851331 -0.058662325 0.31225753 -0.24547806
0.35618842 -0.24679661 -0.06506455 0.03694683 -0.16142508 0.21972989 -0.1636133 0.1422408
-0.24033055 0.23291658 -0.12588385 0.17623451 0.52982473 -0.24037601 -0.365194 -0.6318534
0.027072407 0.20493187 0.056341752 -0.14775184 0.078678355 -0.0655402 -0.3495116 -0.021533234
-0.20180464 -0.019822055 0.11851745 0.19494216 -0.026093375 -0.5505207 -0.023698986 0.20874001
-0.19648346 0.16863713 -0.051880077 -0.058722984 0.22978556 -0.15564798 0.25525162 0.24304733
0.15837085 0.24771634 0.02210657 -0.237533 0.06950828 -0.79147744 -0.35752198 0.16685583
0.23668197 0.2685383 0.17028774 -0.03312448 0.039131753 -0.10913177 0.15655716 -0.044354115
0.023796003 -0.07881241 0.16690117 0.081684135 -0.24449705 -0.42150682 -0.231388 0.34874815
0.073226176 0.04711915 0.4866224 -0.04584947 0.12609293 -0.16354983 0.35093263 -0.033520427
0.47706324 0.17751148 -0.2828971 -0.19511244 0.2941441 -0.097191945 -0.15187413 -0.13749033

actor.2.bias f4 [5]
00000000: 5179 7dbd e84b 243d e470 9c3d 6a79 f3bc
00000010: 1c52 05be
-0.061883274 0.040111452 0.0763872 -0.02972098 -0.13019603

critic.0.weight f4 [64, 4]
00000000: 813a a93a 935c b3bd fa31 cdbd c002 483e
00000010: 3d64 a3bb 7879 693e 3f3d 7f3d 82f7 863d
00000020: db6a 13be 9855 5a3e 1433 d3bc 010b abbc
00000030: fe02 433e 12f5 a0be 1b90 3a3e abb2 4e3c
00000040: 2296 a3bc 8993 75be 671a d23d 2918 b6bd
00000050: f377 88bd 5f39 cf3e 5163 343e f603 943d
00000060: 2747 bfbe 854b c3be 54a0 b7be 4fa5 b4bc
00000070: 0557 40bc 907e 6f3e 8744 473e 9924 6c3d
00000080: 513a ff3d 0f89 e23d 6ada 9f3e fb40 ae3e
00000090: 1e80 0e3e 83e6 023e 7de0 05be afbe 23bd
000000a0: b275 d73d fc55 6b3e be8c 5ebe 2d29 ddbd
000000b0: 541a 833e d6f9 84be 8bc2 95be 731e 4fbe
000000c0: 3e95 743e 1f56 a73e ad4c 343e 43a0 6c3e
000000d0: ab57 4f3e 75fb 0abe 582b 873d d542 523e
000000e0: e615 31bd 5333 623e 89cf 4ebe 3315 eebd
000000f0: 154a 3d3d 9a6f 083e 2d23 3cbe 1c64 b33d
00000100: 7409 f6be 20ce 4dbe 6560 4b3e 4818 86be
00000110: 2f69 093e c581 7e3e 3310 8abd 0a41 c43d
00000120: 2639 333e 3eef 673e 9a6d 553e 455a 9f3e
00000130: a1c0 85be e7ed d1bd a868 ebbd 99fa 2bbe
00000140: fd6e 5a3e 50e4 553e e9bb 80be e42d 863d
00000150: 2282 6dbe 0786 223e 4d66 593a 8789 323d
00000160: 911d 893e ef05 0dbe 1081 f1bd 8f18 4a3d
00000170: 2fe5 8cbe 661a 333e d6df 09be 9b55 0b3e
00000180: 507f c73c d99c 5dbe e3df 38bb f697 853e
00000190: 9fda 473e f2aa 03be bb06 373e 96b3 d8be
000001a0: 2101 313d 5ae5 c23d 4567 ecbd 8a2f f33c
000001b0: 04b9 ea3e 8ac0 eb3e b6ba 8d3e 855a bebd
000001c0: 4f90 413e 5546 0b3e 9226 6a3e aa1a 6b3e
000001d0: f028 41be 79ad 573e 69d5 df3e ead5 7ebe
000001e0: 7f4d 0f3e b7a9 dcbd 0f72 4b3e ff4a 85be
000001f0: 2258 d0bd 1009 1cbe 9a3e bebd 40c3 593c
00000200: f383 75be 9aed 7fbe 87af 1c3e 900d 3cbe
00000210: 5c63 b63c a95a 613e f894 17be 8d03 173e
00000220: 7f08 b7be 5b07 4a3e 1707 bf3d cc79 2b3e
00000230: 6e51 95bc 2fcc 603e d528 0f3d b91d 933e
00000240: a718 243e 2ce4 15be d012 15be 0ac8 243e
00000250: 7f72 9a3e 1a75 ca3b ab06 cc3c 9ba6 07be
00000260: ff0d 97be 5570 9e3d f531 cfbd dc42 bebd
00000270: 57f5 d6bb eb91 dabe 7b38 80be 7054 7a3e
00000280: 49af a73e 53a4 dfbd a4e7 363e 77bf 06be
00000290: 6aae b63e 480b 893e 9c13 0e3e 1f5a 423e
000002a0: dd6d 953e 2f0d 13be 3d51 c43d acac 8dbd
000002b0: 3d37 8dbd 9361 91be 4522 093e c77e 04bd
000002c0: 7778 23bc 008f 883e e55c b9bd 81ff 3f3e
000002d0: b94d 283e 106f cebd 8bf6 61be b547 1bbe
000002e0: 53a1 5abe 1eed 9abe 158b fe3e fffc 58be
000002f0: 701c 073e 4c21 bdbe 3cea 0fbd 26a0 8ebc
00000300: 54b4 eabd 5ffd 93bd f504 3b3e 6e2a a73e
00000310: bba3 a63e 3a5a 40bd 9dab 8dbd bb32 7dbe
00000320: e7b1 2fbc 508b 8ebe 9bae 9b3e f2cb ea3e
00000330: 7510 46ba b0fe 3fbe 507a 323e b9bc 88be
00000340: 1256 16be b429 2bbf ed84 213d cd43 183e
00000350: 74b3 b0be 9b6c f1be a7c2 4abe fcb6 783c
00000360: e21a 04be dc4e e03c c3b6 a13e e01b 40be
00000370: fa30 1c3e 624d bf3d 3e11 14be b692 5d3e
00000380: 2595 f83d a564 bf3d da9f 9e3e 25b6 14be
00000390: 50d9 a83d f54f 4fbe 0f68 2abc b424 10be
000003a0: dca9 d13e ed60 8c3c c9df 2ebe e76d 5bbe
000003b0: 24a3 383e 33ad 04be 676a 9f3d 5edd 99bd
000003c0: 374e c3bd da33 f6bc 4b7d 753d 754a 6a3e
000003d0: bcf9 163e 5cbf f3bd 6a84 693e e2fe 02bf
000003e0: 550f 183b e678 5a3e 3698 fe3d dc1f 263c
000003f0: 141d 8abe b65d b43e 7d73 b23e 28eb 08be
0.0012911112 -0.087578915 -0.10019298 0.19532299 -0.0049863146 0.22800243 0.06231427 0.06590177
-0.14396231 0.21321714 -0.025781192 -0.02087927 0.1904411 -0.31436974 0.18219034 0.01261584
-0.01996905 -0.23982061 0.10258942 -0.08891327 -0.066635035 0.40473458 0.17616011 0.07227318
-0.37358972 -0.38143554 -0.35864508 -0.022051482 -0.011739497 0.23388124 0.19459735 0.05765209
0.12462295 0.11061298 0.31221324 0.3403395 0.1391606 0.12783246 -0.13073917 -0.039976772
0.105204955 0.22982019 -0.21733376 -0.10798869 0.25606024 -0.2597186 -0.29249987 -0.20226459
0.23885056 0.32682893 0.17607374 0.2310801 0.20248286 -0.13572486 0.06600064 0.20533307
-0.043233775 0.22089891 -0.20196356 -0.11625137 0.04621323 0.13323823 -0.18372793 0.08759329
-0.48054087 -0.20098162 0.1986099 -0.261904 0.1341903 0.2485419 -0.06741371 0.09582718
0.17502269 0.22649857 0.20842591 0.31123558 -0.26123527 -0.102504544 -0.11494571 -0.16794814
0.21331401 0.20887876 -0.25143364 0.06551722 -0.23194173 0.1587144 0.0008293137 0.043588188
0.2678037 -0.13771795 -0.11792195 0.049339827 -0.27518603 0.17490539 -0.13464293 0.13606875
0.0243527 -0.21641864 -0.0028209619 0.260925 0.19516991 -0.12858179 0.17873661 -0.42324513
0.043213967 0.095164016 -0.115431346 0.029685754 0.4584428 0.46045333 0.27681512 -0.09294609
0.18902706 0.13601048 0.22866276 0.2295939 -0.18863273 0.21062268 0.43717507 -0.24886289
0.13994406 -0.10774558 0.19867729 -0.2603378 -0.1017306 -0.15237832 -0.09289284 0.01329118
-0.23976116 -0.24992982 0.15301333 -0.18364549 0.022264175 0.2200724 -0.14802921 0.14747448
-0.3574867 0.19729368 0.09327524 0.1674568 -0.018227305 0.2195289 0.03495105 0.28733614
0.16025029 -0.14637822 -0.14557958 0.16091934 0.3016548 0.0061785104 0.024905523 -0.13247149
-0.29502866 0.077362694 -0.101169504 -0.09290096 -0.0065600085 -0.42689452 -0.2504309 0.24446273
0.3275092 -0.10920014 0.17861801 -0.13158976 0.35679942 0.2676642 0.13874668 0.18979691
0.29185382 -0.14360498 0.095858075 -0.069177 -0.068953015 -0.28394756 0.13391979 -0.032347467
-0.0099774515 0.266716 -0.09050921 0.18749811 0.16435899 -0.10079777 -0.22066705 -0.15164073
-0.21350603 -0.3025903 0.49715486 -0.2119026 0.13194442 -0.36939466 -0.035135493 -0.01741035
-0.11460176 -0.07226061 0.1826361 0.3264956 0.3254679 -0.046961047 -0.06917498 -0.24726383
-0.010723568 -0.27840662 0.3040665 0.45858723 -0.0007555553 -0.187495 0.17429471 -0.26706484
-0.1468127 -0.6686051 0.03943341 0.14869614 -0.34511912 -0.47153172 -0.19800816 0.015180346
-0.1290088 0.027381353 0.3158475 -0.18760633 0.15253058 0.093409315 -0.14459702 0.21637997
0.12137822 0.09345368 0.30981332 -0.14522608 0.08244574 -0.20245345 -0.010400786 -0.14076501
0.40949905 0.017136062 -0.17077555 -0.21428643 0.18030983 -0.12956695 0.077839665 -0.075129256
-0.09536403 -0.030054022 0.05993394 0.22879966 0.14743704 -0.11901733 0.22804418 -0.5117017
0.0023202498 0.21335182 0.12431376 0.010139432 -0.2697531 0.35227746 0.34853736 -0.13370955

critic.0.bias f4 [64]
00000000: 1a82 aebb 64f3 6d3c 8d58 173d 4a55 41bd
00000010: bc3c 04bd b5b9 933e 8472 82bd 82b6 8c3c
00000020: 6a9a 12bd eeb7 e03b 69bb 6f3d 051d 1dbc
00000030: 6f83 1d3d f7e4 c7bc 4ef3 8b3d e9f1 fc3c
00000040: cfc4 80bd 45f6 2d3d 83c4 173d c193 75bd
00000050: 48d9 be3b ef6f a0bb 7eb0 9d3c f85f dfba
00000060: c55a 4cbd 69cf 2fbc 4ebf bb3d d66c 9f3d
00000070: b747 0b3d 0f4f a63a 148f 59bc b109 5a3c
00000080: a688 bd3b 564c afba b44b 50bc ab21 fa3c
00000090: 7bcb 9cbc 33d7 203d d568 e9bc 5869 e0bc
000000a0: afd2 69bc 05f9 c2bb 976a 543d 7901 04bd
000000b0: e566 6b3e 6b44 c63c 363b 37bb 7e26 2ebd
000000c0: faf8 f6bc cdbf 863c 4b11 08bd 7059 10bd
000000d0: 66d4 77bd 24c9 88bd 99ff dabc 4a69 343d
000000e0: 077e 57bb 8fd1 a7bb f17c 96ba 9977 b1bb
000000f0: 4dbd 39bc 417f 843c b3fa aa3b 1d27 1d3c
-0.005325568 0.014523361 0.036949683 -0.04720048 -0.032284483 0.2885262 -0.06369498 0.01717687
-0.035791792 0.0068578636 0.058528338 -0.009589438 0.038455423 -0.024401171 0.06833516 0.03087707
-0.06287538 0.04247119 0.037052643 -0.059955362 0.005824242 -0.004896156 0.019249197 -0.0017042151
-0.049891252 -0.010730603 0.09167348 0.07784431 0.03400394 0.0012688356 -0.013278741 0.013307975
0.005784112 -0.001337419 -0.0127133615 0.030533632 -0.019139996 0.03926773 -0.02849237 -0.027393982
-0.014271422 -0.0059500956 0.051859464 -0.032227967 0.2298847 0.024202546 -0.0027958876 -0.042517178
-0.030148018 0.01644888 -0.033219617 -0.035241544 -0.060505293 -0.066789895 -0.026733207 0.044045724
-0.0032881515 -0.005121417 -0.0011481327 -0.0054158685 -0.011336637 0.01617396 0.005217874 0.009591845

critic.2.weight f4 [1, 64]
00000000: c0bc 2cbe 6de9 dcbd 62f2 08bd 369a 603d
00000010: caa1 15be 4300 f43e fdab cf3e f2d3 c2bd
00000020: f73e ca3d fb0d cfbe 2f1f f7bc 685a 893d
00000030: d9c3 2ebe f997 7dbe d43c af3e 1d21 bd3d
00000040: 2f04 d73e 4743 11bd 8855 fbbd b333 223a
00000050: e4f7 95be 2483 b7bd e7e5 c73d ae0b 9fbe
00000060: 37ea 123d 8219 3e3e bd49 a03e 326c 78bc
00000070: 86e6 68be 7ca8 82be 7940 8b3e 2b46 b8be
00000080: 181e bebd 038c 6f3e 7028 3abe 74cc 34be
00000090: 7073 263e 76fb 62bd 0546 bd3e eeab 4e3e
000000a0: 10d2 c33e f45e 3b3d 1d24 ffbc 9251 4e3d
000000b0: 6a5c c53d a651 3dbe 816e 0a3e 94c2 3abd
000000c0: aea4 f23d b16d 1a3e 804c dd3d 60f2 9d3d
000000d0: 611f dc3c 6e23 aa3c 4e9d b03d 101c 2cbd
000000e0: 577e 5a3e dc25 8bbe 1350 c03e 4e17 b83e
000000f0: 4e0c 25be 7c43 63be a585 54be b94f 853e
-0.16868877 -0.1078671 -0.03343428 0.054834567 -0.14612499 0.4765645 0.40560904 -0.095130816
0.09875291 -0.40440354 -0.030166237 0.06706697 -0.17066897 -0.24765004 0.34226096 0.092348315
0.4199538 -0.03546455 -0.12272173 0.00061875134 -0.29290688 -0.0896056 0.09760647 -0.31063598
0.035867896 0.18564418 0.31306258 -0.0151625145 -0.22744188 -0.25519168 0.27197626 -0.35991034
-0.09283084 0.23393254 -0.18179488 -0.17656118 0.16254973 -0.055415593 0.36967483 0.20182773
0.38246202 0.04574485 -0.03114515 0.05037076 0.09636767 -0.18488178 0.13518716 -0.04559572
0.118478164 0.15080906 0.10805607 0.07712245 0.026870431 0.020768847 0.086237535 -0.04201895
0.21337257 -0.27177322 0.37561092 0.3595528 -0.16117975 -0.22193712 -0.20754106 0.26037386

actor.0.weight f4 [64, 4]
00000000: 5607 0b3e fdaa e8b9 d289 ef3b 5216 31bd
00000010: 9a93 b2bd ce9f b4be 6e20 9e3e 22b1 9fbe
00000020: 4b7d d5bd eae6 0f3e 3a10 f6bd 7583 c2be
00000030: dd25 e83d 077b f7bd 8714 903e 545d 03be
00000040: ea9e 1a3d 08ad 533e a461 16bf 4442 5dbc
00000050: 4655 ccbc 6a0b 023f 1dab 82be 2c56 c73c
00000060: 0e19 5d3e 1571 d23d 4081 ebbc 53d6 5b3e
00000070: 517b 57be 673e 01be 43d3 f23d c809 b9bd
00000080: e5f0 113e 78de a0bc bfd3 853e 1fa6 1abe
00000090: d4db ce3e b211 d2be d26b 43bf 9d5e 9fbe
000000a0: e6b1 b3bd 90df aa3d 622e 90bd f691 4cbe
000000b0: 1d2e b03d 6e26 973e 4ca9 2c3e 73c2 8f3e
000000c0: 8d57 523c 2974 a7bd 680d 623e e992 9bbb
000000d0: a421 993d 64b6 17be cdb5 fe3d 6f92 013f
000000e0: 8b31 e1bd f3f7 073e dab9 5dbe 0cc8 583e
000000f0: 9410 8abd 0721 573d 7fb0 e33e 9e04 f63c
00000100: 4f9d a63e 1f13 b23e 4416 8a3c 1233 a3be
00000110: c937 c13d cc1f 1ebe 50f0 75bf e989 d1bc
00000120: abb7 40be 107c 513e 2580 dbbd b316 6cbe
00000130: 75e5 a2b9 6f82 063f 857d f4bc 41c8 f7bd
00000140: 0170 48be 7dc9 fa3d 06b6 a7bd 69b0 0fbe
00000150: 4f88 0a3e 4b72 37be 2710 78bd 70a6 063f
00000160: f14a 003e 44fd c03e 0125 69bf 8d22 a3bd
00000170: 969e 5a3d 3f2d 893c ce85 ef3e 2d36 d63c
00000180: 6858 963e f4d0 863e 1d99 0abd a74e f7bc
00000190: 1638 c8bd 75a4 8bba 22c0 34be 2580 a13d
000001a0: bca2 733d fe09 fcbd bb0d 4c3f 97eb c3bd
000001b0: 0ae5 353e 0dc2 f6bd 5a9f 2a3e 4043 27be
000001c0: 8af2 f83d b8c4 2dbe 07b3 4dbf d75f 89bd
000001d0: fe35 1d3e 0d65 eebd c3d8 1dbe 27b6 a4be
000001e0: ea5a 90be b2c4 343d 8c10 c43d 588d 46be
000001f0: 3ebc 5cbc 671f 18bc 626e febd 689d 083e
00000200: 3f0b 763d 40b5 a63e 9c81 51bd d3dd 8abc
00000210: f7b0 49bd 3d3e b2be 5803 4e3e cfea 4d3d
00000220: 4321 b4bc 042b cabe c20d 993e eaae d03c
00000230: 8649 8e3a 60e9 713d 03de 45bf 280d 283d
00000240: 6e34 07be b129 c2be 25a7 d03d 30d6 16bd
00000250: 0f7c db3d 5a2b d4bd 4258 0f3e 9588 b0be
00000260: 3259 c73e a09d 87bd c6e1 483e 5b35 4b3c
00000270: 433c a4be 56d4 57bd 680b 293e f672 53be
00000280: 2d3e 083f 52bd b9bd f82e 563c 413b d93e
00000290: d8d2 523e fd13 b2bd d6ee 9b3e 87bd 953e
000002a0: 1fab 0ebd 7e66 3abc 54cf 6cbe 7fec 0e3f
000002b0: 88c6 dd3d 14a3 523d 02e9 ea3e f5ac eebd
000002c0: a80f 1b3f 1bdd 423d 132f 283e c4db adbd
000002d0: 1d9d 913e 3822 2f3e 4f9d f83c e373 4d3d
000002e0: afd6 123e f165 16bd 08a6 d1bd 9d07 0cbf
000002f0: 2950 f0bd ec81 0e3e fd67 00be c99e ccbe
00000300: 39b8 e03e 81fe ef3d a183 ae3e 8124 02be
00000310: a10f 97be 2f8e 783e 4892 d93e d365 823e
00000320: e181 48be 6d95 a9be 3f3d 9e3e ae07 2f3e
00000330: e4c5 71be e28d 0d3e 8afc 83bd 17aa 8f3e
00000340: 80cd 7f3e 1f63 ce3d 54c8 1ebf a3e2 4bbe
00000350: a606 9abd 2f65 073e cd1c 133d b3aa 39bf
00000360: 3dc0 bebe 8ca9 bfbd 0f78 2cbe 3497 f5bc
00000370: f42d d5bd a210 093e 308c 8f3e 502f 633d
00000380: 42ea 0d3d 76ff 383d c010 1cbe 0a8d d13d
00000390: 610a 223d e29b 3f3e fff4 033d f541 923e
000003a0: 7032 13be 42e4 3b3e 4537 7d3e d072 a9be
000003b0: dfe8 90be 00fe a63d 5568 7c3d 66ad 9fbe
000003c0: e476 3abe dd14 293e 290b 7b3e c13a 5fbd
000003d0: 129c 903e 653a f83e 48c4 debe ed0d ff3e
000003e0: 5170 33be f46c 40be 7343 c03e ca43 083e
000003f0: 773e 3c3d 179c 74be 4982 8b3d 1118 873e
0.13577017 -0.00044377884 0.0073101306 -0.043234177 -0.08719559 -0.3527817 0.30884117 -0.3118983
-0.10424288 0.1405293 -0.12014814 -0.3799092 0.11335347 -0.120840125 0.2814066 -0.1282857
0.03774921 0.20671475 -0.5874274 -0.0135045685 -0.024943005 0.50798666 -0.25521174 0.024333082
0.21591589 0.10275475 -0.028748155 0.21468477 -0.21043135 -0.12621461 0.11856701 -0.09035069
0.1425205 -0.019637331 0.26138112 -0.15102433 0.4040209 -0.41029125 -0.76336396 -0.31126872
-0.08774166 0.083434224 -0.07040097 -0.19977555 0.086025454 0.29521507 0.16861457 0.2807804
0.012838257 -0.08176453 0.22075427 -0.0047477377 0.074771196 -0.1481567 0.124370195 0.50614065
-0.10995778 0.13278179 -0.21652928 0.21170062 -0.06741443 0.05252173 0.44470593 0.030031499
0.32541892 0.34780213 0.01685632 -0.318749 0.09434468 -0.15441817 -0.9606981 -0.025578456
-0.18820064 0.20457482 -0.10717801 -0.23055534 -0.00031070007 0.52542776 -0.029845009 -0.12098742
-0.19573976 0.12245462 -0.08189015 -0.14032139 0.1352856 -0.17914693 -0.06056228 0.52597713
0.12528588 0.37693226 -0.9107209 -0.079655744 0.053373896 0.016745208 0.46781772 0.02614888
0.29364324 0.26331294 -0.033837426 -0.030188872 -0.097763225 -0.001065387 -0.17651418 0.0788577
0.059481367 -0.12306593 0.7970845 -0.095664196 0.17763153 -0.12048731 0.1666235 -0.16334248
0.12155636 -0.16969573 -0.803513 -0.06707733 0.15352628 -0.11640368 -0.1541472 -0.3217022
-0.28194362 0.044132896 0.095734686 -0.19389856 -0.013472615 -0.009284831 -0.124233976 0.13341296
0.06006932 0.32560158 -0.051148996 -0.016951477 -0.049241032 -0.3481311 0.20118463 0.05027276
-0.021988517 -0.39485943 0.2989331 0.02547403 0.0010855652 0.059060454 -0.7729189 0.04102817
-0.13203594 -0.37922433 0.1018813 -0.03682536 0.10717022 -0.10359831 0.13998511 -0.34479204
0.38935238 -0.066218615 0.19617376 0.012402858 -0.32077226 -0.052692734 0.16508257 -0.20649323
0.5321987 -0.09069313 0.013072722 0.4242802 0.20588243 -0.08695219 0.30455655 0.2924616
-0.034831163 -0.011376975 -0.23125964 0.55829614 0.108288825 0.051425055 0.45880896 -0.11654083
0.60570765 0.047574144 0.16424207 -0.084891826 0.2844018 0.17102897 0.030348448 0.050159346
0.14339708 -0.036718313 -0.10236746 -0.54699117 -0.11734039 0.13916749 -0.12539668 -0.39964893
0.4389055 0.11718465 0.340848 -0.12709238 -0.2950411 0.24272989 0.42494416 0.2546831
-0.19580795 -0.33121815 0.30906102 0.17092773 -0.23610646 0.13823655 -0.064446524 0.28059456
0.24980736 0.100774996 -0.62024426 -0.19910674 -0.07520799 0.13222192 0.03591614 -0.7252609
-0.3725604 -0.093585104 -0.16842674 -0.029979326 -0.104091555 0.13385251 0.28036642 0.055465043
0.034647234 0.0451655 -0.15240765 0.10231979 0.03956068 0.18711808 0.03221607 0.28565946
-0.14374709 0.18348792 0.24728115 -0.33095407 -0.28302667 0.081539154 0.061622936 -0.3118698
-0.18209416 0.16511865 0.24515976 -0.05449939 0.28244072 0.48482051 -0.43509126 0.49815312
-0.17523314 -0.18791562 0.3755146 0.1330711 0.04595801 -0.23887669 0.06811959 0.2638555

actor.0.bias f4 [64]
00000000: 8214 aebb 057f e5bc 9390 8cbc 95cb d43d
00000010: 8110 0f3d 4f77 c23b 8a93 7a3d 28d6 b6bc
00000020: bd83 a339 e4a2 24be 3bad 5bbd 70b6 89bc
00000030: 82a4 1d3d 5f3f eabc 58c3 16bd 6698 2b3d
00000040: 3386 b2bd e49c 8dba ff85 babc 2128 72bb
00000050: a90c 6cbd 0863 083d fddd 883d a217 28bd
00000060: 0764 e23c 3108 90bb 126f e5bc 36b9 c23d
00000070: 7b8b 9e3d 53ec 97bd 8cce 2cbd b497 a03d
00000080: 27cf f4bd e882 463d 1c8b 60bd 1318 9d3c
00000090: 9c20 babc 11a8 03bd 689b d7bb 4c34 b5bc
000000a0: 2d13 1ebc 10d0 543d 27d1 c23d 6d67 1b3c
000000b0: 5174 df3b 9be9 843d ad47 b1bc 912b 2c3c
000000c0: eff4 083d bc5b 0c3d 290a 453d 89c9 86bd
000000d0: bdb5 a7bd 0495 a5bd cd6c 7bbd d9b8 993d
000000e0: 1b1e fe3d fac1 8f3d f919 fabb 870c aabc
000000f0: 5127 6abd 35d6 163d bde2 d53d 348f af3b
-0.0053125033 -0.02801467 -0.017158782 0.10390393 0.03492785 0.005934633 0.06117586 -0.022318915
0.00031187935 -0.16077763 -0.053632002 -0.016810626 0.038486965 -0.02859467 -0.036807388 0.041893385
-0.08717003 -0.0010804203 -0.022768972 -0.0036950188 -0.05762926 0.03329757 0.06682966 -0.041038163
0.027635587 -0.0043955077 -0.028007064 0.095079824 0.077414475 -0.07418122 -0.042189166 0.07841435
-0.11953574 0.048464686 -0.054820165 0.019176519 -0.022720627 -0.032142702 -0.006579805 -0.022119664
-0.009648127 0.051956236 0.09512549 0.009485108 0.006819286 0.06489869 -0.021640623 0.010508434
0.033436712 0.034267172 0.048105393 -0.065814085 -0.08188961 -0.08085063 -0.061383057 0.0750596
0.12408086 0.0701942 -0.0076324907 -0.020757927 -0.0571664 0.036825377 0.104436375 0.0053576473

actor.2.weight f4 [5, 64]
00000000: c113 1dbd 76e0 143d 1b69 aabe 3d2c a2bd
00000010: 6ddb b83e 2810 103f 161e 103e cceb ddbd
00000020: 29c8 663d 1fa7 fc3d 242c 5dbd 21f9 0fbe
00000030: 276d 2dbe 79b9 b33e d00b 953e 198f e9bd
00000040: 3062 083f 5ab5 b23e b72a d4be e5e8 b03e
00000050: 249f 85be 5fba 723e 2526 f83e 15ad 6dbe
00000060: 158c 213e c6e1 4bbe 4432 b8be 8137 35bd
00000070: 9911 a53e 4b19 cbbd 25fd 8bbc b83c ac3e
00000080: b8d9 f9bd fa30 d7be f6a5 2ebf cdf7 783e
00000090: 21a7 33bd ff13 d3bd 0165 133e 9e37 3a3d
000000a0: 2ad3 a93e ba5c 8b3d ec7c d53e 7ae8 51be
000000b0: 6558 063e f676 79bd b358 a1bb 889e 98be
000000c0: 0115 71be 1471 44be 2cff d9be 79c0 59be
000000d0: a387 fd3d 958e 98be 2549 253d 6d2b 91be
000000e0: 1f06 f73d f743 af3b 878b a4bd 3519 b2bd
000000f0: fd1c b1be 6f48 93bd 1d3e 31bf 343e 013d
00000100: 006a 45be 6a0d 5c3e 99b9 3e3d bb5b 58be
00000110: bc4a c03d 267e 58be 3bc0 853e 43b1 d73e
00000120: dfd4 113f 62e2 10be 353d 44bd 2e1e 3abc
00000130: 8e3b dabd 71e8 99bc c22a 4f3d 561d c83d
00000140: c96c 50be 0d56 993d d27e f13d c01c 03be
00000150: 1f34 cf3c c56f babe c106 e3bb c482 20bc
00000160: a9a6 0f3e 80ab 983e 1bd0 febe 9ebe 983e
00000170: e527 25bc 037f 213e 3397 7f3c d118 a6bd
00000180: 2eca 2c3e 9dba 05bd c6db 0fbe 30a3 bcbe
00000190: 7f44 6f3e 04ea b83e 5ee2 c6be 24b2 3e3e
000001a0: 7cea 2ebe fbcc 7a3d deaf 9e3d 3e6b 83be
000001b0: cf2e 923e 7ece 493c 7616 78be 6a30 b63d
000001c0: 0efa 9dbe 6b77 a1bd 5a60 273e b0c4 313e
000001d0: 4584 f8bd f9bd 2b3d d419 9fbd 8be7 6ebe
000001e0: bb47 a8be 457c cb3c a426 4ebe ac2b 95be
000001f0: 04eb 923e 67bb 8bbe 1a3a b73d f499 22be
00000200: 3354 39be fdd7 6f3e d7f4 9f3e 2d79 c03e
00000210: bc32 15be c273 5c3d 6360 8e3d 17c8 ffbc
00000220: ae49 473e 73a6 1f3e ebcd ec3d 6cc4 94be
00000230: 2f4a 9dbc bbc2 07bf 46c7 d7be b3d6 8f3e
00000240: d1df c63c d86f 5e3d 04c3 163e fcee 623d
00000250: 8311 f8bd 99fc 00bf aded e23d bcf1 8abc
00000260: 62cf 4e3e 67f0 0cbf 949c 313e db95 d53e
00000270: 6ff0 9fbe 44ad 7e3e d95b 603d 0677 39be
00000280: ef7f d13e af0c 6cbe 1034 da3d 686d 6c3e
00000290: 1e08 6c3d b420 c23d 45a1 28bc 2a89 90be
000002a0: f365 43bb d94c 65be 60f3 93be 94c2 e0bd
000002b0: 4a0f f0bd 272e 8fbc a5ce a73d 31b4 4f3e
000002c0: 6425 a1bd 37b3 02be 02c5 86bd 1246 1b3d
000002d0: b066 b7bd e486 923d 36fb 893e 7769 d63c
000002e0: c547 2fbe 2f8f b93d 0e45 e93e 8b28 003e
000002f0: d079 13be 163b 93be f086 08bf cbb8 75be
00000300: c46b 763b bbac 19bd d79b b33e 8638 073f
00000310: 6001 b2be 0964 51bd e9d3 b03e 202a 14be
00000320: 5091 ed3d c78b 08bf e7ff 28bb 53f4 c9bd
00000330: aade 7a3e 2c80 0d3e 5e88 dfbc e7f5 c13e
00000340: 48db 8cbe 9079 29be e665 4a3e 779e 64be
00000350: de64 5dbe cfd8 afbe 4aaf 3ebe f9bd 803e
00000360: 7123 eb3d 520e 89be d2ff ee3e dca2 8b3d
00000370: 0024 b2be 0b61 78be 40ed 96be 7a25 5e3b
00000380: cb2e 92be df80 9a3e 3e98 853e 98d4 c3be
00000390: 341c c73c fd5f b6bb a7a1 233e 491b 84bd
000003a0: 3c99 b63e 505e fa3e 7a09 9cbc 4059 223c
000003b0: 3ad5 703d f734 943e 0835 db3d adc9 99be
000003c0: b0b4 4ebd a701 dd3e 76ff 1e3e 8a1a debd
000003d0: 5097 13bf 23d3 c0bd e435 32bf f969 813e
000003e0: 98cc bd3d 8475 8c3e 1291 793e 0289 aabe
000003f0: 6246 863e 9f31 333e c3f8 4fbd ac9b 9e3e
-0.038348917 0.036346875 -0.33283314 -0.07918594 0.3610491 0.5627465 0.14073977 -0.1083599
0.05634323 0.12336563 -0.053997174 -0.14059879 -0.1693617 0.35102442 0.29110575 -0.11404247
0.5327482 0.34903985 -0.4143884 0.34552684 -0.26097977 0.23703907 0.48466602 -0.23210557
0.15776093 -0.19910344 -0.3597585 -0.044242386 0.32239988 -0.099169336 -0.017088482 0.33640075
-0.1219973 -0.42029554 -0.68221986 0.24313278 -0.04386056 -0.10306548 0.14393999 0.045463197
0.33168918 0.068047956 0.4169687 -0.20498839 0.13119657 -0.060904466 -0.004923904 -0.2980845
-0.23543169 -0.19183761 -0.42577493 -0.21264829 0.12379386 -0.2979628 0.04035296 -0.28353444
0.120617144 0.005348678 -0.08034425 -0.08696214 -0.3459243 -0.0719155 -0.692354 0.031553462
-0.19278717 0.21489492 0.04656372 -0.21128742 0.093892545 -0.21141872 0.26123223 0.42127427
0.5696544 -0.14148858 -0.047909934 -0.011359734 -0.106558904 -0.018787595 0.050577886 0.097712204
-0.20353998 0.07487116 0.11791767 -0.12803936 0.025293408 -0.36413398 -0.0069282954 -0.009796802
0.1402842 0.29818344 -0.49768147 0.2983293 -0.010080312 0.15771107 0.015600014 -0.08110202
0.16874 -0.03264867 -0.1404868 -0.36843252 0.23365973 0.3611604 -0.3884458 0.18622643
-0.17081636 0.06123064 0.07748388 -0.25667757 0.28551337 0.012317298 -0.24227318 0.08895953
-0.3085484 -0.07884105 0.16345349 0.17360187 -0.121346034 0.04192922 -0.07768598 -0.23330514
-0.32867226 0.02483953 -0.20131928 -0.29134881 0.28694928 -0.27291414 0.08946629 -0.15879041
-0.18098526 0.23422237 0.31241485 0.3759245 -0.14570135 0.053821333 0.06951978 -0.03122334
0.194617 0.15590839 0.11562713 -0.29056108 -0.019200413 -0.5303151 -0.4214422 0.2809349
0.024276646 0.05430588 0.1472283 0.055403695 -0.12112715 -0.50385433 0.11080489 -0.016960971
0.20196298 -0.55054325 0.17344886 0.41715893 -0.31238124 0.24870783 0.054775093 -0.1811181
0.40917918 -0.23051713 0.106544614 0.2308861 0.05762493 0.09478894 -0.010292356 -0.28229648
-0.0029815405 -0.22392596 -0.28896618 -0.10974613 -0.11721666 -0.017478062 0.08193711 0.20283581
-0.0786846 -0.12763678 -0.06580545 0.03790862 -0.08955133 0.071546346 0.2694947 0.026173336
-0.17117222 0.09060513 0.45560497 0.12515466 -0.14401937 -0.28756016 -0.533309 -0.23996274
0.0037600854 -0.037518244 0.35079834 0.5282062 -0.34766674 -0.05112079 0.34536675 -0.14469194
0.11599982 -0.53338283 -0.0025787295 -0.09861054 0.24499002 0.13818425 -0.027286705 0.3788292
-0.27511048 -0.16550279 0.19765434 -0.22326075 -0.21620509 -0.343451 -0.18621555 0.25144938
0.11481369 -0.26768738 0.4667955 0.06818172 -0.3479309 -0.24255769 -0.29477882 0.003389685
-0.28551325 0.30176446 0.26092714 -0.38248134 0.02430544 -0.005565642 0.15979634 -0.06450517
0.35663784 0.4890008 -0.019047488 0.009908974 0.0587971 0.2894666 0.10703474 -0.3003668
-0.050465286 0.43165323 0.15527138 -0.10844906 -0.5765276 -0.09415271 -0.6961348 0.25276163
0.09267539 0.27433407 0.24371746 -0.33307654 0.26225573 0.17499398 -0.050774347 0.30978143

actor.2.bias f4 [5]
00000000: ba5e 363c 6c36 59bd f0bc 4f3d 8460 bc3d
00000010: 725c 04be
0.011130983 -0.053030416 0.050717294 0.091980964 -0.1292589

critic.0.weight f4 [64, 4]
00000000: 058e dc3e affc 083d d989 0b3e 8a31 c43d
00000010: ea38 d9bd 9e95 aebe 7481 49be b933 5d3e
00000020: 563f 18bd da7b 9f3d 5b64 64be 13b2 dc3e
00000030: 09b0 9ebd a7fd f93d 7200 263f 977d e6bb
00000040: 6756 d23c 6d8b 233e 74fd cd3b fc75 8abb
00000050: a0cc 153e d900 9e3d 40d2 673c 0254 143e
00000060: c927 85be 0507 cdbe 2532 bebe eaa5 33bd
00000070: 5519 f8bd ff16 cdbe 9417 3cbd 9199 40be
00000080: 2a9e cc3e ff6a de3d 9e51 8bbe 6d17 903d
00000090: 7e0a 21be d691 593d b2fc b63d 941e c43d
000000a0: 13f8 9bbd 4513 0e3d eec4 353d abe2 e3bd
000000b0: 7c62 08bf fbb7 b2bc 954e 293e a481 26be
000000c0: a3d2 423e a480 493e b11a 45ba 3d56 0dbe
000000d0: 70d6 7bbe b6cd 423d 19b1 4b3e d304 f83e
000000e0: b492 803e c5f9 973e 2377 09be 7538 293e
000000f0: 7149 8bbc 5eee 463e 7c24 403c 3801 f1be
00000100: f136 9b3d 4c4c 88be 87f2 e9bd 9560 ba3c
00000110: 61e0 babd 192f 4139 97f8 923e c247 bebe
00000120: f212 863e 5ff6 af3e 8c7c 06bf 8856 b5bd
00000130: c912 293e cedd f53d 8729 093d 900c e7b9
00000140: 9561 85be 4fa4 0abd 581a c5be df06 7d3e
00000150: 87f5 e83a 8c37 713e 5d85 143e 7590 863c
00000160: fc75 653d 1500 043e 493f d6bd da6e 383c
00000170: 2075 e2bc 5b67 933e 5306 083e 2c4a 19be
00000180: 487e de3d 2cad 5e3d 8427 0b3e 1f4e 3e3e
00000190: 4545 b83d dcb3 2abe d1d9 c63d 2c57 9dbe
000001a0: 2ed7 7cbc e482 96be f32e 64be 989f aeba
000001b0: aab5 70be 3c4b d03d a1ba b83d cb2a b4bb
000001c0: d8fe 31bf 82f5 863e d59b aabd 11ce ccbd
000001d0: 66e8 b9bd 1ef3 65be 0e14 4c3e 272c 4dbe
000001e0: 5fc0 19bc cc0a 213f df74 23bd 2d8a 81be
000001f0: 2de7 3ebd 0e27 4b3e d044 d33d d656 fa3e
00000200: 9ee8 6c3d cfe0 c6bd cff1 eebc f584 d63d
00000210: 02a6 8ebd 9d60 a3bd 75ff 7c3e fc77 30be
00000220: 9faa 473e c516 a23d c539 e13d 05dd 36bd
00000230: 2be9 a7be 553f 933e 1bba 903d 8950 343c
00000240: cf28 12be 14d1 243e a875 f73c 500f cc3d
00000250: d9d0 da3e 78b1 733e 264a 0dbe 46da b23d
00000260: 356d e23e 3498 ec3e 4dd9 943d 5c53 49bd
00000270: e22d 063f 0f13 263e 353d 003e 914c 3a3d
00000280: e0eb 5f3d 4ce7 593d d503 7e3b 198e cfbd
00000290: 78cf 33be ecb6 24be 5382 8fbe df91 30be
000002a0: 3e33 463d e64d 8a3e 5cb8 d4bd 7fb6 fd3d
000002b0: a860 b83e e44c 8d3e 2bcc 7c3e 376e f43d
000002c0: fec0 003e 02e7 2bbe 6b12 da3c 0fb5 6fbe
000002d0: 5320 b83d aec1 63be bb74 8abc 95af 523e
000002e0: fecf bcbe 24a7 40be 5ab0 c13d a1c0 513e
000002f0: c9cf dbbd 23ec 1cbd 639c e73c e5e4 083e
00000300: bc74 9d3d 1a90 69be 3a60 ccbc b09c 9b3d
00000310: 0871 d63d fc5d 853d 2686 563e 8a06 53be
00000320: 81cf 173e 25d3 21be f577 92be 0b88 523d
00000330: 12b2 2cbe 1c94 bb3e b14b 5fbd 7d6e b03d
00000340: 433f 11bd b049 febe a36b 06be 493a aebd
00000350: 0e83 21bb ce7d 0bbc 5275 4cbe edf5 553e
00000360: 4a51 03bd 8ade 7cbd 1e1d 153e cd4d 3fbe
00000370: a2b8 c33d f596 8c3d 2345 3ebe ff0e ba3d
00000380: 997d bdbd e414 573d 3b36 bcbd eb92 de3d
00000390: 8f42 d53c 04dc 903e c8ce acbc a78c 9d3d
000003a0: 55b8 063d 644e 2abe 83e0 133e 7a78 d4bd
000003b0: fd58 503e 796b f9be e911 0a3d 56b3 61be
000003c0: 38d7 853d 042b 6c3e 04dd 02be b0ef d93d
000003d0: 8b09 af3d 6152 99be d6d6 34bd cb27 89be
000003e0: 2c8c 0bbe dc97 11be 1814 02be 5d11 c43c
000003f0: 8277 19bd 0df6 72be 1093 87bd e547 b1bd
0.43077102 0.033444103 0.13626803 0.09579761 -0.106065586 -0.34098524 -0.19678289 0.21601762
-0.037169777 0.07787295 -0.22303908 0.4310461 -0.0774842 0.122065835 0.6484443 -0.0070340144
0.025675965 0.15971155 0.0062863175 -0.0042254906 0.1462884 0.077150054 0.014149249 0.14485171
-0.26006916 -0.40044418 -0.37147632 -0.0438594 -0.12114207 -0.40056607 -0.045920923 -0.18808581
0.3996442 0.10860252 -0.27210706 0.07035718 -0.15726659 0.053117596 0.089349166 0.09576145
-0.07615676 0.034686346 0.04437726 -0.11127218 -0.53275275 -0.021816244 0.16533883 -0.16260391
0.19025664 0.19677979 -0.0007518931 -0.13802429 -0.2459352 0.047559462 0.19891776 0.4844118
0.25111926 0.29682747 -0.13424353 0.16525443 -0.017002793 0.19426867 0.011727449 -0.47071242
0.075788386 -0.2662071 -0.114232115 0.022751132 -0.09124828 0.0001842346 0.28705284 -0.37164122
0.2618633 0.34367654 -0.52533793 -0.08854395 0.16511072 0.120051965 0.03348687 -0.00044069113
-0.26051012 -0.033848103 -0.3849666 0.24709652 0.0017773368 0.23556346 0.14503999 0.016426304
0.05602072 0.12890656 -0.104612894 0.011256898 -0.02764374 0.2878979 0.13283662 -0.149697
0.1086393 0.05436437 0.13589293 0.18584488 0.08997587 -0.16670173 0.09709514 -0.3073057
-0.015432162 -0.29396737 -0.22283535 -0.0013322709 -0.235068 0.101706 0.09019972 -0.0054982654
-0.69529486 0.26359183 -0.08330504 -0.100002415 -0.090775296 -0.22456023 0.19929525 -0.20036374
-0.009384244 0.629071 -0.03990638 -0.25300732 -0.046607185 0.19839117 0.10315859 0.48894376
0.05783903 -0.097108476 -0.029168038 0.10474578 -0.06965257 -0.07977412 0.24706824 -0.1723327
0.1949868 0.07914499 0.10997347 -0.044644374 -0.3279508 0.28759256 0.07066747 0.011005529
-0.1427338 0.16095382 0.03020747 0.09963858 0.42737463 0.23798168 -0.13797817 0.087330386
0.44223943 0.46209872 0.07268009 -0.049151763 0.5241376 0.16218208 0.12523349 0.045483176
0.054668307 0.053199098 0.0038759608 -0.10134525 -0.17559612 -0.16085404 -0.28029117 -0.17243145
0.048388712 0.27012557 -0.10386726 0.12388324 0.36011243 0.27597725 0.24687259 0.11935084
0.1257362 -0.16787341 0.02662011 -0.23408912 0.0899054 -0.22241852 -0.016901365 0.20574792
-0.36877435 -0.18813759 0.094574645 0.20483638 -0.10732991 -0.038311135 0.028272813 0.13368566
0.07688281 -0.22808877 -0.024948228 0.07598245 0.10470778 0.06512067 0.20949611 -0.20607963
0.1482525 -0.15803201 -0.28607145 0.051399272 -0.16864803 0.36636436 -0.054515544 0.08614824
-0.03546072 -0.49665594 -0.13126998 -0.08507211 -0.0024644765 -0.008513881 -0.19966629 0.20894594
-0.032059945 -0.061735667 0.14561889 -0.18682022 0.095567 0.0686473 -0.18581061 0.090848915
-0.092524715 0.052510157 -0.09190031 0.10867866 0.026032714 0.2829286 -0.021094695 0.07692843
0.032890636 -0.16631466 0.14441113 -0.103745416 0.20346446 -0.48714808 0.033708487 -0.22041067
0.0653519 0.23063284 -0.12779623 0.1064142 0.08546742 -0.29945663 -0.044150196 -0.26788172
-0.1362769 -0.14218086 -0.12702978 0.02393406 -0.037467487 -0.23726673 -0.06619847 -0.08656291

critic.0.bias f4 [64]
00000000: 72b3 843d b260 12bd e829 563c 4657 0ebd
00000010: 7f19 0abc 7413 113d fbf8 96bd 0734 37bd
00000020: 3b8d 433d ad97 fbbc 4089 b1bc 5b68 053e
00000030: 740d 443d 79ef c3bc 1841 f43d 95e8 7f3d
00000040: bbb7 85bc a768 17bd c6c9 eabc e9a3 483e
00000050: 24f8 ca3c fc11 1b3d bc73 093c 85dc 2a3d
00000060: 7fa8 dfbc 29f2 813c b391 50be 69ec 0cbc
00000070: addf 9cbd 6fee a9be a1e1 1c3a d12b 8bbc
00000080: 9082 f4bc 8b8e 07bc c150 10bd be86 4cbd
00000090: d261 973b aea5 033c 7787 c23d 3a7c a93d
000000a0: 757d 2a3c fafe 16bd 9bd2 483d c379 863d
000000b0: 366b 8c3c 9c8b cdbc 56c7 56bc c150 13bd
000000c0: e2a5 90bd 6ab2 013d 8eb4 573c 5840 023c
000000d0: f858 3bbd 4fc2 9fbc a5b5 933c bd6f 283d
000000e0: 73ad 8c3c ad73 3b3d 8532 85bc 1d97 2abe
000000f0: 7ba9 9c3d f17b f7bc 2a06 23bd f4d6 68be
0.06479539 -0.035736747 0.013071515 -0.0347512 -0.00842893 0.035418943 -0.07371708 -0.04472735
0.04774211 -0.030711973 -0.021671891 0.1302809 0.047864392 -0.0239179 0.11926478 0.062477667
-0.016322961 -0.03696504 -0.028660666 0.19593777 0.024776526 0.037858948 0.00838941 0.04171421
-0.027302025 0.015862541 -0.2036808 -0.008601286 -0.0765985 -0.33189723 0.0005984549 -0.016988667
-0.029847413 -0.008273731 -0.035233263 -0.049933188 0.0046198154 0.008035107 0.09498494 0.082756475
0.010405888 -0.03686426 0.049028974 0.06566193 0.017140966 -0.025090985 -0.013109049 -0.035965685
-0.0706289 0.03166429 0.013165606 0.007949911 -0.045739144 -0.019501833 0.01803095 0.041122187
0.01717255 0.045764614 -0.016259441 -0.16659208 0.07649513 -0.030210467 -0.0398008 -0.22738248

critic.2.weight f4 [1, 64]
00000000: 7731 99be dcbb 853e db32 4cbd 8ad0 bf3d
00000010: 0b6a ee3e b1aa 84be eeb7 073d 9790 453d
00000020: fb41 d2be 8555 d2bd 2526 5a3e 2fee 74be
00000030: 41b2 c2bd eeba 8cbe 29c6 91ba 074e 543e
00000040: 6bcd f43e ba36 a53e b31f ae3e 35bd 8f3d
00000050: c9cd 53be 5dde d93d 344b c83e 84c9 e1bd
00000060: 6d6d 2d3e 7746 0bbe d1ef 73bd 4f1f 2fbe
00000070: 8cac 253e 7b05 82bd 271c b93e 291b 143e
00000080: ab0a 803e 50b8 82be 4d82 313e 0beb e93d
00000090: a236 a7be 63d7 873d 4aaf 17be 80e9 63bd
000000a0: 1f93 ef3e f9fc ce3d 01d8 04be b03c e2ba
000000b0: c036 acbe 67e6 703e cf14 a43e 57b5 b63e
000000c0: 3dc9 0dbe 9fb7 25be 2927 13be eb95 003e
000000d0: c987 083d 7ed9 703d da07 3fbe 4525 0abe
000000e0: a1fa b0bd c274 b2bd 919f 54be 7143 53bd
000000f0: 47e4 b53d 56ba ad3d e7b9 e33d d272 1bbd
-0.2992055 0.26119888 -0.049853187 0.093659475 0.4656528 -0.25911477 0.033134393 0.048233595
-0.41065964 -0.10270218 0.21303613 -0.23918985 -0.095066555 -0.27486366 -0.0011121678 0.2073289
0.4781297 0.32268316 0.3400856 0.0701851 -0.2068397 0.106381156 0.39119875 -0.11024764
0.16936274 -0.13601099 -0.05955488 -0.17101787 0.16179103 -0.063487016 0.3615429 0.14463486
0.2500814 -0.25531244 0.17334862 0.11421784 -0.3265887 0.06632879 -0.14812961 -0.055642605
0.46791932 0.101068445 -0.12973024 -0.0017260518 -0.3363552 0.23525392 0.32047126 0.35685226
-0.13846298 -0.16183327 -0.14370407 0.12557189 0.03333262 0.058801167 -0.18655339 -0.1349078
-0.08641554 -0.08713676 -0.20763995 -0.05157799 0.08881431 0.084828064 0.111194424 -0.037951298
