outputs/centerSquare_4a_PPO_wprior0.995/best_status.pt (torch, 103493 bytes, 84 tensors)

actor.0.weight f4 [64, 8]
0.13742082 -0.24700451 0.10785616 -0.21489991 -0.1955679 0.181748 0.31959474 0.014513126
-0.24389613 0.0025065667 -0.104306 -0.20904334 0.1932185 -0.32396218 -0.40451407 -0.004998157
0.253446 -0.17137378 -0.06091468 -0.22656032 0.07786198 0.31957573 0.27456143 0.04258541
0.5149122 -0.09288853 0.13647519 -0.037413135 0.11334097 -0.25176266 0.14410135 -0.04351876
-0.09583132 0.24183072 -0.5196368 -0.32595882 -0.18353637 -0.018765632 -0.0049655703 -0.20398435
-0.07715408 -0.14461991 -0.17880093 -0.64193755 -0.06926063 0.0731947 0.398245 -0.050842017
-0.08034368 -0.12586814 -0.43606755 0.13418655 0.32157955 0.056377277 -0.28657985 -0.066665344
0.2782973 -0.4151295 -0.043239873 0.39079672 0.30604076 -0.03903772 -0.009293674 -0.011223721
0.14113617 -0.39179966 0.09605016 -0.18053457 0.16081186 -0.07243121 -0.20899394 -0.20147686
0.0050016427 0.33951604 0.1361608 -0.13238208 0.054801222 0.45870715 -0.23324606 0.22204964
-0.3272939 -0.0120724505 0.04324231 0.0818505 -0.16233115 -0.36829117 -0.12127567 0.097775266
0.17179652 -0.09793822 -0.18780138 0.49517962 -0.20849057 -0.023566384 -0.24283391 -0.12908913
0.24436085 0.05897572 0.13475938 0.11212237 0.17050412 -0.037844393 -0.15495136 -0.028585076
-0.1648962 0.071404226 0.09237884 -0.16672549 -0.09083647 -0.020487895 -0.09029311 -0.45019636
0.007170454 0.16448122 0.10799396 -0.29997224 0.26397875 -0.1734545 -0.21502136 0.010068575
-0.22960594 0.12543654 0.09277945 0.07551023 0.110061646 -0.53091156 -0.055414606 0.4109297
0.18780181 0.16385858 0.23030081 0.18540867 -0.22102328 0.24774908 -0.10790095 0.045975644
0.30482328 -0.221534 -0.056965284 -0.287869 0.13246948 -0.4646867 0.18386546 0.01805966
0.30514908 -0.08717273 -0.013640634 -0.020581499 0.1558399 0.03561705 0.11924725 0.05089944
-0.43780696 0.17800204 -0.042110033 0.12511662 0.15118462 -0.0500699 0.079509616 -0.3381852
0.04080322 0.2598226 -0.37336794 0.046025816 0.2576109 0.022115368 0.23287418 0.120506056
-0.055971775 -0.05560662 0.010464216 0.16743563 -0.35941482 0.13156416 0.22171837 -0.06150712
-0.10704772 0.01637087 -0.1408098 -0.17356123 -0.053471345 0.15505832 -0.09617311 -0.025749005
-0.21563604 -0.10831009 0.1429579 -0.13007964 0.7790885 0.3945822 0.2561521 -0.16570938
0.09821621 -0.43411404 0.058039594 0.044165816 -0.12541467 -0.0019075436 0.08269811 -0.30677152
0.094026394 -0.06480865 -0.007160192 -0.08771606 -0.18962485 -0.03503746 0.08534169 0.09814572
-0.060240332 -0.103088744 -0.097250305 -0.021467885 0.11045076 -0.10883492 0.020934016 -0.3216637
-0.41310093 -0.42113328 0.010235123 0.21517287 0.15890446 -0.09459368 -0.2627342 0.5587935
0.0017380764 -0.16833456 0.3050188 -0.13144632 0.08076285 0.24989855 -0.12523882 -0.22358724
0.17362827 0.1260942 -0.0015386768 0.13954353 -0.01333122 -0.0034512691 -0.12987907 0.05314428
0.17092752 -0.026082305 0.5123042 -0.07739382 -0.18054165 -0.5120287 -0.12988164 0.13445114
-0.006035221 0.021397904 0.2825867 0.23702636 0.2769315 -0.26167294 0.044652373 -0.1919518
00000000: 0bb8 0c3e c0ee 7cbe b1e3 dc3d b90e 5cbe
00000010: f442 48be 261c 3a3e eca1 a33e 76c8 6d3c
00000020: e8bf 79be 3645 243b 629e d5bd 750f 56be
00000030: 12db 453e 5fde a5be 781c cfbe 94c7 a3bb
00000040: adc3 813e 9c7c 2fbe ac81 79bd 6eff 67be
00000050: 1a76 9f3d 6e9f a33e 5193 8c3e 0a6e 2e3d
00000060: 49d1 033f 573c bebd 27c0 0b3e 843e 19bd
00000070: 4f1f e83d 09e7 80be 4e8f 133e ba40 32bd
00000080: 3643 c4bd 79a2 773e eb06 05bf 13e4 a6be
00000090: f5f0 3bbe 62ba 99bc 39b6 a2bb 46e1 50be
000000a0: f502 9ebd 3e17 14be 9717 37be 0556 24bf
000000b0: 84d8 8dbd 1ae7 953d c5e6 cb3e b83f 50bd
000000c0: 3a8b a4bd 94e3 00be 3f44 dfbe 3368 093e
000000d0: 13a6 a43e dceb 663d 98ba 92be d787 88bd
000000e0: fc7c 8e3e db8b d4be 4b1c 31bd 8216 c83e
000000f0: 60b1 9c3e 04e6 1fbd 7e44 18bc b3e3 37bc
00000100: 0086 103e f799 c8be f2b5 c43d 0ede 38be
00000110: ddab 243e d056 94bd 8202 56be f34f 4ebe
00000120: d2e4 a33b 0cd5 ad3e bd6d 0b3e 2b8f 07be
00000130: 3f77 603d aadb ea3e 0ed8 6ebe fb60 633e
00000140: 1193 a7be 87cb 45bc d91e 313d 3ca1 a73d
00000150: 233a 26be a990 bcbe 615f f8bd 663e c83d
00000160: 6deb 2f3e d593 c8bd 014f 40be 2f88 fd3e
00000170: 8d7e 55be 4a0e c1bc 74a9 78be f12f 04be
00000180: bb39 7a3e 8690 713d 5dfe 093e 6aa0 e53d
00000190: a298 2e3e b902 1bbd 92ab 1ebe 402b eabc
000001a0: 8dda 28be 613c 923d 1e31 bd3d 16ba 2abe
000001b0: 7908 babd 3bd6 a7bc 98eb b8bd 2380 e6be
000001c0: 21f6 ea3b c46d 283e f02b dd3d f695 99be
000001d0: 3928 873e 0e9e 31be 8f2e 5cbe aaf6 243c
000001e0: d21d 6bbe 7072 003e 2703 be3d 1ca5 9a3d
000001f0: 0068 e13d d2e9 07bf 6dfa 62bd 6165 d23e
00000200: 1e4f 403e 8bca 273e fad3 6b3e c5db 3d3e
00000210: ed53 62be efb1 7d3e 2cfb dcbd f550 3c3d
00000220: cc11 9c3e cfd9 62be 6e54 69bd 9163 93be
00000230: 14a6 073e 6aeb edbe 3a47 3c3e daf1 933c
00000240: 803c 9c3e 9e87 b2bd f77c 5fbc 889a a8bc
00000250: 7f94 1f3e 2fe3 113d e737 f43d ee7b 503d
00000260: 3c28 e0be 2b46 363e 927b 2cbd 921e 003e
00000270: 24d0 1a3e 1816 4dbd f0d5 a23d 9c26 adbe
00000280: 4721 273d 7807 853e 152a bfbe 9185 3c3d
00000290: 93e5 833e 4a2b b53c 9276 6e3e e1cb f63d
000002a0: a942 65bd c4c3 63bd 1a72 2b3c 3f74 2b3e
000002b0: 3805 b8be c1b8 063e 240a 633e e4ee 7bbd
000002c0: d63b dbbd 341c 863c 7230 10be 09ba 31be
000002d0: c504 5bbd 9cc7 1e3e 68f6 c4bd 94ef d2bc
000002e0: b2cf 5cbe aed1 ddbd 8e63 123e 9933 05be
000002f0: 5872 473f ae06 ca3e 5e26 833e b8af 29be
00000300: 9525 c93d 3244 debe edba 6d3d 37e7 343d
00000310: b46c 00be 8b06 faba a05d a93d 2811 9dbe
00000320: e990 c03d 66ba 84bd 0ba0 eabb 7aa4 b3bd
00000330: 042d 42be 7183 0fbd a0c7 ae3d a000 c93d
00000340: 91be 76bd 3120 d3bd 2b2b c7bd 6bdd afbc
00000350: 0234 e23d d8e4 debd d07d ab3c 1bb1 a4be
00000360: f781 d3be c89e d7be 38b1 273c 4756 5c3e
00000370: dab7 223e 55ba c1bd 1985 86be 170d 0f3f
00000380: 2bd0 e33a e55f 2cbe 6d2b 9c3e dd99 06be
00000390: fe66 a53d 68e5 7f3e 9b3e 00be 0ef4 64be
000003a0: 9ccb 313e d71e 013e 6dad c9ba 80e4 0e3e
000003b0: 306b 5abc b02e 62bb 05ff 04be d1ad 593d
000003c0: a007 2f3e 8faa d5bc 5e26 033f a780 9ebd
000003d0: e9df 38be 5014 03bf b1ff 04be 8fad 093e
000003e0: 1ac3 c5bb a84a af3c 34af 903e 0ab7 723e
000003f0: f7c9 8d3e fff9 85be 68e5 363d 038f 44be

actor.0.bias f4 [64]
-0.02724351 -0.028764088 0.020169426 0.038233064 0.017259402 -0.014912027 0.016916115 0.0041348715
-0.024830379 0.014682676 -0.1001467 -0.04068418 0.046077304 0.025938427 0.008674855 0.075709715
0.0072209295 0.034256242 0.020475972 0.047054593 0.013445995 -0.032233294 -0.005839862 0.0032742335
-0.015403061 -0.079229064 -0.05000562 -0.0138340825 -0.028398562 0.040241554 -0.014690544 0.034226548
-0.02211296 -0.011994196 -0.006050603 -0.010469549 0.004331449 0.029762326 -0.002937725 -0.012162481
0.01778045 -0.026497914 0.00022521446 -0.0058570355 0.017964974 0.06337291 0.03040277 -0.008695907
-0.0047783405 -0.0125584975 0.0013218505 0.0055979504 -0.018108735 0.024761358 0.017166467 -0.00056223274
0.0015884927 0.01742515 0.034219116 0.022481728 0.0072181216 0.06609622 -0.04290945 0.022767527
00000000: c82d dfbc aaa2 ebbc 5a3a a53c 469a 1c3d
00000010: 9763 8d3c 9351 74bc aa93 8a3c d17d 873b
00000020: 1469 cbbc 9b8f 703c b719 cdbd 74a4 26bd
00000030: 8ebb 3c3d d37c d43c fb20 0e3c b20d 9b3d
00000040: 8c9d ec3b 4650 0c3d 3abd a73c 51bc 403d
00000050: 974c 5c3c 0f07 04bd 505c bfbb 8694 563b
00000060: 1f5d 7cbc d942 a2bd b1d2 4cbd 59a8 62bc
00000070: 1aa4 e8bc 54d4 243d 9cb0 70bc 2331 0c3d
00000080: 3d26 b5bc 4e83 44bc 2344 c6bb 7988 2bbc
00000090: d4ee 8d3b 1fd0 f33c d986 40bb 2545 47bc
000000a0: 4ea8 913c 2712 d9bc 8c27 6c39 60ec bfbb
000000b0: 482b 933c a8c9 813d 3b0f f93c 4779 0ebc
000000c0: a093 9cbb 28c2 4dbc f141 ad3a 036f b73b
000000d0: c558 94bc 55d8 ca3c b1a0 8c3c cd62 13ba
000000e0: f834 d03a 30bf 8e3c 5829 0c3d 9a2b b83c
000000f0: fe85 ec3b 745d 873d d2c1 2fbd f782 ba3c

actor.2.weight f4 [5, 64]
0.037240684 0.3784639 -0.19623381 0.17104572 0.029774347 -0.36810634 -0.12336516 0.14022908
-0.028159762 -0.090556175 -0.15053597 0.010739999 0.06676791 -0.25589105 -0.115756884 0.060355242
-0.06474211 0.0051938165 -0.53733885 -0.120101385 -0.09121068 0.32344082 0.030289235 0.19179088
-0.3367608 -0.13221744 0.101791434 -0.36923125 -0.20797408 -0.08478774 0.10671908 0.19667904
0.11629932 0.1868077 0.019579796 0.15015188 -0.025904743 -0.12327626 -0.19047919 -0.047841232
0.23463337 0.002706315 0.4296425 -0.1689437 -0.36540145 0.21755569 -0.0042905877 -0.51171046
0.16065097 0.16805229 -0.07421029 0.25509894 0.10245182 -0.31375715 -0.11349994 -0.026118705
0.17856845 0.32136104 0.3733217 0.08453797 0.18840416 0.3704731 0.013673475 0.0029769393
0.21096158 -0.21375583 0.32761768 0.14568001 -0.1599033 0.1650777 0.1492079 -0.07184408
0.21218583 0.1674933 -0.17298236 -0.3699917 0.27772796 -0.27057058 0.07204658 0.21407288
0.11686799 0.105809696 -0.016751803 0.5489221 -0.33261904 0.006903664 0.11596193 -0.036114972
-0.0743926 -0.2077097 -0.0052928217 0.15657529 -0.03784951 0.18824063 -0.026600199 0.022697391
0.06263905 0.27218634 -0.037874464 -0.064801425 -0.068906136 -0.31342396 -0.26361844 -0.01103557
0.2715888 -0.23463802 0.15186727 0.011049448 0.20425121 -0.091582075 0.47575197 0.050726354
0.26271707 0.4080486 0.12993178 -0.054345146 -0.40910852 0.16682522 0.099968545 -0.19495025
0.3104347 0.09773103 0.30795932 -0.171532 -0.38026375 0.0025707786 -0.061136223 -0.053926233
-0.12166 0.26760024 -0.26716903 0.18318954 0.14506145 0.09264239 0.03394948 -0.19513953
0.33839294 -0.22483 0.42041907 0.011606652 0.41034734 -0.09891411 0.5255904 0.0908055
-0.3461315 -0.064477414 0.110859655 -0.23741244 -0.2538382 0.20099635 -0.06749786 0.10414563
0.12725018 0.13811024 0.27543658 0.12645942 -0.5257675 -0.22662146 -0.25319928 0.13748215
0.13493942 -0.2752457 0.085968465 -0.12548605 0.48441312 0.073959835 0.23133451 0.09796496
0.27041 -0.5066048 -0.32095057 -0.23609604 0.25366852 -0.103809044 -0.16348475 0.11349978
0.07360806 -0.1466128 -0.029822756 0.0046244697 -0.15940179 -0.14435695 -0.17313488 0.123014726
-0.20196222 -0.3104133 0.028633067 -0.21668191 0.09059161 -0.1962112 0.067190796 -0.044639222
-0.21657026 -0.22074735 0.13428792 -0.037923805 0.027238397 -0.24360475 -0.035337485 -1.0687057e-05
-0.20322749 -0.0929105 -0.33041108 -0.13910587 0.03836934 0.050466847 0.10279806 0.3005177
-0.29090732 -0.11900279 0.018434957 0.18454884 0.19870187 -0.20376009 -0.37230378 0.10482168
-0.19697349 -0.25598106 -0.33211446 -0.3677284 -0.11374653 0.049989223 -0.23940758 -0.063295186
-0.3046663 -0.041122887 -0.16374429 -0.19675156 -0.05175378 0.32906815 0.18431333 -0.060969632
0.48768252 -0.059316985 0.038707107 -0.312207 0.1448549 0.076409936 0.16361134 0.03836572
-0.121560976 0.15142977 -0.10191414 -0.04328243 -0.0099445125 0.041632757 0.16973387 -0.19962403
0.48403248 0.14029899 -0.24226157 0.4179006 0.28853476 -0.10589385 0.3801693 0.19416164
00000000: b089 183d 05c6 c13e 84f1 48be 9c26 2f3e
00000010: 55e9 f33c 6f78 bcbe dfa6 fcbd 3698 0f3e
00000020: 4daf e6bc 8475 b9bd 1a26 1abe d2f6 2f3c
00000030: 9dbd 883d 2704 83be f211 edbd 0f37 773d
00000040: 8397 84bd e430 aa3b 0a8f 09bf b7f7 f5bd
00000050: aacc babd 099a a53e 2121 f83c d464 443e
00000060: e96b acbe 0264 07be 0778 d03d e10b bdbe
00000070: 28f7 54be 32a5 adbd 888f da3d 3b66 493e
00000080: 562e ee3d 854a 3f3e cf65 a03c 6ac1 193e
00000090: 2f36 d4bc 4478 fcbd fa0c 43be 2bf5 43bd
000000a0: bb43 703e 6e5c 313b 1afa db3e 94ff 2cbe
000000b0: e615 bbbe ebc6 5e3e 0f98 8cbb 75ff 02bf
000000c0: b081 243e e615 2c3e 91fb 97bd 549c 823e
000000d0: 43d2 d13d c7a4 a0be a872 e8bd e5f6 d5bc
000000e0: a6da 363e 6f89 a43e 0624 bf3e 3e22 ad3d
000000f0: 05ed 403e a6ae bd3e b606 603c c118 433b
00000100: 5006 583e cfe2 5abe 81bd a73e 242d 153e
00000110: b1bd 23be 210a 293e f5c9 183e fd22 93bd
00000120: 3e47 593e 5d83 2b3e 4a22 31be 8d6f bdbe
00000130: 5c32 8e3e 3a88 8abe 288d 933d ec35 5b3e
00000140: 7c58 ef3d c1b2 d83d 143b 89bc 2986 0c3f
00000150: 0b4d aabe 2238 e23b 737d ed3d 4bed 13bd
00000160: 265b 98bd dab1 54be 686f adbb 4655 203e
00000170: 1608 1bbd 27c2 403e a9e8 d9bc e1ef b93c
00000180: e748 803d 025c 8b3e 4122 1bbd 9cb6 84bd
00000190: a91e 8dbd 1b79 a0be fff8 86be 89ce 34bc
000001a0: b00d 8b3e f344 70be 1883 1b3e be08 353c
000001b0: 3b27 513e 628f bbbd c395 f33e 70c6 4f3d
000001c0: da82 863e bfeb d03e d60c 053e 0499 5ebd
000001d0: ac76 d1be 3bd4 2a3e 4fbc cc3d 0aa1 47be
000001e0: 4cf1 9e3e 3527 c83d d8ac 9d3e 16a6 2fbe
000001f0: eeb1 c2be 827a 283b fa69 7abd c1e1 5cbd
00000200: e128 f9bd e602 893e 61ca 88be 0a96 3b3e
00000210: fd8a 143e 4bbb bd3d 9c0e 0b3d a8d2 47be
00000220: d741 ad3e d639 66be 2b41 d73e d429 3e3c
00000230: 0c19 d23e 7b93 cabd 188d 063f 3cf8 b93d
00000240: 2638 b1be bc0c 84bd 630a e33d 3f1c 73be
00000250: 15f7 81be fdd1 4d3e 513c 8abd 4e4a d53d
00000260: df4d 023e c56c 0d3e 0606 8d3e 947e 013e
00000270: b398 06bf 750f 68be 56a3 81be 1fc8 0c3e
00000280: 8f2d 0a3e 01ed 8cbe 3c10 b03d 6a7f 00be
00000290: ff04 f83e 4178 973d f4e2 6c3e daa1 c83d
000002a0: 2e73 8a3e dab0 01bf a253 a4be 29c3 71be
000002b0: d7e0 813e d699 d4bd 8c68 27be 9372 e83d
000002c0: d3bf 963d aa21 16be da4e f4bc dd88 973b
000002d0: 393a 23be 4fd2 13be 454a 31be 25ef fb3d
000002e0: 2fcf 4ebe 7eee 9ebe e58f ea3c dde1 5dbe
000002f0: 1888 b93d 97eb 48be 549b 893d 9ed7 36bd
00000300: 98c4 5dbe 980b 62be c682 093e fe55 1bbd
00000310: 0f23 df3c 8673 79be 0abe 10bd 8f4c 33b7
00000320: de1a 50be dc47 bebd a42b a9be c571 0ebe
00000330: 2b29 1d3d 53b6 4e3d ca87 d23d 75dd 993e
00000340: cef1 94be bcb7 f3bd e804 973c 5ffa 3c3e
00000350: 8178 4b3e 7ca6 50be 9a9e bebe c0ac d63d
00000360: 6bb3 49be f30f 83be e80a aabe e646 bcbe
00000370: f1f3 e8bd 80c1 4c3d 4327 75be e8a0 81bd
00000380: 39fd 9bbe 7970 28bd 95ac 27be 3e79 49be
00000390: c6fb 53bd 9f7b a83e a2bc 3c3e 4bbb 79bd
000003a0: 86b1 f93e 5ef6 72bd 588b 1e3d 99d9 9fbe
000003b0: d854 143e d07c 9c3d bb89 273e 6025 1d3d
000003c0: f6f4 f8bd 6810 1b3e 5cb8 d0bd eb48 31bd
000003d0: 4fee 22bc 1c87 2a3d b7ce 2d3e 3e6a 4cbe
000003e0: 1bd3 f73e 8aaa 0f3e 6b13 78be 11f7 d53e
000003f0: d4ba 933e e0de d8bd 8da5 c23e 4fd2 463e

actor.2.bias f4 [5]
0.016971521 0.022328291 -0.08186897 0.045676302 -0.1606483
00000000: dc07 8b3c d2e9 b63c ebaa a7bd 1317 3b3d
00000010: fd80 24be

critic.0.weight f4 [64, 8]
0.09778324 0.04058937 0.14003702 0.028426714 0.3367862 -0.046142858 -0.52821827 -0.22705422
-0.0046135085 -0.011603615 0.10938405 0.15448153 0.02798078 0.22270666 -0.15390503 -0.028308589
-0.20202404 0.060378373 0.052838326 0.11507048 0.11245314 0.008571753 -0.17867847 -0.013086165
-0.27054033 0.16720039 -0.49123752 0.27472553 -0.24990971 -0.13361676 -0.12725204 0.12361351
-0.44463292 -0.092763446 -0.22430974 -0.109175794 -0.23814707 0.37652475 -0.19578774 -0.017907329
0.13777198 0.2634576 -0.29623833 -0.21786796 -0.22490661 -0.0726774 -0.025231788 -0.03484117
0.13539697 0.4230676 0.06666392 0.36107296 0.06789757 0.055228997 0.037870444 0.3499379
0.23150879 -0.22697957 -0.09244659 -0.22198303 -0.17230995 -0.11849221 -0.11630858 0.18493634
0.04597374 -0.1927257 -0.050524194 -0.1507287 0.09444419 0.037208196 -0.114506654 0.2054562
0.17789823 0.07388736 0.08075618 0.01876909 -0.18835352 -0.10043886 -0.13621934 0.01134127
0.020756703 -0.19504797 -0.3793137 0.12430996 -0.3109771 0.09405014 -0.043254502 -0.17635465
-0.046159122 0.17005144 0.05569825 -0.16004506 0.47866812 0.31065995 0.1647592 -0.29323176
-0.07294562 0.008419336 0.0664178 -0.1792185 0.08857608 0.36731833 -0.14571553 -0.26680094
0.26012897 0.2141638 0.02918818 -0.18672694 -0.0832482 -0.022352062 -0.14441483 -0.053300034
-0.27443618 -0.066996485 0.08799358 0.2006911 -0.06642488 0.017046697 0.06379332 -0.22467889
-0.023735639 -0.16565609 -0.020211115 -0.05581839 -0.21128839 0.09796201 0.14388159 -0.15095356
0.0012972832 -0.26440388 0.07880352 0.24828033 0.38511997 -0.08824563 -0.20115307 -0.16765855
-0.4446478 -0.047233094 0.384538 -0.08969018 0.07729294 -0.46960977 -0.10088835 0.16747928
0.09386719 0.17823014 0.25518295 0.07169223 0.16992821 -0.22103657 0.017398983 -0.030297315
0.08112052 -0.13930838 -0.1583056 -0.31017426 0.18231432 0.014096706 0.0579459 0.30959648
-0.33668333 0.21597725 0.14867915 -0.3904898 0.31941074 -0.08765268 0.18553776 -0.12184831
-0.046749473 -0.15844896 0.38927862 0.02397132 0.4030653 0.08700133 -0.16109052 0.39134058
-0.049565334 -0.24085853 0.14126356 -0.03819227 -0.18126795 -0.061258998 0.078669876 0.21331462
0.102716126 -0.050756283 -0.14812817 -0.25815117 -0.45407474 -0.047332834 -0.23396388 -0.414135
-0.10745344 0.36986956 0.44653606 -0.21199603 0.018314868 0.13319516 0.08310395 0.019403106
0.004807391 -0.17554992 -0.31103763 0.113540076 -0.11832745 -0.11721161 -0.07405947 0.25134355
-0.5174689 -0.0011663592 0.20790236 0.015118139 0.13035442 0.027879337 0.029725254 0.20694973
-0.57973796 0.09105092 0.009988193 0.031732418 0.29942948 -0.198439 -0.11361632 0.05179504
-0.0043756897 0.13542193 0.40476504 -0.22008872 -0.1900676 0.33543536 -0.1436762 0.38521627
-0.04764568 -0.31339955 -0.23711766 0.18287715 0.2658581 0.0059331967 -0.29422668 0.07194864
0.281467 0.11867444 0.06159238 0.14056677 0.31276962 -0.39555004 0.21825099 0.08319199
-0.26877302 0.10435642 -0.16672689 0.26165497 -0.20831461 -0.30343097 0.011403364 0.116057344
00000000: 9442 c83d 0a41 263d dd65 0f3e 24df e83c
00000010: 3e6f ac3e 4b00 3dbd 5039 07bf e780 68be
00000020: ea2c 97bb 171d 3ebc bf04 e03d 6830 1e3e
00000030: f337 e53c 370d 643e 4899 1dbe 6ae7 e7bc
00000040: 64df 4ebe 504f 773d 006d 583d 12aa eb3d
00000050: d54d e63d 8a70 0c3c 7df7 36be 5b67 56bc
00000060: 4384 8abe 9436 2b3e 7c83 fbbe d3a8 8c3e
00000070: 55e8 7fbe d5d2 08be 5c4e 02be 1429 fd3d
00000080: eda6 e3be c3fa bdbd 74b1 65be 8f97 dfbd
00000090: d3dc 73be dac7 c03e 957c 48be 64b2 92bc
000000a0: 1914 0d3e eae3 863e 8dac 97be c718 5fbe
000000b0: eb4d 66be e4d7 94bd e5b2 cebc 9db5 0ebd
000000c0: 81a5 0a3e 519c d83e 1887 883d 8ede b83e
000000d0: e20d 8b3d cd37 623d 0a1e 1b3d 0f2b b33e
000000e0: a410 6d3e 556d 68be a354 bdbd 854f 63be
000000f0: 0572 30be 0bac f2bd 3133 eebd f45f 3d3e
00000100: f64e 3c3d e359 45be 75f2 4ebd a058 1abe
00000110: f56b c13d 9f67 183d 7782 eabd 1c63 523e
00000120: f42a 363e 4252 973d 7f63 a53d a2c1 993c
00000130: bfdf 40be e4b2 cdbd 157d 0bbe bcd0 393c
00000140: f609 aa3c a8ba 47be 6835 c2be 3896 fe3d
00000150: 6438 9fbe 5c9d c03d a22b 31bd 5096 34be
00000160: 5911 3dbd f721 2e3e d923 643d dae2 23be
00000170: fd13 f53e d20e 9f3e a3b6 283e 7922 96be
00000180: 8364 95bd 41f1 093c 0e06 883d 0e85 37be
00000190: 6067 b53d 2611 bc3e 7436 15be 229a 88be
000001a0: a02f 853e c14d 5b3e 0d1c ef3c 5935 3fbe
000001b0: 087e aabd ac1b b7bc 7be1 13be 2351 5abd
000001c0: e682 8cbe 7435 89bd fa35 b43d f881 4d3e
000001d0: c409 88bd 84a5 8b3c 12a6 823d 3912 66be
000001e0: 3e71 c2bc c0a1 29be c891 a5bc d3a1 64bd
000001f0: fc5b 58be 4ea0 c83d b255 133e 9293 1abe
00000200: 9a09 aa3a f25f 87be bd63 a13d 333d 7e3e
00000210: 722e c53e 20ba b4bd 12fb 4dbe afae 2bbe
00000220: e0a8 e3be 7d77 41bd 2ae2 c43e 7caf b7bd
00000230: c34b 9e3d b170 f0be 8d9e cebd b07f 2b3e
00000240: 713d c03d f681 363e 57a7 823e 60d3 923d
00000250: a901 2e3e 6957 62be 5088 8e3c 1332 f8bc
00000260: 8422 a63d dba6 0ebe dd1a 22be 29cf 9ebe
00000270: 9bb0 3a3e dff5 663c ae58 6d3d 6e83 9e3e
00000280: c261 acbe 2429 5d3e 593f 183e 47ee c7be
00000290: ce89 a33e 4083 b3bd 9cfd 3d3e 9b8b f9bd
000002a0: 607c 3fbd 7240 22be 874f c73e 805f c43c
000002b0: 935e ce3e c12d b23d eaf4 24be cb5d c83e
000002c0: 0505 4bbd 9ea3 76be 65a7 103e 7f6f 1cbd
000002d0: 4e9e 39be b7ea 7abd ac1d a13d 266f 5a3e
000002e0: d55c d23d d2e5 4fbd e9ae 17be 642c 84be
000002f0: 7c7c e8be 13e0 41bd 3a94 6fbe 8109 d4be
00000300: 8d10 dcbd 8b5f bd3e 60a0 e43e 7d15 59be
00000310: 1009 963c 5064 083e 6732 aa3d 43f3 9e3c
00000320: 5287 9d3b 5cc3 33be 5340 9fbe b387 e83d
00000330: a955 f2bd a40c f0bd 7eac 97bd 1ab0 803e
00000340: d878 04bf 85e0 98ba 5be4 543e 12b2 773c
00000350: a17b 053e 3563 e43c 6082 f33c a1ea 533e
00000360: b569 14bf e878 ba3d 85a5 233c daf9 013d
00000370: d24e 993e 9833 4bbe acaf e8bd 0927 543d
00000380: f261 8fbb 0cac 0a3e 5d3d cf3e f05e 61be
00000390: 15a1 42be 2fbe ab3e db1f 13be 113b c53e
000003a0: 1e28 43bd e875 a0be f9ce 72be 2644 3b3e
000003b0: 8e1e 883e 436b c23b e1a4 96be cf59 933d
000003c0: 711c 903e 960b f33d 4b48 7c3d bcf0 0f3e
000003d0: 5723 a03e 8985 cabe 307d 5f3e 9060 aa3d
000003e0: 9e9c 89be d2b8 d53d 74ba 2abe a4f7 853e
000003f0: 6d50 55be 4e5b 9bbe 2dd5 3a3c 79af ed3d

critic.0.bias f4 [64]
0.1829801 0.07654528 -0.045604315 -0.24795829 -0.06582832 -0.0764528 0.06191196 -0.02938633
-0.03128953 -0.15807632 -0.06691096 0.11259251 -0.15134041 -0.1576473 0.043724377 -0.24878477
0.034497254 -0.05686707 0.1608916 -0.0040819393 0.26184142 0.06099999 -0.08320783 -0.11396676
0.08972661 -0.04611109 0.13989969 0.084133565 0.11614455 -0.020590639 0.06242568 -0.0808331
0.14109208 0.05311677 -0.0015700244 0.14693984 -0.052225254 -0.08925788 -0.117890455 -0.010219629
0.14985506 0.06789608 0.11194872 0.09102848 0.22045414 -0.100444555 0.10894799 -0.1749211
-0.09196157 -0.05104845 -0.105435 0.02515745 -0.042224925 -0.01042131 -0.090518385 -0.13848728
0.026294993 0.12939641 0.06307748 0.07805481 0.09525352 -0.05372109 0.058405336 -0.053829536
00000000: 235f 3b3e c6c3 9c3d 97cb 3abd c7e8 7dbe
00000010: 00d1 86bd 4993 9cbd 6597 7d3d 9abb f0bc
00000020: 7329 00bd c2de 21be 9d08 89bd e796 e63d
00000030: fbf8 1abe 4b6e 21be 5518 333d 6fc1 7ebe
00000040: fe4c 0d3d 72ed 68bd c5c0 243e cac1 85bb
00000050: 1410 863e 20db 793d de68 aabd 6867 e9bd
00000060: 96c2 b73d fbde 3cbd dd41 0f3e 384e ac3d
00000070: 32dd ed3d b3ad a8bc 12b2 7f3d d38b a5bd
00000080: 717a 103e f890 593d 47c9 cdba 6677 163e
00000090: 26ea 55bd d6cc b6bd 8d70 f1bd 3b70 27bc
000000a0: 9b73 193e 1a0d 8b3d 5f45 e53d 246d ba3d
000000b0: bbbe 613e e0b5 cdbd 2020 df3d 841e 33be
000000c0: 5956 bcbd 2e18 51bd 4eee d7bd ff16 ce3c
000000d0: 0bf4 2cbd 24be 2abc b461 b9bd 9ccf 0dbe
000000e0: 9968 d73c 7e80 043e c42e 813d 33db 9f3d
000000f0: 4714 c33d a50a 5cbd 6f3a 6f3d 5c7c 5cbd

critic.2.weight f4 [1, 64]
0.16515246 -0.22040388 0.57454026 -0.15934445 0.2813264 0.20962156 -0.19229907 0.31005967
0.36544776 -0.18391192 0.3828525 -0.13510852 0.3039171 -0.12852623 -0.34265223 -0.171048
0.26056558 0.35616738 -0.4745541 -0.25652656 0.2360111 -0.5226445 0.2913045 0.16073689
-0.25563782 0.39164916 0.32177722 0.3285063 -0.17109494 -0.19584481 -0.36866263 0.31130078
0.34713396 -0.5733433 0.10059845 -0.12754141 0.25129265 0.21591102 0.15628318 0.3804086
-0.23545079 0.45192438 -0.096542515 -0.12283494 0.3989504 0.100479335 -0.24997804 -0.3734037
0.2013914 0.25679088 0.29718116 -0.12273274 0.23280914 0.48811644 -0.43594462 0.163408
-0.09372034 0.3853822 -0.35574302 -0.5076571 -0.30360252 0.33240408 -0.40668014 0.22666009
00000000: ba1d 293e 8eb1 61be 1215 133f 312b 23be
00000010: 040a 903e 09a7 563e 0cea 44be 24c0 9e3e
00000020: f81b bb3e 6853 3cbe 3e05 c43e e359 0abe
00000030: 069b 9b3e 619c 03be 1d70 afbe 3527 2fbe
00000040: da68 853e 925b b63e c1f8 f2be 7357 83be
00000050: e5ac 713e 08cc 05bf dd25 953e 3698 243e
00000060: f6e2 82be 3d86 c83e fcbf a43e fa31 a83e
00000070: 8333 2fbe 8b8b 48be 59c1 bcbe d162 9f3e
00000080: 8bbb b13e a0c6 12bf 8f06 ce3d 379a 02be
00000090: 6ea9 803e c717 5d3e b308 203e ebc4 c23e
000000a0: 031a 71be a262 e73e 15b8 c5bd e390 fbbd
000000b0: 3a43 cc3e 1cc8 cd3d 3efa 7fbe c52e bfbe
000000c0: 8c39 4e3e 187a 833e 2128 983e 4e5b fbbd
000000d0: 8565 6e3e 66ea f93e 2234 dfbe 6d54 273e
000000e0: 73f0 bfbd d150 c53e f323 b6be d1f5 01bf
000000f0: ca71 9bbe de30 aa3e 6138 d0be 9519 683e

actor.0.weight f4 [64, 8]
0.08319638 -0.2518718 -0.03841682 -0.25953868 0.1995364 0.29901484 -0.016426641 -0.49392918
0.1838088 0.10068164 -0.06096903 0.16768052 -0.3136926 0.3574871 0.0932772 -0.01641551
-0.42469415 0.23271194 0.1606198 0.38032308 0.28116634 -0.08468565 0.0042685126 -0.1960458
0.20904103 -0.10830765 0.14065939 0.16061212 0.30227792 0.15882498 0.08900451 0.37647533
-0.06830355 0.30799717 0.103279255 -0.012572652 -0.6308608 0.18325634 -0.100541994 -0.24998607
-0.21553947 0.17868483 0.063211955 -0.26259345 -0.16985625 -0.19521336 -0.08689668 0.43481278
-0.059035003 0.18038183 0.06511178 -0.15113515 0.09013007 0.044808235 0.25970456 0.47187245
-0.058414258 -0.079501115 -0.17823331 -0.013214684 -0.30715466 -0.22997925 -0.06466614 -0.12217022
0.057396505 -0.24065396 -0.120771445 0.31112128 -0.016291887 0.08563805 0.24629828 0.3215174
0.23723055 0.02876782 -0.016329585 0.365488 -0.33766386 -0.20699742 0.24876422 -0.29072136
-0.04870603 0.25489116 -0.07577081 -0.10619326 0.040267196 -0.09538461 0.087574705 -0.13365783
-0.12768446 -0.14567766 0.06744412 0.11423288 -0.052787077 0.28224397 0.14416994 0.29983023
0.0072066053 -0.114701 -0.038731582 0.40161297 -0.07118468 -0.121168055 -0.07540116 0.1707308
0.17195925 -0.13811594 -0.11257715 -0.4464369 -0.114919655 0.3175137 -0.3098241 0.09192794
-0.1877304 -0.35623053 -0.21617407 -0.08074755 0.15187833 0.3131442 0.17169766 0.16792297
-0.19922599 -0.2318961 0.3453258 0.12851813 0.2454658 -0.12904768 -0.092655286 0.12279552
0.09632331 0.11205972 -0.14133006 -0.051821955 0.09697742 0.043693796 0.17397867 -0.3112797
-0.21588314 -0.057712134 0.02760911 -0.0713055 0.18080181 0.17162445 0.14010578 -0.12323382
-0.081967846 -0.30834857 0.41790426 -0.020119514 0.007822253 -0.37199283 -0.32494086 -0.10000877
0.11893378 0.07711072 0.21935251 0.14561233 0.056966808 -0.38206214 0.15343162 -0.21728887
-0.16853875 0.14215985 0.17545334 -0.016072284 0.150374 -0.08106893 -0.06285662 0.3492999
-0.14776064 0.048297126 0.13629995 0.23895864 0.0015378783 0.37560353 0.019322392 0.10639275
0.06218123 -0.13577372 0.47413838 -0.42081854 -0.06955345 -0.1985493 0.12611347 0.02296688
-0.31863537 0.016236434 -0.08462655 0.17223525 -0.54358053 -0.036681112 0.0074648587 0.016487569
0.23854333 0.57407534 -0.34294173 -0.12397401 -0.058706053 0.07203265 -0.1387785 0.19183046
0.2659568 0.04771465 -0.070784114 -0.18033704 0.0225251 -0.052779287 -0.36762652 0.17642103
-0.028292403 0.17449053 -0.37838838 -0.051948164 0.106049344 -0.18551683 0.325784 -0.25405833
0.052859373 -0.098114975 0.27159065 -0.42454475 -0.0014508332 0.27604643 0.24365048 -0.0652577
-0.037006304 -0.22828607 0.020857777 0.25597444 -0.25668132 0.00072601845 0.06791967 -0.030071797
0.18484184 -0.043704186 0.1238614 0.1563977 0.0105409175 -0.046009116 -0.10568018 0.1527633
0.20068516 -0.12475733 0.02295509 0.07457224 -0.12577243 -0.099617176 0.08250798 0.31024683
-0.11687628 -0.061204452 0.26380065 -0.05126819 -0.2284818 0.2545653 -0.40165558 0.13984284
00000000: dd62 aa3d 57f5 80be f55a 1dbd 41e2 84be
00000010: 4553 4c3e 7918 993e 2a91 86bc 49e4 fcbe
00000020: 6038 3c3e 2d32 ce3d a9ba 79bd 71b4 2b3e
00000030: 519c a0be 8d08 b73e 1e08 bf3d d279 86bc
00000040: 8371 d9be 0a4c 6e3e 8479 243e b5b9 c23e
00000050: 09f5 8f3e ac6f adbd e1de 8b3b 3bc0 48be
00000060: da0e 563e 67d0 ddbd 0409 103e 8177 243e
00000070: 2cc4 9a3e 04a3 223e ff47 b63d 60c1 c03e
00000080: bbe2 8bbd ceb1 9d3e 1384 d33d 86fd 4dbc
00000090: 1880 21bf 8da7 3b3e f6e8 cdbd 59fc 7fbe
000000a0: 61b6 5cbe 28f9 363e 4575 813d a672 86be
000000b0: ccee 2dbe 03e6 47be e3f6 b1bd c89f de3e
000000c0: b0ce 71bd 04b6 383e 5359 853d 2cc3 1abe
000000d0: 1d96 b83d d788 373d fff7 843e 4499 f13e
000000e0: ca43 6fbd 7bd1 a2bd cb82 36be 6782 58bc
000000f0: 6043 9dbe ae7f 6bbe ae6f 84bd 6134 fabd
00000100: 9918 6b3d fe6d 76be 0557 f7bd 4a4b 9f3e
00000110: 9076 85bc 0163 af3d 9e35 7c3e ee9d a43e
00000120: 91ec 723e 7eaa eb3c 9fc5 85bc 3e21 bb3e
00000130: 47e2 acbe 22f7 53be 0cbc 7e3e 6ed9 94be
00000140: f97f 47bd 1881 823e ba2d 9bbd da7b d9bd
00000150: 37ef 243d 0259 c3bd 5e5a b33d 99dd 08be
00000160: b7bf 02be 862c 15be 2520 8a3d eef2 e93d
00000170: 4337 58bd 4882 903e 49a1 133e 5983 993e
00000180: 6325 ec3b 5ce8 eabd 02a5 1ebd 37a0 cd3e
00000190: 46c9 91bd f526 f8bd ec6b 9abd 0ed4 2e3e
000001a0: 1616 303e 446e 0dbe d98e e6bd 6193 e4be
000001b0: ff5a ebbd 2891 a23e 44a1 9ebe b744 bc3d
000001c0: 663c 40be d963 b6be bc5c 5dbe f95e a5bd
000001d0: fe85 1b3e 7054 a03e 83d1 2f3e 00f4 2b3e
000001e0: e601 4cbe 2c76 6dbe 8bce b03e 429a 033e
000001f0: 635b 7b3e 1325 04be 0ec2 bdbd 387c fb3d
00000200: 2845 c53d 917f e53d d4b8 10be 4243 54bd
00000210: 199c c63d 44f8 323d 7727 323e 0e60 9fbe
00000220: 7810 5dbe 8f63 6cbd 802c e23c 9e08 92bd
00000230: 1c24 393e 52be 2f3e e477 0f3e 0362 fcbd
00000240: c2de a7bd dddf 9dbe 8cf7 d53e aed1 a4bc
00000250: e828 003c d875 bebe a65e a6be 66d1 ccbd
00000260: 8e93 f33d 3aec 9d3d f29d 603e 661b 153e
00000270: 0756 693d a69d c3be 2e1d 1d3e f980 5ebe
00000280: 6c95 2cbe 5a92 113e 0aaa 333e 06aa 83bc
00000290: a4fb 193e 7807 a6bd f9ba 80bd 70d7 b23e
000002a0: 914e 17be 35d3 453d 3792 0b3e 93b1 743e
000002b0: a292 c93a 1b4f c03e fe49 9e3c 71e4 d93d
000002c0: bfb1 7e3d 4408 0bbe 44c2 f23e 8775 d7be
000002d0: 0a72 8ebd 8250 4bbe e423 013e 0a25 bc3c
000002e0: 2d24 a3be 4502 853c af50 adbd 705e 303e
000002f0: 1828 0bbf ef3e 16bd c69b f43b f010 873c
00000300: b444 743e 9af6 123f 0f96 afbe 16e6 fdbd
00000310: c275 70bd db85 933d f31b 0ebe 346f 443e
00000320: 7d2b 883e 7070 433d 43f7 90bd 46aa 38be
00000330: 8f86 b83c 182f 58bd 8b39 bcbe b7a7 343e
00000340: 78c5 e7bc a5ad 323e 1fbc c1be 99c7 54bd
00000350: 6630 d93d 20f8 3dbe 29cd a63e ef13 82be
00000360: 1283 583d 81f0 c8bd ee0d 8b3e ee5d d9be
00000370: e229 beba f555 8d3e 837f 793e d4a5 85bd
00000380: ec93 17bd d3c3 69be eedd aa3c 150f 833e
00000390: bc6b 83be 4652 3e3a 7819 8b3d 2159 f6bc
000003a0: 2e47 3d3e 2903 33bd 0cab fd3d b826 203e
000003b0: d0b3 2c3c 0e74 3cbd da6e d8bd fc6d 1c3e
000003c0: 6980 4d3e c580 ffbd 500c bc3c 55b9 983d
000003d0: 7dca 00be 1704 ccbd f2f9 a83d acd8 9e3e
000003e0: d55c efbd 85b1 7abd e110 873e 98fe 51bd
000003f0: 22f7 69be 6256 823e cda5 cdbe f632 0f3e

actor.0.bias f4 [64]
0.07382125 0.023364313 -0.0028108784 0.008072466 -0.015690476 0.02415742 0.03667768 0.0018696643
-0.0523652 -0.004968512 0.021605233 -0.0701331 -0.016738756 0.0122393975 0.006228363 0.020686759
-0.010004714 -0.0019720027 -0.14065671 0.06533538 -0.0032828508 0.05878319 0.035438105 0.009550946
-0.066761486 0.011280025 0.013906992 -0.06070598 -0.025544947 0.08029794 0.016139815 -0.030751817
0.00889594 0.07267754 -0.0040939585 -0.022632148 0.02587498 -0.039848797 -0.022058772 -0.02514575
0.039415605 0.035105783 0.012670709 -0.008614197 -0.03791206 -0.013158328 -0.0069074426 -0.013659159
0.012973618 -0.037005592 -0.0012835196 0.048562724 -0.039103214 0.03773005 -0.012078354 -0.02513443
0.017911384 0.0054396917 -0.008676373 0.01893807 -0.001670598 -0.06741482 -0.0024883705 -0.021769505
00000000: 982f 973d 8466 bf3c b736 38bb 6042 043c
00000010: 5089 80bc c8e5 c53c 563b 163d 860f f53a
00000020: e47c 56bd e6ce a2bb 75fd b03c f1a1 8fbd
00000030: b71f 89bc c187 483c 4c17 cc3b 4777 a93c
00000040: d0ea 23bc b73c 01bb 5008 10be 8ece 853d
00000050: 1925 57bb a4c6 703d 8c27 113d 927b 1c3c
00000060: 3fba 88bd dbcf 383c 27da 633c d5a6 78bd
00000070: a343 d1bc 3f73 a43d a537 843c 3ceb fbbc
00000080: 47c0 113c f6d7 943d 9d26 86bb 0e67 b9bc
00000090: c4f7 d33c 7e38 23bd 99b4 b4bc 76fe cdbc
000000a0: 4272 213d 15cb 0f3d ce98 4f3c 9022 0dbc
000000b0: ad49 1bbd 0796 57bc d457 e2bb aaca 5fbc
000000c0: 4c8f 543c 2d93 17bd c53b a8ba b5e9 463d
000000d0: b12a 20bd d38a 1a3d 4ae4 45bc b8e6 cdbc
000000e0: e5ba 923c 713f b23b 5927 0ebc 0324 9b3c
000000f0: f8f7 daba c810 8abd ee13 23bb f655 b2bc

actor.2.weight f4 [5, 64]
-0.24630876 -0.11968667 -0.059515927 -0.05305549 -0.00509885 0.34613186 -0.11026156 0.09524486
0.18741211 0.45596695 0.09634321 -0.3675863 0.04627006 -0.21065022 0.064849585 -0.06552879
-0.08710338 -0.10236093 0.45504013 -0.18831083 0.2196371 0.039143633 0.1137103 0.14731824
0.4467968 -0.020474402 0.18657714 -0.1740281 -0.13258311 0.19116695 0.124121934 -0.19635266
-0.09341755 -0.23499301 0.19285077 0.31765783 0.0112979645 -0.35797358 -0.041580386 -0.4099208
-0.09431399 -0.06988537 -0.104495965 -0.008185374 0.07133141 -0.18570755 0.008964331 -0.109064
0.22312331 0.07122877 -0.17795704 -0.27989426 0.028380902 -0.0353506 0.06018919 -0.20099865
0.01917595 -0.22787127 0.37576726 -0.14845704 -0.009641068 0.10654779 -0.34046918 0.5956548
0.1301089 0.14722428 -0.06314341 0.30632722 -0.13682707 0.1577828 0.2930942 -0.052394234
-0.11530537 -0.20194978 0.49351117 -0.33614275 0.0052857664 -0.17574619 0.40077302 0.31002235
-0.12261464 0.25547928 0.0032806238 0.03760593 -0.10228167 0.17487086 -0.01801745 0.37201977
-0.28646672 0.11969096 -0.1005548 -0.087601736 -0.1555252 0.42837495 0.0851333 -0.1729422
-0.18692361 0.06921824 0.00028649016 -0.22154999 0.2121013 0.09211194 -0.30878705 0.0041110697
0.1444833 -0.15145424 0.006337014 -0.23747838 -0.3013541 -0.14976308 -0.43913344 -0.30956116
-0.10066069 -0.2095187 -0.024885178 -0.107222 -0.29892966 0.19606608 -0.070461206 0.249572
-0.043836776 0.073897965 -0.1103341 0.29251355 0.16588344 -0.36468932 -0.07499268 0.14596269
0.17244337 0.13758276 -0.006238855 0.18613315 0.022470696 -0.14821163 0.048537105 0.083131306
0.03904208 -0.017381556 0.04231059 -0.038120113 -0.015703365 -0.09292319 -0.43346575 0.07842547
0.08380267 0.46636918 -0.1183061 -0.24989457 0.40947112 -0.013895524 0.15977843 -0.10338542
-0.17235546 0.19833782 0.14452577 0.07378095 0.16457325 0.07791587 -0.14129965 -0.109218195
0.11221458 0.14209288 0.20879099 -0.2299219 -0.36436754 0.21814498 -0.08571082 -0.2673764
0.19323595 -0.33771265 0.020706158 0.17625058 0.45034036 0.30099347 -0.31464353 0.1755987
0.2617363 -0.44544375 -0.22653006 -0.0890477 -0.44633356 -0.22409278 0.113086715 -0.1405423
0.07188325 0.20250125 -0.08532964 -0.026208775 -0.29372177 -0.050268974 0.12025604 0.25407463
0.17490947 -0.07115533 0.22921585 0.030028075 -0.033471256 0.13115117 -0.059694454 -0.21760224
0.012973119 0.17825003 -0.35396856 0.10960868 0.37703255 -0.2112077 0.184058 0.065189
0.18863124 0.53360814 -0.11108982 -0.08018703 0.054730304 0.18430187 -0.124902196 -0.13717628
-0.13846552 -0.3307037 -0.040057246 0.21294512 -0.013038887 0.013801809 -0.0007145269 0.25311106
0.12510704 -0.08799674 0.3341534 0.010384823 0.3140083 -0.099626414 -0.8050099 0.0321546
-0.11835664 0.38826966 0.10566651 -0.033220477 0.10211907 0.04726106 0.14388144 -0.06801611
0.21212044 -0.18467762 0.043451823 -0.10768612 0.042583264 -0.35888737 -0.16360694 0.061593696
0.05980072 -0.010737164 0.2205586 0.21192437 0.29775935 0.04063392 0.3510972 0.08621001
00000000: 5d38 7cbe 491e f5bd f9c6 73bd b750 59bd
00000010: 4114 a7bb 3238 b13e d0d0 e1bd bd0f c33d
00000020: f6e8 3f3e 8074 e93e 974f c53d 4634 bcbe
00000030: ad85 3d3d b1b4 57be dccf 843d f533 86bd
00000040: 4263 b2bd 9ba2 d1bd 05fb e83e 8ed4 40be
00000050: 8ce8 603e 1355 203d f2e0 e83d 98da 163e
00000060: 8dc2 e43e efb9 a7bc 140e 3f3e 6c34 32be
00000070: dec3 07be 45c1 433e a433 fe3d ac10 49be
00000080: b351 bfbd 02a2 70be ac7a 453e 0ca4 a23e
00000090: 191b 393c 5048 b7be 3250 2abd 24e1 d1be
000000a0: b127 c1bd 1020 8fbd fb01 d6bd f21b 06bc
000000b0: 3416 923d 1f2a 3ebe 21df 123c f25c dfbd
000000c0: 707a 643e 64e0 913d 5f3a 36be 4d4e 8fbe
000000d0: 117f e83c cacb 10bd f188 763d 97d2 4dbe
000000e0: e216 9d3c 1657 69be 9164 c03e 1f05 18be
000000f0: 92f5 1dbc ba35 da3d fa51 aebe d57c 183f
00000100: 443b 053e f6c1 163e 5551 81bd ecd6 9c3e
00000110: 651c 0cbe d091 213e 7110 963e 569b 56bd
00000120: 3925 ecbd eccb 4ebe 7fad fc3e e71a acbe
00000130: 3934 ad3b cff6 33be 1f32 cd3e 40bb 9e3e
00000140: 621d fbbd 2ece 823e bcff 563b ad08 1a3d
00000150: 0d79 d1bd 5911 333e 5599 93bc 6079 be3e
00000160: c4ab 92be 8920 f53d adef cdbd 8a68 b3bd
00000170: ff41 1fbe f653 db3e 5e5a ae3d c317 31be
00000180: e768 3fbe 4bc2 8d3d 0f34 9639 00de 62be
00000190: 1531 593e 2fa5 bc3d 5619 9ebe 27b6 863b
000001a0: 6ef3 133e d216 1bbe baa6 cf3b 882d 73be
000001b0: 164b 9abe 7e5b 19be 19d6 e0be cd7e 9ebe
000001c0: 3127 cebd 128c 56be 00dc cbbc 3597 dbbd
000001d0: 4f0d 99be 8cc5 483e f74d 90bd cd8f 7f3e
000001e0: 318e 33bd d157 973d d8f6 e1bd 56c4 953e
000001f0: 59dd 293e 8fb8 babe c395 99bd 3e77 153e
00000200: ff94 303e 7fe2 0c3e 4f6f ccbb b099 3e3e
00000210: 7714 b83c cac4 17be d8ce 463d bf40 aa3d
00000220: 97ea 1f3d c463 8ebc df4d 2d3d d623 1cbd
00000230: 58a4 80bc 834e bebd 39ef ddbe 889d a03d
00000240: bca0 ab3d f1c7 ee3e 784a f2bd 5de4 7fbe
00000250: 33a6 d13e 0daa 63bc f59c 233e bcbb d3bd
00000260: f37d 30be 1219 4b3e 90fe 133e 771a 973d
00000270: e485 283e 5b92 9f3d dbb0 10be caad dfbd
00000280: c2d0 e53d cc80 113e 4ecd 553e a670 6bbe
00000290: 628e babe 6661 5f3e 2889 afbd 8fe5 88be
000002a0: a5df 453e ace8 acbe f69f a93c 087b 343e
000002b0: 0393 e63e d11b 9a3e f518 a1be 25d0 333e
000002c0: 4d02 863e 3411 e4be 7ff7 67be a45e b6bd
000002d0: d585 e4be 9478 65be 029a e73d 52ea 0fbe
000002e0: 8637 933d 7d5c 4f3e 4ec1 aebd c9b3 d6bc
000002f0: b362 96be d7e6 4dbd cc48 f63d 1216 823e
00000300: 781b 333e e3b9 91bd 8fb7 6a3e 70fd f53c
00000310: 2819 09bd 7e4c 063e 2c82 74bd 1fd3 5ebe
00000320: 348d 543c 2d87 363e 5e3b b5be 847a e03d
00000330: 690a c13e d546 58be b379 3c3e cf81 853d
00000340: 8c28 413e 8b9a 083f 0f83 e3bd 1939 a4bd
00000350: e22c 603d a1b9 3c3e b9cc ffbd f077 0cbe
00000360: e8c9 0dbe ff51 a9be 1113 24bd 490e 5a3e
00000370: 0ea1 55bc fc20 623c 174f 3bba c697 813e
00000380: 0f1c 003e a337 b4bd 2816 ab3e 1b25 2a3c
00000390: b2c5 a03e ef08 ccbd 2115 4ebf 8bb4 033d
000003a0: f764 f2bd 48cb c63e af67 d83d 3212 08bd
000003b0: ce23 d13d d094 413d a855 133e 084c 8bbd
000003c0: 1a36 593e 211c 3dbe 8afa 313d 8a8a dcbd
000003d0: ca6b 2e3d 16c0 b7be 9488 27be ac49 7c3d
000003e0: 9af1 743d eeea 2fbc 1dda 613e b402 593e
000003f0: ea73 983e c16f 263d 03c3 b33e e08e b03d

actor.2.bias f4 [5]
-0.012191911 0.06956444 0.019923694 0.016009843 -0.16188732
00000000: 95c0 47bc cd77 8e3d 0437 a33c 1327 833c
00000010: cac5 25be

critic.0.weight f4 [64, 8]
-0.25723332 -0.4288191 0.00328118 -0.11416084 -0.31142908 0.060830418 -0.19482967 -0.23264928
0.0020649356 0.18097955 0.0053334883 -0.11026891 -0.1802896 0.012671884 -0.1366266 0.3600997
0.22293858 -0.06496946 -0.0145467995 -0.047187597 -0.15292692 -0.08837629 0.18607628 -0.22066392
-0.22094852 -0.31244862 -0.06902647 0.13760903 -0.11426301 0.17575069 0.024166372 0.13476354
-0.14006443 0.33434218 0.16879538 -0.0198148 0.52723575 0.13044724 0.35933644 -0.018144144
-0.14168055 -0.050339304 -0.2855534 0.18193132 -0.11033368 -0.14420016 -0.103208646 -0.086251654
-0.13683623 0.1199266 -0.46892467 -0.12618217 -0.2821517 -0.12671226 0.09026077 -0.4043224
-0.08875169 0.020198487 0.12533422 0.24737374 -0.011989353 -0.070713066 -0.09925314 0.15971087
0.14929713 0.0754243 -0.23494229 -0.14753039 -0.05629984 0.13970251 0.20893799 0.001079265
0.21578121 -0.03934597 -0.23822862 -0.13704449 -0.2773108 0.08465657 0.19418694 -0.25176924
0.4585572 0.061984498 -0.2749058 0.029918442 0.06500311 -0.18933578 -0.13801172 0.15422615
0.40041518 0.118269704 0.020777082 -0.32614037 0.2133539 -0.041859765 -0.13765445 0.16920662
0.04716278 0.009833657 0.2534684 0.30855137 -0.17038494 0.030058742 0.03575848 -0.18740289
0.22357908 -0.1886829 0.0431181 0.03477678 0.24639823 0.16773728 0.017422415 -0.1723061
0.3979697 0.23335572 0.15853745 0.0072842515 0.18835738 -0.39157262 -0.0041007656 -0.0651293
0.061226834 0.31058377 -0.39504164 0.06682661 0.12050249 0.19572568 -0.34226555 -0.262194
0.00373949 0.3050858 0.12023048 0.105458595 -0.20653373 -0.023531612 -0.018896323 -0.055392195
-0.039337322 0.117791675 -0.043388605 -0.14435288 -0.6474606 -0.35322145 -0.23729166 -0.12774621
-0.032613993 0.02569613 0.4196768 -0.35632923 0.12729786 -0.25313303 0.00020972533 -0.041633967
0.14006993 0.41925037 0.121214375 -0.092603855 0.4505127 -0.05247996 -0.059230793 0.09294803
0.18123974 0.120225854 0.28413484 0.044387884 -0.09997132 0.06115895 0.07280823 -0.0014621407
-0.39165932 -0.1559278 -0.23346162 -0.15713806 -0.22373195 0.21327738 -0.042192463 -0.05939885
0.24011336 -0.03546681 0.24799286 -0.28322095 0.31695187 -0.14879787 0.13353811 0.20375337
0.034798853 0.13505307 0.44853142 0.103032604 0.20043577 0.32053834 -0.44818953 -0.22115985
0.19003104 0.16653228 0.13807616 0.08853801 0.17413376 -0.5412516 -0.24836503 0.16370009
0.29639968 -0.049519088 -0.44530863 -0.003876785 0.07545004 0.18546674 -0.2890509 -0.15977713
0.39192262 -0.018442214 0.48254815 -0.11363587 -0.063801914 -0.24856693 0.14216924 0.24984618
0.1349916 -0.1584917 0.09790354 0.38497564 0.19011107 -0.1762696 -0.15713581 -0.047945417
0.048652627 -0.26227623 0.22013287 -0.020814281 0.2349616 -0.063129336 0.36477783 -0.06053224
0.026142202 0.103015274 0.28207904 -0.28027415 0.14313884 -0.23680598 -0.04651933 -0.114412114
0.3203539 0.114543684 0.11153675 -0.027334165 -0.03617259 0.3382114 -0.16832499 -0.16627532
-0.11984794 0.024440428 0.094808035 0.07758147 0.32113007 -0.1821683 0.1584756 0.18270671
00000000: 16b4 83be 2d8e dbbe 1109 573b 29cd e9bd
00000010: a273 9fbe 5129 793d 6e81 47be 9d3b 6ebe
00000020: df53 073b b452 393e 8bc4 ae3b abd4 e1bd
00000030: d69d 38be bc9d 4f3c d8e7 0bbe fd5e b83e
00000040: 034a 643e b50e 85bd b355 6ebc c847 41bd
00000050: e098 1cbe a1fe b4bd c88a 3e3e b9f5 61be
00000060: 5440 62be 44f9 9fbe c05d 8dbd 62e9 0c3e
00000070: ba02 eabd fdf7 333e 8ef8 c53c 74ff 093e
00000080: 0d6d 0fbe e62e ab3e b2d8 2c3e a652 a2bc
00000090: ecf8 063f f693 053e f2fa b73e 07a3 94bc
000000a0: b514 11be 9630 4ebd 0e34 92be 344c 3a3e
000000b0: a0f6 e1bd 35a9 13be 0e5f d3bd b5a4 b0bd
000000c0: cc1e 0cbe 149c f53d e516 f0be e635 01be
000000d0: 3076 90be dcc0 01be a3da b83d 5803 cfbe
000000e0: 72c3 b5bd 4c77 a53c 9d57 003e 8b4f 7d3e
000000f0: fe6e 44bc 03d2 90bd 3b45 cbbd 3f8b 233e
00000100: 59e1 183e 0e78 9a3d b694 70be 3512 17be
00000110: a99a 66bd 2d0e 0f3e d7f3 553e 2076 8d3a
00000120: c0f5 5c3e 3d29 21bd 34f2 73be 6455 0cbe
00000130: aefb 8dbe 6c60 ad3d f1d8 463e e6e7 80be
00000140: 02c8 ea3e 75e3 7d3d 74c0 8cbe 8517 f53c
00000150: 5a20 853d 3de1 41be f252 0dbe 76ed 1d3e
00000160: 3803 cd3e 6337 f23d b334 aa3c dffb a6be
00000170: 7279 5a3e 2575 2bbd 4af5 0cbe 8044 2d3e
00000180: c22d 413d 591d 213c 9cc6 813e 72fa 9d3e
00000190: 6479 2ebe c03d f63c 7c77 123d 8be6 3fbe
000001a0: eaf1 643e 1736 41be 9b9c 303d 1972 0e3d
000001b0: d14f 7c3e 52c3 2b3e 74b9 8e3c 0371 30be
000001c0: afc2 cb3e cdf4 6e3e a457 223e bbb0 ee3b
000001d0: c2e0 403e 357c c8be b75f 86bb 8362 85bd
000001e0: fdc8 7a3d d604 9f3e e642 cabe 64dc 883d
000001f0: 02ca f63d 506c 483e 6e3d afbe 4b3e 86be
00000200: 3b12 753b 3534 9c3e 663b f63d adfa d73d
00000210: 947d 53be 5ec5 c0bc 76cc 9abc ede2 62bd
00000220: 2c20 21bd c33c f13d 40b8 31bd 3ed1 13be
00000230: fabf 25bf 71d9 b4be 96fc 72be e7cf 02be
00000240: 4096 05bd b180 d23c e1df d63e c970 b6be
00000250: 5f5a 023e a79a 81be b7e9 5b39 6188 2abd
00000260: 7e6e 0f3e fca7 d63e 3e3f f83d 17a7 bdbd
00000270: 9aa9 e63e 3af5 56bd fd9b 72bd 895b be3d
00000280: e996 393e f938 f63d 1f7a 913e 12d0 353d
00000290: c3bd ccbd cf81 7a3d 7b1c 953d 4da5 bfba
000002a0: 9287 c8be 8aab 1fbe 9010 6fbe cde8 20be
000002b0: fd19 65be 6365 5a3e 01d2 2cbd 354c 73bd
000002c0: 47e0 753e a545 11bd d7f1 7d3e 5602 91be
000002d0: 8447 a23e 785e 18be 37be 083e b9a4 503e
000002e0: 3e89 0e3d 5a4b 0a3e e9a5 e53e c202 d33d
000002f0: 093f 4d3e 9a1d a43e 1979 e5be ba77 62be
00000300: 7f97 423e 7087 2a3e d663 0d3e 6b53 b53d
00000310: 1f50 323e 778f 0abf 6753 7ebe ffa0 273e
00000320: b3c1 973e 87d4 4abd 7eff e3be a911 7ebb
00000330: 8d85 9a3d feea 3d3e 7bfe 93be 9e9c 23be
00000340: 15aa c83e 2014 97bc 8d10 f73e ecb9 e8bd
00000350: 94aa 82bd 5488 7ebe d094 113e add7 7f3e
00000360: 3d3b 0a3e a64b 22be a781 c83d 871b c53e
00000370: 7aac 423e 0580 34be 36e8 20be 6a62 44bd
00000380: fa47 473d 1249 86be 836a 613e b682 aabc
00000390: c699 703e f449 81bd 29c4 ba3e a7f0 77bd
000003a0: 2c28 d63c acf9 d23d aa6c 903e 1880 8fbe
000003b0: fd92 123e 447d 72be 0e8b 3ebd e650 eabd
000003c0: 6d05 a43e e195 ea3d 616d e43d e6eb dfbc
000003d0: b629 14bd 0b2a ad3e 635d 2cbe 1444 2abe
000003e0: d672 f5bd 4b37 c83c b72a c23d 09e3 9e3d
000003f0: 296b a43e 548a 3abe 6d47 223e 7817 3b3e

critic.0.bias f4 [64]
-0.06577327 -0.014303226 -0.14189368 -0.10748387 0.076974176 -0.08997749 -0.04187812 0.0038017347
0.06129207 -0.07476864 0.0088103395 0.15827097 0.07411008 0.07692835 0.21012615 -0.122421764
0.0013463288 -0.14980452 0.23005643 0.06631882 0.011463542 -0.05222905 0.1602025 0.08434942
0.108692974 -0.061397854 0.14041013 0.18190926 0.09000389 0.22868069 0.09262725 0.07016923
-0.047956716 0.0708695 -0.14191124 -0.11169929 -0.042937007 0.12614563 -0.104055144 0.075720295
-0.083147824 -0.095022686 -0.13607498 -0.06257599 0.12984385 -0.10494324 0.08180263 0.16934699
0.06057782 0.09620735 -0.04376617 -0.10671725 0.06345267 -0.065143384 0.02871038 -0.019746015
0.04050541 0.113450214 0.028697224 0.0035838997 -0.09013727 -0.04207322 -0.06979184 -0.01755052
00000000: 23b4 86bd 1458 6abc 944c 11be 8120 dcbd
00000010: a3a4 9d3d 1e46 b8bd 6488 2bbd 8626 793b
00000020: 650d 7b3d 4d20 99bd 3e59 103c c911 223e
00000030: 07c7 973d 9c8c 9d3d 4f2b 573e 43b8 fabd
00000040: 4c77 b03a 5b66 19be ea93 6b3e 29d2 873d
00000050: 94d1 3b3c 21ee 55bd 200c 243e 64bf ac3d
00000060: 6c9a de3d 517c 7bbd acc7 0f3e 6c46 3a3e
00000070: f653 b83d 452b 6a3e 5bb3 bd3d e3b4 8f3d
00000080: 436e 44bd 0724 913d 2e51 11be 99c2 e4bd
00000090: b7de 2fbd 522c 013e dd1a d5bd 3e13 9b3d
000000a0: 6849 aabd 419b c2bd 3d57 0bbe d727 80bd
000000b0: c9f5 043e 7bec d6bd 2388 a73d 4c69 2d3e
000000c0: 7320 783d 5c08 c53d 2844 33bd 938e dabd
000000d0: 79f3 813d e569 85bd 0832 eb3c 65c2 a1bc
000000e0: 00e9 253d 9658 e83d 7116 eb3c dcdf 6a3b
000000f0: e499 b8bd f854 2cbd 06ef 8ebd 1cc6 8fbc

critic.2.weight f4 [1, 64]
0.18529056 -0.26282084 0.21793605 0.37892 -0.11087778 0.19921525 0.32563007 0.48773444
-0.1963714 0.20732094 -0.30789587 -0.5059502 -0.20883 -0.58688855 0.298318 0.09044311
-0.14107792 0.21609864 0.20732895 -0.17644428 0.22518201 0.24172868 -0.052652907 -0.27385712
0.48746014 0.11301736 -0.28013283 0.21591833 -0.22360586 0.32502863 -0.22705923 -0.2731279
0.34707087 -0.31647363 0.3614488 0.25228584 0.2823927 0.08741966 0.27869746 -0.3100786
0.15682995 0.40674686 -0.45520103 -0.20468837 -0.41965136 -0.38116932 -0.3825691 0.36624572
-0.13146374 0.30752483 0.34319732 0.46605206 -0.5091566 0.41850325 -0.3004048 0.2659634
-0.40875387 -0.16268298 0.18612206 0.07557849 -0.2753603 0.19923162 0.15494956 0.37811893
00000000: cfbc 3d3e 7490 86be a12a 5f3e cd01 c23e
00000010: e413 e3bd 15ff 4b3e fcb8 a63e 54b8 f93e
00000020: 9615 49be f14b 543e 87a4 9dbe f485 01bf
00000030: 88d7 55be 543e 16bf 23bd 983e 3d3a b93d
00000040: bb76 10be f648 5d3e 0a4e 543e cfad 34be
00000050: 1d96 663e b987 773e 93aa 57bd 0037 8cbe
00000060: 6094 f93e a575 e73d 926d 8fbe b219 5d3e
00000070: eff8 64be 276a a63e 3782 68be 6cd7 8bbe
00000080: 46b3 b13e d508 a2be d10f b93e 9c2b 813e
00000090: c795 903e 1409 b33d 6fb1 8e3e 9fc2 9ebe
000000a0: 0898 203e 2041 d03e 1c10 e9be d499 51be
000000b0: 8bdc d6be a028 c3be 19e0 c3be 8f84 bb3e
000000c0: 6e9e 06be e573 9d3e 8fb7 af3e 609e ee3e
000000d0: 1658 02bf 0f46 d63e a8ce 99be 5b2c 883e
000000e0: 3048 d1be 5e96 26be c896 3e3e e5c8 9a3d
000000f0: 06fc 8cbe 6003 4c3e 19ab 1e3e ce98 c13e
