outputs/centerSquare_4a_PPO_wprior0.995/last_status.pt (torch, 103493 bytes, 84 tensors)

actor.0.weight f4 [64, 8]
00000000: 7ba2 ad3d 8192 8fbe e7df b63d b6b5 69be
00000010: 1ef6 55be 73d1 273e 294f 9d3e 14e2 aa3b
00000020: f6c9 82be 886c 82bc b171 01be 015a 75be
00000030: 890c 283e 4a15 bbbe a330 ccbe 3ab9 8a3a
00000040: 95d1 7e3e 40e2 3abe c0dc 2ebd ddd8 5dbe
00000050: d9b7 b33d d530 a73e 9d4e 993e 302f e03c
00000060: 38fa e13e a382 9dbd c648 293e 5c48 21bd
00000070: b457 e43d 12c0 85be d4e9 093e 4bc5 2abd
00000080: 34b6 83bd 0cc5 b93e da67 ebbe 8288 5fbe
00000090: 3ba3 9bbd 0775 a83d 8a68 ab3d 21b2 3ebe
000000a0: b749 a5bd a798 1ebe e674 26be 5c37 21bf
000000b0: 4adb 68bd 940c a73d f9c1 d13e f3b8 87bd
000000c0: 8377 a0bd 6069 04be e9e6 e2be 5464 063e
000000d0: 6232 a33e 9018 723d 826d 91be 5c50 98bd
000000e0: eaa2 8f3e 3890 d2be 0b0f 4ebd 664b ca3e
000000f0: aee0 9e3e fdb4 c5bc 8715 17b9 4611 5ebc
00000100: 3f67 d23d c73f c8be 497c cf3d 6cc0 23be
00000110: 30c5 393e 4307 31bd a3e7 4bbe 66e2 5bbe
00000120: 3a4b 00bd a9f9 b93e c0de 193e b419 d6bd
00000130: 3063 a93d 5b83 fa3e fac1 55be 8119 643e
00000140: e1b3 babe 86bd 03bd 600a f13c b86d 843d
00000150: f6ae 37be 65c5 bfbe ff6f 0ebe c4ca df3d
00000160: 5948 3b3e 0d2d 9ebd a2be 3abe 8e33 013f
00000170: f4e0 4bbe 2568 13bc a568 7abe e0cc d2bd
00000180: a310 583e 5b77 653c 8729 093e 0c81 df3d
00000190: 3992 2b3e 9e42 30bd c03a 1cbe b6b1 45bd
000001a0: f083 bcbd a8e7 783d 96a9 a93d cae2 35be
000001b0: e495 d0bd fb97 6fbd 346f e9bd da7c e8be
000001c0: 4272 143d 17bf 0a3e 5f5d a93d 67cb a5be
000001d0: 41f7 753e d2db 56be 2d04 6cbe 816e f8bb
000001e0: 4173 38be 6eb7 ce3d a06e 8e3d 875a 873d
000001f0: 46e3 cd3d 3199 0abf 3f0a 6bbd 1ea8 ca3e
00000200: 284c 073e 5d70 f83d 255f 653e 3087 353e
00000210: 4e88 6abe dfd2 783e 238f e5bd 2ee1 583d
00000220: 76b9 8a3e 12de 77be 8899 8bbd 3098 9abe
00000230: 10c0 f23d 7964 ecbe 8571 2e3e 5a7a b73c
00000240: fba9 b13e 9346 c4bd 33f5 95bc 685e d9bc
00000250: 048f 193e 4c73 49ba 6d4f dc3d 0f39 143d
00000260: e014 debe 117c 2d3e 27a7 44bd 05e4 0b3e
00000270: f99e 263e e665 39bd 9af5 ac3d f60b b7be
00000280: d54e a13d 3838 893e 3422 babe e202 553d
00000290: 43e7 863e cd6c b73c ef0d 743e 364d e93d
000002a0: dfe6 fdbd eda1 35bd da28 8a3c f772 273e
000002b0: effe b9be ac4d 0d3e 9b38 543e 5a79 17bd
000002c0: 7360 26be 57c1 a7bc c5e9 12be 363c 4fbe
000002d0: c350 a8bd 8551 023e 33ea 05be 22af 24bd
000002e0: a0d9 5cbe 5ea2 e5bd e54f 0d3e a536 0ebe
000002f0: 2f38 453f 55c4 c83e 4109 843e b8a8 29be
00000300: 7d01 e13d ab27 e2be e72f 6c3d 5f47 753d
00000310: aa9e e0bd 8a8c 453c 114d c43d b58c b3be
00000320: 1663 633d 282f abbd 6bfa a4bc 19da f3bd
00000330: 6c2c 62be 856b 8abd aa2a 503d d724 dc3d
00000340: 8953 0cbe 9db6 fcbd 88bd cabd fd96 2ebd
00000350: c123 b73d 5dd0 0abe 4e1f 62bb 2ff1 98be
00000360: 99f0 e3be 97fa dabe 15b1 333c 96e4 573e
00000370: 3974 1e3e eac0 e0bd c842 84be 2325 083f
00000380: c701 b63a e2a7 33be 453c a63e 8466 00be
00000390: 95e4 b13d f681 743e e9c6 fcbd 37bc 88be
000003a0: b1de 3e3e 1cf3 f73d ba78 ac3b 1c38 1d3e
000003b0: 5499 353a 5b60 d13b ab89 e8bd f487 953c
000003c0: 6d33 fc3d e538 c1bc 1e5f 033f c1db 9dbd
000003d0: 1ca0 38be b346 f8be 598e 16be a5a2 1d3e
000003e0: 46b0 15bd 3121 a03c 1c11 933e c902 613e
000003f0: d2d9 843e 2600 8fbe 7c2f aa3c fc56 3fbe
0.08478256 -0.2804146 0.08929425 -0.22823223 -0.20894668 0.16388492 0.30724457 0.005214939
-0.2554471 -0.015920892 -0.12641026 -0.23960115 0.16411032 -0.3653968 -0.39880857 0.0010583766
0.24884637 -0.1825037 -0.042690992 -0.21664758 0.087753005 0.32654443 0.2994279 0.02736625
0.44136214 -0.076909326 0.16531667 -0.039375648 0.111495405 -0.261231 0.13468105 -0.04169206
-0.06431237 0.36283147 -0.4597767 -0.21829417 -0.07599493 0.08225446 0.083695486 -0.18622638
-0.080707006 -0.1548792 -0.1625553 -0.62975097 -0.056849755 0.08156696 0.40968302 -0.06627073
-0.07835295 -0.12930822 -0.44316795 0.1312421 0.31874377 0.059105456 -0.2840386 -0.07437202
0.2805398 -0.41125655 -0.050307315 0.3951065 0.31030792 -0.024134154 -0.00014408502 -0.013553923
0.10273599 -0.39111158 0.101311274 -0.15991372 0.18141627 -0.043219816 -0.19912581 -0.21473083
-0.03132174 0.36323288 0.15026379 -0.10454121 0.08270872 0.4892834 -0.20874777 0.22275354
-0.36465362 -0.032163166 0.029423892 0.0646624 -0.17937836 -0.37455288 -0.1390991 0.10927346
0.18289317 -0.077234365 -0.18236783 0.5046929 -0.19910032 -0.008996998 -0.24453981 -0.10292983
0.21100096 0.014005507 0.13394748 0.109132856 0.16754998 -0.04303228 -0.15256786 -0.04826518
-0.092048526 0.0607678 0.08284299 -0.17762294 -0.10184839 -0.05849455 -0.113981634 -0.45407754
0.036241777 0.13549457 0.08269762 -0.32381746 0.24020101 -0.20982292 -0.23048468 -0.0075815325
-0.18012716 0.1009358 0.06954694 0.066090636 0.100531146 -0.5414 -0.05738282 0.39581388
0.13212645 0.121308066 0.22399576 0.17727351 -0.22903559 0.24299191 -0.11208942 0.052949123
0.2709462 -0.24205807 -0.06816393 -0.30194235 0.11853039 -0.46170405 0.17035492 0.022397209
0.34699997 -0.095837735 -0.018305397 -0.026534274 0.14995962 -0.0007684722 0.10757337 0.036187228
-0.433753 0.16941859 -0.04801097 0.13661201 0.16271581 -0.045263194 0.08445282 -0.35751313
0.07876364 0.26800704 -0.3635422 0.052004702 0.26348314 0.022390747 0.2383344 0.1139168
-0.12397551 -0.044343878 0.016865183 0.1635245 -0.3632731 0.1379916 0.20724718 -0.036980964
-0.1624773 -0.020477934 -0.14346988 -0.20237812 -0.08218529 0.1272641 -0.13077621 -0.040206082
-0.21567392 -0.1121261 0.13800009 -0.13888033 0.77038854 0.3921229 0.2578831 -0.16568267
0.10986612 -0.4417089 0.05766287 0.059882518 -0.10967763 0.012057433 0.09585012 -0.35068288
0.055514418 -0.08358604 -0.02013894 -0.11906833 -0.22087258 -0.06758789 0.050821938 0.10749214
-0.13703741 -0.12339518 -0.098994315 -0.042624462 0.089423664 -0.13556047 -0.0034503522 -0.29871508
-0.445195 -0.4276931 0.010967513 0.21083292 0.15474023 -0.109742954 -0.258322 0.53181666
0.0013886028 -0.17544511 0.32467857 -0.12539107 0.08686177 0.23877701 -0.123426266 -0.26706097
0.18639638 0.12106916 0.005263415 0.15353435 0.000692745 0.0063896603 -0.11354383 0.018253304
0.12314496 -0.0235867 0.5131701 -0.0770793 -0.18029827 -0.4849144 -0.14702739 0.15394075
-0.03654506 0.019547077 0.2872399 0.21973719 0.25947434 -0.279298 0.020774595 -0.18685526

actor.0.bias f4 [64]
00000000: 3a0d 26bd 14e0 6bbd 19be f63c 0100 153d
00000010: 77d5 fe3d d411 22bb 4fed 653c f696 0b3c
00000020: e99d 89bb ba98 2e3d 2e38 f0bd ede4 ffbc
00000030: db0a 313d b075 763c 09eb 77bc 94a0 873d
00000040: eec2 46ba f6aa a63c 2d50 6d3c e3be 6f3d
00000050: 15cb 9e3c d5e9 13bd fc5e 0dbd 1e67 d13a
00000060: 0c51 c139 ae96 e1bd bb76 91bd 94b9 93bc
00000070: da81 b6bc b169 5e3d ab91 6cbc 716c 8b3c
00000080: dadd 1bbd 9c39 a1bc 681a 8bbc a4ee efbc
00000090: cba2 a2bc f98d 753c 607d a4bc 01f8 fabc
000000a0: f672 013d 45b4 99bd 16fc 66bc f8ce 19bb
000000b0: d695 e93c c35b 8f3d 7ec3 413d 8638 333b
000000c0: a237 05bc 58a6 93bd 531c dfbb 7840 a23c
000000d0: f1ca a7bc 4694 1f3d a0bd 523c 1bb3 cd3c
000000e0: 1243 123d 3d40 123d b0c1 0a3d 0c77 973b
000000f0: f079 b13c 8194 603d 7085 15bd 5f5b 153d
-0.040539958 -0.057586744 0.030119943 0.036376957 0.12443059 -0.0024729865 0.01403363 0.008519879
-0.0041997326 0.04262612 -0.117294654 -0.03123709 0.043223243 0.015042707 -0.01513172 0.06622425
-0.00075821474 0.020345192 0.014484447 0.058531653 0.019383946 -0.03611167 -0.034514412 0.0015976166
0.00036872213 -0.11015068 -0.07102724 -0.018032826 -0.022278715 0.054300014 -0.014439027 0.017019482
-0.03805337 -0.01968079 -0.016980365 -0.029288597 -0.019853016 0.014987462 -0.020079315 -0.030635836
0.031603776 -0.07505087 -0.014098188 -0.002346931 0.02851383 0.06999924 0.047305577 0.0027346923
-0.00813094 -0.07209462 -0.0068087964 0.019806132 -0.020482512 0.038959764 0.012862593 0.025109818
0.035708494 0.035705794 0.03387612 0.004622346 0.02166459 0.054829124 -0.03650421 0.03646409

actor.2.weight f4 [5, 64]
00000000: c02d c33c 4e83 bf3e ce6f 54be 9908 213e
00000010: 5be7 fb3c be5b bebe 0e4d 08be e818 133e
00000020: 3b1e 05bd 870d a9bd 9b14 20be 7035 20bc
00000030: 6303 953d 7639 85be fd16 dfbd 2680 813d
00000040: dbab 57bd 9cfd b93a b549 08bf 0144 eebd
00000050: aca8 b7bd 8c22 9d3e a4e1 db3c fb21 483e
00000060: fba3 b1be f93d 0bbe 5b08 ae3d ee86 c3be
00000070: 3793 45be 7bb9 8fbd 74d5 c63d ac18 4d3e
00000080: 27dc c13d f4db 423e be52 be3c eaae 143e
00000090: 76c5 f3bc e9da 01be 5bca 46be 2f13 35bd
000000a0: 0da9 6b3e 6d68 e43b 2fe1 dd3e d0bc 30be
000000b0: d8a9 c9be 205c 623e 939f d1b9 cdee 03bf
000000c0: 9d3e 283e 27ed 263e d044 dfbd d0d6 833e
000000d0: a9e8 b83d 10ec 9cbe a932 e0bd b1d3 f6bc
000000e0: f90e 423e c027 a63e 4347 c13e b467 993d
000000f0: 67b0 3e3e 5703 c23e 22de dcbb 7a54 d93b
00000100: 257d 583e e414 5cbe 4b88 a63e ef46 373e
00000110: 125c 2ebe f453 273e fa7b 053e 160e 90bd
00000120: a939 593e 11d6 283e b78c 32be cdd8 c4be
00000130: 7d77 8e3e 0c92 8abe b37b 943d 05ec 6e3e
00000140: c9b1 e13d 7fbb d43d 4175 80bc fee9 0c3f
00000150: 067c a8be 18d9 c4ba a6cb e83d cb4b 0dbd
00000160: 117a 8bbd ea4f 56be d4ec 49bb da21 2d3e
00000170: fc57 80bc 244e 3c3e 3c13 0fbd 4f32 c83c
00000180: 27f1 213d 751b 8d3e 9782 14bd 0794 23bd
00000190: fad4 8fbd fda5 9fbe d6cc 87be d122 1abc
000001a0: e0be 8a3e de3c 6fbe e014 1d3e e57e 1a3c
000001b0: 3f22 633e fbfc b8bd a757 f43e c546 493d
000001c0: cd56 873e d142 d73e de4c fe3d cd9f 58bd
000001d0: 4694 d5be 1340 2c3e e963 cf3d 6656 49be
000001e0: b470 a03e a79a cb3d 24f3 9d3e 1161 27be
000001f0: d353 babe beea ac3b bfdd 20bd 3a42 56bd
00000200: 04cb 5dbd e613 ac3e 80f5 9dbe 9457 1a3e
00000210: 69db 563e 1fa3 243e 0b5d 29bb 94d0 86be
00000220: 0f29 d03e c923 92be 3056 fa3e 57e3 11bc
00000230: 04e9 af3e e47d fbbc ae1e 153f 523c cd3d
00000240: faef cdbe a555 683b 5a12 313d 287d 9cbe
00000250: b786 a4be 9edc 413e e8b2 473a a283 133d
00000260: 88fe 3d3e e33d 533e ce2a aa3e 785d 063e
00000270: 5566 06bf ee61 95be 8d83 49be 4fe4 8d3d
00000280: 3263 f93d 48cd adbe 6a22 923c 1ef8 04be
00000290: 5475 0d3f ab7d 0e3e 9853 993e 552f f43c
000002a0: 4517 ad3e de1f 13bf be35 c7be c1fe 2bbe
000002b0: c82d 6f3e bd1c 23be b90e 6dbe 4639 3a3e
000002c0: 544f b33b eabe 58be 7903 8ebd 2a7c 82bd
000002d0: 87ef 23be 2b42 57be e81a 77be 94cf 433e
000002e0: 37b2 89be b8d2 bdbe 2f9f 20bd 8c26 8dbe
000002f0: a68e d93c 2501 74be c67e f63d fbf2 e6bd
00000300: 26af 58be 40f0 66be c218 1f3e 965a 55bd
00000310: d42b d93c 1589 7ebe 7b11 a33a 24f0 b33b
00000320: a144 56be bf8c b3bd d9ee aabe faf3 d1bd
00000330: 467b 2c3d 5484 343d 774a aa3d 0a6e 8c3e
00000340: c9a0 92be 7d50 fdbd fdf2 bc3c 362c 423e
00000350: f523 513e b3ae 33be b3ef c0be b615 e13d
00000360: 70a6 4ebe cca0 85be cbf9 a6be 1eea bdbe
00000370: ec1b 16be ed45 493d 4cf1 6ebe b7cd 6ebd
00000380: 65d2 84be efe2 19bd 0d78 22be bd72 59be
00000390: f022 69bd 6a6b a33e e987 373e c3d7 64bd
000003a0: 52f8 f63e b91b 5ebd 1971 333d a873 a2be
000003b0: 146f 203e b2f8 a23d 659f 2c3e ef44 083d
000003c0: ad8a eebd b58e 1d3e 5a10 5ebd 221b 15bd
000003d0: 6d29 413c 559d 2f3d 1203 333e bd38 51be
000003e0: 6660 f53e a6ee 143e fb93 71be 5f6d dc3e
000003f0: 0843 913e 3d0c ddbd 58ec bd3e 3e06 4c3e
0.023825526 0.37404865 -0.20745775 0.15725936 0.030749967 -0.3717937 -0.13310644 0.1436497
-0.032499533 -0.08254533 -0.1563286 -0.0097783655 0.072760366 -0.26020402 -0.108930565 0.063232705
-0.05265413 0.0014189961 -0.5323747 -0.116340645 -0.089677185 0.3069042 0.026840992 0.19544213
-0.3469542 -0.1359786 0.084976874 -0.3818888 -0.1929444 -0.070177995 0.09708682 0.20028943
0.09465819 0.19029218 0.023232814 0.1451985 -0.029757243 -0.12681164 -0.1941313 -0.044207748
0.23013707 0.0069704563 0.43335864 -0.17259526 -0.39387393 0.22105455 -0.00039982478 -0.51536256
0.16430135 0.16301404 -0.10901797 0.25749826 0.090287514 -0.3064885 -0.10947163 -0.03013024
0.18951024 0.32452202 0.3774968 0.07490483 0.1862198 0.37893173 -0.0067403475 0.006632385
0.21141489 -0.21492344 0.32525858 0.17898153 -0.1702731 0.1634062 0.13035575 -0.07033937
0.21213402 0.1648791 -0.17436491 -0.38446656 0.27825537 -0.2706455 0.07250156 0.23332222
0.11020238 0.103873245 -0.015680911 0.55044544 -0.32907122 -0.0015018312 0.11366968 -0.03449611
-0.06810392 -0.20928922 -0.0030811327 0.16907445 -0.015666954 0.18389183 -0.034930453 0.024438052
0.03953662 0.2756001 -0.036257353 -0.03993609 -0.07023044 -0.31181327 -0.26523465 -0.009407715
0.2709875 -0.23363063 0.15339994 0.009429668 0.22181033 -0.09032627 0.47723123 0.049139757
0.2643341 0.42043164 0.12417005 -0.052886773 -0.41714686 0.16821317 0.10126478 -0.19661865
0.31335986 0.09941607 0.30849564 -0.16345622 -0.36392078 0.005277007 -0.039273974 -0.052309252
-0.05414869 0.3360893 -0.30851364 0.15072471 0.20982136 0.16077851 -0.0025842811 -0.26331007
0.40656325 -0.28542927 0.4889388 -0.0089043 0.34357464 -0.030699678 0.5824994 0.10021271
-0.4022215 0.0035451439 0.043230392 -0.30564237 -0.3213403 0.18931815 0.00076179067 0.036014207
0.18554127 0.20629077 0.33235782 0.13121593 -0.52499896 -0.29176277 -0.19679089 0.06928312
0.12177123 -0.3394568 0.017838676 -0.12985274 0.55257154 0.13915126 0.2994659 0.029807726
0.33806816 -0.574705 -0.3890819 -0.167964 0.23357308 -0.15928932 -0.23150147 0.1818591
0.005472103 -0.21166578 -0.06934256 -0.06371339 -0.16009341 -0.21021335 -0.24131358 0.19122154
-0.2689378 -0.37074828 -0.03921431 -0.2756847 0.026557278 -0.23828562 0.12035899 -0.112768136
-0.21160564 -0.22552586 0.15536788 -0.052088343 0.026510157 -0.2485698 0.0012441123 0.0054912735
-0.20924617 -0.087670796 -0.3338535 -0.10251613 0.04210975 0.04407151 0.08314984 0.27427703
-0.28638294 -0.123688675 0.023065085 0.18962178 0.20423873 -0.17547111 -0.37682876 0.10990469
-0.20180678 -0.2609924 -0.32612452 -0.3709268 -0.14659089 0.049138952 -0.23334235 -0.058301654
-0.25941768 -0.037569936 -0.15866108 -0.21235175 -0.056918085 0.31917888 0.1792294 -0.05586983
0.48236328 -0.054225657 0.04380903 -0.31728864 0.15667373 0.07957591 0.16857679 0.033268865
-0.11647544 0.1538647 -0.054214813 -0.03640283 0.011789662 0.042874653 0.1748164 -0.204318
0.4792511 0.14544162 -0.23591606 0.43052194 0.28371453 -0.1079335 0.37094378 0.19924256

actor.2.bias f4 [5]
00000000: 67f1 a83c 6d2d c43c 5999 19be c3e8 4f3d
00000010: 4935 4fbe
0.020622922 0.023947442 -0.14999904 0.05075909 -0.2023517

critic.0.weight f4 [64, 8]
00000000: e9b7 7f3d e67c ed3d 70bb 323e d1b3 893d
00000010: 0245 c03e d17d 393c a520 f9be 25b8 3dbe
00000020: e5cb 753d 70b6 3fbd bdfa a53d 88b8 163e
00000030: 6912 a23c 5bfb 3d3e 2348 23be bf1c 2abd
00000040: ab39 77be f3e0 dc3d 2fc4 9a3d 8fd1 0d3e
00000050: 8c32 0b3e 47e4 2d3d dc33 23be 9f5a a2ba
00000060: 7a38 75be 747b fe3d 1057 f1be e023 573e
00000070: 5fc9 a0be e9ee 33be 41b5 38be 2b2f d93d
00000080: f269 f2be 459b a93c 1591 42be ede1 a5bd
00000090: 1804 55be 5032 cb3e d991 33be 9a44 5ebc
000000a0: 8918 043e d006 843e 1550 9cbe 2bab 60be
000000b0: 8e87 68be 6d8c c2bd 700b 2ebc b0c1 0dbd
000000c0: 11bb 0d3e 88dd d53e eccd ce3d e596 b83e
000000d0: 905d 893d 0250 4a3d e152 193d dbd0 b13e
000000e0: d511 6c3e a8fd 5cbe 944e d8bd e079 63be
000000f0: 7b6e 36be aa77 fabd 5b5e f2bd 267e 3d3e
00000100: 5ea2 95bb 8189 16be b80a 21bd cabe f7bd
00000110: a4cc ff3d 9ec1 953d 9a57 a1bd 73ff 653e
00000120: e6e0 763e 854d 6f3c ddfd 923c 0238 f5bc
00000130: 93b1 72be 1f2a adbd a355 1abe d7f7 343c
00000140: 6e15 613c a1a9 0abe d68f c3be cbab 043e
00000150: 3d94 9dbe d402 ae3d 4347 5cbd 94a9 31be
00000160: 2dc9 23bd 6080 fe3d 7760 8e3c e886 4abe
00000170: 8a0f d93e 30d9 a43e 0dac 213e 0725 96be
00000180: 3da0 1ebe b225 7f3b 8a07 983d cca5 2ebe
00000190: 8a21 c73d cf32 bd3e 672f e2bd a221 6ebe
000001a0: 113a a03e 4837 1e3e 0439 10bd 3d1a 6fbe
000001b0: 600d 05be a8a1 49bd 8b83 30be 77a3 67bd
000001c0: d809 4ebe 606f f6bd bf12 2f3d 2666 143e
000001d0: 6009 00be 8c75 6cbd 6881 19bc 2454 7abe
000001e0: 9496 31b9 9f8a 86be 7481 bbbd d040 92bd
000001f0: ca67 68be 2c0f d23d 9fef 133e 43d0 32be
00000200: c6bd 6dbc c68b 65be 1c9b ff3d 30a2 943e
00000210: da74 d93e 4d3e 1abd 60e4 18be beab 28be
00000220: 8a93 05bf da2b 25bd 20e6 a73e 5a8f f0bd
00000230: bbd1 4a3d 1d8c bdbe fdb7 d5bd eadc 2f3e
00000240: 2bff ec3d 32dd ef3d 6796 6d3e 1a52 b83d
00000250: c1f4 413e f470 42be 6d9c 523d 0dc3 10bd
00000260: 066c f23d 79c6 3ebe 6ff8 2fbe 3277 abbe
00000270: 0b5d 213e 9acd d2ba 3fe7 3a3d 43d1 973e
00000280: cbea c2be 55d6 793e b2a2 0d3e 4fc3 bebe
00000290: 2caa ac3e 5d77 8fbd af66 603e 4676 c4bd
000002a0: 7ff7 2ebd bd52 46be 07f8 c83e 578b 5dbc
000002b0: 2251 ba3e 3bb9 3f3d a25c 53be 58d8 c43e
000002c0: eb68 c6bd ff82 48be b003 203e afab bcbb
000002d0: 9c37 18be ec33 b6bb ab08 093e f74e 6d3e
000002e0: 5a52 d23d eab3 50bd fd72 17be f645 84be
000002f0: 0e20 e9be 89a0 43bd 37db 6dbe 8109 d4be
00000300: ba1a 71bd b01d 843e 41fd b43e 573a 88be
00000310: a0e2 14bd c86d c23d b297 2f3d 57e9 883b
00000320: 9e40 c5bc 7803 0cbe 3d70 acbe d612 123e
00000330: 0a5d aabd 816e b7bd 98ee 40bd 242c 8a3e
00000340: d956 11bf 98c4 4fbb d7dc 433e 11c6 003d
00000350: 2284 153e 31b2 573d 7bdd 4c3d 4720 573e
00000360: 047e 1bbf e09b 2e3e 5df4 943d dcb7 523d
00000370: 4b65 a33e da9a 45be df4a d8bd 5a30 993d
00000380: 2d10 703d c6b2 093e b51e c53e a6a4 63be
00000390: 24df 44be f4fb 9b3e f474 41be 30f1 bf3e
000003a0: 0e57 033c 777b 9ebe 08cc 82be 1854 243e
000003b0: 5855 793e 286b 25bd 00b1 9abe ef16 393d
000003c0: 2079 933e 72ce d63d f8d1 7f3d 98f7 293e
000003d0: 3722 ad3e 3845 bcbe d6af 603e 1151 aa3d
000003e0: 8340 b3be 11dd eb3d fe75 10be cd2e 8e3e
000003f0: 098c 44be 8398 87be ebe4 363d b235 0f3e
0.06243125 0.11596088 0.17454314 0.067237504 0.3755265 0.011321501 -0.48657718 -0.18527277
0.060008902 -0.046804845 0.08104465 0.1471883 0.01978417 0.18552916 -0.15945487 -0.04153132
-0.24143092 0.10785093 0.0755695 0.13849472 0.13593501 0.04245403 -0.15937752 -0.0012386626
-0.23947325 0.124258906 -0.47136736 0.21009779 -0.31403634 -0.17571606 -0.18037893 0.106047
-0.47346455 0.020703921 -0.19000657 -0.080997325 -0.20802343 0.39686823 -0.17536105 -0.013566161
0.12899984 0.25786448 -0.30529848 -0.21940295 -0.2270796 -0.0949944 -0.010622844 -0.034608543
0.13840891 0.41770577 0.1009787 0.36052623 0.06707299 0.049392708 0.037432555 0.34729657
0.23053677 -0.21581137 -0.105618626 -0.2221446 -0.17815582 -0.12229855 -0.11834403 0.18505153
-0.004566475 -0.14700891 -0.039316863 -0.12096937 0.12490204 0.0731232 -0.07878037 0.22460727
0.2410923 0.014605884 0.017943317 -0.029933933 -0.23700552 -0.084552996 -0.1507173 0.011045418
0.013738019 -0.13541271 -0.38195676 0.12956159 -0.3077716 0.08496633 -0.053778898 -0.17349845
-0.039986778 0.12426829 0.017379982 -0.19778025 0.42394668 0.3219695 0.15788288 -0.29325125
-0.15490814 0.003893238 0.07423313 -0.17055434 0.09723194 0.36952826 -0.110441975 -0.23255017
0.312943 0.15450776 -0.035210624 -0.23349853 -0.12993383 -0.049226433 -0.1723768 -0.056552377
-0.20120943 -0.12032962 0.042742487 0.14492092 -0.12503576 -0.05772929 -0.009369232 -0.2444616
-0.0001693613 -0.26277635 -0.091555506 -0.07141268 -0.22695842 0.102568 0.14446877 -0.17462258
-0.014510578 -0.224166 0.12480757 0.2902999 0.42471963 -0.03765707 -0.14930868 -0.16471764
-0.5217825 -0.040325023 0.3279276 -0.11746092 0.04951642 -0.3702096 -0.104354836 0.17174116
0.11572107 0.117121115 0.23201905 0.09000035 0.18941022 -0.189884 0.05141871 -0.035342265
0.1183701 -0.18630399 -0.17184614 -0.33489376 0.1575815 -0.0016083003 0.04563069 0.29651842
-0.38069758 0.24398167 0.13831595 -0.37258384 0.3372358 -0.070051886 0.2191417 -0.09592871
-0.0427165 -0.193675 0.3925173 -0.013521991 0.36390024 0.04680751 -0.20640805 0.38446307
-0.0968798 -0.19581221 0.15626407 -0.005757771 -0.14864963 -0.005560389 0.13382213 0.23174654
0.102696136 -0.05095283 -0.14789958 -0.25834626 -0.45532268 -0.04776052 -0.23228155 -0.414135
-0.05886338 0.258039 0.35349467 -0.2660701 -0.03634894 0.09493595 0.042869277 0.004178207
-0.024078663 -0.13673198 -0.3367938 0.14264998 -0.08318527 -0.08956624 -0.04710254 0.26986802
-0.56773144 -0.0031702872 0.19127212 0.03143889 0.14601186 0.05266017 0.050015908 0.21008407
-0.6073916 0.17051649 0.07273171 0.051444873 0.31913218 -0.19297352 -0.105611555 0.074799255
0.058609176 0.13447103 0.3849999 -0.22230777 -0.19225746 0.30465662 -0.1889227 0.374887
0.008016361 -0.3095357 -0.25546288 0.16047704 0.24348962 -0.040385395 -0.30213165 0.045187887
0.2880335 0.10488595 0.0624561 0.16598356 0.33815166 -0.3677156 0.21942076 0.083162434
-0.35010156 0.115167744 -0.1410751 0.2777008 -0.19194044 -0.26483545 0.044651907 0.13985327

critic.0.bias f4 [64]
00000000: dcfb 623e e42c 8f3d 9869 b7bc a49d 9fbe
00000010: dfd6 1bbd ece0 9fbd ad5c 7b3d bf2f f0bc
00000020: ebaf d8ba edb1 53be 5e64 7bbd 9e9d 9d3d
00000030: 0528 12be 4b3a 51be 0528 31bc 1c72 87be
00000040: d80b 963d 6518 adbd a502 373e e3cc eabc
00000050: 5432 8f3e bcf7 c13c 3b50 50bd 0ba0 e9bd
00000060: ed60 123d 5f2f 92bc 52de 1e3e adbb d43d
00000070: 595d e93d 3c07 30bd 72a9 b33d 6d32 85bd
00000080: 6dc8 193e f1f5 673d f59c a93c e040 d93d
00000090: fdf0 34bd 805e 09be a7de afbd 4c59 453c
000000a0: 26c3 033e a1ec ba3d 4a78 8d3c 3c65 d63d
000000b0: ccf2 683e b736 83bd 89a9 b13d 89ba 65be
000000c0: 7958 f4bc a136 033d 286d 16be 162d 953c
000000d0: 5932 a3bc 513b fbbb d181 c6bd 64e9 10be
000000e0: 073f 3ebd 7319 033e 3d61 5d3d 088d 5b3d
000000f0: 0942 663d aed5 24bd a74c 4f3b 3a83 5cbd
0.22166389 0.06990984 -0.022389218 -0.31174958 -0.038046714 -0.07806572 0.06136768 -0.029319642
-0.001653192 -0.20673342 -0.061375014 0.07696079 -0.14273079 -0.20432393 -0.010812764 -0.26454246
0.07326478 -0.084519185 0.17872103 -0.02866215 0.27968085 0.0236777 -0.050857764 -0.11407479
0.035736967 -0.017844854 0.15514496 0.10387359 0.11394758 -0.04297565 0.087725535 -0.065037586
0.15017863 0.056631032 0.020704726 0.10608077 -0.044175137 -0.13414955 -0.085873894 0.012045216
0.12867412 0.09127165 0.017269272 0.10468528 0.2274887 -0.064069204 0.086749144 -0.22434439
-0.029827343 0.03203452 -0.14690077 0.018209975 -0.019921469 -0.007666983 -0.09692729 -0.14151531
-0.046446826 0.12802677 0.05404781 0.053601295 0.05621532 -0.040242843 0.0031631382 -0.053836085

critic.2.weight f4 [1, 64]
00000000: feed 433e d15b 3ebe 5074 1b3f c368 43be
00000010: 42ee 7d3e c813 363e 8b73 24be b684 8e3e
00000020: 4594 aa3e 59dc 5cbe c471 b33e c37d d3bd
00000030: f8a5 a63e 29ee 23be cf6d aebe cf05 52be
00000040: 6dd8 953e 2df1 793e 77cb e1be 865f 94be
00000050: 2b16 8a3e 1855 fbbe 8146 813e 5b21 043e
00000060: 8c56 5ebe 0abf b83e e6fe b43e 4ad1 b93e
00000070: 10b2 18be d61e 38be a942 acbe 261e 813e
00000080: e24d 9c3e 1362 1bbf aea6 8c3d 6a63 debd
00000090: f5aa 603e f796 393e 8db4 fa3d ce40 bf3e
000000a0: 9107 75be 68ac f73e 0808 85bd 3944 d1bd
000000b0: 2793 dc3e 0dae 073e 8eaa 7cbe daad c7be
000000c0: 4b8e 533e beaf 663e 1746 873e 8baf c7bd
000000d0: 5534 3c3e 2e31 d43e 5d85 efbe 4bb4 463e
000000e0: 79fa 90bd c677 d43e f1db a5be 0679 f3be
000000f0: 6f3f 88be c0cd 993e 7111 c0be f5a2 473e
0.19133756 -0.18589713 0.60724354 -0.19082932 0.2479792 0.17780983 -0.16059701 0.27835625
0.33316246 -0.21568431 0.35047734 -0.103267215 0.325485 -0.1600882 -0.34068152 -0.20510028
0.29266682 0.24408408 -0.44100544 -0.2897913 0.26970038 -0.4908836 0.25249103 0.12903349
-0.21712703 0.3608325 0.35350722 0.36292487 -0.14911675 -0.17980513 -0.33644608 0.25218314
0.3052817 -0.60696524 0.06867729 -0.108588055 0.21940215 0.18123995 0.122414686 0.3735413
-0.23928668 0.48373723 -0.064956725 -0.102180906 0.43081018 0.13249989 -0.24674436 -0.38999826
0.20659749 0.22527978 0.26420662 -0.09750279 0.18379338 0.4144377 -0.46781436 0.19404714
-0.07079024 0.4149763 -0.32394364 -0.4755327 -0.26610896 0.30039787 -0.37513307 0.19495757

actor.0.weight f4 [64, 8]
00000000: c578 cf3d 4cd0 4ebe 9f6c 16bc ae3f 5dbe
00000010: 5b57 783e af75 b43e cc14 b93c d9ee fabe
00000020: e1e2 173e 9312 d73d fd1f 8ebd 0d5d 283e
00000030: ed0b a2be 2911 af3e 5382 b43d 18fd 27bd
00000040: 06cb d6be 53ac 883e e6b0 243e 42f8 b53e
00000050: dc31 803e 1870 d5bd 0f49 d4bc b0a4 48be
00000060: d579 4d3e 05a1 bdbd 62b6 193e ee51 423e
00000070: d17d a83e 7a63 323e 4273 fa3d 11a9 bf3e
00000080: 3332 46bd 7434 a93e 14e9 ee3d 3d2a 0f3c
00000090: 7434 1cbf 00ee 5f3e 4f25 aebd da34 7dbe
000000a0: 8f71 67be f2c0 243e be06 543d 8a2a 90be
000000b0: bdab 3fbe 1a05 64be 259a e2bd b173 df3e
000000c0: 4e5c d3bd c919 3e3e a061 a23d b289 03be
000000d0: ec4f e83d 9384 6a3d b350 8f3e 099c f13e
000000e0: 71ca 91bd 8aeb 67bd 44a4 2abe 50e9 c8bb
000000f0: 7dca 99be e608 7abe 30ca 6dbd b967 06be
00000100: 2fa2 b33d 5216 84be 98fb 1abe 5204 943e
00000110: cda1 1fbd a64b a33d 3ab2 6a3e fbfd a43e
00000120: f721 8c3e 7718 e43c 1772 1fbc abb3 be3e
00000130: 69bb a9be e574 3fbe 0475 893e f8ad 97be
00000140: ae89 cbbd 3095 723e 86eb b6bd 349f 03be
00000150: aa31 993c 21eb 0cbe 0030 7f3d 65be 09be
00000160: bf6c bbbd e960 17be ee32 6b3d 8472 e53d
00000170: 27d2 65bd a542 963e b1c3 0b3e 038b 9e3e
00000180: 8950 2c3d da45 f7bd 471c 66bc e036 d53e
00000190: 033e 69bd cd73 c0bd 1bb5 51bd c3e2 213e
000001a0: 5dbf 2c3e 2568 c7bd d8e0 d3bd ac22 ddbe
000001b0: 1e14 ccbd fae1 a83e 3431 98be 7c9b b43d
000001c0: 66c5 2cbe 6ac9 b8be c375 56be bd84 b5bd
000001d0: bb91 133e 2958 943e 130e 253e d022 273e
000001e0: b209 6cbe 937f 76be 9155 b33e 5923 e93d
000001f0: cbc7 6c3e 405b 17be bd11 e3bd 6a56 0a3e
00000200: 9c0c 0b3e 2abb e43d 2745 15be 113f 4fbd
00000210: 41ae c73d 98af 713d aac6 393e f559 9fbe
00000220: 3409 3dbe a85e 27bd 6d62 003d a97a 63bd
00000230: 3760 483e 3309 4e3e d18a 1c3e 0a4d efbd
00000240: 5918 bbbd ff59 a1be d583 d33e c761 cfbc
00000250: efe6 453b 77ca aebe ae4b abbe 1c59 cebd
00000260: 80c1 d73d 2bb7 263d cb5c 583e 18e3 123e
00000270: 4459 613d 0f9e c2be 0a1b 253e 834b 67be
00000280: 4b9c 1fbe 4ffb 223e 5c66 393e b611 e9bc
00000290: 7514 0d3e fd5b bebd d9a4 9cbd 4b0b ae3e
000002a0: add2 12be 2bbd 2f3c 0ae6 ce3d 11d0 573e
000002b0: 596d ebbc 6de4 cc3e f295 69bc d31f e53d
000002c0: 6785 843d 23e5 0dbe 9b31 f33e f717 d8be
000002d0: e022 90bd 961f 81be ad92 f93d 1a85 9c3c
000002e0: 3c0c b0be 22a2 12bc f075 bcbd 73ed 243e
000002f0: d70a 0ebf 3bb2 47bd 61ff 873b 2a3a a63c
00000300: 91e9 853e 65fb 0e3f 1bbd b8be 467a 08be
00000310: d4a0 8cbd 3dcf cf3d f4f4 15be 1231 4c3e
00000320: 2c11 7a3e d220 3d3d 1e85 a8bd ff9c 3ebe
00000330: ca47 903c c568 69bd 2cd2 adbe 6bdd 2a3e
00000340: 5388 15bd 1062 3b3e f02f c8be 05bf 62bd
00000350: 64cd d13d 5b96 44be ef63 9d3e 0130 83be
00000360: bfa1 cd3d c0bb b7bd c18d 8d3e ce53 d8be
00000370: 54ec 6238 ad67 8e3e 5b88 783e d364 c1bd
00000380: cb6a 2bbd 6f6c 60be a1d0 303c 2c0b 803e
00000390: 4494 86be 7ba8 9fbb bebc 7f3d 6129 f5bc
000003a0: 28c7 133e 68c4 82bd 6c56 f63d 4e48 203e
000003b0: 3bdb 383c 6bcc 4ebd b1c2 ccbd 4320 243e
000003c0: ebd6 463e cae2 13be 3d5f b13c 2dc0 893d
000003d0: dbfb 07be 22c1 cfbd e491 a13d ab1d a13e
000003e0: 8996 b6bd ef09 51bd 4a9c 923e 893e e4bc
000003f0: 008f 52be 2ac5 973e ddc8 bbbe 23f5 123e
0.10130457 -0.20196646 -0.009181171 -0.21606323 0.24252073 0.35246035 0.022592925 -0.4901035
0.14832641 0.105015896 -0.06939695 0.16441746 -0.31649724 0.3419278 0.0881392 -0.041012853
-0.4195177 0.26693973 0.16083106 0.35540968 0.2503804 -0.10421771 -0.025913743 -0.19594073
0.20066006 -0.09259228 0.1501098 0.18976566 0.3290849 0.1742076 0.12229015 0.37433675
-0.048387717 0.3304783 0.1166555 0.008738098 -0.6101754 0.21868134 -0.0850321 -0.24727193
-0.22601913 0.16089228 0.051764242 -0.28157455 -0.18717857 -0.22267571 -0.11064557 0.43642953
-0.1032034 0.18564524 0.07928777 -0.12845495 0.11343369 0.05725534 0.27991256 0.47189358
-0.07118691 -0.056621112 -0.16664225 -0.0061313286 -0.300373 -0.24417457 -0.05805415 -0.13125505
0.087711684 -0.2579828 -0.15135038 0.28909546 -0.038972665 0.07973413 0.2291955 0.32225022
0.27369663 0.027843697 -0.009731791 0.3724645 -0.33150795 -0.18696935 0.26847088 -0.29624915
-0.0993837 0.23689723 -0.08931641 -0.128537 0.01870044 -0.1376157 0.062301636 -0.13451536
-0.09151601 -0.14783062 0.057421617 0.11203483 -0.05610862 0.2934772 0.13648869 0.30965433
0.04206899 -0.1207387 -0.014044828 0.4164343 -0.056943905 -0.09397087 -0.051198106 0.15809159
0.16869874 -0.09736661 -0.1034562 -0.43190515 -0.099647745 0.32984906 -0.2972504 0.08818719
-0.16872177 -0.36091167 -0.2094336 -0.088632084 0.1441106 0.2897351 0.1611865 0.16321874
-0.23050573 -0.24072103 0.3502622 0.11383695 0.2312309 -0.14780903 -0.11087368 0.13509527
0.13579029 0.11168511 -0.14577161 -0.050597254 0.09750033 0.05900535 0.1814219 -0.3112332
-0.18460542 -0.040861756 0.031343866 -0.0555369 0.19567953 0.20120697 0.1528733 -0.11684616
-0.09135503 -0.31513974 0.41311517 -0.025315179 0.0030197462 -0.34138843 -0.33456177 -0.1007559
0.10534954 0.040702026 0.21129148 0.14344442 0.05501677 -0.38011214 0.16123596 -0.22587399
-0.15586965 0.15916179 0.18105453 -0.028450828 0.13777335 -0.09294889 -0.0764863 0.3399299
-0.14338179 0.0107262535 0.1010247 0.21075465 -0.028738664 0.40018025 -0.014256941 0.111877106
0.06470757 -0.1385694 0.47498783 -0.42205784 -0.07037902 -0.2521941 0.12186179 0.019106437
-0.34384334 -0.008949788 -0.09202182 0.16106205 -0.5548529 -0.04875396 0.0041503166 0.020291407
0.2615476 0.5585235 -0.36081776 -0.13327894 -0.06866613 0.101469494 -0.14644223 0.19940594
0.24420613 0.046173878 -0.08228515 -0.18614577 0.017612357 -0.05698468 -0.3394941 0.16686027
-0.036506962 0.18299127 -0.39099073 -0.05535795 0.10244253 -0.19197981 0.30740306 -0.25622562
0.10040616 -0.08971357 0.27647212 -0.42251438 5.4102697e-05 0.27813473 0.24270765 -0.09443059
-0.041849893 -0.21916364 0.0107919285 0.25008523 -0.26284993 -0.0048723794 0.062435858 -0.029926958
0.14431441 -0.06385118 0.120282024 0.15652582 0.011282737 -0.050487917 -0.09998072 0.16027932
0.19417922 -0.14441982 0.021651858 0.06726108 -0.13279669 -0.10144259 0.078891546 0.31467947
-0.08915431 -0.051034864 0.28634864 -0.02786185 -0.20562363 0.29642612 -0.36676684 0.14351325

actor.0.bias f4 [64]
00000000: 3b6c ef3d 2fa0 a83c f2f5 d2bc 5f25 e83c
00000010: e4d1 b03b 66de e63b 2f3f 753d de0c 223c
00000020: 3691 99bd 29b3 a33a 6613 12b8 bb48 96bd
00000030: 8bab 26bb 23e6 d33c 4e4d cdba a66e ce3b
00000040: 5276 19bc d1fd 543c 9efc 14be 2f9d 813d
00000050: 7015 81bc d724 dc3c 51e7 0d3d 2dd1 e0b9
00000060: cfb1 9cbd 63a0 d23b fb62 293c 7f47 72bd
00000070: 107e 01bd 3cbd a53d 33aa 133c 77ac 00bc
00000080: 7fd1 823c 1538 a33d bd9b 5bbc a1a8 41bd
00000090: 09d4 cd3c e607 f6bc 01dd 0ebd d971 ccbc
000000a0: ba8e 013d 632e e93c 5b48 2a3d d065 e7bb
000000b0: 55a6 ab3b e8e7 bdbc 568b afbc dc10 ebbc
000000c0: deaf 1fbb 0464 2ebd 44ed 8cbc 3a7e aa3d
000000d0: 06c7 65bd 8b4b f33c efe9 f43b f863 28bd
000000e0: 949c f93c 5021 0a3c ab3e 6fbc 84e7 f23c
000000f0: 0df7 edb7 ecb8 a9bd 6f44 383b 0180 d9bc
0.11690565 0.020584194 -0.025752041 0.028338132 0.0053961147 0.007045555 0.05987471 0.009890763
-0.074984 0.0012489307 -3.482718e-05 -0.07338091 -0.0025431837 0.025866574 -0.0015663297 0.0062998114
-0.009366589 0.012999968 -0.14549491 0.063288085 -0.015757293 0.026873035 0.03464443 -0.00042880457
-0.07651102 0.006427811 0.01033854 -0.059150215 -0.031614363 0.08092734 0.009012747 -0.007853619
0.015969036 0.07969681 -0.01340383 -0.047279958 0.02512552 -0.030033063 -0.034878734 -0.02495663
0.031630255 0.028464502 0.04157291 -0.0070616975 0.005238334 -0.02318187 -0.021428745 -0.028694563
-0.00243663 -0.04257585 -0.01720298 0.08324857 -0.056098007 0.029699108 0.007474176 -0.041110963
0.03047017 0.008430794 -0.014602344 0.02965141 -2.8367644e-05 -0.08287224 0.0028116961 -0.026550295

actor.2.weight f4 [5, 64]
00000000: 066a 38be c6d9 97bd fdd4 3abe d738 34be
00000010: e4da f13d b467 f03e 2120 6ebe 336c 5f3e
00000020: 828c c83d ec53 b13e c316 6b3d 1f67 f7be
00000030: c2d9 9abd 74a1 b3bd 1d3c 043e 9f36 3ebe
00000040: 6ceb 62be cdef 6bbe ca6b 0c3f 49b1 9cbe
00000050: c5db c83d 329b abbd 6e92 7a3e 3b60 8a3e
00000060: a9c2 013f ff7c d23d 8a82 223e 437c 87bd
00000070: 87b3 cdbc 6107 a03d a213 803e 0aae a5bd
00000080: 2235 40be 26be 11be fbbc 8d3e 6eaf e13e
00000090: e148 e6bd f62b aabe b493 ae3c 0d9f aebe
000000a0: 655b 5cbe 54cc 513d 1c86 67be 0c04 eb3d
000000b0: f37b 213e 58ff 5dbe d11d 073e cf95 6fbe
000000c0: 9585 cd3d 2f20 473e 0e1c 60bd 830c c1be
000000d0: d2d7 023e 9112 eebd 8d75 81bd 35f2 a5be
000000e0: 68fc d4bd fd09 e8bd 0c56 ff3e 7664 d1bc
000000f0: 7416 7cbb 06ce 6b3e 1d44 edbe 7bf6 373f
00000100: 13d5 e83d e33f ea3d 8ddf 7cbd 338f 9d3e
00000110: f2c8 0dbe 1137 203e 09bf 953e e75c 5cbd
00000120: f601 f1bd 3c05 40be 88b4 f23e 5bc7 abbe
00000130: f968 103c 7f61 35be 4bf1 c33e b17f 9f3e
00000140: 73ec fabd 856e 833e 6dbf cf3b 744e 183d
00000150: 45c1 d7bd fb72 343e 096d adbc fdbf bd3e
00000160: 17a4 9abe a334 f23d 7bb4 cfbd 32fc a9bd
00000170: f4fa 0dbe 99e7 da3e b309 b43d f21b 2cbe
00000180: 4ffe 3abe 47d7 573d 4a21 fc3c 6cb6 63be
00000190: 533b 5a3e 2fa3 8a3d a3ac a0be ad93 7a3c
000001a0: 56c7 123e 102e 17be b070 07bc af9e 74be
000001b0: e7ed 97be e896 fbbd d143 e1be 61e2 9abe
000001c0: f711 dbbd 82db 56be 04b5 d6bc b831 dfbd
000001d0: 00d3 94be b0e2 453e 5026 8dbd 4877 803e
000001e0: b597 2dbd cc07 ae3d 27d9 e4bd 7913 953e
000001f0: 13b4 293e c02a bbbe a4b4 96bd 3d08 143e
00000200: 4cc4 303e 4d09 163e d5f6 7d3b 4ef4 483e
00000210: 7159 543c 5b0d 22be e72c 783d f38a 953d
00000220: 572c 1e3d 168c 8dbc fb96 a33d 3b36 11bd
00000230: 74d3 84bb 8316 d3bd 7345 d6be 60f5 ad3d
00000240: 07a2 c73d a2ca f33e 10e7 07be 134b 7abe
00000250: a4d8 d63e de7c 79bb cb76 1a3e 396b e8bd
00000260: 8bf3 0ebe b6b8 403e 7613 373e 14b8 3c3d
00000270: b36c 063e 5b7a ab3d 353f 1bbe f9b5 02be
00000280: 2270 d83d 2216 083e 8b1d 213e c2c8 75be
00000290: 401e b5be 82eb 633e d12b bbbd 5bb7 86be
000002a0: 82b9 503e e0c9 b1be 6310 0d3d 0220 2a3e
000002b0: 0e40 e03e 3da4 913e b862 a6be 5e98 413e
000002c0: 6f08 8d3e 584b e9be 5ec3 71be 87a6 9fbd
000002d0: 14bc ebbe f12c 61be 8492 fa3d 30be 05be
000002e0: ff14 a73d d4ab 1d3e 1c77 c3bd 4ab2 14bd
000002f0: 439f 97be 0cd4 73bd 587f 053e 0fd1 793e
00000300: 1243 3f3e 7f17 55bd ae2e 733e 79dc 1c3d
00000310: 56bf 2cbd f677 fb3d fb5d 55bd ce4a 67be
00000320: d906 003d da87 3c3e cd3e c4be bb71 fc3d
00000330: 2eae c33e 18ba 60be fc54 373e e635 9d3d
00000340: 684c 453e 4dbe 0a3f 3087 e7bd 1131 89bd
00000350: 3ed7 853d 433f 453e 47a9 07be 7df0 14be
00000360: 24d1 30be 9780 adbe 132c 93bd b3aa 643e
00000370: d167 1bbc 1bdd e13c dc13 4dbc ad7f 7f3e
00000380: 5813 133e fe6c 8fbd e093 b33e 84c0 d13a
00000390: 67de a43e 3a75 9fbd fbfd 4ebf a00b a03b
000003a0: 916b dfbd 1ef0 bf3e fb26 fb3d 6ced 29bd
000003b0: 5b8d ce3d e839 2b3d caa8 0a3e c475 8abd
000003c0: 9179 633e 2138 46be ad71 0d3d 29dc d3bd
000003d0: 7650 0d3d 73b4 b0be 512f 1ebe e374 8f3d
000003e0: 601e 8c3d df43 b03c d462 593e 477f 503e
000003f0: 1923 9f3e fc10 fc3c 78fe b73e 1a9e 9f3d
-0.18009195 -0.07414584 -0.18245311 -0.17599808 0.11809328 0.4695412 -0.23254444 0.21818618
0.09792425 0.3463434 0.057394754 -0.48320863 -0.07561065 -0.08771029 0.12913556 -0.18575524
-0.22160119 -0.23040695 0.54851973 -0.30604008 0.09807543 -0.083792105 0.24469921 0.27026543
0.5068765 0.10277747 0.15870109 -0.06615498 -0.02511002 0.078139074 0.2501498 -0.08089836
-0.18770269 -0.14232692 0.27683243 0.44079155 -0.11244369 -0.33236665 0.021310665 -0.3410572
-0.21519239 0.051220253 -0.22609752 0.11475381 0.15769939 -0.21679437 0.13194968 -0.23396991
0.100352444 0.19445871 -0.054714255 -0.37704858 0.12777641 -0.11624635 -0.06321249 -0.32411352
-0.10399705 -0.1133003 0.49870336 -0.025560599 -0.0038465532 0.2302781 -0.4634103 0.71860474
0.11368766 0.11437967 -0.061736632 0.30773315 -0.13846186 0.15646006 0.2924731 -0.053799536
-0.11767952 -0.18751997 0.4740336 -0.33550534 0.00881409 -0.17712973 0.3827003 0.31152108
-0.1225213 0.25670257 0.0063399584 0.037184194 -0.1053491 0.17621987 -0.021170156 0.37060538
-0.30203316 0.11826446 -0.10141846 -0.083000556 -0.13865262 0.4275482 0.087909125 -0.16807535
-0.18261074 0.05269554 0.030777592 -0.22237557 0.21311693 0.06769406 -0.3138171 0.015293998
0.14333853 -0.14763665 -0.008266613 -0.23888658 -0.29673693 -0.122846425 -0.43997052 -0.30250838
-0.10696786 -0.20982173 -0.026209362 -0.10898155 -0.2906723 0.19324756 -0.06892073 0.25091004
-0.042381007 0.08497581 -0.11174231 0.2911642 0.16572599 -0.36556053 -0.07358673 0.14456268
0.17262381 0.14651985 0.003875186 0.19624445 0.012960778 -0.15825407 0.060589697 0.07301893
0.038616505 -0.017278712 0.079877816 -0.03545211 -0.0040535275 -0.10307028 -0.4184986 0.08494067
0.09747701 0.47615534 -0.13271737 -0.24442701 0.4196216 -0.0038068811 0.15084378 -0.11348576
-0.13960092 0.18820462 0.17878518 0.046073988 0.13127403 0.08372947 -0.1516083 -0.1276473
0.10568263 0.13289693 0.15733926 -0.24002364 -0.3537464 0.22257808 -0.09139217 -0.26311764
0.20383266 -0.3472433 0.034439456 0.16613773 0.4379887 0.28445616 -0.3249719 0.1890578
0.27545497 -0.45565295 -0.23609683 -0.077954344 -0.4604193 -0.219898 0.12234977 -0.13060832
0.081583016 0.15397578 -0.09544203 -0.036302842 -0.29613695 -0.059528396 0.13036859 0.24396156
0.18677929 -0.05202436 0.23748276 0.038296197 -0.04217466 0.1227874 -0.05209158 -0.2258713
0.03125653 0.18411198 -0.38329163 0.1232638 0.38218826 -0.21945989 0.17903513 0.07676296
0.19267428 0.54196626 -0.11305082 -0.06698812 0.06535195 0.19262414 -0.13248168 -0.14544864
-0.17267281 -0.3388717 -0.07186141 0.22330742 -0.009485201 0.027571252 -0.012516942 0.24951048
0.14362848 -0.070032105 0.35073757 0.0016002809 0.3220093 -0.07786031 -0.80856293 0.0048841983
-0.109091885 0.37487882 0.12263294 -0.04148619 0.10085555 0.04180327 0.1354095 -0.06760743
0.22214343 -0.19357349 0.034532238 -0.103447266 0.03450056 -0.34512672 -0.15447737 0.07004716
0.06841731 0.021516738 0.21229106 0.20361052 0.31081465 0.030769818 0.35936332 0.07793827

actor.2.bias f4 [5]
00000000: 645f 0abe 025a 913d 9c0e f63c 04df c63c
00000010: 5473 50be
-0.13512951 0.07097246 0.030036263 0.024276264 -0.20356494

critic.0.weight f4 [64, 8]
00000000: abad 83be 86fd debe 9f49 f63a ff0e 03be
00000010: 4780 a6be 6deb 9e3d 084a 34be b82b 6ebe
00000020: f054 a3bc 52c5 253e 75ae 62bc eb63 01be
00000030: ea50 47be 2894 b0bb 5598 2abe 1be9 b03e
00000040: 90ab 8b3e 59d1 e6bc d106 033d a133 53b8
00000050: f680 dcbd 1eb5 14bd 33b4 713e c377 53be
00000060: fb41 2ebe 3206 9ebe 02a1 c3bd 4d11 f93d
00000070: 8091 07be 226e 513e 94b0 623d c8a7 1a3e
00000080: b16d 0fbe 2e45 ac3e 1e07 2f3e ef91 70bc
00000090: 2ed7 0e3f aabb 073e 101d ba3e 36a3 94bc
000000a0: c4a2 04be 1b56 44bc 1f34 9abe 35e6 163e
000000b0: b055 1abe 3833 07be 8358 fdbd dd3c adbd
000000c0: f03d 07be 1c67 cf3d 105f d3be 8ced 18be
000000d0: eb00 9ebe e11c f1bd 8699 703d 9fc4 cebe
000000e0: db45 9cbd 5f46 2f3d aee9 173e 912a 8f3e
000000f0: 64ae 923c e262 27bd 70d5 97bd 0b3f 263e
00000100: d0ba fb3d 97a1 eb3c 9a1a 87be 7c4e 4fbe
00000110: 520b e0bd ebe2 be3d cd26 2a3e d0cc 54bc
00000120: e568 673e 6ff7 aabc 6bb3 58be 0319 07be
00000130: 70cc 8cbe a136 a13d 5efc 403e 185d 80be
00000140: 029f ca3e d8b4 763d 52da 84be 21e4 793d
00000150: 8b6b cb3d aa18 3abe 06a4 15be 4b0c 053e
00000160: 318a b63e aead ca3d 6290 e3bb fd56 afbe
00000170: 3bab 4c3e 3015 49bd f690 21be 8d0b 1b3e
00000180: 1e0f 003d f47e 80bc 5044 7f3e f5c1 993e
00000190: 446a 34be 951a 6cba 748c b83c 7cae 45be
000001a0: 3fe5 4f3e 0f4a 54be ea38 c43c c2b0 703c
000001b0: 839d 673e 6480 133e 8f3e 973b 2570 34be
000001c0: 9c14 ce3e 9699 453e 481b 443e 0440 393d
000001d0: 06d0 663e 2332 b9be 636d b5bb 1fe7 29bd
000001e0: 58d1 d13d dff4 af3e 9e79 a3be 4959 003e
000001f0: b916 353e 8d3d 863e c379 8cbe b774 82be
00000200: ae6f 95bd b4c3 9c3e fd3d f53d 8f9d c23d
00000210: 0ff6 5bbe 41fe 4dbd d03f 45bd 3532 afbd
00000220: d61f 21bd 1fc0 f03d 006a 32bd 1c3f 14be
00000230: d937 26bf 99c2 b4be cf81 72be e7cf 02be
00000240: 0221 253c bfa4 d03c e03a d63e 5eeb b6be
00000250: 3bc2 fe3d a358 70be 9ee5 323d 850d 87bc
00000260: 261b 133e 042c bd3e cbc2 803d 2ff5 ddbd
00000270: 52db de3e ecd7 a3bd f2b3 92bd 8980 b93d
00000280: 42ea 473e 3b3a 2a3e f40d 823e eba5 163d
00000290: c98f e1bd e622 e13d 911a b63d 771b 783c
000002a0: 84ea c7be 3f06 40be fe29 4ebe af75 ecbd
000002b0: da81 38be d07e 823e 2868 b0bc 671d 6bbd
000002c0: 6bd7 333e 411a 7ebd 76e0 4c3e a605 a3be
000002d0: ec9e 913e ddb0 69be f6f9 5d3d 2423 203e
000002e0: c5b9 e03c 4d4d c53d 103f 8f3e c8e9 c73d
000002f0: 98cf 493e fde9 8d3e 8b48 eebe 8a11 6bbe
00000300: fc9d 723e e90f 173e 6755 1c3e de9f c43d
00000310: 7773 383e 280b e7be 8b29 27be 27b9 4e3e
00000320: 6cdb ae3e b2c0 bd3c 9af4 d6be fc1d 6b3c
00000330: d65b bb3d c003 673e 4ed9 87be 2ea0 10be
00000340: 98cb b13e dc56 40bb 5538 ed3e 7485 ffbd
00000350: 630c 95bd 999f 96be f11f 623d d2e6 6e3e
00000360: 804d 0f3e 7c55 0dbe 5d6f ec3d ed67 ca3e
00000370: eac7 4a3e b2fd 3abe d4f4 1cbe a550 24bd
00000380: 691c 0f3d 20f4 94be f483 583e bc6d 22bd
00000390: fd4a 5f3e 2f84 97bd 682b 973e 54d1 84bd
000003a0: 0952 983d 6b72 093e 1426 8f3e 137e 8fbe
000003b0: c43c 103e f7f5 64be 2f91 18bd d181 acbd
000003c0: 736c 8b3e dd24 c63d 08d4 cd3d acc7 45bd
000003d0: 9999 60bd 3a41 973e 4f70 53be a3cf 3abe
000003e0: 347e fabd 2243 683d 5d7d 983d 68df 863d
000003f0: deaf 993e 9347 47be cf6c 043e 32f7 3a3e
-0.25718436 -0.43552798 0.0018790251 -0.1279869 -0.32519743 0.07759748 -0.17606366 -0.23258865
-0.019937962 0.16188553 -0.013835539 -0.12635772 -0.1946446 -0.0053887554 -0.16659673 0.34552845
0.2727933 -0.028175997 0.031988923 -5.0354403e-05 -0.10766785 -0.03630554 0.23603897 -0.20651154
-0.17017357 -0.30864102 -0.09552194 0.12161503 -0.13239098 0.20452169 0.05534418 0.15103066
-0.14006688 0.3364653 0.17092559 -0.014683231 0.5579709 0.13255182 0.36350298 -0.018144231
-0.12952715 -0.01198342 -0.3011789 0.14736255 -0.1507175 -0.13203132 -0.12370398 -0.084588744
-0.13207221 0.101270884 -0.41283464 -0.14934367 -0.30860075 -0.11773086 0.05874016 -0.40384385
-0.076305114 0.04279172 0.14835235 0.27962163 0.017905422 -0.040865786 -0.07413757 0.16234986
0.12291491 0.028763575 -0.26387483 -0.20244783 -0.10939659 0.09320625 0.16616364 -0.012988284
0.22598608 -0.020869939 -0.21162193 -0.13193135 -0.27499723 0.07871748 0.1884627 -0.25071025
0.39574438 0.06023106 -0.25947815 0.061008576 0.099326216 -0.18173471 -0.14613351 0.1299297
0.35652307 0.09896408 -0.006944702 -0.34246054 0.19987194 -0.04909247 -0.15777954 0.15141125
0.031264417 -0.015685536 0.24928403 0.3003079 -0.17618662 -0.00090066466 0.02252791 -0.19304842
0.20302294 -0.20731376 0.02395292 0.01469058 0.2261868 0.14404446 0.004615612 -0.17620905
0.402501 0.1929687 0.19151032 0.045227066 0.22540292 -0.36171064 -0.0055367216 -0.04148018
0.10245007 0.3436651 -0.31928724 0.1253406 0.1768445 0.26218835 -0.27436647 -0.2547967
-0.07296692 0.3061806 0.11974714 0.09502708 -0.21480583 -0.050291304 -0.04815656 -0.08554498
-0.039337 0.11755394 -0.04355812 -0.144772 -0.64928967 -0.35304716 -0.2368233 -0.12774621
0.01007867 0.025469182 0.41841793 -0.35726446 0.1243939 -0.23471312 0.04367601 -0.016485939
0.14365825 0.36947644 0.06287154 -0.10837781 0.43526703 -0.08000168 -0.07163228 0.09057719
0.19522956 0.16623776 0.2540127 0.036779325 -0.11013753 0.109929845 0.08891786 0.015143267
-0.3904611 -0.18752383 -0.20133206 -0.11545884 -0.18018284 0.25487375 -0.02153404 -0.057401087
0.17562644 -0.062036756 0.200075 -0.31840247 0.2844156 -0.22821374 0.05419346 0.15638405
0.027432332 0.096338846 0.279778 0.09761387 0.19708097 0.2771758 -0.4653972 -0.2295591
0.23693079 0.14752163 0.15266953 0.09600805 0.18012796 -0.451257 -0.16324441 0.20187818
0.3415178 0.023163173 -0.4198349 0.014350411 0.09148376 0.22560024 -0.26532978 -0.14123604
0.34725642 -0.0029348647 0.4633204 -0.12476626 -0.07277753 -0.29418638 0.055206243 0.23330238
0.13994408 -0.13802141 0.11544678 0.39532414 0.19802824 -0.1826084 -0.1532777 -0.04011597
0.034939203 -0.29092503 0.21144086 -0.039655432 0.2180595 -0.07398259 0.29525304 -0.06485239
0.07437522 0.13422553 0.2795874 -0.28025874 0.1408568 -0.22359453 -0.037247833 -0.08423198
0.27231178 0.09675 0.100502074 -0.048286125 -0.054833982 0.2954195 -0.20648311 -0.1824327
-0.122311026 0.056704648 0.07445786 0.0658558 0.3001699 -0.19460897 0.12932132 0.1825836

critic.0.bias f4 [64]
00000000: f0c6 a2bd 34b3 eabc 0f75 c8bd 0ba7 00be
00000010: a9cf a63d ecc8 00be 326e 82bd 03f2 073d
00000020: 3d7e 083c 50cc 90bd ae86 2f3d b641 143e
00000030: d8ce 8d3d 6252 763d 2415 7d3e 6f44 87bd
00000040: 3385 e4bb da9b 19be e2ab 683e 6e8b 513d
00000050: 5af3 ac3a 4309 3fbc 96b9 023e 42e8 a43d
00000060: 02dc ea3d c60b 3abd 5f90 063e 862b 423e
00000070: f1c4 943d cdea 673e 7c89 973d e0c7 753d
00000080: 1d17 18be 1745 1c3d 6aaa 39be 3c32 64bd
00000090: ee9d 22bd 2b41 403e ea49 d3bd 2b96 a03c
000000a0: 6212 57bd 47c3 93bd 4236 29be 943d 90bd
000000b0: d99b 043e dc0a 1bbe 9b30 933d d8e2 363e
000000c0: 34e8 cf3c 60d8 e43d 4d98 9ebc 99e6 13be
000000d0: 59f4 e63c 1b34 4a3c 5dbc 353d e4cd 1b3c
000000e0: c0d2 5a3d 6240 963d e7a0 d43c 5fe2 c43c
000000f0: 0d04 94bd 8fcb c3bd 75c0 6abd 9d8e ebbb
-0.079481006 -0.028649904 -0.09787952 -0.12563722 0.08145077 -0.12576646 -0.06368674 0.033189785
0.008330879 -0.070702195 0.04285305 0.14478192 0.06924218 0.06013716 0.24715096 -0.066048495
-0.0069738864 -0.15000859 0.22721818 0.05115836 0.0013195083 -0.011659923 0.12766108 0.08052112
0.114677444 -0.045421384 0.1314101 0.18961915 0.07264126 0.22648163 0.0739927 0.06000507
-0.14852567 0.038151827 -0.18131414 -0.05571197 -0.039701395 0.1877486 -0.10316832 0.019602856
-0.052507766 -0.072149806 -0.16524604 -0.07042995 0.12950076 -0.15140861 0.07187005 0.17859972
0.025379278 0.11174083 -0.019359732 -0.14443435 0.028192686 0.0123415245 0.04436909 0.009509537
0.053423643 0.07336499 0.02595563 0.024033723 -0.07227335 -0.0956031 -0.057312448 -0.0071886317

critic.2.weight f4 [1, 64]
00000000: c23b 173e f16f 9abe 1f7c 4e3e ed0b cf3e
00000010: 3d13 96bd 6877 213e c776 933e 34a3 063f
00000020: 2866 6abe 0647 2d3e b058 b6be f4e5 0dbf
00000030: c1f3 2dbe 9c1b 0cbf 391a a93e 7126 583d
00000040: 385a 13be d6c3 363e 3d47 363e 8000 0ebe
00000050: 3d68 8a3e f9a8 513e c9e8 86bd ffe7 6cbe
00000060: c5ec b73e 886a ab3d bced 93be 00f1 813e
00000070: b7fe 3bbe 69d6 953e 5f39 41be 7e02 71be
00000080: 7651 9d3e f0b1 90be 7484 a33e aa2e 7b3e
00000090: 907e 7a3e d1ee ce3d a259 8c3e 5322 90be
000000a0: b197 473e e91b e43e cc2a fcbe 8287 84be
000000b0: 9e66 93be 99f0 d6be ac23 abbe f7d2 af3e
000000c0: 60b3 bfbd 0f57 b23e cb8e 943e 9f64 d03e
000000d0: 7921 f0be da8f bf3e 5073 b0be 28c6 9b3e
000000e0: 9e08 bebe 0092 02be e447 1e3e 78bb 1a3d
000000f0: cbdb 4fbe 581a 253e de0a f03d bb8d d53e
0.1476889 -0.3016353 0.20164536 0.40438786 -0.07327888 0.15768206 0.28801557 0.5259278
-0.22890532 0.16921625 -0.35614538 -0.55429006 -0.16987516 -0.5472963 0.3302782 0.052771036
-0.14389884 0.17848143 0.17800613 -0.13867378 0.27032652 0.20474614 -0.06587369 -0.23135374
0.35922828 0.083699286 -0.28892314 0.2537918 -0.18358885 0.29265144 -0.18869542 -0.23536107
0.30726212 -0.28260756 0.3193699 0.2452952 0.24462342 0.10104144 0.27412134 -0.28151187
0.1949146 0.44552544 -0.492514 -0.25884634 -0.28789228 -0.41980436 -0.33425653 0.3434064
-0.09360385 0.34832045 0.29015192 0.40701768 -0.46900538 0.37414438 -0.34462976 0.3042462
-0.3711595 -0.12751007 0.15457112 0.03777644 -0.20298688 0.1612333 0.11720823 0.41709694
