outputs/centerSquare_1a_PPO_wprior0.995/best_status.pt (torch, 15773 bytes, 21 tensors)

actor.0.weight f4 [64, 2]
0	0xbec34fe1	-0.3814688
1	0x3ce147c2	0.027500037
2	0x3d860ca0	0.06545377
3	0x3edca0f3	0.43091545
4	0x3e9658a2	0.29364496
5	0xbf165be5	-0.5873397
6	0x3ed68d9f	0.41904923
7	0x3d85612b	0.06512674
8	0xbf072ed3	-0.52805823
9	0x3e7cfbf5	0.24705489
10	0xbd8cfe75	-0.06884471
11	0xbf4d7e89	-0.802712
12	0xbdaa916f	-0.083285205
13	0x3ebcb849	0.36859348
14	0x3eecc8bd	0.462469
15	0x3d8dfba4	0.06932762
16	0xbf335a44	-0.7005961
17	0xbdba7ed2	-0.0910622
18	0x3d84a7ab	0.064772926
19	0x3f164ce6	0.5871109
20	0x3edfa82c	0.43682992
21	0x3d9c0a5d	0.07619164
22	0x3d8799cf	0.066211335
23	0x3f4e444c	0.8057296
24	0xbdb233a8	-0.08701259
25	0x3d888eef	0.066678874
26	0xbf536a86	-0.82584417
27	0xbdb9b6ab	-0.09068044
28	0x3f3658b4	0.712291
29	0x3dabb78a	0.08384617
30	0x3d44ac18	0.048015684
31	0x3efdf0f9	0.4959791
32	0x3dcf1fa5	0.101134576
33	0x3d645e1d	0.055753816
34	0x3c82ddb0	0.01597485
35	0x3e963a68	0.29341435
36	0x3d9ac0d5	0.07556311
37	0x3f1a50d2	0.6027957
38	0xbefdcd32	-0.49570614
39	0x3e7f6bb5	0.2494343
40	0x3d58ea14	0.05295761
41	0x3edff417	0.43740913
42	0x3e703e76	0.23461327
43	0xbe427ddc	-0.18993324
44	0x3dbcdcfc	0.09221837
45	0xbd7f9530	-0.062398136
46	0xbd791e91	-0.060820166
47	0xbeddc49c	-0.43314064
48	0xbf2ea965	-0.68227226
49	0xbda53fa2	-0.080687776
50	0x3dd81a17	0.10551851
51	0xbdb4a4eb	-0.08820518
52	0x3daf219c	0.08551332
53	0xbd8b24cc	-0.06794128
54	0x3dcb931d	0.09940169
55	0xbd9d00ba	-0.07666154
56	0xbdb76834	-0.08955422
57	0x3d8b17f2	0.067916766
58	0x3f0d94e3	0.5530531
59	0x3dae1051	0.08499206
60	0xbf163c9a	-0.5868622
61	0xbdb2a829	-0.0872348
62	0x3dd48b74	0.10378161
63	0xbd9a8c59	-0.075463004
64	0x3f1cbced	0.6122578
65	0x3dba582c	0.09098849
66	0xbdce33e7	-0.10068493
67	0x3d9b5ef1	0.07586468
68	0x3d828c09	0.06374366
69	0x3f227c07	0.634705
70	0xbed436bd	-0.41448012
71	0xbdc75007	-0.09732061
72	0xbeec2c1e	-0.4612741
73	0xbda416fc	-0.080121964
74	0x3d74d4fd	0.059773434
75	0x3ead9d42	0.3390904
76	0xbd0b0495	-0.033939917
77	0xbe08e14f	-0.13367198
78	0x3d99fa14	0.07518402
79	0x3f2aaeb9	0.66672856
80	0x3d8448d8	0.06459206
81	0x3f12a918	0.57289267
82	0x3edc0cd1	0.42978528
83	0x3d90498b	0.07045277
84	0x3dc2b117	0.095064335
85	0xbda2df4c	-0.07952747
86	0x3f2dffb4	0.67968297
87	0x3dbd099d	0.09230349
88	0xbd62b0cd	-0.05534439
89	0xbe89aa3a	-0.26887685
90	0xbdcd9ed0	-0.10040057
91	0x3da91e10	0.08257687
92	0x3f48f6f1	0.785018
93	0x3dc1e6c7	0.094678454
94	0x3d864ee5	0.06558017
95	0x3eefb27b	0.46815857
96	0x3f0fbada	0.5614449
97	0x3da673fe	0.081275925
98	0x3f2d956c	0.67806125
99	0x3d9dfc28	0.077141106
100	0x3d8a190d	0.06743059
101	0x3df92ca4	0.12166718
102	0xbf232bdb	-0.63738793
103	0x3e9a1a71	0.30098298
104	0xbf3c2b8e	-0.7350396
105	0x3edb1944	0.42792714
106	0xbd9f0b30	-0.07765806
107	0xbf5a720c	-0.8533027
108	0x3de6a9cd	0.11262856
109	0xbda7df2b	-0.08196863
110	0xbdd9f1a7	-0.10641795
111	0x3d9f774e	0.077864274
112	0x3efdee93	0.4959608
113	0x3da90cd6	0.082544014
114	0x3dcded6a	0.10055049
115	0xbdb2acb8	-0.0872435
116	0x3d6d7292	0.05797059
117	0x3ecba5be	0.3977489
118	0xbdafcd34	-0.08584061
119	0x3d651ed7	0.055937614
120	0xbdb35ed7	-0.08758324
121	0x3d9af586	0.07566361
122	0x3f223519	0.6336227
123	0x3da7f50c	0.08201036
124	0xbd9328c5	-0.071855105
125	0x3d240415	0.040042955
126	0x3eb266e2	0.34844118
127	0x3d932e74	0.071865946

actor.0.bias f4 [64]
0	0xbe2054b6	-0.15657315
1	0xbd1693db	-0.0367621
2	0x3d8bbd20	0.06823182
3	0x3db1f0d8	0.086885154
4	0x38db9d81	0.00010472071
5	0x3d47da87	0.04879239
6	0xbd835d6b	-0.064143024
7	0xbd054651	-0.032537762
8	0x3e0694b7	0.13142668
9	0x3d6e99c0	0.058252096
10	0x3d5b48d0	0.053536236
11	0xbe322fcf	-0.1740105
12	0xbd5513d3	-0.05202086
13	0x3d4ffc45	0.050777692
14	0xbdcdbe41	-0.10046054
15	0x3c4552e7	0.012043691
16	0x3dacc98e	0.08436881
17	0x3e49e337	0.19715582
18	0xbdb19b1a	-0.086721614
19	0xbd49c0d7	-0.049256172
20	0x3d8012a7	0.06253558
21	0x3e34e088	0.17663777
22	0xbd4b2900	-0.049599648
23	0x3c20ec0d	0.009821904
24	0x3c9f76ac	0.019465767
25	0x3e0c8e48	0.13726151
26	0xbd25fad7	-0.040522423
27	0xbd0ba42d	-0.034092117
28	0x3d0e12c3	0.03468586
29	0xbaaf1e51	-0.0013360475
30	0x3d8ef2b1	0.069798835
31	0xbd7e447e	-0.062077038
32	0xbe3d1e30	-0.18468547
33	0x3d7f3b0c	0.06231217
34	0xbd3ec25f	-0.046572085
35	0xbe1c933d	-0.15290542
36	0x3d007870	0.03136486
37	0x3e2a7bb6	0.16648754
38	0xbdb1898a	-0.086688116
39	0xbe201441	-0.15632726
40	0xbd44c733	-0.048041534
41	0x3dc48a9c	0.0959675
42	0x3dbaca5a	0.09120627
43	0xbe625912	-0.2210429
44	0xbdaab376	-0.08335011
45	0xbd8574c1	-0.0651641
46	0xbe1a5922	-0.15073064
47	0xbc75955f	-0.014989226
48	0xbd00ff32	-0.031493373
49	0xbce5e321	-0.028062405
50	0x3d3b7c5f	0.045772906
51	0x3c200f37	0.0097692525
52	0x3d8473e9	0.064674206
53	0x3e148aae	0.14506027
54	0xbdb4f858	-0.0883643
55	0x3d9077c2	0.07054092
56	0xbd1c4358	-0.03815016
57	0x3dd02c00	0.10164642
58	0xbd00d31e	-0.031451337
59	0x3da59788	0.08085543
60	0xbda6b78a	-0.08140476
61	0x3bca6256	0.0061762733
62	0xbe00eb01	-0.12589647
63	0x3cbd49c6	0.023106467

actor.2.weight f4 [4, 64]
0	0x3ea4dcd0	0.32199717
1	0xbd28f701	-0.041251186
2	0xbe1225c7	-0.14272223
3	0xbf064e19	-0.5246292
4	0x3dd3feb3	0.103513144
5	0x3dfe2dd0	0.12411082
6	0xbe53f53b	-0.20699017
7	0xbe564fb6	-0.20928845
8	0xbdbd14e6	-0.09232502
9	0xbc7fb013	-0.015605944
10	0x3e1990f2	0.14996698
11	0xbe5dd340	-0.21662617
12	0x3df65c0c	0.12029275
13	0x3df04d67	0.11733513
14	0x3d8a743c	0.06760451
15	0xbefab188	-0.4896357
16	0x3db64455	0.08899752
17	0xbe336160	-0.17517614
18	0xbdbd801b	-0.0925295
19	0x3ef279dc	0.47358596
20	0xbf04b106	-0.51832616
21	0xbe33a1fe	-0.17542264
22	0xbd400cab	-0.04688708
23	0x3ea6f7aa	0.32610828
24	0x3e98955a	0.29801446
25	0x3c0860e6	0.008323884
26	0x3d71367d	0.058889855
27	0x3e05a807	0.13052379
28	0xbe9e9235	-0.30970922
29	0x3e4e2794	0.20132285
30	0xbe116271	-0.14197709
31	0xbe43e7df	-0.1913142
32	0x3dd80be2	0.105491415
33	0xbe7bf6ce	-0.24605867
34	0xbe817289	-0.25282696
35	0x3e4d711a	0.20062676
36	0x3eb29aa0	0.34883595
37	0xbe95ec01	-0.2928162
38	0x3d62c3ce	0.055362515
39	0xbd1b455b	-0.03790794
40	0x3b2f828f	0.00267807
41	0xbe180fb9	-0.14849748
42	0xbe8f905c	-0.28039825
43	0x3e35ceb2	0.17754629
44	0x3de62c17	0.11238878
45	0x3db32f71	0.08749283
46	0x3db359c9	0.087573595
47	0xbe5764b9	-0.21034516
48	0xbdb5954a	-0.08866365
49	0xbc0dce63	-0.008655163
50	0xbe409d63	-0.18810038
51	0x3c5e94c7	0.013585276
52	0xbd6a2aac	-0.0571696
53	0x3e44b66c	0.19210213
54	0x3f315799	0.6927429
55	0x3d26642e	0.040622883
56	0xbe509b43	-0.20371728
57	0x3e0757bf	0.13217066
58	0x3db4ef78	0.088347375
59	0xbeb69edc	-0.35668075
60	0x3e1a129d	0.15046163
61	0xbefdfdc9	-0.49607685
62	0x3ea73dad	0.32664242
63	0xbddab360	-0.10678744
64	0xbda02a52	-0.07820572
65	0x3f17f558	0.5935874
66	0xbcd235f3	-0.02566049
67	0xbd91baac	-0.07115683
68	0x3e89b2f6	0.2689435
69	0xbec08b6f	-0.3760638
70	0x3bfe9981	0.007769764
71	0xbe8463ab	-0.2585729
72	0x3e931bd0	0.28732157
73	0x3ebca39e	0.3684358
74	0x3af6a56c	0.001881761
75	0x3efc5f17	0.49291298
76	0xbeb3dbde	-0.35128683
77	0x3dcdfc93	0.1005794
78	0xbe6101d1	-0.21973349
79	0xbc59cf33	-0.013294029
80	0x3d148472	0.036259122
81	0x3ea9d7e9	0.3317254
82	0x3e8daf1f	0.2767267
83	0x3e4b036c	0.19825524
84	0x3d6a6376	0.05722376
85	0x3e60a40b	0.21937577
86	0x3e763abc	0.24045843
87	0xbe35433f	-0.17701434
88	0x3e84bffe	0.25927728
89	0x3ec3b6e0	0.3822546
90	0x3ce5cf22	0.02805287
91	0x3e4376ae	0.19088241
92	0xbe403e50	-0.1877377
93	0xbd2cb269	-0.042162333
94	0x3c2d3803	0.010572436
95	0x3e5b575a	0.2142004
96	0xbe4709c0	-0.19437313
97	0xbdc595c7	-0.096477084
98	0x3ec8700a	0.3914798
99	0xbdcff0fa	-0.101533845
100	0x3ec7b15a	0.39002496
101	0x3e9bcd7c	0.3043021
102	0xbe8375ad	-0.25675717
103	0x3e6d7ec6	0.23192891
104	0x3f009583	0.50228137
105	0x3dfbae3f	0.12289094
106	0x3f46a7ff	0.7760009
107	0xbf02efa0	-0.5114689
108	0xbe488ed1	-0.1958573
109	0xbf405baa	-0.7513987
110	0xbdbb897e	-0.09157084
111	0x3ed18b45	0.40926567
112	0xbe96490b	-0.29352602
113	0xbe057f17	-0.13036762
114	0x3e0ff797	0.14059292
115	0x3ea4ecfb	0.32212052
116	0x3f09180a	0.53552306
117	0xbebb9fd1	-0.36645368
118	0x3ec279ce	0.37983555
119	0x3b75f5ab	0.0037530463
120	0xbdbba086	-0.09161477
121	0x3e41f565	0.18941267
122	0x3ec8b050	0.39197016
123	0xbe98fc7f	-0.2988014
124	0xbec14f7f	-0.37755963
125	0xbe281fd7	-0.16418396
126	0xbea259e3	-0.31709203
127	0xbe8b1e29	-0.27171448
128	0xbe0a4e41	-0.13506414
129	0xbed17dd2	-0.40916306
130	0x3ebb78a3	0.36615476
131	0x3dc50edc	0.09621975
132	0xbe01c508	-0.12672818
133	0x3e08b1a5	0.13349016
134	0xbe027737	-0.1274079
135	0x3e91689c	0.28400123
136	0xbe9fde82	-0.31224447
137	0x3c3bb266	0.011456108
138	0x3eb37ee1	0.35057738
139	0xbefc5dea	-0.492904
140	0x3da6fdcd	0.081538774
141	0xbf0a66f5	-0.5406335
142	0x3ecd1067	0.40051576
143	0xbf034ed2	-0.51292145
144	0x3d99a472	0.075020686
145	0x3e935fb3	0.2878395
146	0xbe6c3afb	-0.23069374
147	0xbe769b56	-0.24082693
148	0xbe87f10a	-0.26551086
149	0x3e51b891	0.20480563
150	0xbdd25fd3	-0.10272183
151	0x3e8dc04c	0.27685773
152	0xbe52c129	-0.20581497
153	0x3cc03117	0.023460908
154	0xbee37616	-0.4442603
155	0xbf119033	-0.56860656
156	0x3c5c14cf	0.0134326955
157	0x3e97d47a	0.29654294
158	0xbe863164	-0.26209557
159	0xbf04348f	-0.516427
160	0x3e92da00	0.28681946
161	0x3f021bec	0.50823855
162	0xbec03905	-0.37543502
163	0xbe6cf09b	-0.23138659
164	0xbc48cf57	-0.012256465
165	0x3e3645f9	0.1780013
166	0xbe326185	-0.17420013
167	0xbe920360	-0.285182
168	0xbe4d2c16	-0.20036349
169	0x3f163df9	0.5868831
170	0xbdf68498	-0.12037009
171	0x3d0d7240	0.034532785
172	0xbd4e2ba7	-0.0503346
173	0x3e895a57	0.26826736
174	0x3ea0be2e	0.31395096
175	0xbe057b09	-0.13035215
176	0x3e843dd9	0.25828436
177	0x3f00a0d6	0.50245416
178	0xbe237648	-0.1596309
179	0xbe9c926e	-0.30580467
180	0xbe44df50	-0.19225812
181	0x3e8c279d	0.27373973
182	0xbf33e0af	-0.70264715
183	0x3f0085eb	0.5020434
184	0x3eb359b8	0.35029387
185	0x3d605462	0.054767974
186	0xbe8285a7	-0.25492594
187	0xbd45f916	-0.04833325
188	0x3e400f65	0.18755873
189	0x3ef666c5	0.48125282
190	0x3ac48e3d	0.0014996004
191	0x3e92b815	0.28656068
192	0x3eb8d0da	0.3609684
193	0xbea18853	-0.3154932
194	0x3ec59958	0.38593554
195	0xbd16bbe7	-0.03680029
196	0x3e7fc06a	0.24975744
197	0x3d82b04b	0.063812815
198	0x3e5a1f2e	0.21300957
199	0x3e8815ff	0.26579282
200	0x3e38932b	0.1802489
201	0xbe791c77	-0.24327265
202	0xbf21cce2	-0.6320325
203	0x3edb85ff	0.42875668
204	0x3d2c2ae4	0.04203309
205	0x3e7684d5	0.24074109
206	0xbde12365	-0.10993079
207	0xbec403ed	-0.38284245
208	0xbf130536	-0.57429826
209	0xbd7cd62e	-0.061727695
210	0xbe00d926	-0.12582836
211	0x3cab398a	0.02090146
212	0xbe02307b	-0.12713806
213	0xbe808193	-0.25098857
214	0x3e3aa22f	0.1822593
215	0x3d88f09a	0.06686516
216	0x3e77777a	0.2416667
217	0xbe6dcacf	-0.23221897
218	0xbe194f6a	-0.149717
219	0xbc824774	-0.015903212
220	0xbcd0aba7	-0.025472475
221	0xbec953bc	-0.39321697
222	0x3ce6c85b	0.028171709
223	0x3dfaeceb	0.1225222
224	0x3e72180f	0.2364199
225	0x3dcddd96	0.1005203
226	0xbeb089ea	-0.3448022
227	0x3cd9ce8d	0.026587749
228	0x3e3a2b96	0.18180689
229	0xbeab9481	-0.33511737
230	0xbd6a076e	-0.05713599
231	0x3dd647c6	0.104629084
232	0xbe080d65	-0.1328636
233	0xbd622faf	-0.055221256
234	0x3dbe9e35	0.09307519
235	0x3d9c43c8	0.07630116
236	0xba11b9da	-0.0005559005
237	0xbde8a830	-0.11360204
238	0x3c95e04c	0.01829543
239	0x3aaad646	0.0013033829
240	0xbec94abd	-0.39314833
241	0xbe5dafdb	-0.21649115
242	0xbe85ee60	-0.26158428
243	0x3edd8c9d	0.43271342
244	0xbe247904	-0.16061789
245	0xbb35703e	-0.002768531
246	0x3c840fac	0.016120754
247	0x3e1a7c60	0.15086508
248	0x3e84757e	0.2587089
249	0xbd83e802	-0.06440736
250	0xbd609d7a	-0.05483768
251	0xbe1113a3	-0.14167647
252	0x3d749fb7	0.05972263
253	0xbe82a821	-0.25518897
254	0x3ec05da6	0.37571448
255	0xbd79ffa8	-0.06103483

actor.2.bias f4 [4]
0	0xbe095049	-0.13409533
1	0x3d3f9cf9	0.04678056
2	0x3da62a16	0.08113496
3	0xbdea9dbf	-0.11455869

critic.0.weight f4 [64, 2]
0	0x3e16a926	0.14712963
1	0x3d6662c6	0.05624654
2	0xbe570a4d	-0.21000023
3	0xbbd535cb	-0.0065066568
4	0x3e09cadb	0.1345629
5	0x3dd8540b	0.10562905
6	0x3db37868	0.087632
7	0x3e09686b	0.13418739
8	0xbddeaf16	-0.10873239
9	0xbcd968f0	-0.026539296
10	0x3e223781	0.15841486
11	0x3c9218b6	0.017834049
12	0xbeabdf16	-0.3356864
13	0xbe6b8828	-0.23001158
14	0xbe199068	-0.14996493
15	0xbe05664f	-0.13027309
16	0x3e24fc8d	0.16111965
17	0x3d0c1955	0.034203846
18	0x3e147789	0.14498724
19	0x3d31f506	0.043446563
20	0xbe5e9381	-0.21735956
21	0x3d8cb2e5	0.06870059
22	0x3e896061	0.26831344
23	0x3e2fd29e	0.17170188
24	0x3e9e91de	0.30970663
25	0x3d8b8929	0.068132706
26	0xbe9793b2	-0.2960487
27	0xbde59df2	-0.11211766
28	0xbee375f8	-0.4442594
29	0xbe82d480	-0.2555275
30	0x3f09e3de	0.5386332
31	0xbec4539d	-0.38345042
32	0xbe76bdfa	-0.24095908
33	0x3e0b9b0b	0.13633363
34	0x3edf6fe4	0.43640053
35	0x3b83dde0	0.0040242523
36	0xbe68620d	-0.22693653
37	0xbea2d1e3	-0.31800756
38	0xbdd1f4a2	-0.10251738
39	0xbdf50740	-0.119642735
40	0xbe4c55b3	-0.19954567
41	0xbdb5a237	-0.08868831
42	0x3e090387	0.13380252
43	0x3d5db671	0.054129068
44	0x3df9d581	0.12198926
45	0x3da3337d	0.07968805
46	0xbdb740ef	-0.08947932
47	0xbe0266b8	-0.12734497
48	0x3ce2ec4a	0.027700562
49	0x3e891622	0.26774698
50	0x3deff148	0.117159426
51	0x3da96144	0.08270505
52	0xbca8d188	-0.020607725
53	0xbf2c4f1c	-0.6730821
54	0xbde1b76e	-0.110213146
55	0xbdc30e38	-0.095241964
56	0xbef9d819	-0.48797682
57	0x3e9bba51	0.30415586
58	0xbec0c41e	-0.37649626
59	0xbd9adeae	-0.07562004
60	0x3dd82631	0.105541594
61	0x3db76de2	0.08956505
62	0xbe889c32	-0.26681668
63	0xbe084b31	-0.13309933
64	0x3d924503	0.07142069
65	0x3e1ccf98	0.15313566
66	0xbe04a8d8	-0.12955034
67	0xbd836629	-0.0641597
68	0xbe800663	-0.25004873
69	0xbe6c25f7	-0.23061357
70	0x3ed825ed	0.42216435
71	0xbe0f4421	-0.13990833
72	0xbe6d57bf	-0.23178004
73	0x3c5b366c	0.013379674
74	0x3d530862	0.051521666
75	0x3e3ceff5	0.18450911
76	0xbe183369	-0.14863361
77	0xbd9fb883	-0.07798865
78	0xbdcf52f5	-0.10123245
79	0xbf107c58	-0.56439734
80	0xbe4ca79a	-0.1998581
81	0x3c195f27	0.009361065
82	0x3eedf200	0.46473694
83	0x3c49ecab	0.012324492
84	0xbe5de14d	-0.21667977
85	0xbdeda023	-0.11602809
86	0x3d8737ba	0.06602426
87	0x3e1e15bb	0.15437977
88	0x3db87fd0	0.09008753
89	0xbe269f68	-0.16271746
90	0xbdafd11a	-0.08584805
91	0xbeee17ce	-0.46502537
92	0x3e15723a	0.14594355
93	0x3d191cdf	0.03738105
94	0x3b5dd7c7	0.0033850537
95	0x3e69fef0	0.22851157
96	0x3e84172c	0.2579893
97	0xbe087c87	-0.13328753
98	0xbe4d5d9e	-0.20055243
99	0xbeaa564b	-0.3326896
100	0x3baf92f7	0.0053580957
101	0x3e68562e	0.22689125
102	0xbd9d55f3	-0.07682409
103	0xbe016302	-0.12635425
104	0xbe0d94ff	-0.13826369
105	0xbd1733e2	-0.036914714
106	0x3df33079	0.1187448
107	0x3daa8a18	0.083271205
108	0x3d6dddce	0.058072858
109	0x3e33165c	0.17488998
110	0x3f19e374	0.6011269
111	0xbe95bd40	-0.2924595
112	0x3ed16574	0.40897715
113	0xbda8ddd3	-0.082454346
114	0x3dc0f1c4	0.09421113
115	0x3e26b01d	0.1627812
116	0xbe460503	-0.1933785
117	0xbea26b29	-0.31722382
118	0x3dfe4c1b	0.1241686
119	0xbc25798f	-0.010099783
120	0xbe731edc	-0.2374224
121	0xbe8c874b	-0.2744697
122	0xbdbca148	-0.092104495
123	0xbdacb9a4	-0.08433846
124	0xbe047c07	-0.12937938
125	0xbea94fc6	-0.33068675
126	0x3d83b93f	0.06431817
127	0x3e940acc	0.28914487

critic.0.bias f4 [64]
0	0xbe3770da	-0.17914143
1	0xbe03892f	-0.128453
2	0x3e05aec8	0.13054955
3	0xbe497436	-0.19673237
4	0xbe188844	-0.14895731
5	0xbe01671e	-0.12636992
6	0xbe1ecad7	-0.15507065
7	0x3ddaa88b	0.10676678
8	0xbe28c031	-0.16479565
9	0xbe199179	-0.149969
10	0x3e16a541	0.14711477
11	0x3e141417	0.14460789
12	0x3e0d5e77	0.13805567
13	0xbe281264	-0.16413265
14	0xbe298cc5	-0.16557606
15	0x3e4dfc18	0.20115697
16	0xbe08cc20	-0.13359118
17	0xbe0b0a09	-0.13578047
18	0xbe20c072	-0.15698412
19	0x3e50de3d	0.20397277
20	0xbe0a8658	-0.1352781
21	0xbe12c4f6	-0.14332947
22	0xbe3d4da4	-0.18486649
23	0x3e4a86bf	0.19777964
24	0x3e0b0257	0.13575111
25	0xbe2afe23	-0.16698508
26	0xbe17b46b	-0.14814918
27	0x3e433d1f	0.19066285
28	0xbe589849	-0.21151842
29	0xbe11950a	-0.1421701
30	0xbe228083	-0.15869336
31	0xbe1adf3d	-0.15124221
32	0xbe33f520	-0.17573977
33	0x3e2371eb	0.15961425
34	0xbe5268ad	-0.20547743
35	0x3e078faf	0.13238405
36	0xbe061162	-0.13092569
37	0xbe51ec3e	-0.20500275
38	0xbe245e98	-0.1605171
39	0xbe21c34d	-0.15797158
40	0x3e19b662	0.1501098
41	0x3e097750	0.1342442
42	0xbe116aae	-0.14200851
43	0xbe139034	-0.14410478
44	0xbdf31e3f	-0.11871003
45	0xbe19a385	-0.15003784
46	0xbe0b3bfa	-0.13597098
47	0xbe191e05	-0.14952858
48	0xbe28e3fc	-0.16493219
49	0xbe1cb4e4	-0.1530338
50	0xbe320b13	-0.17387037
51	0x3e02917d	0.12750812
52	0xbe02c9da	-0.12772313
53	0xbe64b17a	-0.22333327
54	0xbe29faa3	-0.16599517
55	0x3e335f58	0.1751684
56	0xbe117804	-0.14205939
57	0x3e0ab179	0.13544263
58	0xbe1deca5	-0.15422304
59	0xbdcdd539	-0.100504346
60	0xbe16c507	-0.14723597
61	0x3ddfcbfa	0.10927577
62	0xbe1d63c2	-0.15370086
63	0x3e0f9a8d	0.140238

critic.2.weight f4 [1, 64]
0	0x3de04158	0.10949963
1	0x3eb70573	0.35746345
2	0xbeb2f200	-0.34950256
3	0x3da594c6	0.08085017
4	0xbd30e2d7	-0.04318508
5	0x3efd4589	0.49467114
6	0x3e3ea65f	0.18618153
7	0xbd351acc	-0.04421501
8	0x3e63bef0	0.22240806
9	0x3e86525c	0.2623471
10	0xbe725062	-0.23663476
11	0xbe249466	-0.16072235
12	0xbe2e0a81	-0.16996194
13	0x3d281000	0.041030884
14	0x3e4dcc51	0.20097472
15	0xbeb409fb	-0.35163864
16	0x3e159972	0.14609316
17	0x3df7eaab	0.12105306
18	0x3e4cf792	0.20016316
19	0xbdf70bf2	-0.12062825
20	0x3e2fff08	0.1718713
21	0x3eb1a833	0.34698638
22	0x3dff28b3	0.12458935
23	0xbdc5a2e5	-0.0965021
24	0xbe36e29f	-0.17859887
25	0x3ee0592f	0.43818042
26	0x3e95ad9e	0.29234022
27	0xbde36962	-0.111040846
28	0x3da8d8e2	0.08244492
29	0x3e0fd025	0.14044245
30	0x3eaa60ae	0.33276886
31	0x3d9a72e9	0.075414486
32	0x3e1d0852	0.15335205
33	0xbe4d4264	-0.20044857
34	0x3cb24f41	0.021766307
35	0xbe70b814	-0.2350772
36	0x3e32b357	0.17451225
37	0x3d871d5b	0.06597396
38	0xbca83516	-0.020533126
39	0x3e50fc73	0.20408802
40	0xbea09114	-0.31360686
41	0xbea09e9c	-0.3137101
42	0x3dcfa98a	0.10139759
43	0x3e90bdaa	0.28269702
44	0x3ded5236	0.11587946
45	0x3e91ddfa	0.28489667
46	0x3ebacd3b	0.36484703
47	0x3ef3c534	0.47611392
48	0x3eb868d2	0.36017472
49	0x3e8a6074	0.27026713
50	0x3e171135	0.14752658
51	0xbe8886ad	-0.2666525
52	0x3e81774f	0.25286338
53	0x3ea01ceb	0.31272063
54	0x3ec4d34e	0.38442463
55	0xbe948b3f	-0.29012486
56	0x3e8410f6	0.2579419
57	0xbe05cb6e	-0.13065884
58	0x3e41c3fe	0.18922421
59	0x3eabd40e	0.33560222
60	0x3ece6f18	0.40319133
61	0xbf04b601	-0.51840216
62	0x3dfc4e1f	0.12319588
63	0xbe52b2c3	-0.20576005

exp_avg f4 [64, 2]
0	0x398323e5	0.0002501301
1	0x3b025776	0.0019888557
2	0xbcb849ef	-0.022496192
3	0xba98723c	-0.0011630724
4	0x3bccc6c4	0.0062492806
5	0x3b8b145c	0.0042443704
6	0xb9827ba1	-0.00024887643
7	0xbb59a94f	-0.0033212488
8	0x3b42b550	0.0029710121
9	0x3bbe7683	0.0058124675
10	0x3c2b6e10	0.010463253
11	0x38d8dce0	0.00010340824
12	0xbb6cc9c3	-0.0036131002
13	0xba72bb9c	-0.00092595234
14	0xba378e7d	-0.00070021284
15	0xbc49e54e	-0.012322737
16	0x39bda701	0.00036173317
17	0x3c14780d	0.009061825
18	0xbbdf8b6c	-0.0068220403
19	0xb94830ce	-0.00019091667
20	0xb9e0e512	-0.0004289528
21	0xbbaf50b9	-0.005350199
22	0xbcc89cad	-0.024488771
23	0xb9154b4b	-0.00014237796
24	0x3c8cd983	0.017193561
25	0xbc416e56	-0.011806091
26	0x3993d398	0.00028195675
27	0x3bfb530c	0.007669812
28	0xb9c7865a	-0.00038056338
29	0xbc27b474	-0.0102358945
30	0xbc55588d	-0.0130216
31	0xb9d4ca24	-0.00040586398
32	0x3a152e2b	0.00056907785
33	0xba060622	-0.0005112608
34	0xbab6b3a7	-0.0013939039
35	0xb932cf3e	-0.00017052607
36	0xbc249418	-0.010045074
37	0xb9739bf4	-0.00023232383
38	0x3b6cdb6c	0.0036141528
39	0x3bdc5387	0.0067238244
40	0xbbf70f5f	-0.007539674
41	0xb9a8780e	-0.00032132905
42	0xb855ec82	-5.1003422e-05
43	0x399ea9f3	0.0003026273
44	0xbc6b6c47	-0.014369077
45	0x3c04bc06	0.008101469
46	0x3c2b97e5	0.010473226
47	0x3a002b45	0.000488926
48	0x3997fb85	0.0002898836
49	0x3be7a803	0.007069589
50	0xbc2e75af	-0.010648175
51	0x3c15fca1	0.00915447
52	0xbcb54467	-0.022127343
53	0x3c14d133	0.00908308
54	0xbcfbe433	-0.030748462
55	0x3c5c6411	0.013451592
56	0x3c10f773	0.008848059
57	0xbb89924b	-0.0041983477
58	0xb98e1c81	-0.00027105588
59	0xbb95c45c	-0.004570527
60	0x395b39a8	0.00020906946
61	0x3b87d6f3	0.004145497
62	0xbceae8d1	-0.028675469
63	0x3c53e1aa	0.0129322205
64	0xb9c599c2	-0.00037689327
65	0xbc0f4fd2	-0.008747058
66	0x3ccc86e1	0.024966659
67	0xbc24e1c6	-0.010063594
68	0xbc8bdeca	-0.017074008
69	0xb9a990da	-0.00032342115
70	0x390cf5f1	0.00013443061
71	0x3a8474e1	0.0010105633
72	0x39f58628	0.00046829996
73	0x3bf0753d	0.0073381946
74	0xbb1b0785	-0.0023655605
75	0xb98d3ac5	-0.00026937402
76	0x3b557e7c	0.0032576611
77	0xb8bb1135	-8.92006e-05
78	0xbc38b1f4	-0.011272896
79	0xb9251e7c	-0.00015746983
80	0xbc800673	-0.015628075
81	0xb9c9b559	-0.00038472822
82	0xba183e09	-0.0005807584
83	0xbc02d25b	-0.007984723
84	0xbd043529	-0.03227726
85	0x3cb03eac	0.02151426
86	0xb9babab4	-0.0003561579
87	0xbc266208	-0.010155208
88	0x3b66e0d6	0.0035229228
89	0x39d66196	0.00040889968
90	0x3d13b7cb	0.03606395
91	0xbcb3d169	-0.02195044
92	0xb95689f1	-0.00020460018
93	0xbbbabd52	-0.0056988383
94	0xbc3d62f1	-0.011559234
95	0xb9f7fa95	-0.0004729821
96	0xb9f3202a	-0.00046372536
97	0xbc1229a0	-0.008921057
98	0xb9d9f837	-0.000415744
99	0xbc2b2fc4	-0.0104484
100	0xbc0337ea	-0.008008936
101	0x3ae27efa	0.0017280274
102	0x3b8175c9	0.0039508087
103	0x3bf953f1	0.0076088835
104	0x3b95e6e4	0.0045746434
105	0x3be971d4	0.007124165
106	0x3c571cb2	0.0131294
107	0x38d6ec80	0.00010248367
108	0xbd26903e	-0.040664904
109	0x3c7f78e6	0.015592789
110	0x3c9ebee0	0.019378126
111	0xbc060214	-0.008179206
112	0xb9ecb9d6	-0.00045151886
113	0xbbfbe19e	-0.007686808
114	0xbb968c1f	-0.0045943405
115	0x3b433cdf	0.002979092
116	0xbc84fba0	-0.016233265
117	0xba773e25	-0.00094315625
118	0x3c3d999d	0.011572269
119	0xbbc609fc	-0.0060436707
120	0x3cb8eb28	0.022573069
121	0xbc5ba50f	-0.013406052
122	0xb9e7d348	-0.0004421717
123	0xbc165b3f	-0.009177028
124	0x3c467744	0.012113396
125	0xbc60bd7f	-0.013717054
126	0xba86d058	-0.001028548
127	0xbc40ecc2	-0.011775197

exp_avg_sq f4 [64, 2]
0	0x354ad4ac	7.556034e-07
1	0x37be4868	2.2683482e-05
2	0x3b41db0c	0.0029580025
3	0x38a327ff	7.7798955e-05
4	0x38946dd2	7.0776456e-05
5	0x37b02334	2.0997228e-05
6	0x359cbb76	1.1677464e-06
7	0x385c4e26	5.252487e-05
8	0x37cd5a5b	2.447998e-05
9	0x38f11f17	0.000114975664
10	0x3a33cd9d	0.0006858947
11	0x36b9ac96	5.5335213e-06
12	0x3855bb2e	5.0957482e-05
13	0x361df356	2.3536463e-06
14	0x375ed6df	1.328226e-05
15	0x3a365054	0.0006954719
16	0x37099ec2	8.2028e-06
17	0x3a296b0f	0.00064627914
18	0x39971069	0.0002881319
19	0x368bd15a	4.1668945e-06
20	0x36a03d4b	4.775507e-06
21	0x3957a951	0.00020567073
22	0x3b5f55e6	0.00340783
23	0x37fc93e2	3.0109604e-05
24	0x3a2da9d8	0.0006624735
25	0x3a536cc2	0.00080652174
26	0x36be5bbe	5.6731214e-06
27	0x3a22e463	0.0006213842
28	0x370acf42	8.273697e-06
29	0x3a4636af	0.0007561249
30	0x3a5e9738	0.0008491161
31	0x3759056e	1.2935472e-05
32	0x36c4ec28	5.8687474e-06
33	0x37997315	1.829261e-05
34	0x36fecd21	7.59367e-06
35	0x3558562e	8.059168e-07
36	0x3a2a8fb0	0.00065063965
37	0x372f1ac6	1.04370465e-05
38	0x381ec399	3.78523e-05
39	0x391af539	0.00014777937
40	0x399ad6fe	0.0002953335
41	0x36c9421a	5.997962e-06
42	0x363f3d80	2.8497016e-06
43	0x3715328b	8.89286e-06
44	0x39e150cc	0.00042975543
45	0x39e9efa2	0.00044619764
46	0x3a1c9a57	0.0005973926
47	0x37688d55	1.3861184e-05
48	0x368aa6eb	4.1321523e-06
49	0x39c3a228	0.00037314114
50	0x399e9728	0.0003024873
51	0x3a00bcdd	0.00049109553
52	0x3a7d6c63	0.0009667335
53	0x3a57377e	0.0008209868
54	0x3b0cb42a	0.002146969
55	0x3b06a14d	0.002054292
56	0x390d1460	0.00013454398
57	0x3908361d	0.0001299013
58	0x3641bf3e	2.8870559e-06
59	0x39302eb9	0.00016802074
60	0x35ec7c40	1.7619532e-06
61	0x38f26ef1	0.00011560124
62	0x3afbbf73	0.0019206837
63	0x3af1905a	0.0018429861
64	0x36f04fee	7.1618624e-06
65	0x39f3b94f	0.00046486637
66	0x3ab333e9	0.0013672087
67	0x3aa2ba8b	0.0012415213
68	0x3ae69f30	0.0017595049
69	0x37b967b2	2.2102005e-05
70	0x3506f764	5.027889e-07
71	0x373da47c	1.1303575e-05
72	0x36d6f743	6.406482e-06
73	0x399a80ef	0.00029469232
74	0x3801226e	3.0788062e-05
75	0x360fa3f1	2.1404087e-06
76	0x38267fdb	3.969656e-05
77	0x374a4d20	1.2058095e-05
78	0x3a4a6cb2	0.00077218853
79	0x372a868e	1.0164118e-05
80	0x3abeefd5	0.0014567325
81	0x37b8d43c	2.2033339e-05
82	0x3714bd15	8.8655115e-06
83	0x39c8357d	0.00038186825
84	0x3b2b8e8d	0.0026177496
85	0x3b5ca040	0.0033664852
86	0x370e56d9	8.48408e-06
87	0x3a25838c	0.00063138525
88	0x386c3b40	5.6321966e-05
89	0x3677516c	3.6853262e-06
90	0x3b57d6eb	0.0032934498
91	0x3b84f447	0.0040574404
92	0x364208b5	2.891332e-06
93	0x398f2c86	0.00027308258
94	0x3a4e60f7	0.0007872725
95	0x3791dd78	1.7388476e-05
96	0x37121f93	8.70963e-06
97	0x3a0f1f05	0.00054596394
98	0x370d26f7	8.413327e-06
99	0x3a4cb8df	0.00078095304
100	0x3993583a	0.0002810376
101	0x390a4ecb	0.00013190058
102	0x38568d8f	5.1153413e-05
103	0x3960f406	0.0002145321
104	0x389726b0	7.207447e-05
105	0x3917a585	0.00014462143
106	0x3a942302	0.0011301937
107	0x372127a3	9.605576e-06
108	0x3b82e2b2	0.0039943093
109	0x3b71d773	0.00369021
110	0x3a5cd811	0.00084245304
111	0x3a4fb8c7	0.00079239573
112	0x36e80baa	6.9154967e-06
113	0x39b500e9	0.00034523688
114	0x38303416	4.201018e-05
115	0x3862ec39	5.41026e-05
116	0x3ab3d0f9	0.0013718895
117	0x381a0277	3.6718757e-05
118	0x397babc3	0.00024001212
119	0x396cdb01	0.00022588299
120	0x3a9768af	0.0011551584
121	0x3aac59ed	0.0013149359
122	0x371c4e92	9.316618e-06
123	0x3a33d880	0.0006860569
124	0x39c4d38a	0.00037541642
125	0x3a177535	0.0005777658
126	0x37dfeaba	2.6692975e-05
127	0x3a2c54f9	0.0006573941

exp_avg f4 [64]
0	0xbb20d99d	-0.002454377
1	0xbb754d41	-0.003743008
2	0x3b015c8f	0.0019739007
3	0x3ad1531a	0.0015970201
4	0xbad9af1c	-0.0016607973
5	0x3ac013c5	0.0014654329
6	0xbac71cda	-0.0015191094
7	0x3a625d2b	0.0008635099
8	0xbb22fff0	-0.002487179
9	0x39046c20	0.0001262878
10	0x3b82fd76	0.0039975
11	0xbbd03091	-0.006353446
12	0x3a35d204	0.0006935897
13	0xbb95eb5f	-0.0045751776
14	0x3b31958a	0.002709719
15	0xbb032471	-0.0020010734
16	0x3b17cebb	0.0023163992
17	0x3af02ed1	0.0018324499
18	0xbaee21cb	-0.001816803
19	0xbb0a0f02	-0.0021066074
20	0xba73ac2c	-0.000929537
21	0x3b11f4a8	0.002227107
22	0xbae4b2a1	-0.0017448255
23	0x3afaff85	0.0019149637
24	0xbb36ed56	-0.002791246
25	0x3a1650ac	0.0005734067
26	0xbb4f6cf6	-0.003165064
27	0xbba140d8	-0.00492106
28	0x3a999994	0.0011718743
29	0x3b3b3f6b	0.0028571736
30	0xbab75c34	-0.0013989271
31	0xbb902832	-0.004399323
32	0x3a27b11c	0.0006396936
33	0x3b8a8892	0.004227706
34	0xbb171920	-0.0023055747
35	0xbaeb90c4	-0.0017972221
36	0xbabc5299	-0.0014367878
37	0x3b158006	0.0022811904
38	0xb9f81d7c	-0.00047324214
39	0xbb49b5b7	-0.0030778477
40	0xbb1fb06f	-0.0024366637
41	0x3b730872	0.0037083891
42	0xbaea2c2e	-0.001786595
43	0xb9767395	-0.00023503446
44	0xb7025952	-7.7694e-06
45	0x3b5ac8e0	0.003338389
46	0x3ae31e3b	0.0017327735
47	0xbae1c529	-0.0017224896
48	0x3b51d5fa	0.003201841
49	0x3b78a8f0	0.0037942491
50	0xb9f1e0a8	-0.00046134484
51	0xbb5053a3	-0.0031788133
52	0xb9e3b377	-0.00043430526
53	0x3b2a4878	0.0025983136
54	0xbbf508d8	-0.007477861
55	0x3b4f976c	0.0031675948
56	0x3ac1be5b	0.0014781462
57	0x38a369d3	7.792157e-05
58	0xbb573b78	-0.0032841843
59	0x3ab9185b	0.0014121638
60	0x3ac6108f	0.0015111136
61	0x3b9e6282	0.0048335204
62	0xbaf78bef	-0.0018886308
63	0x3af4608d	0.0018644497

exp_avg_sq f4 [64]
0	0x376bd7ba	1.4057319e-05
1	0x393aa71e	0.00017800598
2	0x37b23c01	2.1247195e-05
3	0x37814568	1.5410318e-05
4	0x37a66ddf	1.9839905e-05
5	0x3822f264	3.8849554e-05
6	0x36dff99f	6.6749776e-06
7	0x385d8b53	5.282026e-05
8	0x3858918b	5.163396e-05
9	0x37d27215	2.5087074e-05
10	0x3826f020	3.9801118e-05
11	0x39288cd9	0.00016074198
12	0x3850f580	4.9819704e-05
13	0x3884f884	6.34054e-05
14	0x38694314	5.5614e-05
15	0x3833bd21	4.2853066e-05
16	0x37863b27	1.600159e-05
17	0x375502b7	1.2696421e-05
18	0x38228862	3.8750826e-05
19	0x38124539	3.487358e-05
20	0x37bcb76b	2.2496757e-05
21	0x375ac0a0	1.3038662e-05
22	0x37eea75f	2.844975e-05
23	0x3815fcf9	3.5759967e-05
24	0x380866c1	3.2520624e-05
25	0x381a4d12	3.678824e-05
26	0x38723b87	5.7752735e-05
27	0x3919d599	0.00014670788
28	0x372f9e2e	1.0467642e-05
29	0x37d067b6	2.4843826e-05
30	0x372806ff	1.0015209e-05
31	0x39097a2c	0.0001311085
32	0x38145328	3.5363395e-05
33	0x38c9e565	9.627155e-05
34	0x38cdd233	9.8143144e-05
35	0x36f65b63	7.34201e-06
36	0x37cc19f8	2.4330788e-05
37	0x37bf9c90	2.284188e-05
38	0x36af31d0	5.2212054e-06
39	0x3827045b	3.981996e-05
40	0x38aa8685	8.131288e-05
41	0x38365d28	4.347894e-05
42	0x3965f7db	0.00021931475
43	0x3861226f	5.367625e-05
44	0x36bcea8b	5.630141e-06
45	0x3989ccdf	0.00026283317
46	0x37b24a42	2.1253833e-05
47	0x3855467e	5.084881e-05
48	0x3846f498	4.7434674e-05
49	0x3882be39	6.234315e-05
50	0x37c368ea	2.3294666e-05
51	0x3855a9b2	5.09412e-05
52	0x387b452c	5.9907485e-05
53	0x38794225	5.9427828e-05
54	0x39a2b51d	0.00031033988
55	0x3875618f	5.850341e-05
56	0x380ff85e	3.4325167e-05
57	0x369d527b	4.6885666e-06
58	0x389942c0	7.308042e-05
59	0x377f5843	1.5219734e-05
60	0x38ae0afa	8.299011e-05
61	0x38a3371f	7.782713e-05
62	0x38403da6	4.583378e-05
63	0x384f947f	4.9490944e-05

exp_avg f4 [4, 64]
0	0x39990dd6	0.00029192743
1	0x382017c9	3.8169124e-05
2	0xb8f0e32a	-0.000114864044
3	0xb938a179	-0.0001760776
4	0xb780445f	-1.5290627e-05
5	0xb8834443	-6.2592815e-05
6	0x38e3c3b8	0.00010860659
7	0x383b6f12	4.4687717e-05
8	0xb9760b3e	-0.00023464576
9	0xb90d019f	-0.00013447412
10	0xb8f1a737	-0.00011522922
11	0x3997fc62	0.00028989004
12	0x38d018ee	9.9228564e-05
13	0xb8c17568	-9.224826e-05
14	0x393c5112	0.00017959278
15	0xb84b4432	-4.8462483e-05
16	0xb93ec52e	-0.00018193267
17	0xb9c84478	-0.00038197986
18	0x39084f6d	0.00012999559
19	0x389fe1a6	7.623741e-05
20	0xb9152eea	-0.00014227224
21	0xb9a5b7c4	-0.00031608169
22	0x38b60add	8.68046e-05
23	0x37322c47	1.0619936e-05
24	0xb7faf7f9	-2.9917794e-05
25	0xb984b370	-0.00025310693
26	0x3897075e	7.201613e-05
27	0x387ab4c7	5.9773007e-05
28	0xb87ebfb8	-6.073687e-05
29	0xb71f3b27	-9.490911e-06
30	0xb8f66a8e	-0.000117500414
31	0x38e79991	0.00011043542
32	0x39aabd10	0.0003256579
33	0xb8e98cc2	-0.00011136524
34	0x387421d7	5.820565e-05
35	0x399c378f	0.00029796033
36	0xb82d6be5	-4.13469e-05
37	0xb9ae386a	-0.00033229898
38	0x39423710	0.00018521794
39	0x398665c4	0.00025634293
40	0x387d2ba5	6.0360548e-05
41	0xb949e41e	-0.00019253834
42	0xb9320a51	-0.00016979246
43	0x39ce1a18	0.00039310823
44	0x393f75ae	0.00018259019
45	0x39000727	0.00012209696
46	0x398f08b1	0.0002728156
47	0xb5b33a35	-1.335348e-06
48	0x384375ad	4.6601217e-05
49	0x384096f4	4.5916953e-05
50	0xb8ef2c8c	-0.000114047056
51	0xb81d345f	-3.748049e-05
52	0xb9156930	-0.00014248933
53	0xb97847be	-0.00023677849
54	0x3926455d	0.00015856833
55	0xb9042de9	-0.00012605604
56	0x386866fd	5.5409026e-05
57	0xb9454e5f	-0.0001881658
58	0x37f328b7	2.8986817e-05
59	0xb9171dbb	-0.00014411558
60	0x391f076e	0.0001516619
61	0xb7a3c64b	-1.9523452e-05
62	0x39799849	0.00023803221
63	0xb885e771	-6.3850435e-05
64	0x3bb8417e	0.0056230417
65	0xba767cdd	-0.00094027614
66	0xbbbfc994	-0.0058528874
67	0xbb15611a	-0.0022793473
68	0x3c34754b	0.011014293
69	0x3a9a6924	0.0011780602
70	0x3b8acc70	0.0042357966
71	0xbb0cd5b0	-0.0021489672
72	0x3ac63a66	0.0015123605
73	0xbaa7b6a4	-0.001279552
74	0xbb05ca84	-0.0020414898
75	0xba51c965	-0.00080027274
76	0x3bf02511	0.0073286374
77	0x3ac6c58c	0.0015165075
78	0xbad718c5	-0.001641058
79	0xba3d4d03	-0.00072212535
80	0xbb28e557	-0.0025771463
81	0xb8a3c2c7	-7.808726e-05
82	0xba97be74	-0.0011577145
83	0x3c38f9de	0.011290042
84	0xba756366	-0.000936082
85	0xbc4700f9	-0.012146228
86	0xbbee1c9e	-0.007266595
87	0x3a6f01fd	0.0009117423
88	0x3ae5384a	0.0017488089
89	0xbc0d8ba1	-0.008639247
90	0xbbe91307	-0.007112864
91	0xbc017cdc	-0.007903304
92	0x3bef6fd3	0.0073070317
93	0xbae8471d	-0.0017721389
94	0x3adbea6d	0.0016778238
95	0xbc030533	-0.007996845
96	0xbacb066f	-0.0015489588
97	0x3c0115df	0.00787875
98	0xba8613f6	-0.0010229337
99	0x3af1ca7b	0.0018447185
100	0x3afc5f04	0.0019254391
101	0xbaa15b4d	-0.0012310535
102	0xb98cfdfe	-0.0002689212
103	0xba8449e8	-0.0010092827
104	0xba84106a	-0.0010075693
105	0xbb0da217	-0.0021611506
106	0xbc037c2e	-0.008025212
107	0xbac024f1	-0.0014659447
108	0x3a44baed	0.0007504661
109	0x3c071ec0	0.008247077
110	0xbab7c8dd	-0.0014021654
111	0xba884c90	-0.0010398794
112	0xbaed8d01	-0.0018123687
113	0xbaece366	-0.0018073141
114	0xba4046da	-0.00073347765
115	0x3c33edbe	0.010981975
116	0x3c40699c	0.011743929
117	0x3a95faf4	0.0011442588
118	0xbc097ab1	-0.008391068
119	0x3c051e68	0.008124925
120	0xbaf1b142	-0.0018439668
121	0xbc09c610	-0.008409038
122	0xba404218	-0.00073340675
123	0x3bdda4bc	0.0067640226
124	0x3bfa0ba3	0.0076307817
125	0xbae7e3e8	-0.0017691823
126	0x3bbfd606	0.005854371
127	0xbb138440	-0.0022509247
128	0xbbd37e60	-0.006454274
129	0x3a6bbc87	0.00089926313
130	0x3bc80162	0.0061036805
131	0x3b3a9a69	0.0028473383
132	0xbc31bf24	-0.010848794
133	0xba85a09b	-0.0010194959
134	0xbb916208	-0.004436735
135	0x3b075460	0.0020649657
136	0xba6a418d	-0.00089361594
137	0x3ae1eb63	0.0017236288
138	0x3b1fba6e	0.0024372595
139	0xb7d595c8	-2.5461326e-05
140	0xbbf7222b	-0.007541915
141	0xbaaddf7e	-0.0013265458
142	0x3a9adbba	0.0011814751
143	0x3a738691	0.00092897663
144	0x3b4df6af	0.0031427552
145	0x3aa92eef	0.0012907664
146	0x3a57b759	0.000822892
147	0xbc3a9dd0	-0.0113901645
148	0x3aba94f0	0.0014235061
149	0x3c53fd9a	0.012938881
150	0x3be30604	0.0069282074
151	0xba84dd3e	-0.0010136736
152	0xbae2cb0c	-0.0017302944
153	0x3c183f67	0.00929246
154	0x3bdf59ca	0.0068161236
155	0x3bfa2bc8	0.0076346137
156	0xbbe6c9d3	-0.0070431023
157	0x3af4a887	0.0018665948
158	0xbab7434a	-0.0013981846
159	0x3bf84d48	0.007577572
160	0x3a2b4763	0.000653377
161	0xbbf45abe	-0.0074571064
162	0x3a6b0cfe	0.00089664746
163	0xbb370801	-0.0027928355
164	0xbaf3b1e1	-0.0018592441
165	0x3b15b8ca	0.0022845739
166	0xb9bbfb3e	-0.0003585461
167	0x399b8fb9	0.00029670986
168	0x3a675bca	0.00088256283
169	0x3b365b50	0.0027825423
170	0x3c0a3eff	0.008437871
171	0x39c461d2	0.00037456915
172	0xbab427e7	-0.0013744802
173	0xbc0b824f	-0.008514955
174	0x3a317c33	0.0006770521
175	0x3a915937	0.001108921
176	0x3ae3cbd3	0.001737947
177	0x3ae3e11a	0.0017385811
178	0x3a956bbd	0.0011399906
179	0xbc305047	-0.010761327
180	0xbc381d28	-0.01123742
181	0xb9f4a7f2	-0.00046664436
182	0x3c002f57	0.007823787
183	0xbbfaeb5e	-0.0076574525
184	0x3ae40d91	0.0017399063
185	0x3c1154bc	0.0088703
186	0x3a3e29af	0.0007254136
187	0xbbcd2a3d	-0.0062611387
188	0xbc02f70c	-0.007993471
189	0x3af87d34	0.0018958212
190	0xbbd5385c	-0.0065069627
191	0x3b22d215	0.0024844457
192	0x3a0d602a	0.00053930527
193	0x363ebffb	2.8423954e-06
194	0xb90e8890	-0.00013593049
195	0xb9cd7a3b	-0.00039191716
196	0xb91d8196	-0.00015020961
197	0xb8c944d4	-9.597247e-05
198	0x38c1a395	9.233427e-05
199	0x3824e609	3.9314884e-05
200	0xb9c960ef	-0.0003840993
201	0xb9a25201	-0.00030960146
202	0xb9931576	-0.00028054015
203	0x3a0c77e8	0.00053584436
204	0x38ef2de6	0.00011404957
205	0xb8ccec89	-9.771536e-05
206	0x3992cb58	0.00027998793
207	0xb926157c	-0.00015838997
208	0xb9c9287d	-0.00038367874
209	0xba59c34a	-0.00083069934
210	0x3956c6e3	0.00020482721
211	0x37c8608c	2.3886816e-05
212	0xb9b4f55f	-0.0003451509
213	0xb9f9dcab	-0.0004765739
214	0x3983e6d2	0.00025158242
215	0x38bf7d30	9.130908e-05
216	0x373f550b	1.1404288e-05
217	0xb9d1c570	-0.0004001069
218	0x396ba38a	0.0002247227
219	0x395b1078	0.00020891603
220	0xb9551018	-0.00020319258
221	0xb8b230a9	-8.496765e-05
222	0xb92a0434	-0.00016214029
223	0x39a1eb16	0.00030883466
224	0x3a1566d3	0.0005699221
225	0xb9a2ac8e	-0.0003102761
226	0x388ec64b	6.8080226e-05
227	0x3a2a6f31	0.0006501554
228	0xb7d07760	-2.485112e-05
229	0xba3d1039	-0.0007212195
230	0x39e7ddb0	0.00044224923
231	0x39ef3228	0.00045623002
232	0x38879450	6.464927e-05
233	0xb9e0d803	-0.0004288555
234	0xb97eaa57	-0.00024286784
235	0x3a370c09	0.00069826894
236	0x39e76eba	0.0004414225
237	0x3918dc8c	0.0001457801
238	0x39ed2248	0.00045229704
239	0xb88dfda2	-6.770647e-05
240	0x37e95dc8	2.7819435e-05
241	0x37bf63cd	2.2815448e-05
242	0xb999561b	-0.00029246588
243	0xb940104a	-0.00018316615
244	0xb9bed9b9	-0.0003640184
245	0xb9e7202e	-0.0004408373
246	0x39d648ad	0.00040871408
247	0xb9b3001c	-0.00034141622
248	0x384c0efc	4.8651345e-05
249	0xb98f2e6d	-0.00027309675
250	0xb7b01edc	-2.0995205e-05
251	0xb9bc1937	-0.0003587694
252	0x395d47f7	0.00021103011
253	0xb8e0a359	-0.00010711578
254	0x39d95941	0.00041455965
255	0xb931e9a9	-0.0001696708

exp_avg_sq f4 [4, 64]
0	0x35b7f290	1.3705157e-06
1	0x35aab423	1.2718414e-06
2	0x35d7664b	1.604852e-06
3	0x3591520f	1.0827224e-06
4	0x3576759d	9.181329e-07
5	0x3600f8f3	1.9218394e-06
6	0x35a0c668	1.1978673e-06
7	0x35608f61	8.3655146e-07
8	0x35effd73	1.7880651e-06
9	0x35fb838c	1.8739242e-06
10	0x358b84f0	1.0394997e-06
11	0x36368147	2.7195363e-06
12	0x3475a34c	2.287681e-07
13	0x35c5908e	1.4719715e-06
14	0x35c69c58	1.4797652e-06
15	0x35c0796a	1.4340451e-06
16	0x35191964	5.703389e-07
17	0x3637e7d2	2.7404062e-06
18	0x35e554fb	1.7086562e-06
19	0x3584d9b7	9.89813e-07
20	0x35d1a119	1.5618599e-06
21	0x35f7623a	1.8431522e-06
22	0x348c9585	2.6185822e-07
23	0x35a8f77b	1.2589002e-06
24	0x359a884e	1.1513564e-06
25	0x35812e69	9.624756e-07
26	0x34729ed4	2.2595788e-07
27	0x34a5f890	3.0914498e-07
28	0x344690d7	1.849288e-07
29	0x3598b3fb	1.1377264e-06
30	0x35a9e31d	1.265758e-06
31	0x34e109e5	4.1916715e-07
32	0x3616d22c	2.2474078e-06
33	0x34d5661b	3.9748633e-07
34	0x35dbf23a	1.6387269e-06
35	0x361173c4	2.1674068e-06
36	0x3578f922	9.2749735e-07
37	0x362189f6	2.4071173e-06
38	0x355a0e27	8.1231923e-07
39	0x36195d39	2.285304e-06
40	0x35cd34bc	1.5289038e-06
41	0x35ab5bc0	1.2767196e-06
42	0x350a529a	5.152921e-07
43	0x363ce35e	2.8146528e-06
44	0x35ab7e36	1.2777225e-06
45	0x34e6dd3d	4.300181e-07
46	0x360b5dbe	2.076718e-06
47	0x35b43239	1.3425662e-06
48	0x358d062a	1.0507113e-06
49	0x3598aa43	1.1374435e-06
50	0x354035f2	7.1604074e-07
51	0x359aa6f9	1.152249e-06
52	0x35f16411	1.7985022e-06
53	0x362713d1	2.4896474e-06
54	0x352c7381	6.4243073e-07
55	0x3502090f	4.8441956e-07
56	0x3587aca4	1.0108529e-06
57	0x35362c43	6.786469e-07
58	0x359dc8f0	1.1755892e-06
59	0x34c17641	3.6035092e-07
60	0x35023b22	4.8514823e-07
61	0x35985d51	1.1352041e-06
62	0x353a6369	6.943506e-07
63	0x3549f5ba	7.5235914e-07
64	0x3927b5fb	0.00015994154
65	0x393a9a21	0.0001779576
66	0x3974c68c	0.00023343618
67	0x394bcb4d	0.00019435324
68	0x3967eb04	0.00022117427
69	0x39577bf4	0.00020550174
70	0x390fb437	0.00013704678
71	0x3948a9a7	0.00019136687
72	0x39620774	0.00021555816
73	0x395358b5	0.00020155574
74	0x3954fcd9	0.00020312089
75	0x394a87bc	0.00019314786
76	0x386119d7	5.3668246e-05
77	0x396d9b82	0.00022660012
78	0x395edaec	0.00021253125
79	0x3937dec2	0.00017535224
80	0x38b8267f	8.780974e-05
81	0x39225322	0.00015480493
82	0x394c47f6	0.00019481764
83	0x3966312c	0.00021952827
84	0x393c8c14	0.0001798126
85	0x393c9318	0.00017983874
86	0x3862427e	5.3944525e-05
87	0x39399980	0.00017700158
88	0x39610746	0.00021460382
89	0x38af7167	8.365773e-05
90	0x384f8d84	4.9484443e-05
91	0x388b9733	6.6561995e-05
92	0x385c3aa6	5.2506708e-05
93	0x39601670	0.00021370663
94	0x395d36c0	0.00021096598
95	0x389258d6	6.9783695e-05
96	0x39595378	0.00020725827
97	0x388c42f5	6.688192e-05
98	0x3948a99c	0.00019136671
99	0x3971cf62	0.00023060807
100	0x39515fc0	0.00019967463
101	0x3948eb80	0.00019161217
102	0x38b54185	8.6429565e-05
103	0x39490855	0.00019171958
104	0x3944b029	0.00018757641
105	0x39543789	0.00020238584
106	0x388e761d	6.793088e-05
107	0x395cd5f0	0.00021060533
108	0x3925fb76	0.00015829303
109	0x389922a8	7.302064e-05
110	0x396794c6	0.00022085299
111	0x3940fad3	0.00018403986
112	0x3959fa65	0.00020788012
113	0x395d95ea	0.0002113205
114	0x38e74120	0.00011027069
115	0x397b80cd	0.00023985207
116	0x398a9544	0.00026432623
117	0x39586f26	0.00020640771
118	0x38a94f54	8.073324e-05
119	0x3899ba88	7.330353e-05
120	0x3955a1cd	0.00020373538
121	0x38a24333	7.737279e-05
122	0x39305340	0.00016815681
123	0x38381bf1	4.389504e-05
124	0x3878bc37	5.9303096e-05
125	0x3961fb78	0.00021551352
126	0x3838ab22	4.40284e-05
127	0x3942d3f8	0.00018580246
128	0x39281fd5	0.00016033587
129	0x3938627d	0.00017584297
130	0x39711d5d	0.0002299449
131	0x394c87df	0.00019505572
132	0x396793d2	0.00022084944
133	0x39546811	0.00020256663
134	0x390d8a04	0.00013498223
135	0x39492a32	0.00019184573
136	0x3962407f	0.00021577066
137	0x39506bf4	0.00019876641
138	0x3955b124	0.00020379253
139	0x3947d1ce	0.00019056277
140	0x3860aae2	5.356491e-05
141	0x396e711f	0.0002273959
142	0x395f5a0d	0.00021300484
143	0x393554ca	0.00017293092
144	0x38b78c80	8.75229e-05
145	0x391fe70d	0.00015249495
146	0x3949c1d1	0.00019241056
147	0x3965ee4e	0.00021927917
148	0x393a11e6	0.0001774501
149	0x393bb0dd	0.00017899596
150	0x3862c752	5.406823e-05
151	0x39374cc6	0.0001748084
152	0x3961edaa	0.00021546209
153	0x38ae75fe	8.318944e-05
154	0x384fddf2	4.955935e-05
155	0x388ba9f0	6.65969e-05
156	0x385c6ff9	5.255637e-05
157	0x3960c1ed	0.00021434548
158	0x395d9fa9	0.0002113568
159	0x3892912e	6.988864e-05
160	0x3959124a	0.00020701546
161	0x388c75c7	6.697658e-05
162	0x3945eaf1	0.00018874907
163	0x39721dc3	0.00023090006
164	0x3951d514	0.00020011171
165	0x39468bde	0.00018934856
166	0x38b3729a	8.556731e-05
167	0x39467fe8	0.000189304
168	0x3942153e	0.00018509195
169	0x3955072b	0.00020315933
170	0x388de357	6.765749e-05
171	0x395c676b	0.00021019361
172	0x3924426a	0.00015665
173	0x3898ad17	7.280165e-05
174	0x3967b758	0.00022098178
175	0x393e9d25	0.00018178353
176	0x395aa56c	0.00020851725
177	0x395e735a	0.00021214542
178	0x38e5d0dc	0.00010958474
179	0x397ae9d2	0.00023928963
180	0x398980ae	0.0002622655
181	0x3955918a	0.0002036748
182	0x38a97ed5	8.082172e-05
183	0x3899ef5b	7.340192e-05
184	0x39561879	0.00020417747
185	0x38a181b3	7.7012366e-05
186	0x392e2865	0.00016608981
187	0x3838981c	4.401068e-05
188	0x387798dd	5.9031754e-05
189	0x3962e91d	0.00021639881
190	0x3837e065	4.3839584e-05
191	0x39433ea2	0.00018619982
192	0x35c7a901	1.4875842e-06
193	0x35dc0975	1.639403e-06
194	0x35fa2d52	1.8639641e-06
195	0x3597913f	1.1292649e-06
196	0x355a1148	8.1236476e-07
197	0x362439f0	2.4471628e-06
198	0x35c6896d	1.4792146e-06
199	0x3578f4c1	9.2743363e-07
200	0x35e2300d	1.6852297e-06
201	0x36171669	2.2513798e-06
202	0x3593098e	1.0955134e-06
203	0x3655de75	3.186896e-06
204	0x34593e4b	2.0232362e-07
205	0x35af5bd3	1.306524e-06
206	0x35ba1a10	1.3865665e-06
207	0x35f74049	1.8421644e-06
208	0x3530b372	6.5826237e-07
209	0x36402ae2	2.863519e-06
210	0x360ecde8	2.1279502e-06
211	0x3565945a	8.552503e-07
212	0x360068d9	1.9134516e-06
213	0x35da7c70	1.6278482e-06
214	0x3468ffc0	2.1699725e-07
215	0x35dbe96c	1.6384706e-06
216	0x3590fb74	1.0802019e-06
217	0x3569d5ef	8.711058e-07
218	0x346a9726	2.1847936e-07
219	0x349bbcaf	2.9008285e-07
220	0x34352565	1.6870543e-07
221	0x359969df	1.1430201e-06
222	0x35a94b9f	1.261349e-06
223	0x34d1c353	3.90714e-07
224	0x3611af49	2.1708713e-06
225	0x34cd1fcb	3.8207358e-07
226	0x360cabe5	2.0961681e-06
227	0x360f564d	2.1358894e-06
228	0x35877e1b	1.0094985e-06
229	0x362cc2e6	2.5743443e-06
230	0x3583afd3	9.811432e-07
231	0x3635058b	2.6974328e-06
232	0x3603aa05	1.9619486e-06
233	0x35ae7cb0	1.3000299e-06
234	0x34fda352	4.7243753e-07
235	0x36325324	2.6572461e-06
236	0x35cd8215	1.5311549e-06
237	0x34d19071	3.9034379e-07
238	0x360017c1	1.9087313e-06
239	0x35e6fd54	1.7210064e-06
240	0x358e8ec9	1.062138e-06
241	0x358f7d62	1.0690821e-06
242	0x3565278a	8.5366685e-07
243	0x35848609	9.873776e-07
244	0x35d3d545	1.5782795e-06
245	0x36498593	3.0029084e-06
246	0x3522504d	6.0466556e-07
247	0x34f7707b	4.6089175e-07
248	0x358f4a0f	1.0675884e-06
249	0x35291e4e	6.3001505e-07
250	0x35d02bf0	1.5509995e-06
251	0x34a70647	3.111074e-07
252	0x34e53355	4.2691923e-07
253	0x3591bdbf	1.0858565e-06
254	0x35264190	6.1935225e-07
255	0x356f918e	8.924625e-07

exp_avg f4 [4]
0	0xbaf3e4da	-0.0018607632
1	0xbb3a878c	-0.002846214
2	0x3c098e77	0.008395783
3	0xbb71bfe1	-0.003688805

exp_avg_sq f4 [4]
0	0x38428b10	4.6382716e-05
1	0x39d3a5cc	0.00040368584
2	0x39d07b67	0.00039764793
3	0x382f1c1a	4.1749423e-05

exp_avg f4 [64, 2]
0	0xbbfd6742	-0.0077332566
1	0xbccde5b0	-0.025133938
2	0xbd559614	-0.05214508
3	0xbdb6d20a	-0.089267805
4	0x3cfe46c8	0.03103961
5	0x3d74d611	0.059774462
6	0x3bef0286	0.007294002
7	0xbc77cfe4	-0.015125249
8	0x3a7837ba	0.0009468753
9	0x3c1344aa	0.008988539
10	0xbd3ad04b	-0.0456088
11	0xbdfc3888	-0.1231547
12	0xbca82368	-0.020524696
13	0xbcaad7fc	-0.020854943
14	0x3b8c9387	0.0042900476
15	0x3c094b3e	0.008379756
16	0xbcb41b6d	-0.021985734
17	0xbd5e2dd1	-0.054242913
18	0xbc903ac6	-0.01760615
19	0xbd7b38c2	-0.061333425
20	0x3cf7354d	0.030176783
21	0x3d688d8e	0.056775622
22	0x3cadb71a	0.021205474
23	0x3cb54353	0.02212683
24	0x3caecdb5	0.021338323
25	0x3d004c87	0.031322982
26	0xbba58c07	-0.005052093
27	0xbbd937ed	-0.0066289813
28	0xbc7edbc9	-0.015555331
29	0xbca6ab4f	-0.020345358
30	0x3c94ab6c	0.018148147
31	0x3d1e9290	0.03871399
32	0xbc54fc48	-0.012999602
33	0xbd071d2d	-0.03298681
34	0xbc87ee3a	-0.016593087
35	0xbcf648f0	-0.030064076
36	0xbce09782	-0.027415995
37	0xbc855885	-0.016277561
38	0xbbc64c23	-0.0060515567
39	0x3cc0b405	0.02352334
40	0xbcc33a6b	-0.023831567
41	0xbcfed024	-0.031105109
42	0xbc7469ec	-0.014917832
43	0xbd9fc4f1	-0.078012355
44	0xba3f07ac	-0.0007287215
45	0xbcd8b140	-0.026451707
46	0xbc097ad9	-0.008391106
47	0x3c9581d7	0.018250389
48	0xbcc32164	-0.023819633
49	0x3c9acac1	0.018895509
50	0x3a9230f5	0.0011153506
51	0xbdbb4b48	-0.09145218
52	0x3d724808	0.059150726
53	0xbc1f3439	-0.009717041
54	0xbb4ca463	-0.0031225912
55	0x3cb930fb	0.022606364
56	0xbbae00a5	-0.0053101354
57	0xbc4e8eb2	-0.012607263
58	0xbc6c6355	-0.0144279795
59	0xbcc85ce3	-0.024458354
60	0x3c3b733a	0.011441046
61	0xbd89d1ae	-0.06729446
62	0xbc231b11	-0.009955184
63	0xbc3e8ce5	-0.011630272
64	0x3c9be6d6	0.01903097
65	0xbcde25d7	-0.027117653
66	0x3bc7e351	0.0061000963
67	0x3d347b6f	0.044063028
68	0xbb36b2a1	-0.0027877467
69	0xbb17f094	-0.0023184167
70	0x3cd85ed9	0.026412414
71	0x3d95499a	0.07289429
72	0xbcd6ce0a	-0.026221294
73	0xbd41a170	-0.0472731
74	0x3c333b36	0.01093941
75	0xbc356829	-0.011072197
76	0x3b0b7f52	0.0021285606
77	0x3b747a62	0.003730439
78	0xbb91d2fe	-0.004450201
79	0xbbf736a5	-0.007544356
80	0x3d3fce8a	0.04682783
81	0x3dafabc7	0.08577686
82	0x3cdc22e1	0.0268721
83	0x3d81b825	0.06333951
84	0xbc67e307	-0.014153249
85	0xbc88e280	-0.016709566
86	0x3d142aa1	0.036173467
87	0xbd47aad1	-0.048746888
88	0x3cb35823	0.021892613
89	0x3aa7ac3a	0.0012792416
90	0x3b61da3a	0.0034462349
91	0xbc73958a	-0.014867196
92	0xbcd12876	-0.025531989
93	0xbdb0a0a2	-0.08624388
94	0x3d957314	0.0729734
95	0xbd8823cb	-0.06647452
96	0xbd186740	-0.037207842
97	0xbd5d0c27	-0.053966668
98	0xbd16806d	-0.03674357
99	0xbcabb163	-0.020958608
100	0x3cbba350	0.022905022
101	0xbcabe8cd	-0.020985032
102	0xbcde74dd	-0.027155334
103	0x3d453241	0.04814363
104	0xbcb14085	-0.02163721
105	0xbd5f2308	-0.054476768
106	0x3ba0c1d1	0.004905917
107	0xbd86f8d9	-0.06590433
108	0x3d66f330	0.056384265
109	0xbd845bd9	-0.06462831
110	0x3c85118b	0.016243717
111	0x3d47b0b3	0.048752498
112	0xbd267bed	-0.04064553
113	0xbda215e5	-0.07914332
114	0x3b1d873a	0.00240369
115	0x3c970b8c	0.018438123
116	0xbcd031ea	-0.025414426
117	0xbc7df045	-0.015499179
118	0x3c00bd8e	0.007857693
119	0xbd93edd2	-0.07223095
120	0xbd62bf34	-0.055358127
121	0xbd1f0f02	-0.038832672
122	0xbd084117	-0.0332652
123	0x3dcff8e9	0.10154898
124	0xbc287f64	-0.010284279
125	0xbc1f9d64	-0.009742115
126	0xbc38a4b7	-0.01126974
127	0x3ca25275	0.01981471
