outputs/centerSquare_1a_PPO_wprior0.995/last_status.pt (torch, 15773 bytes, 21 tensors)

actor.0.weight f4 [64, 2]
000000 66 02 c4 be c3 0d bc 3c e3 a6 8c 3d fe 8f e0 3e
       -0.3828308 0.02295578 0.068677686 0.43859857
000010 2b 40 9b 3e a0 be 18 bf ac 68 d7 3e bf 86 84 3d
       0.30322394 -0.5966587 0.42072046 0.06471013
000020 8d bd 08 bf e2 c5 82 3e ed 9a 98 bd 7a 3e 4f bf
       -0.5341423 0.25541598 -0.07451425 -0.80954707
000030 d7 74 bc bd 71 ae be 3e 01 06 ed 3e 40 14 8e 3d
       -0.09201973 0.37242463 0.46293643 0.06937456
000040 ee 42 33 bf ab fa b8 bd 37 af 8d 3d 96 10 18 3f
       -0.70024 -0.09032186 0.06918185 0.5940031
000050 f8 a2 e0 3e b0 0e 9a 3d 14 a2 94 3d 67 ce 4f 3f
       0.43874335 0.07522333 0.072574764 0.8117432
000060 44 f4 b4 bd 8a 5c 89 3d a6 6c 53 bf d8 d3 b7 bd
       -0.088356525 0.067071036 -0.8258766 -0.08975953
000070 4f 33 36 3f 6d c3 ab 3d d0 f6 58 3d ae 71 00 3f
       0.7117204 0.08386884 0.052969754 0.5017346
000080 6d b4 d6 3d af 9f 6d 3d ec 7c af 3c 2c fc 98 3e
       0.10483632 0.058013614 0.021421872 0.29879892
000090 e4 2d a3 3d db 2a 1c 3f b0 c9 00 bf 4c 9a 83 3e
       0.07967737 0.6100289 -0.5030775 0.25703657
0000a0 6b a4 69 3d a9 6a e3 3e 94 e1 70 3e a7 16 40 be
       0.057041567 0.44417313 0.23523551 -0.18758641
0000b0 d1 20 bf 3d cd 5f 80 bd cf eb 83 bd 79 97 e1 be
       0.09332431 -0.062682725 -0.06441461 -0.44060877
0000c0 93 86 2e bf 58 8d a4 bd 2e ae d7 3d 4c 1a b2 bd
       -0.68174094 -0.08034772 0.10531269 -0.08696422
0000d0 df 52 b3 3d 15 6b 89 bd 22 00 cd 3d 45 f6 99 bd
       0.08756041 -0.067098774 0.10009791 -0.07517675
0000e0 33 f0 ba bd 4b 81 89 3d 76 a9 0d 3f 06 32 ab 3d
       -0.091278456 0.06714114 0.553367 0.083591506
0000f0 a8 31 16 bf 83 23 b0 bd cd 1e d5 3d 6b c8 97 bd
       -0.5866952 -0.08600523 0.104062654 -0.074112736
000100 86 96 1c 3f 66 c2 b8 3d c3 a6 cf bd db fb 97 3d
       0.6116718 0.090214536 -0.10139229 0.074210845
000110 33 e8 8c 3d 4d 16 24 3f c0 ea d5 be fd 35 bb bd
       0.06880226 0.6409653 -0.41780663 -0.09141157
000120 45 b3 ec be 2b 75 a1 bd 4b 8c 7f 3d c5 b3 b1 3e
       -0.46230522 -0.07883676 0.062389653 0.34707466
000130 6e d2 17 bd a8 1a 11 be 61 09 a4 3d 08 76 2c 3f
       -0.037065916 -0.14170325 0.080096014 0.673676
000140 bf a8 8d 3d d9 51 14 3f e4 d6 dc 3e 7b 84 8e 3d
       0.069169514 0.5793739 0.431327 0.069588624
000150 ed 15 c4 3d a0 71 a1 bd 16 ce 2d 3f 87 74 bc 3d
       0.095744945 -0.078830004 0.6789259 0.09201913
000160 78 d0 6b bd a7 bb 8f be b2 44 ce bd 56 93 a6 3d
       -0.05757186 -0.28072855 -0.10071696 0.08133571
000170 ed ea 48 3f fd 47 c0 3d f0 9a 8d 3d ae 65 f3 3e
       0.7848347 0.09388731 0.069143176 0.47538513
000180 ac b0 0f 3f a7 d8 a4 3d da 6b 2d 3f c5 77 9e 3d
       0.56128955 0.08049136 0.67742693 0.07737688
000190 4b 68 8b 3d d8 ad 04 3e 89 2a 24 bf be 27 9e 3e
       0.06807002 0.12956941 -0.64127403 0.30889696
0001a0 ee 02 3e bf 3a 21 dc 3e 37 72 aa bd c5 44 5c bf
       -0.7422322 0.429941 -0.08322566 -0.86042434
0001b0 17 0e e6 3d 4a 1e a3 bd 73 40 da bd b5 c8 9b 3d
       0.11233156 -0.079647616 -0.10656824 0.07606641
0001c0 3e 21 fe 3e 05 04 a6 3d 93 36 cf 3d ec 63 ae bd
       0.49634737 0.081062354 0.10117831 -0.08515152
0001d0 ad 7e 7b 3d 25 bd cf 3e 3f ec b3 bd 5c 46 67 3d
       0.061400104 0.40573993 -0.08785295 0.056463584
0001e0 a3 4f b6 bd 9b c7 99 3d 74 1f 22 3f c4 0f a6 3d
       -0.08901908 0.07508775 0.63329244 0.08108476
0001f0 ff 22 97 bd b4 eb 31 3d 31 9e b4 3e 96 22 91 3d
       -0.07379722 0.043437675 0.3527694 0.07086675

actor.0.bias f4 [64]
000000 d7 a6 28 be ae 62 1e bd 02 b1 95 3d f4 ba b6 3d
       -0.16469894 -0.038668327 0.07309152 0.08922377
000010 a7 a5 f0 3a 61 fc 52 3d e9 6d 95 bd 9e 44 17 bd
       0.0018359915 0.05151022 -0.07296354 -0.036930673
000020 0c 25 0a 3e 79 9b 71 3d 4a 08 69 3d da 1f 37 be
       0.13490695 0.05898616 0.05689267 -0.17883244
000030 a9 ea 5e bd 9c 5c 51 3d ae 98 d3 bd b0 26 26 3c
       -0.054423008 0.05111371 -0.10331856 0.01014106
000040 3d 8c bb 3d ce ce 51 3e fe a5 b7 bd 72 48 47 bd
       0.09157608 0.20489046 -0.08967207 -0.048653074
000050 cf d0 7c 3d 25 d9 3d 3e a1 07 4e bd f6 0b 46 3c
       0.061722573 0.18539865 -0.050300244 0.012087813
000060 58 80 a7 3c 4e e7 11 3e da 80 2a bd a6 c9 10 bd
       0.020446941 0.14248392 -0.04162679 -0.035348557
000070 85 97 11 3d 38 e3 bd b9 07 d8 93 3d 8c 81 81 bd
       0.03554489 -0.0003621818 0.07218938 -0.06323537
000080 8d 5c 43 be 55 39 83 3d 04 80 46 bd 05 42 21 be
       -0.19078274 0.064074196 -0.04846193 -0.1574784
000090 e7 29 0e 3d af aa 31 3e 58 04 c0 bd 9f 42 25 be
       0.03470793 0.17350267 -0.093758285 -0.16138695
0000a0 6e f1 4d bd 06 fa c7 3d 00 fd bf 3d bd d9 69 be
       -0.050279073 0.09764485 0.09374428 -0.22836967
0000b0 a4 d3 b0 bd 55 b5 88 bd b6 16 1e be 3d 5b 88 bc
       -0.08634117 -0.06675211 -0.15438351 -0.016645068
0000c0 52 0f 06 bd 62 9e ec bc 68 a0 4c 3d 3f 92 20 3c
       -0.032729454 -0.028884117 0.049957663 0.009800493
0000d0 d9 83 89 3d 8e 8a 18 3e 61 0a b9 bd a4 8d 93 3d
       0.06714601 0.14896604 -0.09035183 0.0720475
0000e0 44 51 2a bd c9 44 da 3d ea e2 0b bd 6c 10 a8 3d
       -0.041581407 0.10657651 -0.03415195 0.08206257
0000f0 25 40 ab bd 09 da db 3b b9 44 06 be c5 af a7 3c
       -0.08361844 0.0067093414 -0.13112153 0.020469556

actor.2.weight f4 [4, 64]
000000 89 21 a7 3e 49 a1 22 bd 32 13 15 be 24 0e 07 bf
       0.32642773 -0.039704595 -0.14558104 -0.5275595
000010 00 ee d5 3d db 34 fa 3d fe 2b 51 be c4 cd 55 be
       0.104457855 0.12217113 -0.20426938 -0.20879275
000020 c5 fc c1 bd d4 24 85 bc f4 71 17 3e 7b 06 5a be
       -0.0947204 -0.016252913 0.14789563 -0.21291535
000030 a7 67 fe 3d 9d 9a ee 3d 5a 6b 8e 3d 92 7f fa be
       0.12422114 0.11650584 0.069540694 -0.48925453
000040 46 ab ae 3d a4 9e 36 be 5f 1a b8 bd 46 aa f3 3e
       0.085287616 -0.17833954 -0.08989405 0.47590846
000050 e1 ef 04 bf c2 d0 37 be 53 e0 37 bd ac 85 a6 3e
       -0.51928526 -0.17950729 -0.044891667 0.3252386
000060 e3 8b 98 3e 5f 41 83 3b 49 07 78 3d 75 b6 06 3e
       0.29794225 0.0040055956 0.060553823 0.1315554
000070 28 4a 9f be b7 b4 4d 3e f7 c7 12 be 18 c4 41 be
       -0.31111264 0.20088468 -0.14334093 -0.1892246
000080 fc 46 de 3d ed 2f 7e be cf 7e 80 be 1f c5 50 3e
       0.10853383 -0.2482297 -0.25096747 0.20387696
000090 41 5d b2 3e 6a 64 97 be 47 2f 6e 3d 7e 9c 0c bd
       0.34836772 -0.29568797 0.058150556 -0.03432893
0000a0 f5 61 95 3b 3b 08 1b be 57 ad 91 be de 26 39 3e
       0.0045587965 -0.15139858 -0.2845256 0.18081233
0000b0 3e 16 ea 3d 88 61 ba 3d 41 a6 b8 3d a1 5b 56 be
       0.114300236 0.09100634 0.090160854 -0.20933391
0000c0 06 bc b4 bd 08 16 09 bc e5 5d 42 be e7 21 69 3c
       -0.08824925 -0.008367069 -0.1898113 0.014229274
0000d0 42 c5 6c bd 15 34 41 3e 6c 00 32 3f eb 11 1d 3d
       -0.057805307 0.18867524 0.69531894 0.038347166
0000e0 47 f1 4f be b4 3a 03 3e c5 e0 b7 3d e8 37 b8 be
       -0.20306884 0.12815362 0.08978418 -0.35980153
0000f0 7f 09 1e 3e d1 51 fe be 73 94 a9 3e ee 69 dd bd
       0.1543331 -0.49671796 0.3312107 -0.1081122
000100 ee 7b a0 bd 2e 80 19 3f 6a 8b 17 bd 17 9e 94 bd
       -0.07836138 0.5996121 -0.03699819 -0.07256716
000110 29 f6 8b 3e 3f 05 c4 be e1 ac 5a 3c 7d 80 85 be
       0.27336243 -0.38285252 0.013346882 -0.2607459
000120 2b 6d 94 3e c3 c1 bf 3e a1 f2 ab 39 93 01 00 3f
       0.2898954 0.37452516 0.00032796434 0.500024
000130 b7 19 b7 be 19 1d d2 3d 85 7a 63 be 18 1b ef bb
       -0.35761806 0.10259456 -0.22214706 -0.007296931
000140 ca db 1a 3d cd 3f ac 3e fc 0f 91 3e c5 23 4f 3e
       0.037807263 0.33642426 0.28332508 0.20228489
000150 2e 01 81 3d 15 99 61 3e 5a 39 7c 3e de 5f 3b be
       0.06299053 0.22031052 0.24631253 -0.18298289
000160 94 bc 85 3e 07 8d c6 3e 28 83 0b 3d 0b eb 48 3e
       0.26120436 0.3877947 0.034060627 0.19620912
000170 bf 4f 46 be ea 2a 34 bd 9d 10 52 3c 9c 94 60 3e
       -0.19366358 -0.04398624 0.012821344 0.2193169
000180 68 16 4a be 40 3a d0 bd cb c4 cb 3e 99 78 ce bd
       -0.1973511 -0.1016736 0.3979858 -0.10081596
000190 e3 c3 c8 3e 88 6b 9e 3e 4d f4 84 be 05 96 74 3e
       0.3921195 0.30941415 -0.25967637 0.23885353
0001a0 4e 39 02 3f 9c f5 f8 3d 62 2a 48 3f 02 bf 03 bf
       0.5086869 0.12156221 0.7818967 -0.5146333
0001b0 6a a7 4d be 01 c7 41 bf 6e f1 c0 bd 8e a7 d4 3e
       -0.20083395 -0.7569428 -0.09421049 0.41534084
0001c0 29 56 97 be c7 8a 07 be a9 74 12 3e 47 ac a7 3e
       -0.29557922 -0.13236533 0.14302315 0.32748625
0001d0 79 bb 0a 3f e6 51 bf be 5c d3 c4 3e d6 31 9b ba
       0.5419231 -0.3736717 0.38442504 -0.0011840414
0001e0 c0 f4 bf bd e0 a3 47 3e c8 b6 cb 3e 87 25 9c be
       -0.09372854 0.19496107 0.3978789 -0.3049738
0001f0 83 7b c4 be df f0 29 be c2 bc a5 be fa fe 8b be
       -0.38375482 -0.16595791 -0.32370573 -0.2734297
000200 b3 52 0b be 24 91 d4 be f2 6f c1 3e 3e 6b c9 3d
       -0.13605766 -0.41516984 0.3778072 0.09834908
000210 af 66 06 be ab b0 0f 3e c2 70 08 be 71 8f 92 3e
       -0.13125108 0.14032237 -0.13324264 0.28625062
000220 af fc a0 be c4 c5 c0 3b 50 91 b4 3e c6 2e 00 bf
       -0.31442782 0.0058829505 0.35267115 -0.5007137
000230 ee bd b2 3d a7 ec 0a bf 49 2d ce 3e 42 c5 04 bf
       0.087276325 -0.5426735 0.40268925 -0.5186349
000240 f8 6e 98 3d cd ae 91 3e d5 3c 73 be 37 15 7b be
       0.074430406 0.28453675 -0.23753674 -0.24519812
000250 2c 9b 8a be 5a d3 51 3e 0c 44 df bd 07 b9 90 3e
       -0.27071512 0.2049078 -0.10901651 0.28266165
000260 25 e6 54 be 84 77 9c 3c 2c bd e6 be 3b ff 12 bf
       -0.20790918 0.019099958 -0.45066202 -0.574207
000270 d3 26 a1 3c 46 e5 98 3e f5 4b 87 be 41 a5 05 bf
       0.019671833 0.29862422 -0.26425138 -0.5220528
000280 b7 07 94 3e 5b 93 03 3f 50 92 c3 be c7 b2 6e be
       0.28912136 0.5139672 -0.38197565 -0.23310386
000290 09 93 6c bc 0a 2f 32 3e b6 64 30 be 8e df 95 be
       -0.014439353 0.17400756 -0.17225918 -0.2927212
0002a0 d6 c6 53 be 5d c6 16 3f 2a 66 00 be 69 f3 16 3d
       -0.20681319 0.5889643 -0.12538972 0.036853228
0002b0 3a c9 3c bd 1a e0 8b 3e 39 da a1 3e d4 8f 0b be
       -0.046090342 0.27319413 0.31611803 -0.13629085
0002c0 ef 57 85 3e d9 2b 01 3f 78 55 25 be 59 5a 9f be
       0.2604365 0.5045753 -0.16145885 -0.31123617
0002d0 36 42 4b be 26 1f 90 3e 16 3b 35 bf 1e ef 01 3f
       -0.19849476 0.28148764 -0.70793283 0.5075549
0002e0 41 76 b4 3e 13 5a 4d 3d 63 86 85 be c2 3d 29 bd
       0.3524647 0.05013473 -0.2607909 -0.041318662
0002f0 07 8e 45 3e 43 76 f7 3e 13 27 d7 3b c2 c9 93 3e
       0.1929246 0.48332414 0.0065659373 0.28864866
000300 93 c6 bc 3e 3d 64 a2 be ba 73 c5 3e b6 c9 32 bd
       0.3687025 -0.317171 0.38564855 -0.043649398
000310 c3 48 80 3e 81 be 85 3d 9d 17 5a 3e 64 52 87 3e
       0.25055513 0.06530476 0.2129807 0.26430047
000320 ca 62 36 3e 75 d9 7d be 22 3c 23 bf 2c 72 dc 3e
       0.17811123 -0.24789985 -0.6376363 0.43055856
000330 5a 92 42 3d 4f a1 77 3e 33 be de bd 86 ba c5 be
       0.047502853 0.24182628 -0.10876121 -0.3861887
000340 19 04 15 bf 39 a1 8d bd 71 02 01 be d9 7e c4 3c
       -0.5820938 -0.069155164 -0.12598588 0.023986267
000350 61 3b 07 be 8f c9 83 be 44 5a 3f 3e 1d 60 8e 3d
       -0.13206245 -0.25739715 0.18686777 0.06951926
000360 cd f3 79 3e 88 d3 74 be 8d 18 15 be 9f 74 53 bc
       0.24409409 -0.23908818 -0.14560147 -0.012906223
000370 33 ce ef bc 1d f0 ca be 47 87 e6 3c 52 28 02 3e
       -0.029273128 -0.39636317 0.028140677 0.12710693
000380 9d cb 75 3e 23 25 c4 3d 7b 4a b1 be c4 a9 0a 3d
       0.24003454 0.09577396 -0.34627137 0.033853307
000390 a2 d0 3b 3e ff 39 af be 58 e1 4d bd 51 b2 d9 3d
       0.18341306 -0.34223935 -0.050263733 0.10629714
0003a0 af 75 09 be f4 fc 7d bd 44 f6 b1 3d f6 db a4 3d
       -0.13423799 -0.062008813 0.086895496 0.08049767
0003b0 10 b6 b1 3b 3e 87 de bd 9c c4 aa 3c 0b 26 9a ba
       0.005423315 -0.10865639 0.020845704 -0.0011760605
0003c0 d2 2d ca be 36 ba 5f be fb b3 88 be 9c ba dd 3e
       -0.39488083 -0.21848378 -0.26699814 0.43306434
0003d0 58 3d 26 be 01 85 7b bb 26 a8 af 3c 04 85 15 3e
       -0.16234338 -0.0038378837 0.021442484 0.14601523
0003e0 c8 c9 83 3e 42 40 90 bd 33 24 68 bd 04 a1 17 be
       0.25739884 -0.07043506 -0.056675147 -0.14807516
0003f0 28 34 86 3d 1b 85 84 be 58 72 c4 3e 36 e5 85 bd
       0.06552917 -0.258828 0.38368487 -0.06537859

actor.2.bias f4 [4]
000000 87 77 0d be 44 b2 49 3d 63 03 a9 3d 43 ff f9 bd
       -0.13815127 0.049242273 0.08252599 -0.122068904

critic.0.weight f4 [64, 2]
000000 62 7d 16 3e ee 6a 61 3d dc 33 55 be ae 78 bc bb
       0.14696267 0.055033617 -0.20820564 -0.005751691
000010 b7 0f 08 3e 57 81 da 3d 67 aa b3 3d 01 23 06 3e
       0.13287245 0.10669201 0.08772736 0.1309929
000020 a4 fa de bd ad 1f d6 bc 5f 08 22 3e 18 06 90 3c
       -0.1088765 -0.026138151 0.15823506 0.01758103
000030 8b d4 a4 be a4 6e 66 be 20 66 1b be 02 4c 03 be
       -0.32193407 -0.22503144 -0.15175676 -0.12821963
000040 54 f2 24 3e 8a ae 09 3d 3c 3f 14 3e 6d 4f 2e 3d
       0.16108066 0.03361372 0.14477247 0.042556215
000050 e1 5b 5d be a2 00 8e 3d d6 f6 84 3e 89 ed 2d 3e
       -0.2161708 0.069337144 0.2596957 0.16985144
000060 47 e2 9b 3e d1 01 8a 3d 8e 32 95 be 62 d1 e3 bd
       0.30446073 0.06738628 -0.29140133 -0.11123921
000070 c1 3f db be 74 8c 7d be eb a0 0a 3f 55 f7 c2 be
       -0.42822078 -0.2476061 0.5415179 -0.38079324
000080 17 2d 79 be 2d a3 0a 3e 00 d4 e3 3e 1c 8b bd 3b
       -0.24333607 0.13538809 0.4449768 0.0057844054
000090 9a 78 5b be f5 fc a0 be 14 b0 d1 bd f8 ec ee bd
       -0.21432725 -0.3144299 -0.10238662 -0.11666292
0000a0 75 40 49 be d5 1a b6 bd 11 c5 08 3e 5c eb 58 3d
       -0.19653495 -0.088918366 0.13356425 0.05295883
0000b0 1a 31 f9 3d 7f 2d 9f 3d f7 51 b7 bd d9 62 fe bd
       0.121675685 0.077723496 -0.089511804 -0.124211974
0000c0 c4 e2 cf 3c 08 50 89 3e 9b 76 ef 3d 4a 3c a5 3d
       0.025376685 0.26818871 0.11692544 0.0806814
0000d0 f0 09 9b bc 00 f1 2c bf 13 31 e1 bd 25 19 be bd
       -0.018925637 -0.67555237 -0.10995688 -0.0928214
0000e0 f6 62 fb be 07 52 9a 3e 52 80 bd be 67 4d 98 bd
       -0.4909894 0.30140707 -0.37011963 -0.07436638
0000f0 41 d3 d7 3d 9c cc b2 3d 2d 9e 85 be 19 55 07 be
       0.1053834 0.087304324 -0.2609724 -0.13216056
000100 25 49 93 3d d3 65 19 3e ec 62 04 be 0c 55 80 bd
       0.071916856 0.14980249 -0.1292836 -0.062662214
000110 ec cb 79 be a8 19 6a be d3 9b d7 3e 92 20 11 be
       -0.24394196 -0.2286135 0.42111072 -0.14172581
000120 8f 88 6b be 5b 6b 6e 3c c4 30 57 3d 6e c5 39 3e
       -0.23001312 0.014551963 0.05253674 0.1814172
000130 30 30 19 be 35 bf 9e bd 1e 3b c3 bd 56 c8 10 bf
       -0.14959788 -0.077513136 -0.0953276 -0.5655569
000140 fa 2b 4d be 13 b5 12 3c 08 48 eb 3e 08 c7 2d 3c
       -0.20036307 0.008954304 0.45953393 0.010606535
000150 3d d3 59 be fe 6e ed bd 1f 9a 88 3d a1 e1 1a 3e
       -0.21271987 -0.11593436 0.06670021 0.15125133
000160 af 0f bc 3d df ce 2c be 2a 93 a7 bd 53 51 ee be
       0.09182679 -0.1687579 -0.08182366 -0.4654642
000170 a2 3c 15 3e ba 33 16 3d f9 bf d7 3b 12 ff 67 3e
       0.14573911 0.036670424 0.006584164 0.22655895
000180 9b 43 82 3e 11 b8 0c be 9b b2 41 be 81 dc a8 be
       0.25442204 -0.13742091 -0.18915789 -0.3298073
000190 51 d0 09 3c ba 2b 66 3e 2a 26 9e bd 5b e2 fc bd
       0.008411483 0.22477618 -0.07722123 -0.123478614
0001a0 b6 07 0d be 7a a1 18 bd 80 34 f2 3d 0a 2d a6 3d
       -0.13772473 -0.03726337 0.1182642 0.08114059
0001b0 d6 93 71 3d 4e cc 2f 3e 58 ca 1a 3f 83 60 94 be
       0.058978878 0.1716778 0.60465 -0.28979883
0001c0 fa d8 d3 3e 0e 08 a4 bd ea ba bd 3d 91 d5 27 3e
       0.41376477 -0.08009349 0.09264167 0.16390063
0001d0 6d 88 3b be bb 21 a1 be 30 b8 fc 3d cd 2c 2c bc
       -0.18313761 -0.31471047 0.123398185 -0.010508728
0001e0 62 b1 66 be 5c c5 8a be 08 ba bc bd 14 98 a8 bd
       -0.22528604 -0.27103698 -0.0921517 -0.082321316
0001f0 74 87 fd bd f9 e9 a8 be 46 42 7e 3d 6e 33 94 3e
       -0.12379351 -0.32991007 0.062074922 0.28945488

critic.0.bias f4 [64]
000000 14 fe 2f be c5 ca fa bd b7 a0 fd 3d 44 2a 42 be
       -0.17186767 -0.122457065 0.123841695 -0.18961436
000010 9e 1a 1e be df 76 f4 bd e6 9c 14 be fb 0c c7 3d
       -0.15439841 -0.11936735 -0.14512977 0.09719273
000020 13 7c 21 be 41 1a 12 be 5e 7c 0f 3e 25 dc 0a 3e
       -0.15769987 -0.14267828 0.14012286 0.13560541
000030 d6 53 06 3e f8 1d 22 be 8e dd 1f be 07 1d 4b 3e
       0.13117918 -0.15831745 -0.1561186 0.19835292
000040 b7 82 04 be 42 fb 02 be 1b b5 15 be 9d 94 49 3e
       -0.12940489 -0.1279116 -0.14619868 0.19685598
000050 41 d6 03 be 42 db 0b be b0 ee 35 be 52 54 43 3e
       -0.128747 -0.13657859 -0.17766833 0.19075134
000060 57 75 03 3e 2e 2d 24 be 05 11 0e be 27 07 3c 3e
       0.1283773 -0.1603286 -0.1387368 0.18362103
000070 6c 99 54 be 44 55 0a be 98 19 1b be b5 77 13 be
       -0.20761651 -0.13509089 -0.15146482 -0.14401133
000080 63 a9 2c be 19 06 1c 3e 07 43 4c be 7e 54 02 3e
       -0.16861491 0.15236701 -0.19947444 0.12727544
000090 d8 83 00 be 40 bb 4a be ba 43 28 be 3f 8d 16 be
       -0.12550294 -0.19797993 -0.16432086 -0.14702319
0000a0 d5 d9 11 3e ca ec 02 3e 03 8d 0a be 8b 5a 0c be
       0.14243253 0.1278564 -0.13530354 -0.13706414
0000b0 b7 bc e7 bd d4 56 0f be 03 3c 04 be 64 7a 11 be
       -0.113152914 -0.13997966 -0.12913518 -0.14206845
0000c0 42 c2 22 be f2 7b 11 be bf 6e 2a be 97 8f f6 3d
       -0.15894416 -0.14207438 -0.16643809 0.12039106
0000d0 d2 75 fa bd 07 79 5d be 76 b9 22 be df 8e 30 3e
       -0.12229504 -0.216282 -0.1589106 0.17242001
0000e0 4c 2d 0a be ba 3c 04 3e 5f 15 13 be 59 ae c1 bd
       -0.13493842 0.1291379 -0.14363621 -0.09457082
0000f0 9f b8 0b be c1 da d1 3d 3b a4 13 be 90 4a 07 3e
       -0.13644646 0.10246802 -0.14418118 0.13212037

critic.2.weight f4 [1, 64]
000000 7e 72 dc 3d 6e 0d b6 3e 64 47 b2 be 39 26 a0 3d
       0.10764025 0.3555712 -0.34820092 0.078197904
000010 5e 9e 3a bd a7 7f fc 3e f7 f4 3b 3e 63 f2 2f bd
       -0.045561187 0.4931614 0.18355165 -0.042955767
000020 bd fc 61 3e 20 4f 85 3e 5b bc 70 be 13 7f 22 be
       0.22069068 0.2603693 -0.23509352 -0.15868787
000030 5b a7 2b be 89 1b 1e 3d ef 5f 4a 3e b9 44 b3 be
       -0.1676306 0.03860048 0.19763158 -0.3501337
000040 c8 4e 14 3e 20 04 f9 3d 99 fd 4a 3e cd e6 f1 bd
       0.14483178 0.1215899 0.19823302 -0.118116
000050 6c 44 2e 3e 38 c2 b0 3e 6d 1e fa 3d 7e 45 c0 bd
       0.17018288 0.34523177 0.122128345 -0.093882546
000060 6a bc 36 be bf 49 df 3e 36 a6 95 3e fe 95 de bd
       -0.17845312 0.4361095 0.2922837 -0.108684525
000070 00 06 a6 3d 5b 16 0d 3e 5b f4 a8 3e 21 20 96 3d
       0.08106613 0.13778059 0.32998928 0.07330347
000080 aa 2b 1a 3e b5 fb 4a be 51 06 9e 3c 1d b3 6f be
       0.15055719 -0.19822581 0.019290121 -0.2340817
000090 83 bf 30 3e 23 37 80 3d 35 d5 b7 bc 31 37 50 3e
       0.17260556 0.062605165 -0.022440532 0.20333554
0000a0 a5 b3 9f be 93 23 9f be 72 13 cc 3d 49 5e 8f 3e
       -0.31191745 -0.31081828 0.099646464 0.2800162
0000b0 45 0a f2 3d 85 8d 91 3e 18 f9 b9 3e 79 cb f1 3e
       0.11818365 0.28428283 0.36322856 0.4722555
0000c0 77 d2 b7 3e 3d 86 89 3e bc d5 12 3e 16 3e 87 be
       0.3590276 0.26860228 0.14339346 -0.26414555
0000d0 4d 8b 80 3e 8a 25 9e 3e 1d 59 c3 3e 5d 10 94 be
       0.25106278 0.30888015 0.38153926 -0.28918734
0000e0 28 bf 83 3e b6 e3 04 be 81 20 40 3e 1e 48 ab 3e
       0.25731778 -0.1297749 0.187624 0.3345346
0000f0 ba 76 cd 3e a8 35 04 bf fa 30 fa 3d eb 3a 52 be
       0.40129644 -0.5164437 0.12216373 -0.20530288

exp_avg f4 [64, 2]
000000 89 4b ea 38 13 dd 43 ba e9 d6 ec 3c 21 00 30 ba
       0.00011172059 -0.00074716023 0.02891107 -0.00067138864
000010 3b 48 48 bb 51 9a 7a b8 f6 83 3a b9 23 f5 ac 3b
       -0.003056063 -5.9748363e-05 -0.00017787502 0.005278246
000020 28 03 07 3b 4d 41 f7 37 f4 e0 4d bc 49 bc 11 39
       0.0020601247 2.9475103e-05 -0.01256584 0.0001389842
000030 9a cb af 3b 02 44 fb b8 64 d0 ff b9 6b c2 99 3c
       0.0053648474 -0.0001198128 -0.00048792653 0.018769464
000040 61 27 94 39 c3 58 a8 bc c4 e8 10 3c a5 70 8e 37
       0.000282581 -0.020550137 0.008844558 1.6980173e-05
000050 63 54 a2 b9 98 eb 21 3c 8f 82 da 3c 66 c3 ec b9
       -0.0003096192 0.00988283 0.026673583 -0.0004515901
000060 32 6a 53 bc ab 38 2b 3c 30 6f 74 39 9d f7 a8 bc
       -0.012903737 0.010450522 0.00023311074 -0.020625884
000070 a6 15 95 b9 35 77 ad 3c 24 00 70 3c 2c 7a 98 b8
       -0.00028435624 0.021175006 0.014648471 -7.270681e-05
000080 86 ea 6c ba 7e cf b0 b6 fe 4c da 3a ff fe 42 38
       -0.0009037632 -5.269364e-06 0.0016655026 4.6490688e-05
000090 0d 2c 5d 3c d1 54 1d b9 ac c9 33 3b dc fc ba 39
       0.013499272 -0.00015004283 0.0027433438 0.0003566508
0000a0 52 d6 16 3c 57 4a 3b b9 40 da 53 39 78 d9 b0 37
       0.009206371 -0.00017861403 0.00020203833 2.1082102e-05
0000b0 f5 e4 34 3c 84 b1 f2 bb c6 ce 58 bc 0b 30 b1 39
       0.011040916 -0.0074064154 -0.013232892 0.00033795866
0000c0 e8 82 59 39 eb c1 77 bc 14 27 0f 3c 3a c7 13 bc
       0.00020743499 -0.015121917 0.008737344 -0.009019667
0000d0 15 d3 75 3c 36 d0 2f bc 43 cf b5 3c da 55 85 bc
       0.015003939 -0.010730794 0.022193557 -0.016276289
0000e0 9e 9f d5 bb 1f 50 9d 3b fc 5e 43 b9 df de 27 3c
       -0.006519272 0.004800811 -0.00018632034 0.010246008
0000f0 0d 3f 1d 39 d1 a6 13 bc 96 d4 b0 3c 7d 41 74 bc
       0.00014996175 -0.00901194 0.021585744 -0.014908192
000100 03 3f 93 b9 52 32 8f 3c 15 10 94 bc ea 60 51 3c
       -0.00028084972 0.01748005 -0.018074075 0.012779454
000110 e7 c4 a6 3c 38 36 da b8 42 77 f3 38 2c b4 5a bb
       0.020357562 -0.00010405149 0.000116093564 -0.003337155
000120 72 9f b7 39 68 bb 5a bc e4 e1 5d 3b 25 9a 17 36
       0.00035023276 -0.013350345 0.0033856565 2.2590477e-06
000130 26 0c 4b bb 8d 87 c8 3a 72 5b 69 3c a6 6c 7a b9
       -0.0030982583 0.0015299186 0.014242994 -0.00023882333
000140 9a f0 9c 3c 8c a1 ef b8 61 bb dd b9 c3 66 61 3c
       0.019157697 -0.000114264985 -0.00042292013 0.01375741
000150 48 62 c3 3c 48 c9 ad bc 21 6b 96 b9 c5 59 a6 3c
       0.023850575 -0.021214142 -0.00028690047 0.020306477
000160 65 84 96 bb 96 88 20 3a f9 17 dc bc 05 f8 be 3c
       -0.0045934194 0.00061238685 -0.0268669 0.023311624
000170 2c ae 36 b9 d1 21 67 3c 08 a0 76 3c 9e c4 88 b9
       -0.00017421757 0.014107184 0.015052803 -0.00026086433
000180 ed 01 a5 b9 c6 87 91 3c 44 9d 96 b9 01 0a a9 3c
       -0.00031472687 0.017764937 -0.00028727402 0.020634653
000190 77 b8 1e 3c 67 cb d0 bb ba 56 1e 3b 05 52 88 3a
       0.0096875345 -0.0063719037 0.002416058 0.001040042
0001a0 16 26 80 3b 7d 39 9d 3b 34 50 84 bc be a5 8c 39
       0.00391079 0.004798113 -0.016151525 0.00026826368
0001b0 b4 b6 fc 3c 24 05 ae bc 17 76 70 bc 32 7c 27 3c
       0.030848838 -0.021242686 -0.014676592 0.010222482
0001c0 26 50 ab b9 81 5d 73 3c 36 2b 6d 3b b0 f9 6b bb
       -0.00032675377 0.014853836 0.0036189086 -0.003600698
0001d0 45 33 a2 3c 75 02 2f ba a7 93 0d bc 1a bd ba 3b
       0.019799838 -0.00066760863 -0.00864116 0.005698812
0001e0 a8 0b 82 bc af 84 61 3c 3e 2b a0 b9 5d 65 a6 3c
       -0.015874699 0.013764544 -0.00030549796 0.020312006
0001f0 8b 78 25 bc b1 8e 0f 3c b3 c5 8d ba c0 b0 91 3c
       -0.01009954 0.008762048 -0.0010816365 0.017784476

exp_avg_sq f4 [64, 2]
000000 24 96 1b 35 7e 3a b7 37 df c7 3a 3b d4 62 94 38
       5.7960483e-07 2.1842538e-05 0.002850048 7.075598e-05
000010 58 aa a1 38 a5 0b af 37 7f 4b 81 35 57 a1 66 38
       7.708807e-05 2.0867048e-05 9.633221e-07 5.4986533e-05
000020 8d 85 b1 37 36 68 e8 38 1a b7 2c 3a 1e fb a9 36
       2.1162234e-05 0.00011082033 0.00065885636 5.0658264e-06
000030 e8 b7 67 38 55 fe 3e 36 e9 51 37 37 fe 32 3a 3a
       5.5245968e-05 2.8460247e-06 1.0926721e-05 0.00071029353
000040 06 84 e6 36 07 bd 33 3a cb 8c 93 39 c0 05 83 36
       6.8699037e-06 0.00068564754 0.00028142924 3.9047736e-06
000050 87 c3 85 36 4a 79 62 39 4a 04 53 3b ad bf e2 37
       3.9864713e-06 0.00021598223 0.0032198601 2.7030555e-05
000060 65 70 2c 3a 3b 96 52 3a 19 78 9d 36 16 cc 2c 3a
       0.00065780274 0.00080332503 4.692946e-06 0.00065916905
000070 34 eb e7 36 c5 fd 4d 3a 30 81 55 3a 1b 27 49 37
       6.9117177e-06 0.0007857944 0.00081445556 1.1989639e-05
000080 3d cc a2 36 29 5e 85 37 04 f8 04 37 f0 c6 42 35
       4.8517527e-06 1.5898682e-05 7.925559e-06 7.2560124e-07
000090 fc 06 27 3a 16 24 22 37 91 5c 05 38 92 1b 14 39
       0.0006371585 9.664354e-06 3.179588e-05 0.0001412465
0000a0 7f 6c 97 39 78 41 bb 36 02 d1 0e 36 f0 6b e0 36
       0.000288818 5.580656e-06 2.1281307e-06 6.688286e-06
0000b0 92 84 e5 39 47 86 eb 39 ff f4 18 3a 31 74 58 37
       0.00043777056 0.00044922737 0.0005834847 1.2901656e-05
0000c0 79 02 68 36 e3 02 cd 39 a8 87 9e 39 73 46 02 3a
       3.4572133e-06 0.00039102798 0.0003023718 0.0004969604
0000d0 8c fa 79 3a 0e da 57 3a c9 a7 09 3b db b4 04 3b
       0.00095359306 0.0008234092 0.0021004549 0.00202494
0000e0 df 0c 16 39 a3 c2 10 39 99 e1 24 36 e0 76 3f 39
       0.0001430991 0.00013805418 2.456922e-06 0.00018259464
0000f0 7d c3 cc 35 2f 00 06 39 c9 2a f8 3a 52 31 ee 3a
       1.5256079e-06 0.00012779304 0.0018933649 0.0018172658
000100 fb 34 cb 36 98 13 02 3a 3f f1 b0 3a 06 56 a1 3a
       6.056039e-06 0.0004962026 0.0013499631 0.0012308962
000110 3e 47 db 3a 78 e2 a7 37 39 52 e0 34 5a 0d 68 37
       0.0016729606 2.0013409e-05 4.1783076e-07 1.3831386e-05
000120 9d 14 b3 36 ab 4a a4 39 f8 49 04 38 93 38 06 36
       5.3370154e-06 0.0003133615 3.154014e-05 2.0000487e-06
000130 c0 38 19 38 66 26 2e 37 95 1e 45 3a 81 90 1e 37
       3.6530895e-05 1.03801485e-05 0.00075195107 9.451179e-06
000140 84 dc b6 3a 94 bc a8 37 e7 44 f1 36 de 3c cd 39
       0.0013951217 2.0114974e-05 7.190381e-06 0.00039145997
000150 cc ca 25 3b 65 4e 58 3b 16 66 f0 36 66 7b 2f 3a
       0.0025297878 0.003300571 7.1644417e-06 0.0006694108
000160 0b a5 70 38 5a a2 66 36 16 2b 51 3b d1 92 82 3b
       5.7374167e-05 3.4367172e-06 0.003191655 0.003984787
000170 25 6d 24 36 41 5c 9b 39 88 07 49 3a 09 22 86 37
       2.4501435e-06 0.00029632638 0.0007668664 1.5989894e-05
000180 1c d8 f3 36 4b 02 16 3a db c1 ea 36 43 f9 51 3a
       7.267123e-06 0.00057223876 6.996311e-06 0.000800986
000190 03 34 8f 39 93 3c 00 39 45 51 38 38 16 e4 57 39
       0.00027313837 0.00012229597 4.3944707e-05 0.00020588966
0001a0 88 9b 7b 38 4d 2e 0f 39 ee 33 8e 3a 6d 51 12 37
       5.9987913e-05 0.00013654791 0.0010849216 8.721237e-06
0001b0 66 d5 80 3b 91 47 6d 3b 61 f0 5c 3a 77 de 4f 3a
       0.003931689 0.0036205987 0.0008428153 0.0007929573
0001c0 28 b4 c0 36 31 b2 c0 39 4b 37 3b 38 96 86 7a 38
       5.743019e-06 0.00036753857 4.463577e-05 5.9729988e-05
0001d0 ac b0 ad 3a 66 40 0e 38 e7 f5 83 39 9c a4 75 39
       0.0013251505 3.3915414e-05 0.0002516948 0.00023426343
0001e0 4f 03 93 3a 44 72 ab 3a 32 8c 00 37 61 2b 3b 3a
       0.0011216196 0.0013080318 7.662036e-06 0.0007139948
0001f0 d1 07 c2 39 40 2e 16 3a 33 33 b3 37 04 71 30 3a
       0.00037008387 0.00057289377 2.1362304e-05 0.0006730708

exp_avg f4 [64]
000000 57 81 8f 39 4e 13 9c 3b 59 94 37 b8 9b e4 a5 3a
       0.0002737145 0.0047630435 -4.376876e-05 0.0012656631
000010 00 11 2c 3a d6 cd 2b bb 22 72 cf 3a 50 89 67 3b
       0.00065638125 -0.0026215217 0.0015826861 0.0035329647
000020 82 d9 2a bb e9 ab 97 3a 57 70 33 b9 16 d7 da 3b
       -0.0026069586 0.0011571619 -0.0001711262 0.0066784723
000030 eb 61 68 38 ff f6 24 bb 8e 1b 38 3b 26 14 3d 3b
       5.5404304e-05 -0.0025171635 0.0028092596 0.002885112
000040 bc 79 b7 ba d7 92 79 38 e1 d5 26 3b 65 49 f1 b8
       -0.0013998072 5.950298e-05 0.0025457072 -0.00011505446
000050 96 e0 10 3b 0a 7b fa b9 82 7b 2e 3a 09 50 37 bb
       0.002210652 -0.00047775387 0.00066559773 -0.0027971289
000060 14 89 0a bb 77 ce 83 ba 14 71 81 39 80 97 06 3a
       -0.0021138834 -0.0010056038 0.00024689047 0.00051342696
000070 0e 41 6c 39 a8 a5 ba 39 b0 46 83 ba cc 4a a1 3a
       0.00022530949 0.00035600108 -0.0010015573 0.0012305616
000080 1d ba 3f 3b ba 4d 7c b9 50 cb 74 3b 0a cc f0 b9
       0.002925522 -0.00024061548 0.003735263 -0.00045928388
000090 53 23 0c bb 0c 15 0b 38 2d 00 82 b9 be 1d 4e 3b
       -0.002138336 3.3159784e-05 -0.00024795663 0.0031450833
0000a0 b2 76 60 3b 9e f2 e1 3a 3a ae 8f b8 01 25 53 3b
       0.0034250435 0.0017238443 -6.8512236e-05 0.00322181
0000b0 0f d6 44 ba 6d 62 49 38 37 be 00 3b 74 20 47 3b
       -0.0007508704 4.80138e-05 0.0019644627 0.0030384334
0000c0 56 92 fe 3a 46 6d 23 3b ca 47 89 39 5e 2c d9 3a
       0.0019422274 0.0024936958 0.00026184163 0.0016569009
0000d0 f8 6d 83 3a 71 3a 6e bb 89 c6 da 39 d0 d7 d6 b9
       0.001002728 -0.0036350752 0.0004172812 -0.00040978054
0000e0 a3 86 37 3b ff 41 fd b9 65 28 5c 3b 0e a0 4e b7
       0.0028003834 -0.0004830509 0.0033593413 -1.23158225e-05
0000f0 f7 88 e6 38 8c 34 3d 3b 53 0d 3b 3a 80 7b 24 3b
       0.00010992766 0.0028870432 0.00071354694 0.0025098026

exp_avg_sq f4 [64]
000000 77 6c 74 37 1b c3 2f 39 7c 91 ae 37 d6 6f 7d 37
       1.4568787e-05 0.00016761983 2.0810163e-05 1.5106014e-05
000010 9f 6e a4 37 21 1c 1d 38 04 5d f6 36 35 86 56 38
       1.9601835e-05 3.7457914e-05 7.3421998e-06 5.1146566e-05
000020 c4 cb 56 38 11 6e ce 37 f0 f8 2e 38 1b db 22 39
       5.1211347e-05 2.4608367e-05 4.1716674e-05 0.00015531147
000030 f1 6d 4d 38 d8 c2 83 38 22 0a 66 38 f7 66 2d 38
       4.89782e-05 6.282859e-05 5.484571e-05 4.1342308e-05
000040 4a 6a 8f 37 b9 2a 5a 37 6b b0 1c 38 5b 1e 0b 38
       1.7096423e-05 1.300376e-05 3.73576e-05 3.3168453e-05
000050 cf 26 bc 37 0b 32 5f 37 f3 40 ef 37 10 bc 12 38
       2.2429418e-05 1.3303487e-05 2.8521265e-05 3.498426e-05
000060 cc e0 06 38 4c c5 19 38 93 b5 6d 38 81 d8 13 39
       3.2157448e-05 3.666179e-05 5.6674307e-05 0.00014099666
000070 34 bd 35 37 4e 2c d9 37 08 0d 2e 37 0d 15 05 39
       1.0832493e-05 2.5889047e-05 1.0374242e-05 0.0001269171
000080 f0 a6 13 38 16 31 c3 38 53 c7 c2 38 a7 8f f9 36
       3.5203004e-05 9.3074676e-05 9.287768e-05 7.4375016e-06
000090 51 6d c8 37 a9 e8 c4 37 cb aa af 36 ca 9c 23 38
       2.3892762e-05 2.3473362e-05 5.2352893e-06 3.900825e-05
0000a0 0c a6 a1 38 1f 23 33 38 8d 71 5c 39 4a 01 61 38
       7.708007e-05 4.2709635e-05 0.00021023136 5.364538e-05
0000b0 67 b2 c1 36 cc 80 83 39 aa 04 b4 37 7e 8a 4e 38
       5.772617e-06 0.00025082228 2.1459844e-05 4.924321e-05
0000c0 81 b2 45 38 7c fe 80 38 d7 e3 b9 37 46 bc 54 38
       4.7134705e-05 6.150917e-05 2.2159815e-05 5.0720082e-05
0000d0 0e 6d 76 38 7d 19 70 38 df e2 9a 39 ea 80 6f 38
       5.8752536e-05 5.7244197e-05 0.000295422 5.71021e-05
0000e0 dc 0b 0c 38 e7 37 a7 36 74 c6 91 38 07 1c 83 37
       3.3389646e-05 4.9834957e-06 6.9511036e-05 1.5629468e-05
0000f0 b8 c6 a8 38 c0 ec 9e 38 60 3a 3f 38 9e a0 47 38
       8.0478785e-05 7.578125e-05 4.5592315e-05 4.7594884e-05

exp_avg f4 [4, 64]
000000 1d cd 41 39 65 a8 bd 37 b4 91 69 b8 e9 3d e4 b8
       0.00018482325 2.260897e-05 -5.5687226e-05 -0.00010883419
000010 26 f9 df b7 59 80 28 b8 e3 74 74 38 6e d1 17 38
       -2.669969e-05 -4.0173854e-05 5.8282993e-05 3.6196252e-05
000020 c9 18 1e b9 51 95 b5 b8 d7 78 97 b8 90 23 3f 39
       -0.00015077287 -8.658565e-05 -7.222749e-05 0.00018228428
000030 76 8b 5e 38 e0 7d 70 b8 ac 8d f2 38 e3 88 08 b8
       5.3058808e-05 -5.733769e-05 0.00011565848 -3.2552412e-05
000040 a0 5f f4 b8 2c 14 84 b9 6c b0 ab 38 2d 84 03 38
       -0.00011652638 -0.0002519203 8.1867765e-05 3.1355932e-05
000050 4d 62 bf b8 b7 81 46 b9 8f 03 8c 38 79 a0 fe 36
       -9.1259e-05 -0.00018931074 6.676383e-05 7.5884714e-06
000060 54 cf ab b7 db 18 1e b9 e4 c9 71 38 95 5a 57 38
       -2.0481333e-05 -0.00015077314 5.7646903e-05 5.1344356e-05
000070 37 45 54 b8 38 b0 a6 b6 1a 0a a3 b8 c6 4b ae 38
       -5.06092e-05 -4.9677e-06 -7.774327e-05 8.3110805e-05
000080 92 b5 5d 39 41 89 b0 b8 1d 56 14 38 42 d9 44 39
       0.00021143843 -8.4178995e-05 3.536615e-05 0.00018772951
000090 9f bc 09 b8 1b fb 62 b9 80 69 04 39 0d 20 2a 39
       -3.2839012e-05 -0.00021646584 0.00012627803 0.00016224403
0000a0 9b ea 1a 38 86 a7 f8 b8 63 4a ca b8 d3 24 85 39
       3.6934955e-05 -0.00011856765 -9.645966e-05 0.00025395173
0000b0 4f 6b fb 38 17 d7 88 38 32 58 36 39 1d 2d 06 b6
       0.000119886005 6.525049e-05 0.00017389728 -1.9993815e-06
0000c0 57 4b 08 38 67 9f fe 37 33 cf 9e b8 39 89 1e b8
       3.2495092e-05 3.0353387e-05 -7.572621e-05 -3.7797934e-05
0000d0 8d d5 de b8 76 59 1d b9 d1 b1 f0 38 7d ff c3 b8
       -0.00010625562 -0.00015006014 0.00011477213 -9.345913e-05
0000e0 ef e9 2c 38 1b 05 e7 b8 2a fb 8e 37 0d cc d6 b8
       4.1225863e-05 -0.00011015889 1.7044676e-05 -0.000102423226
0000f0 00 e6 b2 38 38 a6 42 b7 3e b9 17 39 8d ac 06 b8
       8.530542e-05 -1.1602002e-05 0.0001446949 -3.210879e-05
000100 af 2c dd bb 57 64 4e bb 1e b1 5b 3c 1d f8 8b 3b
       -0.0067497115 -0.0031492913 0.013408927 0.004271521
000110 ac 9a 45 bc c4 f7 4d 3b 13 cc 19 bc 25 00 9e 3b
       -0.012060802 0.0031428197 -0.009387034 0.0048217946
000120 69 b3 9c bb 77 fb 31 bb 10 f1 86 3b 61 ed 79 bb
       -0.0047821295 -0.0027157941 0.0041180924 -0.0038135874
000130 85 80 9d bb e1 dc 8f bb 16 73 9e 3b a4 ec 5c bb
       -0.0048065805 -0.0043903445 0.0048354967 -0.0033710385
000140 80 59 09 3b 47 72 51 bb ec 77 4e bb d8 09 43 bc
       0.0020957887 -0.0031958984 -0.0031504584 -0.011904202
000150 2e a5 43 bb e9 e0 16 3c e3 66 9f 3b df cd 4d 3b
       -0.0029853093 0.009208896 0.00486456 0.0031403226
000160 46 fd 92 bb 73 ff b8 3b 8c dc 9c 3b 96 19 af 3b
       -0.004485759 0.0056456863 0.0047870334 0.0053436263
000170 2d bf a0 bb 8f 15 8a 3b 33 63 94 bb a9 ec b1 3b
       -0.0049056024 0.0042139958 -0.004528427 0.0054298234
000180 29 d4 a5 3b 0e 6e af bb 1c 66 54 bb 0b 0e 50 bb
       0.005060692 -0.0053536957 -0.0032409495 -0.0031746652
000190 ee 0e 93 bb 67 44 13 bb f1 ea f5 3a 23 3d 65 bb
       -0.0044878637 -0.002247119 0.0018762035 -0.0034979067
0001a0 96 d7 53 bb 34 e6 85 3b bf 83 ac 3b 5c 25 ac 3b
       -0.0032324544 0.0040862802 0.005264729 0.005253477
0001b0 23 48 29 3b 4b 56 b3 bb b5 65 9d 3b ee a5 47 bb
       0.002583035 -0.0054729334 0.004803384 -0.0030463892
0001c0 52 1b 93 3b ac bb 97 3b 94 f0 33 ba 40 ee 4b bc
       0.004489341 0.0046305265 -0.0006864157 -0.01244694
0001d0 c9 09 49 bc 59 48 5f 3b 95 1b bd 3b fe 90 b5 bb
       -0.012270399 0.0034070222 0.0057711103 -0.005540966
0001e0 cb a8 92 3b 8e b0 b5 3b 8f 47 59 bb 18 d0 94 bb
       0.004475688 0.0055447286 -0.0033154225 -0.0045414083
0001f0 4a e4 a3 bb dc ce 8c 3b 47 7b 76 bb 99 cf 8d 3b
       -0.0050015794 0.0042971205 -0.00376101 0.004327726
000200 16 30 e1 3b 25 38 4d 3b 30 1d 5d bc 2d 1c 93 bb
       0.0068721874 0.0031313982 -0.013495728 -0.004489443
000210 d0 20 43 3c be 6c 55 bb 6b 8a 19 3c 93 0e a1 bb
       0.011909679 -0.0032566036 0.00937138 -0.0049150675
000220 5a 8b 9d 3b ce 0b 2e 3b f6 67 8d bb 1e 33 85 3b
       0.0048078718 0.002655733 -0.0043153716 0.0040649315
000230 1d f5 9a 3b 67 87 93 3b 2e 12 a0 bb cc 4e 5a 3b
       0.004728927 0.004502225 -0.0048849797 0.0033311127
000240 86 cf 16 bb 94 35 3d 3b 43 f8 54 3b 11 4e 41 3c
       -0.0023011877 0.0028871046 0.0032496608 0.011798398
000250 8d 2f 3c 3b a3 91 16 bc 34 78 99 bb cd fe 4a bb
       0.0028714866 -0.009189996 -0.004683519 -0.0030974627
000260 5a 3b 97 3b 70 7e b8 bb f9 0c 97 bb 34 2b a9 bb
       0.0046152296 -0.005630307 -0.0046097008 -0.005162621
000270 bb 1f 9b 3b c8 07 8f bb 95 0f 97 3b cc 18 ab bb
       0.004734007 -0.0043649413 0.004610012 -0.005221462
000280 91 c4 a4 bb c0 92 a8 3b 94 cc 58 3b 82 88 64 3b
       -0.0050283154 0.005144447 0.0033080922 0.0034871404
000290 e0 9e 96 3b 1d 30 02 3b 4d b1 d3 ba af de 71 3b
       0.004596576 0.0019865104 -0.0016150862 0.0036906411
0002a0 f3 0c 57 3b 1b 87 8d bb aa c3 aa bb 1d fc a9 bb
       0.0032814115 -0.0043190843 -0.0052113133 -0.005187525
0002b0 dd 9b 1b bb b3 93 b0 3b d6 ce 9d bb 72 14 46 3b
       -0.0023744025 0.005388701 -0.0048159165 0.0030224589
0002c0 42 dc 96 bb 61 8e 9b bb cf f5 f4 39 13 d0 49 3c
       -0.0046038935 -0.0047471975 0.00046722448 0.012317675
0002d0 6b 12 47 3c d0 6f 6e bb eb 31 b5 bb ef 5f ae 3b
       0.012150387 -0.0036382563 -0.0055296323 0.005321495
0002e0 7c 1c 96 bb e5 14 b4 bb 5e da 56 3b 92 12 8e 3b
       -0.0045810323 -0.005495655 0.0032783966 0.00433571
0002f0 0c fa a1 3b 15 f6 91 bb 28 87 79 3b 99 d4 92 bb
       0.004943138 -0.004454384 0.0038074944 -0.00448091
000300 ac 1c a1 b9 19 48 9e b6 58 69 15 39 53 50 ab 39
       -0.00030729675 -4.71716e-06 0.00014248991 0.00032675508
000310 ef 77 3a 39 f1 6f 21 39 32 cf 32 b8 36 64 6f 38
       0.00017783021 0.00015395858 -4.2631473e-05 5.707537e-05
000320 19 1b 03 39 f8 c4 19 39 da 4c 8d 39 99 58 e3 b9
       0.00012503228 0.00014664594 0.00026950875 -0.00043362824
000330 20 50 ce 37 9e c2 64 b8 99 c8 8a b8 83 ff 97 38
       2.4594425e-05 -5.4540687e-05 -6.617717e-05 7.247834e-05
000340 01 c8 a8 39 f5 fc 12 3a 97 dd 3d b9 ee 24 9c 38
       0.00032192472 0.00056071515 -0.00018106993 7.445538e-05
000350 01 0b 57 39 fe af 32 39 31 ec 81 b9 c4 94 53 b8
       0.00020508097 0.00017040965 -0.00024780774 -5.044487e-05
000360 eb 90 e4 b8 80 f8 0d 39 95 64 76 b9 fe a2 73 b9
       -0.0001089888 0.00013539381 -0.00023497858 -0.00023235005
000370 e9 ff 68 39 d6 7c 23 39 dd e4 80 b6 18 d1 98 b9
       0.00022220578 0.00015591396 -3.8413405e-06 -0.00029147486
000380 e7 a8 7f b9 f4 d6 99 39 86 f9 d6 b8 67 20 03 ba
       -0.00024381616 0.00029342587 -0.000102507925 -0.0005002082
000390 d9 1e 9f b8 e3 1f fa 39 5e 1b cb b9 33 1c ba b9
       -7.587457e-05 0.00047707473 -0.00038739567 -0.00035497695
0003a0 3a 20 b4 b8 48 38 b8 39 f1 8b 34 38 55 b8 a7 b9
       -8.5890715e-05 0.00035137148 4.3045675e-05 -0.0003199006
0003b0 ff 3c ac b9 5a 38 9f 37 44 34 29 b9 6a 83 d9 37
       -0.00032851842 1.8980518e-05 -0.00016136566 2.592961e-05
0003c0 6f 16 ac 38 c2 05 b5 38 3f 9f 9a 39 aa 2c 2f 39
       8.205778e-05 8.631825e-05 0.00029491817 0.00016705939
0003d0 26 42 6d 39 1f e8 c7 39 5a c7 ba b9 ba 10 a4 39
       0.00022626724 0.00038129181 -0.00035625213 0.0003129298
0003e0 6b 77 86 38 c9 1b 80 38 e0 9d a7 37 3c 8b a1 39
       6.411861e-05 6.108691e-05 1.9981468e-05 0.0003081205
0003f0 e6 53 e1 b7 82 11 31 39 a3 77 48 b9 88 4b 42 39
       -2.6861158e-05 0.00016886558 -0.00019118054 0.0001852942

exp_avg_sq f4 [4, 64]
000000 af ed aa 35 73 1f 75 35 76 1b a1 35 d8 d0 65 35
       1.2735162e-06 9.1315377e-07 1.2003427e-06 8.5613055e-07
000010 42 f9 2d 35 d5 01 bb 35 9f 13 72 35 e7 37 22 35
       6.481024e-07 1.3933119e-06 9.018058e-07 6.043105e-07
000020 52 e4 c4 35 fa 2f b6 35 03 c7 4d 35 08 10 1a 36
       1.4669588e-06 1.357402e-06 7.665805e-07 2.295712e-06
000030 51 d7 52 34 db a1 8e 35 96 49 9c 35 7d 89 87 35
       1.9636106e-07 1.0626931e-06 1.1644322e-06 1.0098298e-06
000040 29 38 05 35 ed b2 20 36 fb d6 ae 35 80 36 43 35
       4.9628085e-07 2.3946006e-06 1.3026578e-06 7.272247e-07
000050 69 37 99 35 c8 b6 e1 35 53 73 67 34 0e 37 6e 35
       1.1415515e-06 1.6817003e-06 2.1555506e-07 8.8742024e-07
000060 c1 59 5a 35 0c 28 74 35 0a 5e 42 34 e5 97 79 34
       8.134194e-07 9.095536e-07 1.8101869e-07 2.3245191e-07
000070 51 24 1e 34 fc e6 55 35 fd bd 7e 35 fb f2 b7 34
       1.4728109e-07 7.968481e-07 9.4898843e-07 3.4263198e-07
000080 a3 de 05 36 f5 83 b0 34 3e 31 9f 35 d9 fa f1 35
       1.9948136e-06 3.2878566e-07 1.1860755e-06 1.8028906e-06
000090 d1 9c 32 35 61 24 08 36 66 da 33 35 b8 bd 00 36
       6.6538365e-07 2.0286755e-06 6.700051e-07 1.9183917e-06
0000a0 ef e6 94 35 cf 60 87 35 72 f5 f9 34 86 3c 2c 36
       1.109407e-06 1.0086459e-06 4.655845e-07 2.5665227e-06
0000b0 c2 d0 83 35 c8 53 be 34 af c3 e8 35 e4 88 7e 35
       9.821017e-07 3.5451217e-07 1.7342298e-06 9.4821576e-07
0000c0 80 7f 49 35 a1 27 59 35 77 39 0e 35 08 86 5a 35
       7.506387e-07 8.0896467e-07 5.2982745e-07 8.140637e-07
0000d0 d7 25 b1 35 3a f2 07 36 c9 0f 13 35 fd 02 d8 34
       1.319854e-06 2.0257562e-06 5.478474e-07 4.023531e-07
0000e0 76 bb 43 35 13 b7 22 35 2b ca 61 35 63 27 b4 34
       7.291595e-07 6.061611e-07 8.4113225e-07 3.355627e-07
0000f0 5b c4 e2 34 42 ff 55 35 34 c2 37 35 43 ce 0f 35
       4.2238648e-07 7.972013e-07 6.8455415e-07 5.35718e-07
000100 7a 65 20 39 3c 97 33 39 3e e1 73 39 f0 07 3f 39
       0.00015296592 0.0001712711 0.00023258195 0.00018218136
000110 25 eb 68 39 80 5c 50 39 59 6a 11 39 4c 51 3b 39
       0.00022212842 0.00019870885 0.00013867895 0.00017863995
000120 21 7c 50 39 9e 4e 4b 39 6c 21 46 39 04 4d 45 39
       0.00019882667 0.00019388876 0.00018895202 0.00018816075
000130 10 7e 62 38 89 59 5a 39 00 f4 4d 39 a0 5e 32 39
       5.4000004e-05 0.00020823455 0.0001964122 0.00017010653
000140 bc 12 b5 38 be 4e 1d 39 8f f4 44 39 09 33 67 39
       8.634242e-05 0.0001500202 0.00018783122 0.00022048889
000150 2b 00 36 39 d5 7f 3b 39 af 2f 61 38 d3 f5 32 39
       0.00017356935 0.00017881331 5.368859e-05 0.0001706698
000160 f1 ff 4f 39 13 51 ac 38 ad 00 52 38 54 a0 89 38
       0.00019836404 8.2167004e-05 5.006853e-05 6.5625325e-05
000170 ee 05 5e 38 88 fa 4e 39 69 67 4c 39 c3 7d 8f 38
       5.2934447e-05 0.00019739021 0.0001949348 6.842196e-05
000180 06 48 49 39 96 25 8a 38 22 4e 42 39 ae e2 5e 39
       0.00019195685 6.587354e-05 0.00018530388 0.00021256015
000190 16 8b 42 39 b7 cd 3f 39 07 f4 b4 38 bd ed 42 39
       0.00018553095 0.00018291814 8.6285225e-05 0.00018589846
0001a0 03 3b 3e 39 d6 db 45 39 64 83 8d 38 45 58 4c 39
       0.00018141796 0.0001886928 6.747877e-05 0.00019487839
0001b0 cf 24 20 39 28 f2 96 38 c0 35 55 39 96 c1 39 39
       0.00015272501 7.1976625e-05 0.00020333286 0.00017715091
0001c0 b5 dc 49 39 99 11 4d 39 2c df da 38 da 63 7a 39
       0.00019251074 0.00019556879 0.00010436619 0.00023879056
0001d0 51 da 88 39 a5 8f 51 39 db 89 a4 38 3d 38 96 38
       0.000261026 0.00019985305 7.845807e-05 7.1630326e-05
0001e0 39 1a 46 39 eb 90 9f 38 3c 4c 2a 39 ac 61 3b 38
       0.0001889252 7.608704e-05 0.00016240863 4.467524e-05
0001f0 61 56 79 38 cc dd 50 39 6e 92 37 38 ae 87 36 39
       5.9446673e-05 0.00019919052 4.3766973e-05 0.00017407417
000200 1d e1 20 39 07 08 31 39 44 5f 70 39 b4 aa 3f 39
       0.0001534265 0.00016883026 0.00022923673 0.00018278771
000210 e9 4a 68 39 07 c7 4c 39 7f 2d 0f 39 dd 64 3b 39
       0.0002215315 0.000195291 0.00013654491 0.00017871284
000220 87 ef 4f 39 c9 04 48 39 1f 9f 46 39 8d 14 42 39
       0.00019830289 0.00019075269 0.00018942029 0.00018508938
000230 78 56 61 38 29 98 5a 39 a3 c3 4d 39 31 7c 2f 39
       5.372471e-05 0.00020846784 0.00019623204 0.00016735565
000240 e4 7d b4 38 86 bb 1a 39 c8 01 42 39 96 a7 66 39
       8.606518e-05 0.00014756442 0.00018501945 0.0002199694
000250 af 34 33 39 4d 36 3a 39 e9 64 61 38 1b 54 30 39
       0.00017090396 0.00017758571 5.373816e-05 0.00016816
000260 3d 69 50 39 0a ba aa 38 10 02 52 38 5f 7f 89 38
       0.0001987563 8.140884e-05 5.0069822e-05 6.556394e-05
000270 f7 e8 5d 38 04 42 4f 39 07 3c 4c 39 bc 8b 8f 38
       5.290747e-05 0.00019765651 0.00019477318 6.844799e-05
000280 b1 1d 48 39 f2 31 8a 38 6e 24 3f 39 86 51 5f 39
       0.00019084547 6.589656e-05 0.0001822875 0.00021297307
000290 dc 8d 42 39 4c 34 3d 39 2a f6 b2 38 46 f8 3f 39
       0.00018554128 0.00018043927 8.533553e-05 0.00018307669
0002a0 3c 3d 3b 39 88 8f 46 39 9d 76 8c 38 04 e5 4a 39
       0.00017856521 0.00018936221 6.697814e-05 0.00019349536
0002b0 21 23 1e 39 f5 0f 96 38 9a 85 54 39 bb 08 37 39
       0.00015081141 7.1555296e-05 0.00020267666 0.00017455492
0002c0 16 0a 4a 39 f0 6f 4d 39 e3 25 d9 38 36 81 79 39
       0.00019267978 0.00019592023 0.00010354423 0.00023794625
0002d0 72 b0 87 39 ee 22 4e 39 a7 9b a4 38 6c 47 96 38
       0.0002588067 0.00019658703 7.849122e-05 7.165861e-05
0002e0 34 17 46 39 58 4c 9e 38 7b d1 27 39 f2 cf 3b 38
       0.00018891395 7.548247e-05 0.00016004399 4.477794e-05
0002f0 70 61 77 38 9d 5f 51 39 38 0c 36 38 19 b5 36 39
       5.8980135e-05 0.00019967412 4.340356e-05 0.00017424337
000300 e7 3a c5 35 99 61 c8 35 1a 85 f1 35 94 f5 86 35
       1.4694787e-06 1.4929566e-06 1.7994637e-06 1.0055251e-06
000310 d8 ee 60 35 f4 ab 1c 36 74 ec b7 35 fc f3 48 35
       8.3794066e-07 2.3345901e-06 1.3703379e-06 7.486085e-07
000320 13 5c cc 35 63 96 0c 36 51 ce 75 35 e8 2a 56 36
       1.5225982e-06 2.0949162e-06 9.156984e-07 3.191346e-06
000330 44 a6 6a 34 4e 57 8f 35 32 bd a2 35 67 2e e1 35
       2.1853435e-07 1.0679739e-06 1.2125004e-06 1.6777311e-06
000340 59 ef 2c 35 28 f4 40 36 ad a6 07 36 bd 85 6f 35
       6.442329e-07 2.8752347e-06 2.0213586e-06 8.9229053e-07
000350 68 39 ec 35 10 82 eb 35 48 c6 77 34 9b 54 c7 35
       1.7600078e-06 1.7546718e-06 2.3075802e-07 1.4851279e-06
000360 bb 43 69 35 e2 52 7b 35 27 08 6e 34 79 a7 92 34
       8.6897825e-07 9.3625397e-07 2.2168443e-07 2.7316472e-07
000370 38 a4 42 34 e5 11 73 35 b0 db 8c 35 50 17 cf 34
       1.81274e-07 9.0550594e-07 1.049475e-06 3.8573717e-07
000380 8a 2f 0c 36 9e 4f cc 34 67 ae 03 36 59 f6 04 36
       2.0889297e-06 3.805589e-07 1.9622037e-06 1.9812926e-06
000390 61 2b 5a 35 af a9 2a 36 f8 29 7f 35 87 75 33 36
       8.1274453e-07 2.5430743e-06 9.5055975e-07 2.6741488e-06
0003a0 1c f0 f4 35 08 c1 9a 35 df 45 05 35 eb be 30 36
       1.8249298e-06 1.1530074e-06 4.9648037e-07 2.6337173e-06
0003b0 af dd c0 35 e1 14 ce 34 3e 42 ec 35 94 37 d2 35
       1.4369633e-06 3.8385681e-07 1.7602649e-06 1.5662395e-06
0003c0 8d aa 65 35 fd 69 67 35 1a a0 4b 35 60 19 87 35
       8.555733e-07 8.620844e-07 7.585637e-07 1.0065669e-06
0003d0 c1 6c d4 35 d6 55 48 36 b9 fa 21 35 52 1a f4 34
       1.5826882e-06 2.9852285e-06 6.0342023e-07 4.5467692e-07
0003e0 05 7f 67 35 1d b7 2c 35 c7 d5 bc 35 63 dc bd 34
       8.6239044e-07 6.434146e-07 1.4069309e-06 3.5364346e-07
0003f0 d7 a4 e9 34 00 f8 69 35 0e 24 38 35 a9 bd 41 35
       4.351957e-07 8.716015e-07 6.859781e-07 7.2174095e-07

exp_avg f4 [4]
000000 d2 ce 97 ba a8 47 51 3a 02 66 fd ba 81 48 16 3b
       -0.0011582023 0.0007983395 -0.0019332769 0.00229314

exp_avg_sq f4 [4]
000000 53 9b 3a 38 4d d6 c5 39 d2 84 c3 39 04 ca 37 38
       4.4490513e-05 0.00037734435 0.00037292257 4.381874e-05

exp_avg f4 [64, 2]
000000 7a bd 16 bc e3 58 16 bc 8e 71 b0 bc bb 1a 53 bd
       -0.009200448 -0.009176466 -0.021538522 -0.051539164
000010 0e b0 db 3c 14 13 65 bc c0 10 25 bc 6d eb bf 3b
       0.026817348 -0.013981599 -0.010074794 0.0058569224
000020 ad b7 87 3b 3f 7c ad 3b e3 74 30 bd f5 85 a1 bd
       0.004141769 0.0052943523 -0.04308022 -0.078868784
000030 11 02 18 bc 31 de 9a 3b 42 c0 66 3b d9 fb 2f bb
       -0.009277836 0.0047261943 0.003520981 -0.0026852994
000040 30 4b 98 bc e0 09 ee bc 5d b6 bb bc a2 2d f0 bc
       -0.01859054 -0.029057443 -0.022914106 -0.029318634
000050 6c 08 af 3c ef a6 0a 3d e3 52 15 3c 0b 7f cf bb
       0.02136632 0.033850607 0.009114 -0.0063322834
000060 47 0e cc 3b 97 08 7f 3b 4a 83 d3 ba 26 57 4a 3a
       0.006227288 0.0038915032 -0.001613715 0.00077186746
000070 a7 8b d0 bb 58 78 29 3b e8 4f 95 3c 9a ee 75 3c
       -0.006364304 0.0025859084 0.018226579 0.0150105
000080 23 e1 26 bc b5 8b 55 bc e8 7a 5c bb 5b 34 67 bc
       -0.010185513 -0.013033797 -0.0033642594 -0.014111604
000090 e7 d9 8f bc 1d 0d 9d 3b 84 93 5a 3c 35 d5 c7 bb
       -0.017559959 0.004792823 0.0133408345 -0.0060984143
0000a0 c0 4c 20 bc 44 0d 07 3b e2 87 01 bd 3e 24 f8 bc
       -0.009783924 0.0020607272 -0.03162373 -0.03029072
0000b0 01 3c 43 bc 2f 53 7c bb 4c ec 42 3c c8 12 c7 bb
       -0.0119161615 -0.003850173 0.011897158 -0.006075237
0000c0 84 a4 1b 3d 5b 3e 51 bc 03 0b 33 bd 23 b7 1d bc
       0.03799869 -0.012771214 -0.043711673 -0.009626183
0000d0 a1 a7 a6 bd 50 18 e8 3b ac 21 3d 3c 34 19 d0 b9
       -0.081374414 0.0070829764 0.0115436725 -0.0003969163
0000e0 8b de 88 bb 95 4f 18 bb 0b 04 6b bb 43 f8 24 bb
       -0.00417692 -0.0023240794 -0.0035860564 -0.002517239
0000f0 3c 46 14 bd 7a 0a ff ba ec ef 74 bb 47 1f 23 3b
       -0.036199793 -0.0019458078 -0.003737445 0.002489047
000100 8b 77 b6 bc 34 3d 6e 3c e1 70 97 3c d8 47 55 3c
       -0.0222738 0.014540959 0.018486442 0.013017617
000110 b4 72 a4 ba b9 18 1e 3a 96 49 15 3c 69 55 7d 3c
       -0.0012546391 0.00060309056 0.009111783 0.015462258
000120 ad 36 2c bc 82 a0 f4 bc 00 6a 31 bc c4 06 f1 3b
       -0.010511083 -0.029861692 -0.010828495 0.007355543
000130 a7 3f bf 3a a5 93 2a b8 54 b8 1a bd 07 24 7a 3b
       0.0014591113 -4.0668663e-05 -0.037773445 0.0038168447
000140 b7 48 dc 3c 08 3c 68 3d 7e fd 77 3b d1 29 07 3d
       0.026890142 0.056697875 0.0037840302 0.032998864
000150 64 e8 bc bb 34 25 5f 3b c3 e0 2f bd 5a d5 de 3c
       -0.005765008 0.0034049274 -0.04293896 0.027201343
000160 69 24 39 bc c3 b3 70 3c ef fc 58 bd ed 94 f7 3b
       -0.011300185 0.014691296 -0.05297559 0.007555595
000170 26 48 03 bd 85 31 39 bd e7 b7 c6 bd d9 0f 61 3d
       -0.032051228 -0.04521324 -0.09703045 0.054946754
000180 68 5e dd bc fb c8 87 bc 72 cb da bc 0f 97 df 3b
       -0.027022555 -0.016575327 -0.026708338 0.0068234275
000190 f1 73 ed bc 13 16 8c 3c 47 65 15 3d fc 8d 8f bc
       -0.02898595 0.01710037 0.03647354 -0.017523758
0001a0 a5 84 98 bc d4 04 b3 bc 08 05 01 bd 1a 59 16 bc
       -0.018617937 -0.021852888 -0.03149894 -0.009176517
0001b0 f7 0b 81 bd b9 93 2c 3d 7c 71 cf 3b a8 30 b3 ba
       -0.0630111 0.042133067 0.006330667 -0.0013671117
0001c0 d3 46 58 bc 77 41 d1 bc b8 d2 72 3c 67 f2 20 bc
       -0.01320048 -0.025543911 0.014820747 -0.009823418
0001d0 1e c2 98 bc f5 be ae 3b 2c 8c 18 bd 0c 6c 86 bd
       -0.01864725 0.0053328224 -0.037243053 -0.06563577
0001e0 65 6a 04 bd e0 45 47 3c 52 b6 80 3d 15 2f e0 3b
       -0.03232803 0.012162656 0.06284775 0.00684155
0001f0 57 a4 81 bc 79 62 8e 3b cd 65 13 3d 43 67 42 bc
       -0.015825434 0.004345235 0.035985757 -0.01186544
