outputs/empty_1a_PPO/best_status.pt (torch, 15773 bytes, 21 tensors)

actor.0.weight f4 [64, 2]
00000000: 109b 523d 2aa4 b93e 272f 653e 064e afbe
00000010: 5226 19bf b25a 663c 7d82 9e3e 1ae9 81be
00000020: c085 013e c863 dd3e 35f0 8bbe 2095 3d3e
00000030: 1004 3b3e f941 853e fad4 cf3d 667d 4e3d
00000040: c50c e43d 780a adbb b9cc 79be 7e64 36bd
00000050: d237 f3bc 6cfb a5bc 0c96 0a3e ca07 5cbe
00000060: 3b00 92be 01b6 98bc 56ed 8dbe bdf7 6dbd
00000070: d7d6 db3e 41f3 cdbe af42 653d 232e 553e
00000080: 1904 ad3c 3c4a 39bd b44b 8e3e 9d3b d43d
00000090: 4247 9ebd 7383 ba3c 5aff d53d f9bd a53e
000000a0: 36eb ce3c cd99 513e 2615 993d 91ae 15be
000000b0: ac48 5abe 8144 d1bd 856d 983d e9af 91bd
000000c0: b60d 1ebd 3178 723e 5e49 993e cf0e 123e
000000d0: d8ff 84be fdf7 c33c a3df debd 5c55 883e
000000e0: 2237 bf3d 7556 b8bd 8d82 c13d 75b1 2c3d
000000f0: a621 fe3d d92f 89bd 4ee7 453e 60e4 443e
00000100: 5c4f c5bd 4cd3 f43d 9c25 6cbe 1a46 f33c
00000110: a1da bf3e 0c7b 973d ee4a 8e3e 3fb2 0b3f
00000120: 9411 793e 01b2 ba3e 8062 2fbf 82ae 7abc
00000130: 8d4d 0c3c aec4 a5be aa51 3ebd bad5 d53e
00000140: aff0 b0bd 2c41 0b3e ae2d d3bc b2b4 73be
00000150: 7cc1 23be 49f4 a2be 9656 a0be 86d2 5ebe
00000160: 0be9 cb3d 084e 06be 11f2 d03d da1f bebe
00000170: d669 0cbe f7ee fe3d 1071 243d c5aa fd3d
00000180: 44a6 95bd e4f2 f6bd d882 a53d de7b 0fbe
00000190: 0c0e 30bd f909 a1bd a09e 1dbe 9d6c 2ebe
000001a0: ae28 32be 5f2e e9be 2eaa f2bc 926d 56bd
000001b0: fffc 233e 8b7f 743e ecd4 813e ca31 cc3e
000001c0: 699a 86be 516c 0cbd b817 873e 27ad d5be
000001d0: 7127 1bbe 8b32 113e 5403 2dbe 5fc8 07be
000001e0: 9c39 41be e929 073d 5b8d e1bd 1ce3 3a3e
000001f0: 7ab4 88be 124b 99bd bbec bc3d 481e 78bd
0.05141741 0.3625806 0.22381268 -0.34239215 -0.598241 0.014059709 0.3095893 -0.25373155
0.12648678 0.4324019 -0.273317 0.18513918 0.18263268 0.26026896 0.10148044 0.050412558
0.11135248 -0.005280789 -0.24394502 -0.04452943 -0.029689703 -0.020261489 0.13533801 -0.21487346
-0.285158 -0.018641474 -0.27720135 -0.05809759 0.42937347 -0.4022465 0.055971798 0.20818381
0.021120118 -0.04523681 0.27792132 0.10362933 -0.07728435 0.022767758 0.10449095 0.323715
0.025258642 0.20468827 0.07474737 -0.14617373 -0.21316785 -0.10218144 0.07442764 -0.0711363
-0.038587295 0.23678662 0.29938787 0.14263462 -0.25976443 0.023921961 -0.10882499 0.26627624
0.093366876 -0.09000865 0.09448729 0.042161424 0.12408762 -0.06698579 0.19326517 0.19227743
-0.09634277 0.11954364 -0.23061222 0.029696513 0.37471488 0.07396516 0.27791542 0.54568857
0.24323112 0.3646393 -0.68509674 -0.015300395 0.008563411 -0.32376617 -0.0464646 0.41764623
-0.08639657 0.1359908 -0.025778618 -0.23799399 -0.15991777 -0.31827 -0.3131606 -0.21759996
0.09956559 -0.13115704 0.102024205 -0.37133676 -0.13712248 0.12447923 0.040146887 0.12386087
-0.07307103 -0.120580465 0.08081597 -0.14012095 -0.042982146 -0.0786323 -0.15392542 -0.1703362
-0.1739833 -0.4554319 -0.029622164 -0.05235059 0.16014479 0.23876779 0.2535776 0.39881736
-0.2628968 -0.034282986 0.26385283 -0.41733667 -0.15151764 0.14179437 -0.16895801 -0.1326003
-0.18869632 0.032998953 -0.110132895 0.18250698 -0.26700193 -0.07485022 0.0922484 -0.060575753

actor.0.bias f4 [64]
00000000: 897e 4bbd 1097 5bbd 6b92 9cbd 8c4e c13b
00000010: 923b ba3d 2c04 a73d f922 8b3d 91e2 9a3d
00000020: eb57 aa3d f366 b9bd 7e3b b8bd a3c7 543d
00000030: 2ab8 cbbc 0807 bbbd d3f6 a5bd eb8e 7bbd
00000040: c77e a33d 4cca b33d c9bf b73d c7a9 573d
00000050: 8bca 403d bab8 0dbd 1964 183d 6ae4 10ba
00000060: 068e 533d 3735 623d 5951 f0bc c01c 373d
00000070: b40c a4bd b469 bd3d 56f4 7a3c 8b0f 4abb
00000080: 46d3 7a3c 7936 eb3c 8c3b 353d 415a a93d
00000090: a5ee 96bd f202 e03c 235b b23c 674f 86bd
000000a0: 33c8 76bc f1d2 b4bd 9adf 2abd 7a67 09bd
000000b0: 353b 94bd da12 a9bd 31d1 2d3c bd7a 463d
000000c0: d4d1 ab3d b940 b13d 8902 7b3d 6dbf 4bbd
000000d0: 98dc b3bd 6004 b1bd bba1 953d 2ccb a83d
000000e0: 8e3a 8d3a d3ee e2bc 93ae 1b3d 00fb 51bd
000000f0: c582 7dbb e876 38bd 7b12 88bd 63ef 8abd
-0.04968122 -0.05361086 -0.076451145 0.005899256 0.090933934 0.081550926 0.0679378 0.07562745
0.0831755 -0.09052839 -0.08995722 0.0519482 -0.02486809 -0.091322005 -0.081037186 -0.061415594
0.07983165 0.087788194 0.08972127 0.052652147 0.04706816 -0.034599997 0.037204836 -0.00055272004
0.051649116 0.05522653 -0.029335665 0.044705153 -0.080102354 0.09248677 0.015317043 -0.0030832018
0.015309161 0.028712498 0.04424624 0.08269168 -0.073697366 0.027345154 0.021771973 -0.065581135
-0.01506238 -0.088292964 -0.04171715 -0.03354595 -0.07237855 -0.08255549 0.010608957 0.048456896
0.08389631 0.08654923 0.061281715 -0.049743105 -0.08782309 -0.086434126 0.07306238 0.08241877
0.0010774897 -0.02770177 0.038008284 -0.051264763 -0.003868268 -0.045035273 -0.0664415 -0.06783941

actor.2.weight f4 [4, 64]
00000000: 3c0b 02be 47d0 da3d 363e fabd 8257 33bd
00000010: b0d5 a1be 8dea 0cbe 1cdf 2bbe 7f60 dcbe
00000020: a65d 9ebe 6c92 e63d 7af2 bf3d 62cb 0f3e
00000030: 18a3 2ebe 7dea ef3e e467 e7bd a772 353c
00000040: 5019 cfbe 1276 6abe 711b a83c 35fb 5fbe
00000050: f774 c2bc d193 a93d 03ed 99bc 35d4 85bd
00000060: 0a17 743e 4717 303d 6161 00be fb2a 923d
00000070: 8c45 a93d 0286 1fbe a599 dd3c acca e5bd
00000080: 8b02 04be 96c8 39be aac1 f53d 9219 61be
00000090: be1e 05be b51b 96bd 1e5a b0bd c35b 38bd
000000a0: 7a05 c23d ca6d f93e e231 7bbe 7daa cabe
000000b0: 12b5 90bc 37a2 c93e 099c eabd 7643 50bd
000000c0: 65e7 8dbe e95b 1abe 2313 6ebd d680 b93d
000000d0: d190 373e 76ab 3e3e 2a21 e7be c8fb 55be
000000e0: 550f ffbe 904f 7f3e 46e5 a3be f568 873e
000000f0: d349 463d aeb3 29bd 3df1 4e3b 7f0f ad3e
00000100: 5a64 59bd f553 48be e48d b9be 5a7e 833e
00000110: 1ba0 863d ddbf 0e3c def8 c93c c1d6 0b3f
00000120: 78f5 283e 1531 bcbe e508 93be 9fac 1a3e
00000130: 0829 09bd d0c8 b3bd 4c0c 88be d031 30be
00000140: 040a 233e e74f 693d 61f5 b43e 33cf 803e
00000150: 43cc 16bb 260c 75be a27f 703e 8d66 483e
00000160: 6c8a 413e d046 2bbd e8a6 e0be c857 f83c
00000170: f37a 29bd 7b7b 5f3d 8303 153e 67b4 1ebe
00000180: 7089 37be d9d6 793e 3db6 fc3d bacc 5d3c
00000190: bdec 43be 7328 8d3d e781 07be 95e7 c7bd
000001a0: ea71 10be b44f 56be 7723 f5be 8c0b fabe
000001b0: dd56 dabd 672c cabd 8515 6f3d ae89 d9bd
000001c0: b91d 703d 4a1c cc3e 6ee9 903e 95c1 1cbe
000001d0: f588 5dbd 9562 79be c0cd bf3c af5d 653e
000001e0: efb6 49be e28c 4b3e 0609 cb3d 6248 b33e
000001f0: 4341 65bd a19b 2fbd 4580 bfbc e726 3c3e
00000200: f366 b9bd 0d76 3cbd 2532 0ebe 8880 85be
00000210: 12b8 8dbd 0e54 a53e f592 2bbe b078 04be
00000220: 44fd e53e 3a32 15be 9230 d8be 35b8 82bc
00000230: 6e77 b7be 774d a7bd 96cf b7be 244f e4bc
00000240: 7f18 bd3d 099d ee3d f24a 7c3e 9b39 2d3e
00000250: 0d8f 5cbd 039a 963e 0e38 49be 6009 3dbd
00000260: f1d3 8f3e e3b6 b93e 93aa 523e 93cc 39bd
00000270: b34f 3a3b 0f76 373e de56 6dbe 72db 543e
00000280: 45ae ee3d ea31 b4bd 6611 d73d 6209 143e
00000290: 8434 6cbe bc79 03be c691 e6bd 37eb 51be
000002a0: 9acf 693e 7bee 2e3e 76ee c3bd 4e56 bd3d
000002b0: e983 07bf 97b3 aabd 0b03 99be 174a d6bd
000002c0: b662 233d 1296 f43b c446 81be 1471 dcbc
000002d0: cb12 27be f388 8fbd 4cf0 bc3e 975a 3dbd
000002e0: d65c cfbe d8db 2abe 83c4 413e 562a c9be
000002f0: 447b 67be d23a a6be 4729 10bd 083e 45be
00000300: 4904 aa3e 6365 62be 0fc3 c93d 506c 853c
00000310: d7e4 23be 3b5e adbc c79c 18be c8f6 f3bd
00000320: f13a 29bb 066f bc3e da05 063d 94a5 8bbe
00000330: be7b bdbb 57a3 173e 8bd1 a63e d623 11be
00000340: d6d0 b63c 4a22 cebc 9b89 0e3d f5fa ab3e
00000350: 9981 1ebe 3b5f a63d 5364 2b3d 638c 8e3e
00000360: 9875 64be 259b dbbe cab0 e93d 2cb3 afbe
00000370: bb42 f83d 0654 50be 8ff4 83be cdfb 203a
00000380: d773 79bc d1d9 883e 75cc 26bd 518d 1abe
00000390: 51eb b7bc 7d07 4f3d 6edb 2ebe d8c5 5f3c
000003a0: 29b3 61bd 3763 c53e e7e4 68be 4223 5a3e
000003b0: 9380 d53d 6d3b 76bc a089 d7bd 4a17 11bf
000003c0: c7e8 2cbd 373c 9bbe 63e9 9cbe f85e 0bbe
000003d0: c869 153e 4f8f d03d d864 50bc b7b2 cdbc
000003e0: dc61 cc3c 0dd2 7b3d 4196 df3e 7cbe 103f
000003f0: b786 99be 0892 8b3c 299f e73e 9284 063e
-0.12699598 0.10684257 -0.12218897 -0.043784626 -0.31608343 -0.13761349 -0.16784328 -0.4304237
-0.30930823 0.112583965 0.093724206 0.14042428 -0.17054403 0.46858588 -0.112991124 0.0110746985
-0.40449 -0.22896603 0.020520898 -0.21873172 -0.023737414 0.08280147 -0.018789774 -0.06534616
0.23836914 0.04299095 -0.12537147 0.07137104 0.08265218 -0.15578464 0.027050802 -0.11220297
-0.12891595 -0.18142924 0.11999829 -0.2198241 -0.13000008 -0.073295034 -0.086109385 -0.045009386
0.09473701 0.48716575 -0.24530748 -0.39583197 -0.017664466 0.39381573 -0.114555426 -0.050845586
-0.27715603 -0.15074123 -0.05812372 0.09057777 0.17926337 0.18620095 -0.4514249 -0.20896828
-0.49816385 0.24932694 -0.3201086 0.26447263 0.048410248 -0.04143112 0.0031576895 0.33800885
-0.05307422 -0.19563277 -0.36241066 0.25682336 0.065735064 0.008712736 0.024654802 0.54624563
0.16499889 -0.36756197 -0.28717723 0.15104912 -0.033486396 -0.08778536 -0.26571882 -0.17206502
0.1592179 0.056960966 0.3534346 0.2515808 -0.0023009933 -0.23930416 0.23486188 0.1957037
0.1890046 -0.04181558 -0.4387734 0.030315295 -0.04137702 0.05456112 0.14552121 -0.15498506
-0.17923522 0.24398364 0.12339447 0.01353758 -0.19133277 0.06892481 -0.13233148 -0.09760968
-0.14105955 -0.20928842 -0.4787862 -0.48836935 -0.10661099 -0.0987175 0.058370132 -0.106219634
0.058622096 0.39865333 0.28303093 -0.1530822 -0.05408569 -0.24354012 0.023413539 0.22399019
-0.1969869 0.19877961 0.099138305 0.3501616 -0.05597044 -0.04287303 -0.023376593 0.18374215
-0.09052839 -0.04601102 -0.13886316 -0.26074624 -0.06919874 0.3229069 -0.16755278 -0.12936664
0.4491979 -0.14569941 -0.42224556 -0.015956977 -0.35833305 -0.08169072 -0.35900563 -0.027869768
0.09233188 0.11651046 0.24637964 0.16916506 -0.05384736 0.29414377 -0.1965029 -0.04615152
0.28091386 0.36272344 0.20572881 -0.045361113 0.0028428852 0.1791613 -0.23177668 0.20786837
0.11654333 -0.08798583 0.10501365 0.14456704 -0.23066908 -0.12839407 -0.11258273 -0.20499884
0.228331 0.1708316 -0.09566967 0.09244977 -0.52935654 -0.08335035 -0.29885134 -0.1046335
0.03988906 0.007464179 -0.25249302 -0.026909389 -0.16315763 -0.07008543 0.36902082 -0.04622897
-0.40500516 -0.16685426 0.1892262 -0.39290112 -0.22605616 -0.3246675 -0.035195615 -0.19261944
0.33206394 -0.22108988 0.098516576 0.016286999 -0.16005264 -0.021163097 -0.14903556 -0.11912304
-0.0025822485 0.36803454 0.032720424 -0.27274764 -0.0057825735 0.14808403 0.32581744 -0.14173827
0.022316378 -0.025162835 0.0347992 0.33589903 -0.15479125 0.081236325 0.041843724 0.27841482
-0.22310483 -0.42891803 0.11410673 -0.34316385 0.12122103 -0.20344552 -0.2577252 0.0006141037
-0.015225372 0.2672868 -0.04072233 -0.1509297 -0.022451075 0.05054425 -0.17075893 0.0136580095
-0.0551025 0.38552257 -0.2274357 0.21302512 0.10424914 -0.015028817 -0.10524297 -0.5667616
-0.04221418 -0.30319378 -0.3064681 -0.13610446 0.14591134 0.10183584 -0.0127193555 -0.025109632
0.024949007 0.061479617 0.43669322 0.56540656 -0.29985592 0.017037407 0.45238617 0.13136509

actor.2.bias f4 [4]
00000000: c7f2 93bd 6803 733d ba95 523d 5e1b 85bd
-0.072240405 0.05932942 0.05141232 -0.064993605

critic.0.weight f4 [64, 2]
00000000: f1d9 3dbe 0a5b fe3e 36e1 9fbe 9260 a73d
00000010: 3150 993d aa77 f13d 551b a93e 0ef2 97bb
00000020: 7d18 c33c b7d9 6dbc 780a 553e b13d 913d
00000030: 0e42 2cbe 8134 a1be 1207 bbbe f1d7 bd3e
00000040: 6962 b83c 0652 bbbd 71b2 f9bd b122 2f3e
00000050: 1ab6 24be a1b2 37be 731e 803c b1bb e13d
00000060: 6675 3d3e 25c4 7239 8e77 cabd 3b7e 99be
00000070: a277 ea3d e805 0bbe 4052 42bd 7aa0 47be
00000080: 19de bbbd b45d 413d fb13 89be 7138 e1bd
00000090: 9bb6 59be fda9 9dbe 0b41 4cbe 3b78 89be
000000a0: 23d8 04bd e3ac 11bd 9908 57be 2901 5a3e
000000b0: 8b7c 153f 0364 fb3d c6f6 bbbe b455 653e
000000c0: 63c4 993c 1f9b 08be 38d4 b13e 532b 38be
000000d0: eba8 c4be 3662 30bc bfc0 d7bd 63e6 1ebd
000000e0: 6374 debd e051 c5be a97b 573e 3ce1 163e
000000f0: 5f55 c0bc 85d4 663c b820 b13a d527 e4bd
00000100: acea a2be 8bd6 dc3b f363 5bbe f853 9b3e
00000110: c8d8 a8be a04c 34bf 00ab 593e c681 123e
00000120: df41 56be d06d 88be f44e cbbd 76dd 5f3d
00000130: d872 08be 6400 193e c016 38be 17a0 f63c
00000140: f4ae 89be d558 5bbe 8c9f c0bc bda4 383d
00000150: b3d6 c13d 16d1 d0bd 5e9f a63e 92f4 07be
00000160: 9140 4dbd 4508 fa3e a82a 7e3d d18b bebe
00000170: 3f3b 03be 74b5 aa3d a3da 20be 3c42 a83e
00000180: 4e3f 7fbc 6be8 76be f38f efbc a3e4 3c3e
00000190: bcb6 f63e 8fb1 3bbc 22cc 04be 547b 713e
000001a0: 8eae d93d 94e1 883d a497 c53d bc05 9dbe
000001b0: 83b8 5bbd a53e 12bd 36f4 8e3e 4550 943e
000001c0: 6d9a 15be 220d 713d 4c88 593e 9ac8 203e
000001d0: ca38 d1be 19da a5bd 4be4 853d cb11 b33d
000001e0: 0dff f2bc 3f3d 8abe 08ff 82bd 33c9 cf3e
000001f0: 104e af3c 5c93 b83d 2611 003e 0872 8cbc
-0.1854017 0.49678832 -0.3122651 0.08172716 0.074859984 0.11790402 0.33028665 -0.0046370095
0.023815388 -0.014517239 0.20804775 0.07091845 -0.16822073 -0.3148537 -0.36528832 0.37078813
0.022507863 -0.09146504 -0.12192238 0.17103077 -0.16085091 -0.17939235 0.01563952 0.110221274
0.18501815 0.00023151988 -0.098860845 -0.2997912 0.114485994 -0.13576472 -0.04744172 -0.1949481
-0.09173221 0.047208503 -0.26773056 -0.109970935 -0.21261065 -0.30793753 -0.19946687 -0.2684954
-0.032432687 -0.03556527 -0.20999373 0.21289505 0.5839316 0.12274935 -0.3671171 0.22395974
0.018770402 -0.13340424 0.34732223 -0.17985277 -0.38410124 -0.010765603 -0.1053481 -0.038793933
-0.10862043 -0.38539028 0.21043266 0.14734358 -0.023478208 0.014088755 0.0013513779 -0.1114041
-0.31819665 0.0067394427 -0.21424846 0.303375 -0.3297789 -0.7042942 0.21256638 0.14307317
-0.20923565 -0.2664628 -0.099271685 0.05465456 -0.1332506 0.14941555 -0.17977428 0.030105634
-0.2689129 -0.21420605 -0.023513578 0.04507898 0.09464779 -0.1019613 0.32543463 -0.1327689
-0.050110403 0.48834434 0.0620524 -0.37216046 -0.1281557 0.08335391 -0.15708403 0.32863033
-0.015579058 -0.24112098 -0.029243445 0.18446593 0.4818629 -0.0114559075 -0.12968495 0.23582202
0.10628997 0.066836506 0.09648064 -0.30668437 -0.05364276 -0.035704274 0.27920693 0.2896749
-0.1460969 0.058850415 0.212434 0.15701523 -0.4086364 -0.080982395 0.06537684 0.08743628
-0.029662633 -0.26999852 -0.063962996 0.4058319 0.021399528 0.090124816 0.12506542 -0.017144218

critic.0.bias f4 [64]
00000000: ac4d b53d 75db c3bd 91ed 3d3d 03c9 9dbd
00000010: b08c 623d df75 5abd df3f bbbd ff52 ad3d
00000020: 5789 81bd b848 8d3d b8f6 c7bd 1e35 823d
00000030: 2b71 893d 06b0 8a3d 7ab3 82bd 355c 8abd
00000040: dfe3 7bbd 66fa bbbd 5d2d a4bd 6e0d 99bd
00000050: 58cc 743d 173c 95bd 59b1 a83d 6488 7e3d
00000060: 1016 82bd 1cf3 9abd 44be 9ebd 5af8 863d
00000070: 10e4 85bd b050 a1bd ef96 693d 445d 7b3d
00000080: 277b 91bd 3015 6dbd 86fb c6bd 1286 a9bd
00000090: d7b4 733d eedf 7cbd 08d3 85bd 1ef4 8abd
000000a0: 8504 7c3d eff7 51bc b39c 7a3d ccf4 ac3d
000000b0: 6aa8 7f3d 22e9 91bd 5601 8a3d 499c 9e3d
000000c0: ceb1 5a3d 06d6 813d 09f5 b13d c805 9b3d
000000d0: ad3e 90bd be4f cc3c 4bc4 823d bd9c a63d
000000e0: 6c98 833d 5ccc 5ebd 530c a9bd b050 7f3d
000000f0: d3e4 81bd 0a01 9c3d 4a28 7c3d 08eb 3abd
0.08852705 -0.095633425 0.04636914 -0.077043556 0.05530995 -0.053335067 -0.09143042 0.08463096
-0.063250236 0.068986356 -0.09763855 0.063577875 0.06711038 0.06771855 -0.06381889 -0.06755868
-0.06149661 -0.09178619 -0.08016465 -0.07473265 0.05976519 -0.07286852 0.082369514 0.06214179
-0.06351864 -0.07565901 -0.07751134 0.06590338 -0.0653764 -0.07876718 0.057028707 0.061368242
-0.071035676 -0.057881534 -0.09715943 -0.08277525 0.059498634 -0.061736993 -0.06534392 -0.06784843
0.061527748 -0.01281546 0.061184596 0.08445129 0.06241647 -0.07124545 0.06738536 0.07744653
0.053392224 0.0633965 0.08689315 0.07569462 -0.070432045 0.024940368 0.06385096 0.08135364
0.064255565 -0.05439411 -0.08254304 0.06233281 -0.06342473 0.07617386 0.06156186 -0.0456343

critic.2.weight f4 [1, 64]
00000000: 033d 42be d2e5 e03c da2c ddbc e92c 373e
00000010: a6bc 27be de5b 3e3c 92d2 9c3d 62bf 89be
00000020: 3b1a 3b3e 8cf1 abbe 4056 803d 7f0a 7dbe
00000030: 08d0 84be 951c 43be 32d7 e63c 49f3 193e
00000040: 0e5c 093e ac28 963d 30bc 253e 8aea 9f3e
00000050: 55c1 2cbe 2bd8 5c3e cad5 9cbe 5b94 8dbc
00000060: 74c5 af3e 5410 173e 0f90 323e 2dc8 c9bd
00000070: b742 c33e c01e 003e e2df 30be e883 c3be
00000080: d5a7 073f cac1 023d d661 bf3d 76d1 8e3e
00000090: 412b 94bc eff5 6d3e a5ca 933e bbef 743e
000000a0: ccca 84bc e9e4 b7bb 3856 9cbe 48d8 d2bd
000000b0: 23a9 d2be 0fe7 773e d6eb c2be ad5d efbe
000000c0: 7120 9ebd 192c e7be ab89 ccbd 60af 36be
000000d0: a5d7 313e 14f6 493c f980 88be 7569 74be
000000e0: bc7a a8bd 65b1 283c a0cf 0e3e 8eed 5bbe
000000f0: 1a36 203d d6ae 38be 584c 9dbe 2c84 463c
-0.18968587 0.027453337 -0.026998926 0.17888226 -0.16380557 0.0116185825 0.076573506 -0.26903826
0.18271725 -0.33582723 0.06266451 -0.24711035 -0.25939965 -0.19053872 0.028178785 0.15034212
0.13414022 0.07331976 0.16185069 0.31233627 -0.16870625 0.21566837 -0.30631858 -0.017282655
0.34330332 0.14752322 0.17437766 -0.098526336 0.38136837 0.1251173 -0.17272905 -0.38186574
0.52990466 0.031923093 0.093448326 0.2789418 -0.018087031 0.23238347 0.28865543 0.23919575
-0.016209982 -0.005612005 -0.3053453 -0.102951586 -0.41144666 0.24209236 -0.38070554 -0.46751156
-0.077210315 -0.4515083 -0.099871956 -0.17840338 0.17367418 0.012326736 -0.26660898 -0.23868354
-0.08226535 0.0102962 0.1394639 -0.21477339 0.039114095 -0.18035445 -0.30722308 0.012116473

exp_avg f4 [64, 2]
00000000: 0f52 d5b9 22f6 8039 4398 93ba c48f b7ba
00000010: 3e7f 1db9 7d0f 97b9 5970 363c afd5 323c
00000020: 23b6 a2ba b590 66ba eb53 1dbc fbb2 11bc
00000030: 7ed1 dd39 1cb3 deb7 bb7d b53b fb43 e03b
00000040: fc86 41bc 8760 2bbc 0289 4c3a ac32 363a
00000050: c648 113c dacd fb3b 2511 d23b 0a73 9a3b
00000060: 5b21 2b3b 861f 4e3b e649 5f3b 11dd 1f3b
00000070: 6781 493b dfd7 553b 54a8 0dba 5221 1eba
00000080: 70b8 7fbb 5196 0fbb f72b 12bb 9a9e cdba
00000090: 91c3 113a 4b89 753a 0b31 27bb 1a7c 8cba
000000a0: 0284 2f3a ff41 8839 e0de 82bc 9866 65bc
000000b0: 5cc3 493b 1ad2 423b 29ea d93b af25 e63b
000000c0: 07ac 83ba 1b42 b9ba 8c46 23bb 7f0d 1ebb
000000d0: 30ab d6bb 0e50 ebbb e542 213b 893e 8c3a
000000e0: 6811 0fba ccb7 0fba e062 95bb 8b65 89bb
000000f0: 5a11 433c 1863 343c c7f6 51bb 7538 fdba
00000100: 1c58 3fbc f6af 28bc ea1b 163b 7251 7f3b
00000110: 1a7d 1939 6630 2fb8 8518 eeba 5717 eeb9
00000120: 9288 1d3a a963 ca39 c975 b539 6618 353a
00000130: 9dfe 1b39 8bc6 8137 3b38 c73a 2700 393a
00000140: 8ea5 43bc 1131 35bc 8c42 b539 f8bc f339
00000150: ffc0 e6ba 33f1 53b9 2248 75bb 41ee b3ba
00000160: 9fc5 903c 6e02 803c 1210 783b 015d ea3a
00000170: 94ea 443c d95f 373c cbe4 2b3a 8fd3 c5b9
00000180: d0e8 2cbb c693 d7ba 7a4e 213c d775 133c
00000190: 5aed 493c 5b5a 383c efe0 cf39 1fea e337
000001a0: 0752 043b 9e40 3a3a d854 9cba a8c8 deba
000001b0: e9af cbbb 941e 4ebb 73ce 1fba 4691 64ba
000001c0: e9fc 9939 c43a bc3a 0972 193c 87ea c63b
000001d0: 050d 11bc 3244 ccbb 9e6e f63b 6e2a d23b
000001e0: 8f9b 903b 9b66 783b 4a0f 2c3c 24b0 163c
000001f0: f244 6e39 4ea7 503a 384c 893c 5387 743c
-0.00040687664 0.00024597446 -0.0011260587 -0.0014004637 -0.00015020088 -0.00028812504 0.011135184 0.010915204
-0.00124139 -0.0008795367 -0.009602527 -0.00889277 0.0004230849 -2.6547867e-05 0.00553867 0.0068440414
-0.011811968 -0.010460026 0.0007802398 0.00069503 0.008867448 0.0076844515 0.006410735 0.0047134208
0.002611241 0.0031451895 0.0034071147 0.002439324 0.0030747296 0.003262989 -0.0005403806 -0.0006032187
-0.0039019845 -0.0021909664 -0.0022304037 -0.0015687526 0.00055604527 0.00093664665 -0.002551141 -0.0010718137
0.0006695391 0.00025989112 -0.015975416 -0.014001511 0.003078661 0.002972728 0.0066502285 0.007023535
-0.0010045775 -0.0014134081 -0.0024913875 -0.002411693 -0.006551169 -0.007181174 0.0024606523 0.0010699789
-0.0005457611 -0.0005482405 -0.004558906 -0.004193013 0.011905992 0.011009954 -0.003203796 -0.0019319194
-0.011678722 -0.010295859 0.0022904822 0.0038958457 0.00014637821 -4.1768326e-05 -0.0018165266 -0.00045412287
0.0006009425 0.00038602695 0.00034610767 0.00069082377 0.00014876803 1.5470452e-05 0.0015199253 0.00070572126
-0.011941327 -0.011059062 0.00034572592 0.00046489364 -0.0017605125 -0.00020212382 -0.0037427028 -0.0013727621
0.017672358 0.015626159 0.0037851376 0.00178805 0.012018818 0.011192285 0.0006557225 -0.00037732392
-0.0026383884 -0.0016447238 0.00984537 0.009000263 0.012324655 0.011252011 0.00039649705 2.716953e-05
0.0020190494 0.00071049656 -0.0011927141 -0.0016997056 -0.0062160385 -0.0031451331 -0.0006096132 -0.0008719157
0.00029370867 0.0014360775 0.009365567 0.0060704383 -0.008853202 -0.0062337155 0.007520511 0.0064137494
0.0044130753 0.0037902955 0.010501692 0.009197269 0.00022723133 0.00079595007 0.016759977 0.014924842

exp_avg_sq f4 [64, 2]
00000000: 4e8d 9937 1158 de36 244c f738 85e8 ae38
00000010: 25a5 8c36 df37 aa37 de26 923a c715 ca3a
00000020: 64db de37 5688 ac36 3f84 ac39 f6f4 0e3a
00000030: d895 e636 9cb0 5936 8d46 773a 42b6 513a
00000040: 8a55 363a 3ce7 7d3a b555 9438 cd85 bd38
00000050: cd08 cf39 2cbc ec39 061e ef38 2555 b038
00000060: 42a9 a637 ae7e b038 5c7d 3f38 8eae 5338
00000070: 08af 0339 1fa8 3139 231f 9037 a3d4 aa36
00000080: 4be4 c839 5bed 3c39 1c63 2a37 ca01 4837
00000090: 799d 0f39 1712 fc38 72cb 6738 e1c3 3137
000000a0: f271 c836 09df 0136 3b73 b23a cfad a53a
000000b0: c2b5 d737 c9e8 3938 d98e cc39 aa12 eb39
000000c0: 1906 1d38 0e1a c037 1052 de37 c8f7 7938
000000d0: 4b4b c138 7138 8e39 fa0d 0838 1b4c 9f37
000000e0: 943f 7638 989f 8638 2014 d838 45f4 1f39
000000f0: bebe 2e3a 6354 6c3a 9af1 6a37 e8f4 8237
00000100: 7945 0d3a 8edc 1d3a 683b bc38 5288 5039
00000110: 905d 3d35 3558 b135 85a4 ba36 3870 2236
00000120: 460c 4836 26cf 0136 a2f7 8335 c1bd 0037
00000130: 9dad 1436 2607 c334 8c0a a337 b69d 4a36
00000140: e9e2 453a 4758 493a 452e c939 9c8b c238
00000150: 4335 b237 6089 0f37 ac1d db37 0b98 ff37
00000160: 71f2 a33a 7288 ca3a 2bd5 e638 144b 0c38
00000170: 3c2c 863a 38c8 9f3a 49c3 3038 d7e1 f037
00000180: 620d 2638 aaab 9037 ff32 823a 1232 383a
00000190: 307b 2f3a c45c 2f3a 0018 3137 2f1a a136
000001a0: 505d 3137 6fcb 8136 d7d7 a139 707a 7c39
000001b0: c1d7 a638 9f83 4438 277f 6137 f442 c136
000001c0: 642b 8e37 8a22 3138 d2b5 6239 5d2d 1639
000001d0: 3be8 4f39 10fa 4f39 8d2b 1039 4fe3 8439
000001e0: bdd0 8638 cb33 eb38 7f95 c039 ddd9 ae39
000001f0: af5d 5f37 bf9a e737 c94f 793a d152 a73a
1.8304821e-05 6.626368e-06 0.0001179206 8.340277e-05 4.1915505e-06 2.0291596e-05 0.0011150499 0.0015417867
2.6566624e-05 5.141871e-06 0.00032904928 0.0005453372 6.8719783e-06 3.243832e-06 0.0009432815 0.0007999876
0.00069554953 0.00096856407 7.073154e-05 9.0371446e-05 0.00039488674 0.00045153627 0.000114020004 8.4081934e-05
1.9867559e-05 8.41593e-05 4.56547e-05 5.0468887e-05 0.00012558338 0.00016942665 1.7180637e-05 5.091149e-06
0.00038317064 0.00018017499 1.0155865e-05 1.19213455e-05 0.00013696206 0.00012019666 5.5264165e-05 1.0595629e-05
5.9737295e-06 1.9352321e-06 0.0013614664 0.00126403 2.5714635e-05 4.4324235e-05 0.00039016342 0.000448366
3.7437396e-05 2.2900316e-05 2.6502676e-05 5.959699e-05 9.2169816e-05 0.00027126403 3.2437943e-05 1.8989716e-05
5.8710182e-05 6.4193446e-05 0.00010303431 0.00015254419 0.0006665996 0.000901526 1.4003739e-05 1.5611251e-05
0.00053890754 0.000602194 8.975604e-05 0.00019887209 7.054414e-07 1.3213199e-06 5.5623846e-06 2.42052e-06
2.9809466e-06 1.9343074e-06 9.832331e-07 7.673575e-06 2.2154775e-06 3.6326782e-07 1.9436025e-05 3.0192145e-06
0.0007548766 0.0007680696 0.0003837218 9.276645e-05 2.1244055e-05 8.555449e-06 2.6120651e-05 3.046917e-05
0.0012508166 0.0015452041 0.0001100696 3.3448523e-05 0.0010236572 0.0012190407 4.2143543e-05 2.8715394e-05
3.9589948e-05 1.7246075e-05 0.0009933411 0.0007026504 0.00066940766 0.00066895434 1.055561e-05 4.801222e-06
1.0571748e-05 3.8681824e-06 0.00030869126 0.00024078204 7.955684e-05 4.6852623e-05 1.344065e-05 5.7596426e-06
1.6947924e-05 4.2232256e-05 0.00021620773 0.00014322014 0.00019827571 0.00019834214 0.00013749134 0.0002534636
6.4284985e-05 0.000112153204 0.00036732477 0.00033350187 1.3313648e-05 2.7609405e-05 0.0009510485 0.001276577

exp_avg f4 [64]
00000000: 698d c73a 0f8c db39 1181 063b cc0a fa3a
00000010: 6af2 08bb 88a2 86bb ec0c 38ba 0511 40bb
00000020: 3b8f d7bb 3e42 913b 54ef b43b dfcd 80b9
00000030: 6434 d93a 4d11 7e3b c0da 8b3b b615 2f39
00000040: 06f1 6cbb 0b06 0cbb 1682 1ebb a7a1 d2ba
00000050: 5c4e dfb9 6abd 15bb c648 413a cae4 cc3a
00000060: 39c0 14bb c9a0 67bb 2eda 29ba 0eed 4cba
00000070: afbe 873a 8aa4 6dbb ade1 d23a eb04 abba
00000080: 1895 1ebb 30e1 e839 39c8 2dba 0474 06bb
00000090: 5821 a43a d1ad 5639 8292 19b8 2404 bc3a
000000a0: 56e9 17bb cd04 833b 24d8 8e39 91f4 4c3a
000000b0: ea2d d33b 8d23 473b a2eb 133b ed38 e9ba
000000c0: 9fc6 1ebb c371 17bb dc9c 2c3a 1cfe 1b3a
000000d0: 99f4 1a3b e65d 233b 948a 95bb 188d e9ba
000000e0: 83e7 5d3a 08bd 213b 3c89 13bb 1742 b53b
000000f0: 6ad0 8a3a 9fe2 5c3b 10a4 1c3b 0686 ae3b
0.0015224639 0.00041875287 0.0020523707 0.0019076704 -0.0020896443 -0.0041087307 -0.00070209685 -0.002930702
-0.0065783537 0.0044329455 0.005521694 -0.00024567448 0.00165714 0.0038767636 0.0042680204 0.00016697388
-0.0036154403 -0.0021365907 -0.0024186424 -0.0016069905 -0.00042592257 -0.0022848495 0.000737321 0.0015632149
-0.0022697581 -0.0035343638 -0.00064793497 -0.00078173063 0.0010356511 -0.0036261403 0.0016088985 -0.001304773
-0.0024197754 0.00044418266 -0.0006629262 -0.0020515928 0.0012522144 0.00020473382 -3.661449e-05 0.0014344496
-0.002317985 0.003998375 0.00027245388 0.00078184257 0.0064446824 0.003038618 0.0022570868 -0.0017793454
-0.0024227274 -0.0023108579 0.0006584653 0.0005950646 0.0023644327 0.0024927794 -0.004563639 -0.0017818538
0.0008464979 0.0024679322 -0.0022512218 0.00553156 0.0010590677 0.0033704413 0.00239015 0.0053260354

exp_avg_sq f4 [64]
00000000: 5ac4 0138 f8d9 9a37 be8f db37 b726 6538
00000010: 739e c837 eea4 5a38 67fa f136 13c8 6e39
00000020: d938 1139 f3f2 f738 89ff bb38 91f2 ee37
00000030: 51ed 9d37 bba8 9738 43f4 bb38 8360 f936
00000040: f3ae b638 0051 a137 ba57 4638 82e4 1738
00000050: b06c 4336 ba1d 9838 7cd1 df37 6c5b d537
00000060: fa15 1a38 5cd0 9938 c0e7 8938 ab66 b837
00000070: 08bc 1537 019c 2538 37b7 2a38 4ebe 9837
00000080: cc61 b937 4dd7 1f38 5224 4a36 8758 9c37
00000090: a193 2537 dd13 b936 6cb4 8135 7f98 3337
000000a0: f0d5 0d38 01b9 0f39 b569 a137 a217 9638
000000b0: ac08 e038 09c0 5838 7478 2938 c2ea 1d38
000000c0: eef4 0538 b456 1e39 e0c1 b638 d4b5 0d37
000000d0: 78d5 b537 06c6 6138 ccf1 c738 87c2 d437
000000e0: 4889 f537 68fc d737 1627 8138 f132 1439
000000f0: e1c7 8637 7fa9 0238 525a 2138 7d47 9b38
3.0938863e-05 1.845973e-05 2.617377e-05 5.463391e-05 2.3915642e-05 5.2128853e-05 7.2115104e-06 0.00022771982
0.00013849455 0.000118231306 8.964452e-05 2.8484765e-05 1.8826368e-05 7.2316696e-05 8.962352e-05 7.4320137e-06
8.711023e-05 1.9230414e-05 4.728858e-05 3.621402e-05 2.9120529e-06 7.253462e-05 2.668122e-05 2.543415e-05
3.673693e-05 7.3344185e-05 6.575836e-05 2.1982318e-05 8.9248715e-06 3.9484356e-05 4.070179e-05 1.820843e-05
2.2099259e-05 3.810907e-05 3.0121487e-06 1.8637873e-05 9.869139e-06 5.515742e-06 9.663759e-07 1.0704737e-05
3.3816264e-05 0.00013706462 1.924192e-05 7.156959e-05 0.000106827676 5.167726e-05 4.040492e-05 3.7650352e-05
3.193778e-05 0.00015100354 8.714548e-05 8.44659e-06 2.1676286e-05 5.3828604e-05 9.5340976e-05 2.5362953e-05
2.9270203e-05 2.5747533e-05 6.15848e-05 0.00014133357 1.606712e-05 3.115227e-05 3.846951e-05 7.404292e-05

exp_avg f4 [4, 64]
00000000: 846a 0b3b 7be7 8eb9 f96a 9bbb 07d7 ce3a
00000010: 3ecd 683b fcc9 95ba 4043 5b3b 737f ff3a
00000020: a8cb e53a 86a7 49bb 80ae 92ba fa4e 8939
00000030: 3d2a 3dbb f56a 5bbb e824 ab3a ca1b c53a
00000040: d184 dc39 3ce8 653b a303 15b9 ad61 403b
00000050: 4ed5 f63a 4bdf 03ba 6737 1dbb 8a6c a839
00000060: 6a8f c43a 4141 6d3b 165e 27bb e0d8 793a
00000070: b514 15b9 9afe fd3a 96e9 873a 8531 383b
00000080: 7049 c8b8 cfc4 00bb 40ba 763b 4c4a 963b
00000090: 76d6 5a3b 3033 9fbb e0c0 dcba 5e59 c13a
000000a0: 92d8 47b8 f437 14bb 466f 54bb 7d75 7cbb
000000b0: cbdc b0b9 459e ddba 8543 13ba d487 d53a
000000c0: 8bb2 8eba ca9b db39 326f 33ba 71ef 33bb
000000d0: 8502 7ebb 4daf aeba 9f8b 4e3b 6164 893b
000000e0: 257f 2ebb fd03 07b9 3910 dfb9 858a 31bb
000000f0: f5b4 ebba e8e8 22b9 f443 53bb ffaf 3339
00000100: 9296 9c3b 32ae 08bb 10bb a1bb 3501 d93a
00000110: 56a0 8c3b f073 19bb e52f 9a3b 1497 603b
00000120: 1e62 313b 3f11 8fbb c81f c5ba 7e36 f2ba
00000130: d7d7 96bb afc4 94bb a994 b93a b3a7 973b
00000140: bf40 20ba 76c5 993b d00f ceba 1000 953b
00000150: 6ea7 853b 4dfa f1ba a5f0 a0bb 076f 5a39
00000160: 1d10 733b bfc0 a13b 8f99 88bb ca0e 4d3b
00000170: db7a 2e39 5a5f 513b eaf3 de3a c309 a33b
00000180: 8d80 073a 77a1 83bb bb82 a33b 64a0 8b3b
00000190: c8f4 ae3b a5de b3bb 7f75 91bb 456f 923b
000001a0: 4a74 a33a 4a82 85bb f5ff 9abb 06f2 a6bb
000001b0: b14c 49ba 0ee6 6dbb 0737 0cba 7caa 6b3b
000001c0: aaca 89bb 8ff6 c3ba ae44 4cbb 6024 97bb
000001d0: 5d29 8ebb 46df 13bb 1fb4 973b 0824 963b
000001e0: ea34 99bb 1629 1abb 1e7f 00ba fb4e 95bb
000001f0: 71b4 63bb 8f15 e93a a68d 98bb 6377 813a
00000200: 7029 e7bb ea96 4d3b f219 223c 1f38 30bb
00000210: 6a39 0dbc 5eb6 2c3b 963b 0cbc bf69 babb
00000220: 5ba7 9abb ccae ff3b b70c 453b 9c8d db3a
00000230: 01fd f53b c176 073c a398 c9ba 4a79 c6bb
00000240: 63cc f5b8 fb2f 0dbc 817b 9b3a 4158 03bc
00000250: 193b d1bb 956b 313b c6c9 ea3b 6eaf c8b9
00000260: 7979 bbbb b428 11bc 7627 db3b c726 98bb
00000270: 940b 093a 0693 b4bb 1b99 2abb 158e 01bc
00000280: 87f7 35ba e953 b93b 8140 12bc 693d 1dbc
00000290: 4b1a 0dbc d15f 253c ed77 d13b a819 c9bb
000002a0: 649a aeba 29d0 e43b bd05 0a3c 51f0 163c
000002b0: b31a d83a c2aa c93b 5407 4d3a ef82 b5bb
000002c0: 0b61 a33b 27a2 663a f03c 683b 428f fc3b
000002d0: 8eed 123c 71bb 823b 2704 08bc 035f 1abc
000002e0: e6d6 ed3b fe0c 553b a1d8 ea39 321b f83b
000002f0: c5ef a63b 0060 ddba 42d0 053c 700b 34ba
00000300: b0b3 1b39 292f 4cba 2cbc 61b9 02d0 0eba
00000310: ff5e 4b3a 448a 5e3a 6b2d 053a 66e5 a339
00000320: 2c36 8839 f79c bcb9 cf2c c9b9 50ae bab8
00000330: 150d 90b7 9735 c7b9 e420 9bba 0056 9db8
00000340: ce6f a139 5166 da39 8069 0a3a bbfc 0b3a
00000350: f6e5 dd39 cbb4 bbb9 1252 1839 2ce9 19b9
00000360: 956c 063a fcff 9e39 578e 1038 1f22 133a
00000370: 1c65 0fba 333b c639 5c5a 0db9 5569 fe38
00000380: 4c00 8f39 fffe aa39 bd23 3439 5c81 443a
00000390: 68db 8ab8 4c23 8539 f922 8db9 2482 4a39
000003a0: e426 0b39 198f 29ba 153e edb9 c93d 8bb9
000003b0: 607a 0eba a081 5aba 59e6 a439 bdbb a439
000003c0: 5064 a139 42f4 4d39 2a1c 8739 8432 b7b9
000003d0: bc83 45ba 7fff d1b9 0173 083a f4ac 293a
000003e0: a965 a738 b4ce 49ba d735 f539 4f6f a0b9
000003f0: 80f6 3a39 a278 8a38 1e0e 97b9 be9e f7b9
0.0021273205 -0.00027256817 -0.0047429767 0.0015780636 0.0035522725 -0.0011427994 0.0033456832 0.0019492939
0.0017532008 -0.0030770018 -0.0011190921 0.00026189518 -0.0028864287 -0.00334805 0.0013057264 0.0015038189
0.00042060626 0.003508105 -0.00014211102 0.0029355094 0.001883188 -0.00050305267 -0.0023989321 0.00032124325
0.0014996354 0.0036202224 -0.0025538257 0.0009530913 -0.00014217461 0.0019378245 0.0010369297 0.0028105688
-9.550422e-05 -0.0019648557 0.0037647635 0.0045864936 0.003339199 -0.004858397 -0.0016842149 0.0014751365
-4.7646994e-05 -0.0022616358 -0.0032414957 -0.0038522177 -0.0003373384 -0.001690813 -0.0005617666 0.001629109
-0.001088695 0.00041887007 -0.00068448775 -0.002745595 -0.0038758826 -0.001332739 0.0031516326 0.0041928743
-0.0026626077 -0.00012876089 -0.0004254596 -0.002709062 -0.0017983007 -0.00015536288 -0.0032236548 0.00017136334
0.0047786916 -0.0020855782 -0.0049356297 0.0016556146 0.0042915745 -0.0023415051 0.0047054165 0.0034269737
0.002706654 -0.0043660696 -0.0015039379 -0.0018479375 -0.004603367 -0.004540048 0.0014158684 0.0046281456
-0.00061131635 0.0046927286 -0.0015721265 0.0045471266 0.004078797 -0.0018461436 -0.0049114996 0.00020831461
0.0037088462 0.004936307 -0.0041686962 0.0031289333 0.000166397 0.0031947703 0.0017009948 0.004975529
0.0005168997 -0.004017051 0.0049899495 0.0042610634 0.005339239 -0.005489188 -0.0044390555 0.004468831
0.001247057 -0.0040743696 -0.0047302195 -0.0050947694 -0.00076789694 -0.0036300453 -0.0005348776 0.003595977
-0.0042050676 -0.00149508 -0.0031168866 -0.0046124905 -0.004338427 -0.0022563501 0.0046296264 0.004581932
-0.0046754973 -0.0023523024 -0.00049017544 -0.0045565343 -0.0034745003 0.0017782914 -0.0046555577 0.0009877499
-0.0070545003 0.003137047 0.009893881 -0.002688892 -0.008619646 0.0026353817 -0.008559128 -0.0056888754
-0.0047196574 0.00780282 0.0030067393 0.0016750577 0.007506967 0.008268059 -0.0015380572 -0.0060569393
-0.000117205804 -0.0086173965 0.0011862369 -0.008016647 -0.006385219 0.002707218 0.0071651665 -0.00038277678
-0.005721268 -0.008859802 0.0066880537 -0.0046432945 0.00052278605 -0.0055106906 -0.00260312 -0.00790741
-0.00069414865 0.005655755 -0.008926512 -0.009597161 -0.008612226 0.010093645 0.00639247 -0.0061370917
-0.0013321158 0.0069828224 0.00842422 0.009212569 0.0016487449 0.006154389 0.00078212214 -0.00553929
0.0049859337 0.00087979663 0.0035436712 0.0077075073 0.00896777 0.00398963 -0.008301771 -0.009422067
0.007258284 0.0032508965 0.0004479336 0.0075716013 0.0050945007 -0.0016889572 0.008167328 -0.00068681594
0.0001484889 -0.000778901 -0.00021527772 -0.00054478657 0.0007757991 0.0008489231 0.0005080315 0.00031260698
0.00025980303 -0.00035975102 -0.00038371093 -8.9016394e-05 -1.717223e-05 -0.00037996165 -0.0011835364 -7.502362e-05
0.00030791614 0.00041656432 0.0005280003 0.0005340089 0.0004232374 -0.0003580212 0.00014526423 -0.0001467808
0.00051278743 0.00030326832 3.446484e-05 0.00056126894 -0.00054700836 0.0003780961 -0.0001348047 0.000121312834
0.00027275307 0.00032614914 0.00017179451 0.00074960827 -6.6212204e-05 0.00025394035 -0.00026919672 0.00019312702
0.00013270561 -0.00064681616 -0.00045250417 -0.0002655818 -0.00054351054 -0.00083353557 0.0003145214 0.00031420393
0.00030783052 0.00019641317 0.0002577019 -0.00034942117 -0.00075345836 -0.00040053946 0.0005205125 0.00064726104
7.982116e-05 -0.00076983427 0.00046770155 -0.0003060051 0.0001783017 6.6028224e-05 -0.00028811482 -0.00047229783

exp_avg_sq f4 [4, 64]
00000000: ac39 3738 1aa2 9f37 0c52 9238 cb51 c237
00000010: 12fc 6738 082a ee37 dd96 5338 34dc 9237
00000020: aa12 0137 94bb 1938 67a0 0836 4431 3637
00000030: 12e2 2438 fa31 3038 db2b fd37 3853 0338
00000040: 947b c136 0356 4038 1c16 6d37 002b 3438
00000050: b33b ad37 25a4 f236 ccd4 2738 4c40 4736
00000060: 8b25 7137 edf7 5a38 4152 2838 008d 7337
00000070: 8b9b e236 8afe 1837 b913 5337 48e9 3938
00000080: 7b8e a336 ac1a ee37 21f8 6738 3ec4 a538
00000090: 39bb 8d38 2166 9b38 fcd1 ed37 b3db 0d38
000000a0: 7e87 8b36 a416 bb37 5bbc 5d38 fa3c 8438
000000b0: db18 f036 cdc0 c237 5f16 ef36 fd3e 4e37
000000c0: 72ff fe37 5960 0237 9c2f 5037 db1a 2038
000000d0: 7e3d 8138 3482 8836 6ab3 3238 4e59 9138
000000e0: 037d 2738 c117 bf37 bc0d 4637 9d7f 1138
000000f0: d194 a037 026f 2137 493e 3038 ae9d 3e37
00000100: 857e 3d39 4bf9 f338 c5d4 5e39 e545 ba38
00000110: fe72 4e39 95e4 cc38 79da 4339 44a8 d638
00000120: 0b4d 6838 d893 2639 1552 6f37 4b96 a938
00000130: cf66 2d39 eac2 3239 2e58 f338 79f8 2239
00000140: 9e54 ce37 3d79 3a39 8734 3338 ddc4 3c39
00000150: 4e44 1139 e023 7238 c0ca 2e39 b537 0b37
00000160: f26e 0339 924d 4439 d9a4 2639 ca98 f638
00000170: 8a50 8a37 a6e6 9938 cdc7 3438 0961 3939
00000180: dee3 a737 7969 0a39 1b09 4839 363d 6c39
00000190: d206 5b39 e9bf 6339 9d2d 2a39 1e2b 3639
000001a0: 9f2f 0e38 b56b 1a39 d40f 4839 441c 5339
000001b0: 36e5 d437 179e 2639 782b fd37 be43 d138
000001c0: 516f 1439 aa54 6638 6d1e a438 bf45 2f39
000001d0: 4024 5639 e013 2738 f263 3939 1a09 5e39
000001e0: b907 2d39 de7a 1539 5eb1 0a38 f341 2739
000001f0: f279 d038 ca7b 9638 1ff5 3239 b45b e037
00000200: cc92 5739 f755 0a39 06d9 5e39 1153 8838
00000210: e112 6939 376a a138 b85c 5a39 b6ce e538
00000220: fabd 5738 5b64 2939 2251 7137 1383 c638
00000230: 4c55 2c39 53af 3539 ef98 c538 7aeb 3939
00000240: ad3c fb37 d877 4339 556a 2a38 d07a 5739
00000250: feb3 2a39 3f34 9238 1152 3a39 d535 b636
00000260: 0479 1b39 194f 5239 c926 2639 d96a 1139
00000270: 2c90 5c37 e864 9d38 50ef 1238 02bd 4b39
00000280: 8c62 9a37 fa58 0139 7df3 5039 13b0 7e39
00000290: 1e9d 6b39 0620 6839 b638 4839 e5e3 5439
000002a0: 0c75 1d38 0df3 3539 e8a3 5f39 062b 6439
000002b0: 2c8c cb37 68dc 4539 6a01 ec37 e9c6 ee38
000002c0: abfe 2639 4d82 8838 da5a b338 8336 4339
000002d0: 6f65 6e39 2df5 3938 2aae 4f39 6e38 7239
000002e0: 5deb 2f39 918a 2b39 172e c637 1ee7 3539
000002f0: 57e3 bb38 975d b238 d95a 3a39 7f57 b637
00000300: aec0 a437 14f3 6137 a7d8 ea37 0498 2837
00000310: a472 dc37 69a1 1337 3749 b037 7016 d336
00000320: 8f51 4636 29ec 4d37 3dc8 aa35 5876 0b37
00000330: 6bab 4737 0b43 7137 1a98 8937 9bb1 4d37
00000340: 7895 3c36 7f3e 8937 acdc 5a36 ffdc a237
00000350: 88d8 3037 1ccc b536 a023 4f37 e263 7135
00000360: 78ef 1c37 ff2e a037 4045 4937 0266 2f37
00000370: fd16 2636 ab25 7436 0de5 4236 8218 8437
00000380: 5ddd 1536 da32 f936 6e97 a537 4071 1938
00000390: d105 ec37 20aa fd37 1631 8037 636b a037
000003a0: f0fb 4d36 47cd 5237 58e5 bd37 6e5e d437
000003b0: b5e3 4d36 3ad5 8637 1841 8536 f616 bc36
000003c0: 08d9 2f37 23f0 bb36 1ce1 8136 9d74 7537
000003d0: e95f ee37 7ddc 2036 d6e2 9137 bdba 0138
000003e0: 97db 4637 7e07 8c37 5370 8436 c1c7 4837
000003f0: 3b75 a736 b88b f736 91b3 6c37 c8db 2536
4.368431e-05 1.9029761e-05 6.977105e-05 2.316469e-05 5.530945e-05 2.8391383e-05 5.0446823e-05 1.7507096e-05
7.693345e-06 3.665274e-05 2.0358946e-06 1.0859516e-05 3.931119e-05 4.2008214e-05 3.0180372e-05 3.1310337e-05
5.7662346e-06 4.5856472e-05 1.4131449e-05 4.295539e-05 2.0651007e-05 7.231271e-06 4.0014085e-05 2.9690736e-06
1.43734605e-05 5.220615e-05 4.0130926e-05 1.4516758e-05 6.7534324e-06 9.1191705e-06 1.2581172e-05 4.4324697e-05
4.8743655e-06 2.8384231e-05 5.530578e-05 7.904366e-05 6.758277e-05 7.409999e-05 2.8350383e-05 3.382163e-05
4.158296e-06 2.230268e-05 5.2865926e-05 6.305608e-05 7.155451e-06 2.3216382e-05 7.1253594e-06 1.2293222e-05
3.039811e-05 7.7710365e-06 1.2408851e-05 3.8171984e-05 6.162653e-05 4.0682735e-06 4.26056e-05 6.930773e-05
3.993233e-05 2.2780036e-05 1.1804917e-05 3.4689543e-05 1.9142784e-05 9.622194e-06 4.2019677e-05 1.1361595e-05
0.00018071577 0.000116335774 0.00021250833 8.88219e-05 0.00019688529 9.770055e-05 0.00018678037 0.00010235657
5.5384862e-05 0.0001588607 1.4264621e-05 8.086542e-05 0.00016536865 0.00017048014 0.00011603568 0.00015542087
2.4596517e-05 0.00017783507 4.2725846e-05 0.00018002414 0.00013853723 5.7730707e-05 0.00016669463 8.298016e-06
0.00012534464 0.00018720914 0.00015892404 0.00011758653 1.6488386e-05 7.33857e-05 4.3101423e-05 0.00017679123
2.001406e-05 0.00013199997 0.00019076878 0.00022529517 0.00020888008 0.00021719899 0.00016229456 0.00017372935
3.389979e-05 0.00014726708 0.00019079383 0.00020133058 2.5379104e-05 0.00015889887 3.0180192e-05 9.9785146e-05
0.00014155848 5.4915123e-05 7.825797e-05 0.00016715283 0.00020422135 3.9834413e-05 0.00017680207 0.0002117496
0.00016501443 0.00014255519 3.306695e-05 0.00015950929 9.940927e-05 7.175615e-05 0.00017066718 2.6745583e-05
0.00020558684 0.0001319273 0.00021252417 6.500458e-05 0.00022227645 7.696862e-05 0.0002082464 0.00010958074
5.1436924e-05 0.00016154481 1.438361e-05 9.46579e-05 0.00016434974 0.00017326818 9.422178e-05 0.00017730697
2.9949786e-05 0.00018641294 4.0630188e-05 0.00020549749 0.00016279516 6.971554e-05 0.00017768914 5.4302895e-06
0.00014827034 0.00020056627 0.00015845442 0.00013868081 1.31465895e-05 7.505139e-05 3.503199e-05 0.0001943
1.840412e-05 0.00012335545 0.00019927132 0.0002428892 0.00022469877 0.00022137174 0.00019094613 0.00020302793
3.7540725e-05 0.00017352049 0.00021327997 0.00021759802 2.4264758e-05 0.00018869492 2.813405e-05 0.00011385774
0.00015925865 6.509256e-05 8.5523076e-05 0.00018616956 0.00022735236 4.4335775e-05 0.0001980594 0.0002309994
0.0001677698 0.00016359451 2.3624902e-05 0.00017347603 8.9592e-05 8.505134e-05 0.00017772186 2.1736834e-05
1.9640047e-05 1.3467641e-05 2.799586e-05 1.0048974e-05 2.6279427e-05 8.799464e-06 2.1014928e-05 6.290902e-06
2.9551773e-06 1.22739375e-05 1.2724264e-06 8.3126e-06 1.1901236e-05 1.4380329e-05 1.64025e-05 1.2260304e-05
2.8101185e-06 1.6360775e-05 3.261298e-06 1.9414814e-05 1.0540833e-05 5.417982e-06 1.2346456e-05 8.9924845e-07
9.35408e-06 1.909537e-05 1.1996657e-05 1.0454563e-05 2.4749309e-06 3.638076e-06 2.9041578e-06 1.5747039e-05
2.233158e-06 7.426698e-06 1.9740048e-05 3.6583515e-05 2.81361e-05 3.023917e-05 1.5281646e-05 1.9123492e-05
3.0694027e-06 1.256477e-05 2.2637352e-05 2.5316342e-05 3.0679923e-06 1.6073336e-05 3.971287e-06 5.6055096e-06
1.0481344e-05 5.60099e-06 3.8707058e-06 1.4630289e-05 2.8416473e-05 2.39702e-06 1.7390976e-05 3.092991e-05
1.1852847e-05 1.669279e-05 3.946983e-06 1.1967438e-05 4.9906353e-06 7.377439e-06 1.4108505e-05 2.4714845e-06

exp_avg f4 [4]
00000000: 05aa df3b d792 883a b5de 4bbc aeee 953b
0.006825688 0.0010419738 -0.012443234 0.004575572

exp_avg_sq f4 [4]
00000000: 6c27 9b39 1ad4 fb39 6b71 e839 4425 6639
0.00029593275 0.0004803248 0.0004433499 0.00021948392

exp_avg f4 [64, 2]
00000000: 8165 bfc0 8319 95c0 646e 5e3f df27 943f
00000010: fa29 8abf d202 95bf fc3e a740 c587 db40
00000020: e350 07c1 1ef6 14c1 4b90 cb3e 383a f23e
00000030: e42e a43f b518 a33f ba08 2fc1 c7f9 30c1
00000040: 18e1 1241 b0f9 1b41 b5a9 84c1 fe40 88c1
00000050: a298 c13f a34f d53f 77f5 38c1 7554 43c1
00000060: a50e 21c1 2d42 41c1 a62d 9dc0 49a4 9ac0
00000070: 9e55 b33f f06b bd3f 892a a840 8ccf aa40
00000080: 58be d540 eb3f f040 72ae c33f 805d f63f
00000090: 2dd0 1c40 fc69 2240 bbca ad40 2982 b840
000000a0: 6422 0dc1 6a8c 1ac1 3c4e 1f41 2471 3041
000000b0: 8a2e 24c0 1113 8fc0 1ec4 38bf 9a93 5cbf
000000c0: 8e63 8341 db07 8841 8ed1 c340 db74 ed40
000000d0: 3023 5c40 986d 9f40 187f 98c0 6786 aac0
000000e0: ae60 d840 1e43 c240 6228 5d40 2c41 8040
000000f0: 44af 0fc1 4860 1dc1 ba35 9cc1 3a61 a6c1
00000100: 6073 5b41 0482 9441 b2c4 be3f 0bf7 bf3f
00000110: 76e8 133f 687f d53e cc87 f840 0698 1041
00000120: 173d bbbe bbe2 c9be 9cdf 3841 bf44 5041
00000130: fb90 6341 2861 7941 d575 2141 01ab 4041
00000140: 4295 a0be 85fa bbbe 09ee 91be 7d6f 9fbe
00000150: 847a 76c1 91dd 87c1 706f 69c0 3bfe 98c0
00000160: ee5b 15c1 7645 e7c0 0e76 ed40 2589 cb40
00000170: e965 9ac1 8827 aac1 2ed0 9fc1 ddcd 8fc1
00000180: 9dae 3cc0 7ebd 3ac0 5010 a1c1 18f0 a0c1
00000190: f747 c6bf db85 1fc0 74b5 06c1 8396 02c1
000001a0: 0399 ff40 e553 0e41 f5fe 003f ac94 f03e
000001b0: 62ff 5cc1 77cd 72c1 6c5d 46c0 1d39 5dc0
000001c0: e21d 84c0 f1d5 94c0 b37b 8c3e 4ba4 a23e
000001d0: 858c 0440 6a40 4240 c4d3 16c1 6412 24c1
000001e0: f188 963f 51d0 8f3f 06ca a2c0 843d 87c0
000001f0: 9181 6bc1 97b3 7bc1 0d64 1b3f a2a0 2f3f
-5.9811406 -4.659364 0.8688719 1.1574668 -1.079406 -1.1641486 5.2264385 6.8603234
-8.457248 -9.310087 0.39758524 0.47310042 1.282681 1.2741915 -10.9396305 -11.060981
9.179955 9.748459 -16.582865 -17.031734 1.5124705 1.6664928 -11.559928 -12.208119
-10.066075 -12.078656 -4.9118223 -4.8325543 1.4010503 1.4798565 5.2551923 5.3378353
6.6794853 7.5078025 1.5287611 1.9247284 2.450206 2.5377188 5.4309974 5.7658887
-8.820896 -9.659281 9.9566 11.027622 -2.5653405 -4.4710774 -0.7217425 -0.8616272
16.42361 17.003836 6.1193304 7.4205146 3.4396477 4.982128 -4.7655144 -5.3289065
6.7618017 6.070693 3.4555898 4.0079556 -8.980289 -9.836006 -19.526234 -20.797474
13.715668 18.563484 1.4903777 1.4997267 0.5777658 0.41698766 7.766577 9.037115
-0.36570045 -0.39430794 11.554592 13.016784 14.222896 15.58622 10.091268 12.041749
-0.31363875 -0.3671457 -0.2850192 -0.31139746 -15.404911 -16.983187 -3.6474266 -4.781034
-9.334944 -7.227229 7.420661 6.3604913 -19.29976 -21.269302 -19.97665 -17.97552
-2.9481575 -2.9178157 -20.132965 -20.117233 -1.5490712 -2.492545 -8.4193 -8.161746
7.987428 8.895482 0.50389034 0.46988428 -13.812349 -15.175162 -3.099452 -3.456611
-4.128648 -4.651116 0.27438125 0.3176597 2.0710766 3.0351815 -9.426701 -10.25449
1.1760541 1.1235448 -5.087161 -4.226259 -14.719132 -15.731345 0.6069954 0.6860448

exp_avg_sq f4 [64, 2]
00000000: d760 c342 0eba f341 9164 db3e e326 493f
00000010: e0f9 8240 0380 bf3f 876a 2c42 1cbc 7b43
00000020: 96c7 e844 7b2c 5544 7189 6c40 2ef1 a740
00000030: 4bca 1b41 31b3 0940 3ce2 9d43 fd7b f643
00000040: e50e 8144 c4d9 1c44 0991 0045 2c6f 0545
00000050: 6d2c ef40 7fb0 9340 cf8d fe44 825c 5e44
00000060: 450d 6844 bfd8 b244 bd27 c043 478c cd41
00000070: 7057 4041 7388 5241 9de3 e243 d173 ab42
00000080: 835a 1f44 82a2 a943 a8ff c040 a650 3e41
00000090: 43a6 5042 7b34 5941 a670 a543 1dca b842
000000a0: 4804 aa44 73bd 0944 2a2d 3144 447a 8b43
000000b0: 777f 8a41 ea7a 1c43 5a53 8a40 c5de 5941
000000c0: c3df 7745 d8e2 d844 a89e c642 2ffe c243
000000d0: 4e37 2b42 c15e 6943 b8aa 2843 d6f8 fa42
000000e0: 0e3c ca44 6ed9 9d42 b613 0542 f071 bd41
000000f0: efcd d644 577d 8244 9ddf d945 c9f4 7244
00000100: d4e6 8544 45ed 8045 596e 4842 ae01 2b41
00000110: c5b0 b63f 5cc7 563e 80b5 fd42 99b9 c842
00000120: 98cd 6340 80ad 423f a9b6 0445 6afd 8d44
00000130: 91e9 2c45 6a85 3f44 19ad 6944 0350 9d44
00000140: a223 c93f 1635 5e3f 6979 8c41 5815 d440
00000150: 3c79 8d45 4817 a844 6d00 3942 ba2a af42
00000160: 7afd 4945 4f18 e142 ecc7 3d44 1a64 9642
00000170: b91c 1945 e5e9 8745 d4eb e044 56fd 6144
00000180: 7c2a cb43 b16c 7f41 3dd5 d045 7533 f144
00000190: c1ce b640 b84a 2442 943a a843 ed0e 7843
000001a0: bc55 b943 9444 4743 da4f 6242 6a6c 2a40
000001b0: 5254 0c45 5591 8444 9477 6f42 b2dd f441
000001c0: 1315 dc42 d64a 6643 ac6d 3140 8665 b63f
000001d0: ba3c 3e41 2a7d 7c42 b32c b844 926f 3944
000001e0: 21ac 9740 081b 393f c589 8e43 2f06 d841
000001f0: 12d7 6645 2063 e044 8180 7541 3eb2 a941
97.68914 30.465847 0.42850164 0.7857496 4.0930023 1.4960941 43.10403 251.7348
1862.237 852.695 3.6958888 5.248191 9.736888 2.151562 315.76746 492.96866
1032.4655 627.4026 2057.0647 2134.9482 7.474173 4.615295 2036.4315 889.44543
928.20734 1430.7733 384.31046 25.693495 12.021347 13.158313 453.77823 85.726204
637.41425 339.2696 6.031208 11.89469 52.162365 13.575313 330.88007 92.39475
1360.1338 550.96014 708.7057 278.9552 17.312239 156.48013 4.3226748 13.616887
3965.985 1735.0889 99.309875 389.9858 42.80401 233.37013 168.66687 125.48601
1617.8767 78.92467 33.26925 23.680634 1718.4354 1043.9169 6971.9517 971.82477
1071.2134 4125.6587 50.10776 10.68791 1.4272696 0.20974487 126.85449 100.362495
3.5594234 0.7604599 2123.4163 1135.9192 2766.598 766.0846 934.70465 1258.5004
1.5713999 0.8679975 17.559282 6.6276054 4527.1543 1344.7275 46.250416 87.58345
3231.8423 112.54748 759.1238 75.19551 2449.7952 4349.237 1799.3696 903.9584
406.3319 15.964036 6682.655 1929.608 5.7127385 41.072968 336.45764 248.0583
370.6698 199.26788 56.57798 2.662867 2245.27 1060.5416 59.866776 30.60825
110.04116 230.29233 2.7723188 1.4249732 11.889826 63.12223 1473.3969 741.7433
4.739762 0.7230687 285.07632 27.00302 3693.442 1795.0977 15.343873 21.212032

exp_avg f4 [64]
00000000: b01e 9ec0 548f 523f 33ac 5ebf 5f32 ab40
00000010: 93f3 c4c0 3db1 bc3e 3f3d db3f c836 08c1
00000020: 72d3 d340 ea6c 3fc1 05f4 d13f 6a05 09c1
00000030: b3c1 07c1 142f a4c0 f464 823f dd4e 9040
00000040: 6bf2 9d40 c124 ef3f 1560 6240 094d e740
00000050: e3bb cac0 f74e f340 fd13 bfc0 c149 13bf
00000060: 4a71 3f41 8964 9d40 d82a 8f40 622d 63c0
00000070: cd68 0941 5d6e 6640 0053 d0c0 ad8a 5fc1
00000080: 8c3c 6f41 297e 8b3f 4d7c b53f 04df 0041
00000090: f9c6 eabe d2e8 0841 7bbf 2841 84e0 0141
000000a0: ebc5 d2be fd85 53be ff5b 35c1 1990 4fc0
000000b0: b64c 1bc1 470f d140 bfb0 61c1 7de7 68c1
000000c0: affc 1ac0 460e 70c1 eee0 17c0 738b c0c0
000000d0: 4941 c340 e457 c13e 4b01 1fc1 0060 a0c0
000000e0: c0f1 41c0 8852 973e 008c 4e40 1ed0 e8c0
000000f0: 1436 8a3f 1560 95c0 7b4a 2dc1 c83e e53e
-4.941246 0.8224995 -0.86981505 5.349899 -6.154733 0.36853972 1.7128066 -8.513374
6.619561 -11.96409 1.6402594 -8.563822 -8.48479 -5.130747 1.0187058 4.509627
4.935842 1.8683091 3.5371144 7.2281537 -6.3354354 7.6033893 -5.97119 -0.57534415
11.965158 4.9185224 4.47398 -3.549645 8.588086 3.600486 -6.510132 -13.971356
14.952282 1.0897876 1.4178559 8.054447 -0.4585493 8.556841 10.546748 8.117313
-0.41166624 -0.20656581 -11.33496 -3.24317 -9.706228 6.533115 -14.105651 -14.556516
-2.4216726 -15.003485 -2.3731036 -6.0170226 6.1017194 0.37762368 -9.937816 -5.0117188
-3.0303802 0.29555154 3.227295 -7.275405 1.0797753 -4.667979 -10.830684 0.4477446

exp_avg_sq f4 [64]
00000000: c4e4 ed41 eaef 633e 2aef fd3e 0766 6d42
00000010: bb28 1743 29e3 e83f be2b 5740 7122 e842
00000020: 3ac5 cc42 d0c9 ad43 d069 2440 6d8b 3943
00000030: bf4e 3c43 3266 8742 e270 ee3f ac0c 2f42
00000040: db70 7642 85a3 8240 2114 b141 ba38 e242
00000050: c518 0c43 95f1 f942 41ca 8842 f69b d63f
00000060: 08ba ba43 2e3b 5542 432b 1c42 0b7b 1142
00000070: 5190 4b43 ee90 ce41 070a 2543 9658 1144
00000080: 5be2 0d44 07b3 f640 1e45 1740 5567 d842
00000090: 9b68 e93f 9a68 5243 495d 9843 aaa4 2543
000000a0: 1a10 bd3f 2d43 883f 1a16 ce43 dcb7 6d41
000000b0: 9c8e 8643 e478 a642 9416 0744 454a c343
000000c0: 8437 ed41 af31 1a44 bab9 ff40 5925 7942
000000d0: 7181 ad42 600b 6940 0135 9043 89d2 3a42
000000e0: e627 e841 15d8 b33f 7c73 8c41 0ac9 1243
000000f0: 2a5f 213f 0883 0a42 ff47 a543 d0d1 2e40
29.736702 0.22259489 0.4959653 59.349636 151.1591 1.8194324 3.3620448 116.06727
102.38521 347.57666 2.5689583 185.54463 188.3076 67.6996 1.8628199 43.762375
61.61021 4.082461 22.134829 113.110794 140.09676 124.97184 68.39503 1.6766346
373.45337 53.307793 39.042248 36.37016 203.56374 25.820766 165.03917 581.38416
567.5368 7.709354 2.3635936 108.20182 1.8235048 210.4086 304.7288 165.64322
1.4770539 1.06455 412.17267 14.857388 269.11414 83.236115 540.3528 390.58023
29.652107 616.7763 7.9914217 62.286472 86.752815 3.6413193 288.4141 46.7056
29.019482 1.4050318 17.556389 146.78531 0.63035834 34.62796 330.56247 2.731556
