outputs/empty_1a_PPO/last_status.pt (torch, 15773 bytes, 21 tensors)

actor.0.weight f4 [64, 2]
00000000: 7ba4 493d 9de0 b83e 68b0 633e b73b b0be
00000010: 6b09 1abf 394a 413c 6c54 9f3e ae2e 81be
00000020: 771b 033e eac5 de3e ba64 8cbe 4cc6 3c3e
00000030: 8ece 3c3e e907 873e ed98 d33d bbe4 563d
00000040: f746 e43d a1d1 aebb 7c9e 7cbe 8669 3fbd
00000050: 8ab9 f6bc 613d a7bc ebc4 0c3e b4db 59be
00000060: 57fe 91be cab9 92bc 5fe0 8ebe 809a 74bd
00000070: e794 db3e 60e1 cdbe 5b3f 603d 33d8 513e
00000080: ab11 b83c 10c8 31bd 453a 8f3e d8c6 d63d
00000090: 2bc2 99bd 9af7 ca3c 9010 d73d f788 a63e
000000a0: 525a e03c 41b0 543e 5cf1 953d 7653 17be
000000b0: b5d3 58be 88e4 ccbd e538 9b3d 68de 8ebd
000000c0: 9441 18bd 5ecd 723e 663d 9a3e 38d1 113e
000000d0: 680e 86be 788d b73c d461 dabd 3061 893e
000000e0: bf2e bc3d debc babd d501 c33d 0684 2d3d
000000f0: 839b 003e 95b4 86bd 4979 453e e6ef 423e
00000100: 8c01 c8bd 1f44 f23d cdf7 6abe 119d fc3c
00000110: 31a8 c13e ca41 9b3d b6b0 8f3e bd03 0c3f
00000120: c343 763e 67f0 b93e 1d29 2fbf de46 5fbc
00000130: baa8 0f3c 4236 a6be 97a7 42bd 43b0 d53e
00000140: ede7 b3bd 36ba 093e 6354 dfbc 8298 76be
00000150: 60ca 24be a784 a4be 0545 a1be 7275 61be
00000160: 4991 cd3d 3d65 05be 6bbc ce3d 1ed2 bebe
00000170: a725 0bbe 9ca4 003e 07bf 2b3d cfc7 ff3d
00000180: 9c33 92bd e25f f2bd b4af a93d e53e 0dbe
00000190: 75b6 27bd 8904 9dbd e8bd 1ebe da2b 31be
000001a0: 06aa 34be cbed e9be cd6c 00bd 1fa0 5dbd
000001b0: 412f 253e c9cd 743e 57c0 823e 3cc4 cd3e
000001c0: 0fca 86be ff0c 09bd c2de 873e 3ba1 d4be
000001d0: d658 1bbe 963a 113e 988f 2dbe 1e08 07be
000001e0: fd24 40be f5f9 093d f340 dfbd 5d47 3c3e
000001f0: 963b 8abe 7fb4 9bbd adc7 be3d 47bc 74bd
0.049229126 0.36108866 0.22235262 -0.3442056 -0.6017062 0.011797481 0.31119096 -0.25230926
0.12803446 0.4351037 -0.27420598 0.18435019 0.1843817 0.26373222 0.10331903 0.052464228
0.11146348 -0.0053350483 -0.24669832 -0.046731494 -0.030117769 -0.02041501 0.13746993 -0.21275216
-0.28514358 -0.017910857 -0.27905557 -0.059717655 0.4288704 -0.4021101 0.05474792 0.2049263
0.022469362 -0.043403685 0.27974144 0.10487145 -0.07507738 0.024776269 0.10501206 0.3252637
0.027386818 0.2077036 0.07321426 -0.14777932 -0.2117451 -0.100045264 0.07579211 -0.069760144
-0.037171915 0.23711154 0.30124968 0.14239967 -0.26182866 0.022406325 -0.106631905 0.2683196
0.091886036 -0.09118055 0.09521834 0.042362235 0.12559323 -0.06577412 0.19284548 0.19036826
-0.0976592 0.11829399 -0.22946091 0.030836614 0.37823632 0.07580908 0.28064507 0.54693204
0.24049287 0.36316225 -0.6842211 -0.013627736 0.008768255 -0.3246327 -0.047523107 0.4173604
-0.08784471 0.1344994 -0.027261918 -0.24081615 -0.16092825 -0.32132456 -0.3149797 -0.22017458
0.100374766 -0.130269 0.100945316 -0.37269682 -0.13588582 0.12562793 0.041930225 0.12489282
-0.0713875 -0.118346944 0.08285466 -0.13793524 -0.04094549 -0.07666881 -0.15502131 -0.17301884
-0.17642984 -0.45689234 -0.03135376 -0.05410778 0.16131307 0.23906626 0.2553737 0.40188777
-0.26326033 -0.03345966 0.26537138 -0.4152926 -0.15170607 0.14182505 -0.16949308 -0.1318669
-0.1876411 0.033685643 -0.1090106 0.18386598 -0.26998585 -0.07602786 0.09315429 -0.059749868

actor.0.bias f4 [64]
00000000: 0451 5bbd 9846 5fbd ef6b a5bd d48c f33b
00000010: e072 c13d cf31 ab3d bc2e 913d 4599 a13d
00000020: d743 b03d 286d c2bd aae6 bfbd b925 653d
00000030: db63 dcbc ad27 c2bd ce86 aebd 8f56 7fbd
00000040: 0343 a93d 49e1 ba3d a209 c03d 4996 5b3d
00000050: bfa4 533d 46bc 15bd b138 1b3d cfd9 5aba
00000060: 940d 653d 3f11 723d 8bd9 01bd 0b4d 473d
00000070: d4e7 acbd 3edb c53d 78c7 943c 96d8 15bb
00000080: c275 6a3c 8a93 ec3c 1bc6 483d 0488 b23d
00000090: 5e21 9fbd eec0 d93c ce49 bf3c 8cec 8dbd
000000a0: 3cdf 81bc e329 bcbd 3553 30bd 0c93 12bd
000000b0: d43d 99bd 807b aebd cbe5 403c 8e87 573d
000000c0: aed1 b13d 86c2 b93d 3c6d 843d 2938 51bd
000000d0: 032a bdbd 6674 b9bd d3bd 9b3d ed85 ae3d
000000e0: 9d6c 6dba b732 e9bc 4bb2 193d a18a 5ebd
000000f0: 21b6 24bb 62de 3fbd 7c2e 91bd 8c8c 8dbd
-0.05354406 -0.054510683 -0.08077227 0.0074325595 0.09445739 0.083591096 0.07088992 0.07890562
0.086066894 -0.09493476 -0.093701676 0.05594418 -0.026903084 -0.09480224 -0.08521806 -0.062338408
0.082647346 0.09125001 0.09376837 0.05361012 0.051670786 -0.036556505 0.037895862 -0.0008348496
0.055921152 0.05909848 -0.031701606 0.04865746 -0.08442655 0.09660958 0.01816152 -0.002286469
0.014310302 0.028878946 0.049017053 0.08717349 -0.07770036 0.026581254 0.023350623 -0.06929883
-0.015853517 -0.09187677 -0.043048102 -0.035784766 -0.07482496 -0.085196495 0.011773537 0.05261951
0.08682571 0.090703055 0.06466147 -0.05107895 -0.09236529 -0.09055404 0.076045655 0.08521638
-0.0009057017 -0.028466566 0.03752355 -0.054331426 -0.0025132971 -0.04684294 -0.07088944 -0.06911573

actor.2.weight f4 [4, 64]
00000000: dc16 03be dfee dc3d a32f f7bd f0f8 34bd
00000010: 17b4 a2be abf2 0cbe ed76 2dbe 3034 ddbe
00000020: 5974 9fbe c0d1 e93d 3993 c63d 31e4 0f3e
00000030: 6c61 2dbe 60ba f03e d1dc e6bd e5ef 283c
00000040: 358e cfbe 1e1a 6cbe cdbb a43c 6193 61be
00000050: 8e7b cfbc 2110 ac3d 902d 92bc f601 86bd
00000060: 8b4d 723e 3506 2a3d 5695 febd 663d 8f3d
00000070: e168 ab3d acdf 21be bd28 d83c c14c e8bd
00000080: 7388 04be aafb 38be f4e6 f23d 3fd2 62be
00000090: cb35 06be 0689 93bd 79fb adbd 5f23 3cbd
000000a0: 622a c13d a167 fa3e 6bb3 79be eff1 c9be
000000b0: d85b 86bc bd84 ca3e 4e95 eabd a059 57bd
000000c0: 03b3 8dbe 94dd 1abe 9c96 6cbd 2375 bc3d
000000d0: 554d 393e 316c 413e 8af6 e7be f1a9 57be
000000e0: 1b82 febe 8519 803e a708 a4be e528 883e
000000f0: 0754 4a3d c555 2abd 414c 983b 1f44 ad3e
00000100: 0574 50bd cff4 49be 36c8 babe a201 843e
00000110: 1966 8c3d 98ba 023c b8f6 de3c ea64 0c3f
00000120: b27c 2b3e 3364 bdbe 4cb9 94be fa08 1a3e
00000130: ba90 11bd 02ac b8bd 5a18 88be d068 2ebe
00000140: 0ca8 233e 7762 733d a1de b43e 9c1e 823e
00000150: 1f11 bdb8 5e8d 76be db90 6e3e c1cf 483e
00000160: e2c4 433e 0b52 21bd 7d9e e1be 6c0a 043d
00000170: ad32 2ebd bfc7 693d 957a 163e c670 1cbe
00000180: dbc9 36be 282a 783e 63bc 003e 2c05 873c
00000190: d492 41be 7996 883d 49ae 09be 63a0 c3bd
000001a0: a7a0 0fbe 5ad7 58be a470 f6be 0c50 fbbe
000001b0: d8c8 ddbd 441f cfbd 00a2 6d3d 4627 d5bd
000001c0: 6cc0 6a3d 280f cc3e 2c4d 903e f51f 1fbe
000001d0: f341 69bd b5fe 7bbe d3ad d43c 8a3e 683e
000001e0: dfb4 4bbe faf2 493e c91f cb3d 761d b23e
000001f0: 058d 6cbd 56f0 2cbd 0789 d2bc fc2d 3c3e
00000200: 3a38 bcbd 0484 38bd b6be 0dbe aeaf 85be
00000210: c69c 8fbd 9cca a53e 2678 2cbe 623e 05be
00000220: 8d9b e53e 1184 14be cfe8 d7be 2f79 75bc
00000230: e40e b7be 93fa a5bd 5fd1 b7be 6ce6 eebc
00000240: b7a3 be3d c639 ed3d 735c 7d3e 602d 2c3e
00000250: 61bd 60bd 32fa 963e 6823 48be 9212 3dbd
00000260: 0748 8f3e 5f53 b93e 956e 533e 8f1f 3ebd
00000270: e5b3 1b3b 43a9 363e 9005 6ebe 9fcd 533e
00000280: 1294 ed3d 7824 b2bd 6aa6 d53d 1e2f 133e
00000290: 2778 6dbe b7cb 02be e3d5 e3bd 9a7f 53be
000002a0: 5fe8 683e 4ee6 2f3e 82e7 c1bd f10b bf3d
000002b0: f06b 07bf 4c65 a8bd 64f1 98be 0d40 d8bd
000002c0: ed56 283d 5362 0a3c d2a7 80be 9709 d5bc
000002d0: c328 26be 2721 8ebd 307d bc3e fbb8 40bd
000002e0: ffe8 cebe 1eb2 29be 4af5 413e 94b7 c8be
000002f0: 547b 66be 88b3 a6be 1e32 0dbd 0323 46be
00000300: 80a5 a93e fced 61be 7e3d d03d 0cd6 723c
00000310: 04ac 26be 48f1 aebc a84b 1bbe 4037 fabd
00000320: 2188 e2bb ff2f be3e 223b 1c3d 7d64 8cbe
00000330: e63e 52bb 7720 1b3e bfc7 a63e 0143 11be
00000340: 17b7 9e3c 630c e9bc 877b 053d 46cf aa3e
00000350: df74 20be 5405 a83d dbca 303d 8504 8e3e
00000360: 622a 66be bf0f ddbe 016d ee3d dc33 b0be
00000370: 9407 fd3d 8bbc 54be d3e7 84be 19e9 a2ba
00000380: d3b4 77bc 6d8a 893e 215e 32bd 6f74 1dbe
00000390: b9cc c1bc 9490 583d 7423 2ebe 783e 5e3c
000003a0: eded 5dbd cdb1 c63e 6598 66be c1a3 5c3e
000003b0: e871 d93d cb40 59bc 1c4f d6bd 37ae 11bf
000003c0: 9e3f 2fbd eb7d 9cbe f66a 9dbe a0e9 08be
000003d0: 5f47 183e 4804 d93d ddac 7dbc 5799 e4bc
000003e0: c144 dd3c d4e4 7b3d 3286 df3e 986b 113f
000003f0: 3f84 98be c307 963c 2f33 e93e 3636 083e
-0.12801689 0.107877485 -0.12069633 -0.044182718 -0.31778023 -0.13764445 -0.16939898 -0.43203878
-0.31143454 0.1141696 0.09696049 0.14051892 -0.16931695 0.47017193 -0.11272586 0.010311102
-0.40538183 -0.23056838 0.020109082 -0.22028877 -0.02532747 0.08401514 -0.017843992 -0.06543343
0.23662393 0.041509826 -0.12430827 0.06994133 0.083696134 -0.1580798 0.026386613 -0.11342765
-0.12942676 -0.18064752 0.11860457 -0.22150515 -0.13106458 -0.072038695 -0.0849523 -0.04593217
0.09431912 0.48907188 -0.24384849 -0.39442393 -0.016401216 0.39554396 -0.11454259 -0.052575707
-0.27675638 -0.15123588 -0.05776082 0.092020296 0.18095906 0.18888928 -0.45305282 -0.21060921
-0.49708638 0.2501947 -0.3203785 0.265937 0.04939654 -0.041585702 0.004647762 0.33841035
-0.050891895 -0.19722293 -0.36480874 0.25782496 0.06855411 0.007979058 0.027217254 0.5484148
0.16746786 -0.36990508 -0.2904762 0.15042487 -0.035538413 -0.09017183 -0.2658108 -0.1703217
0.15982074 0.059420075 0.35326102 0.25413978 -9.015411e-05 -0.24077365 0.23297445 0.19610502
0.19118074 -0.039384883 -0.4406623 0.0322365 -0.042528797 0.05707526 0.14695199 -0.15277395
-0.17850439 0.24234831 0.12571864 0.016481958 -0.18903667 0.066693254 -0.13445391 -0.09552076
-0.14026128 -0.211759 -0.48132813 -0.49084508 -0.108293235 -0.10113385 0.058015823 -0.104078814
0.057312414 0.39855313 0.28183877 -0.15539534 -0.05694766 -0.24608882 0.025961792 0.22680107
-0.19893216 0.19721594 0.09918172 0.34788102 -0.057751674 -0.04222139 -0.025700105 0.18376917
-0.09190412 -0.045047775 -0.13842282 -0.26110595 -0.07012324 0.3238114 -0.16842708 -0.13012078
0.44845238 -0.14503504 -0.42169806 -0.014982506 -0.35753548 -0.08104434 -0.35901925 -0.029162608
0.0930857 0.11583285 0.24742298 0.16814184 -0.054868106 0.2948776 -0.19544756 -0.04616029
0.2798464 0.3619642 0.20647652 -0.046416815 0.0023758349 0.17838006 -0.2324431 0.20683907
0.11600508 -0.08698362 0.104321316 0.14373443 -0.23190366 -0.12773024 -0.1112478 -0.20654145
0.22744893 0.17177698 -0.09467985 0.093284495 -0.52899075 -0.08222446 -0.29871666 -0.10559092
0.041098524 0.008446294 -0.25128037 -0.02600555 -0.16226487 -0.06939917 0.3681426 -0.04705141
-0.40412137 -0.16571853 0.18941227 -0.3920256 -0.22507983 -0.32558846 -0.034471624 -0.19349293
0.3313408 -0.2206344 0.10167979 0.014821541 -0.16276556 -0.021355286 -0.1516558 -0.12217569
-0.0069132005 0.37145993 0.03814233 -0.27420416 -0.0032080947 0.15149103 0.3257427 -0.14185716
0.019374413 -0.02844829 0.032588508 0.33361262 -0.15669583 0.08204141 0.043162208 0.27737823
-0.22477105 -0.43176076 0.116418846 -0.34414566 0.12354961 -0.20775048 -0.25958118 -0.0012429088
-0.015118795 0.26863423 -0.0435468 -0.15376447 -0.02365719 0.052872255 -0.17005712 0.013564698
-0.05418198 0.38807526 -0.22519071 0.21546842 0.10617429 -0.013260077 -0.10464308 -0.56906456
-0.04278528 -0.30564818 -0.30745667 -0.13370371 0.14870976 0.1059652 -0.015483108 -0.02790515
0.027010323 0.061497524 0.4365707 0.568048 -0.29788396 0.018314248 0.45546862 0.1330193

actor.2.bias f4 [4]
00000000: 1e1c 98bd 641b 803d ff08 573d c053 8dbd
-0.07427238 0.06255224 0.052498814 -0.0690074

critic.0.weight f4 [64, 2]
00000000: 614a 3abe 0768 003f f9ae a3be ec48 983d
00000010: 76ac 9f3d 22a5 fc3d 60d5 a63e 8f87 e7bb
00000020: 7b3f cc3c 878f 50bc 2aea 533e 1efe 8e3d
00000030: a69c 2ebe 19b8 a3be 8f45 b9be fe44 bf3e
00000040: 04e9 aa3c 0fd8 bfbd 626b f5bd 7644 313e
00000050: 1fe5 27be 472f 3cbe 431f 8c3c 167a e63d
00000060: e05a 3f3e 5233 043b 038e c7bd 66ba 96be
00000070: f5a8 e53d 606b 0dbe 6211 48bd f0f7 4abe
00000080: a1f8 bebd b8ec 373d dcd9 8abe 3dab e7bd
00000090: b8a3 5bbe 26a8 9fbe 36f3 4dbe 8b33 8bbe
000000a0: c48f febc 7c41 08bd 912e 59be 883a 563e
000000b0: c058 163f e387 ff3d 77fe babe 74a5 663e
000000c0: 2b87 8d3c 16f9 0abe bb14 b03e f651 3abe
000000d0: b425 c6be f13f 4ebc 4a80 d3bd 73fe 13bd
000000e0: 3e60 e0bd 344b c7be 0108 543e c620 123e
000000f0: 5b3d b6bc 8e5c 813c ef25 303b d57a dcbd
00000100: d71a a4be 9217 a83b 7e98 5cbe e404 9a3e
00000110: 1933 aabe bb9e 35bf 23af 553e ed4a 0d3e
00000120: 2232 55be 852b 87be 1a3a cebd d8fb 563d
00000130: a003 0abe 05c7 153e 69fc 39be ca13 e73c
00000140: ef00 89be f82a 59be 2a36 bdbc 00a2 3b3d
00000150: eb7e c43d cf83 cbbd 3c28 a83e e103 05be
00000160: 2971 49bd 6502 fc3e 6ddc 773d 48ad c0be
00000170: 1afb 00be ea63 ae3d ff16 1ebe 51ff a93e
00000180: a19e 71bc 5fb0 72be fc05 e4bc a18c 3f3e
00000190: 5e8b f83e 0900 18bc 7717 02be 7481 743e
000001a0: 49db d43d 30a2 813d 86b5 c43d a1f7 9dbe
000001b0: 03f1 54bd 2c92 07bd 4015 903e 4b1f 963e
000001c0: ba56 13be 890a 783d 68a7 583e b25a 1f3e
000001d0: 11ea d2be 7040 aabd 2cc0 883d e96a b73d
000001e0: cb44 06bd 750d 8ebe 8bef 7ebd f525 d23e
000001f0: a0a3 ba3c b7de bc3d 0e64 fe3d 6814 93bc
-0.18192436 0.50158733 -0.3196943 0.07435784 0.07796566 0.12336184 0.32584667 -0.0070657204
0.024932614 -0.012729532 0.20694795 0.06982063 -0.17051944 -0.31976393 -0.36185881 0.37357324
0.020863064 -0.09367382 -0.11983372 0.17311272 -0.16395997 -0.1837741 0.01710475 0.11253755
0.1868701 0.002017219 -0.097438835 -0.29439086 0.112138666 -0.13810492 -0.048844703 -0.19821143
-0.09324766 0.044903487 -0.2711934 -0.11311958 -0.21449172 -0.31182975 -0.20112309 -0.27187762
-0.031074412 -0.033265576 -0.2120917 0.20920765 0.5872917 0.1247709 -0.36522266 0.22524053
0.017276367 -0.13571581 0.34390816 -0.18195328 -0.3870064 -0.012588487 -0.103272036 -0.036131334
-0.10955857 -0.38924563 0.20706178 0.14270315 -0.022246053 0.015791204 0.002687808 -0.10765616
-0.32051727 0.005129763 -0.21542546 0.30081856 -0.3324211 -0.7094533 0.2086759 0.13798113
-0.20819905 -0.2640039 -0.10069676 0.05248627 -0.13477945 0.14626701 -0.18162693 0.028207678
-0.26758525 -0.21207798 -0.023097117 0.045808792 0.0959452 -0.0993725 0.32843196 -0.12989761
-0.049180184 0.49220577 0.06051295 -0.37632203 -0.12595788 0.08515151 -0.1543846 0.33202603
-0.014747293 -0.23700093 -0.027834885 0.1870599 0.4854383 -0.009277352 -0.12704264 0.23877507
0.10393388 0.06329763 0.09604935 -0.30852988 -0.05198766 -0.033098385 0.28141212 0.2932075
-0.14388552 0.060556922 0.2115761 0.15561941 -0.41194203 -0.08313072 0.06677279 0.08955938
-0.03278045 -0.27744642 -0.062240165 0.41044584 0.0227831 0.09222167 0.12421428 -0.017954066

critic.0.bias f4 [64]
00000000: cafb bf3d 7d45 d8bd 8b63 5b3d 57ea a5bd
00000010: 8e57 6e3d 3c89 60bd e24f c6bd f08b b63d
00000020: 4547 89bd f4d1 943d f209 d4bd 03a0 893d
00000030: b5b2 903d d608 923d e79d 8bbd d669 92bd
00000040: 3268 85bd 19e6 c6bd e512 adbd f712 a1bd
00000050: 21ac 803d 4533 9dbd 124a b13d 8b61 843d
00000060: c162 89bd c9d0 a2bd ce2f a7bd 2dda 8d3d
00000070: 0302 8dbd 029f a9bd 197e 753d fc7c 843d
00000080: c5d8 98bd f82c 76bd 2502 d2bd 099e b2bd
00000090: a060 7b3d 4064 85bd 69e8 8cbd d25a 92bd
000000a0: ecd0 813d 36a1 3dbc 6fdb 833d 3ddd b63d
000000b0: 18d4 863d 5b5f 9abd 6d1a 913d 8b43 a73d
000000c0: 981d 653d d5f3 883d 12e6 bb3d 1802 a43d
000000d0: a9ea 97bd c9c6 c13c 299f 893d 764a af3d
000000e0: 502b 8a3d 8e40 64bd 0e2a b2bd a6bb 863d
000000f0: a6f7 91bd bf62 a53d f219 853d df1b 41bd
0.09374197 -0.10560129 0.05356173 -0.081013374 0.058188967 -0.054818377 -0.09683205 0.0891341
-0.06703047 0.07266608 -0.103534594 0.06719973 0.07065336 0.071305916 -0.06817227 -0.07149093
-0.06514014 -0.097118564 -0.084508695 -0.078649454 0.06282831 -0.076757945 0.08656706 0.06463917
-0.06708289 -0.07949979 -0.08163415 0.06926379 -0.06885149 -0.082822815 0.05993471 0.064691514
-0.074632205 -0.06010148 -0.10254315 -0.08721549 0.061371446 -0.06513262 -0.06880266 -0.07146229
0.06338677 -0.01157408 0.06438338 0.089289166 0.065834224 -0.07537719 0.070851184 0.0816718
0.055936426 0.06687132 0.09174742 0.08008212 -0.07417805 0.023654358 0.067198105 0.08559124
0.067465425 -0.055725627 -0.086994275 0.0657876 -0.07127313 0.08075475 0.06499089 -0.04714572

critic.2.weight f4 [1, 64]
00000000: 0ff7 46be 406d fc3c 188c f1bc f3d1 353e
00000010: ab5e 29be 9447 283c 33e5 a13d cd62 8abe
00000020: 86b6 3f3e 2e02 adbe de90 853d bea5 80be
00000030: eb13 86be 0c53 41be 526c f23c a8f0 1c3e
00000040: dfcc 0d3e 3afd 9a3d 1d24 283e a719 a13e
00000050: d976 2cbe 2fb0 5d3e 0505 9ebe 4246 88bc
00000060: b926 b23e da55 163e 43fc 343e a348 c8bd
00000070: a48e c43e 2650 fd3d 6389 31be 4420 c3be
00000080: ea41 083f 3dab fb3c 646d c43d cf19 8e3e
00000090: c59b 85bc 5508 723e 1319 943e 09b4 773e
000000a0: 5815 6dbc e08e d4bb cbd1 9cbe 02eb d8bd
000000b0: 50a7 d4be 743b 7c3e fb00 c3be 0862 f1be
000000c0: 4b9e 9abd 6b4f e9be 2aa1 d1bd 4b16 3abe
000000d0: eaf5 303e 6a7d 793c 734a 88be 34c7 76be
000000e0: c8da a7bd f9c0 0e3c af2a 113e 0ef7 5ebe
000000f0: 1a50 2d3d 5814 3dbe 3c85 9fbe 0981 3b3c
-0.19430183 0.030813813 -0.029485747 0.1775587 -0.16540019 0.010270972 0.079050444 -0.27028504
0.18721971 -0.33790725 0.06521772 -0.2512645 -0.2618707 -0.18879336 0.029592667 0.15326178
0.13847683 0.075678304 0.16420026 0.31464884 -0.16842212 0.2164924 -0.30863205 -0.016635064
0.34795168 0.14681187 0.17674355 -0.09779479 0.38390076 0.12368803 -0.17337565 -0.38110554
0.53225577 0.030721301 0.09591177 0.27754065 -0.016309628 0.23635991 0.2892538 0.24189772
-0.014470421 -0.0064867586 -0.3062881 -0.10591699 -0.415339 0.24632055 -0.38086686 -0.47145104
-0.07549723 -0.45568404 -0.10235818 -0.18172567 0.17281309 0.015227655 -0.266193 -0.24099427
-0.08196026 0.008713 0.14176439 -0.21773931 0.04231272 -0.18464792 -0.31156337 0.011444339

exp_avg f4 [64, 2]
00000000: 5627 053b 539f 073a 9f7a b6b9 da68 d23a
00000010: 40e4 aa3a c0ff 4e3b 18d5 cb3b c677 cc3b
00000020: 9957 67ba 17c9 05bb d6e0 d5bb 8d6d f4bb
00000030: 6cfb d1b9 e4dc d9ba b2a5 403b 5ac9 67bb
00000040: 5675 bbbb 55a7 eebb 1426 333b b592 9e3b
00000050: 6b3f 7f3b 7a40 ab3b daeb caba e41b 76ba
00000060: 8a6f c73a 4578 2fba 7e64 d23a 4f00 833b
00000070: 39c7 7b3b 90d4 4e3b cf70 44ba cbdc 6b3a
00000080: 413c adba 8e82 8bbb 2ee7 57ba f5ed ecba
00000090: d270 9bba 5363 16bb f527 aa39 ea86 0dbb
000000a0: a354 d0b9 a9bb ddb9 bbf1 ccba d96c 1b3a
000000b0: 7691 7c3a cc9e 09bb 96dc 053b eded 0c3a
000000c0: cab9 3fbb 0f1f 94ba dedb 21bb 4be0 9239
000000d0: f943 06bb 7cef 8e3a 0e68 a3ba c757 03ba
000000e0: 3df1 543a 4dff 8e3a c9c5 4ebb f2a5 54bb
000000f0: 0b51 473b 8232 563b 399f 04ba fd7f 8e3a
00000100: c2ca 74ba 09ac 91ba 35a1 533b 9075 54b9
00000110: 52eb 1eba a1ed 03ba 964c 9cba 077d 81ba
00000120: 6327 733a 5e85 233a 98ef d5b7 36f4 b6ba
00000130: d6bc 93b9 793b 2139 6663 9a3a 6a6a 0c3a
00000140: 85e9 acba ca24 b836 46b4 9a3a 26e9 9c3b
00000150: e1ce 6739 efbc 0f3b d3b7 e03a 21d7 533b
00000160: 44eb 6f3b 1e12 643b fa18 3b3a 1535 1f3b
00000170: 7f60 f93a 1ade d53a f36d 19bb 5229 78ba
00000180: 6f70 53ba 9fea 20bb 3113 13bb 1ee1 83bb
00000190: d6c7 523b 77f6 7f3a d323 69b9 2628 ca3a
000001a0: 24a4 b23a a40d 9b3a f001 0a3a c58f 243b
000001b0: ed85 e3ba 423c 0fbb 31d0 31ba 3f06 22bb
000001c0: 4b7d e23a d4e1 9dba 4a86 573a c6b8 47b9
000001d0: 0931 8438 b7db 46bb 466a 973b d343 b038
000001e0: ce70 ae3a cd77 ff3a 13b4 e63a 7538 973a
000001f0: 2876 0a3b 87a4 b43a 943d 8a3b dce8 b13b
0.0020317635 0.00051735825 -0.00034805105 0.0016052977 0.0013037995 0.0031585544 0.006220471 0.006239864
-0.0008825004 -0.0020414048 -0.0065270467 -0.0074593485 -0.0004005091 -0.0016621617 0.0029395637 -0.0035367818
-0.0057207746 -0.007283131 0.0027335929 0.004839266 0.0038947712 0.005226192 -0.0015481666 -0.00093883113
0.0015215736 -0.0006693642 0.0016051678 0.0039978395 0.0038418307 0.0031559803 -0.00074936164 0.0008997439
-0.001321681 -0.0042575067 -0.00082360476 -0.0018076288 -0.0011859185 -0.0022947385 0.00032454697 -0.0021595308
-0.0003973591 -0.00042292222 -0.0015636006 0.00059290003 0.00096347125 -0.0020999191 0.002042567 0.000537603
-0.0029255026 -0.001130076 -0.0024697701 0.000280144 -0.0020487292 0.0010905112 -0.0012466924 -0.0005010333
0.00081231055 0.0010909826 -0.0031550995 -0.0032447544 0.0030413296 0.0032683914 -0.00050591264 0.0010871884
-0.00093380746 -0.0011113893 0.0032292132 -0.00020261691 -0.0006062287 -0.0005032663 -0.001192468 -0.000987918
0.00092755834 0.000623783 -2.5503148e-05 -0.0013958279 -0.0002817872 0.00015376312 0.0011778891 0.0005356433
-0.0013192153 5.48791e-06 0.0011802993 0.0047885356 0.00022106945 0.0021932682 0.0017144628 0.0032324272
0.0036608735 0.0034800838 0.00071372057 0.0024293114 0.001902595 0.0016316802 -0.0023411482 -0.00094666064
-0.0008065765 -0.0024553908 -0.002244186 -0.004024639 0.0032162569 0.0009764204 -0.00022233957 0.0015423342
0.001362924 0.0011829627 0.0005264571 0.0025110107 -0.0017358639 -0.0021855985 -0.0006783037 -0.0024722961
0.0017279772 -0.0012045451 0.000822161 -0.00019046952 6.303384e-05 -0.0030343363 0.004620823 8.404967e-05
0.0013308765 0.001949066 0.0017601274 0.0011537211 0.0021127556 0.0013781943 0.0042187665 0.0054293703

exp_avg_sq f4 [64, 2]
00000000: 96e1 9437 ad21 d936 90d8 f438 39e2 ad38
00000010: d4a2 8f36 20e6 a637 9b54 983a d2f0 ce3a
00000020: f9d0 d437 c77d aa36 2852 b439 6c3a 113a
00000030: bb1d e336 e040 6336 31af 743a e352 503a
00000040: 0875 2f3a 504d 733a 0223 9138 88ad b638
00000050: c391 c739 d0a6 e339 661e 0239 91db bf38
00000060: 5ed4 a537 fcca a938 fae7 3638 461c 4b38
00000070: 4528 0139 7127 2d39 2383 8c37 838c b236
00000080: f324 bf39 6e08 3639 e940 2337 280d 4137
00000090: dc50 1039 ee8e fc38 0880 5b38 81b4 2d37
000000a0: ba82 c336 3b53 0236 1bee b83a 964d aa3a
000000b0: 0c50 df37 7c61 3c38 dddb d539 8dae f239
000000c0: ad75 1738 f7e4 b937 fa70 db37 37d0 7238
000000d0: 678a cd38 b80d 8d39 a0cf 0738 25d7 9d37
000000e0: 2423 6f38 df83 8138 57ae ce38 ea79 1839
000000f0: 7f17 373a 83cd 703a 8429 6e37 492f 8737
00000100: 9f14 153a fa49 233a 0e78 bc38 7235 4b39
00000110: ea8f 3f35 592f ac35 71b4 b736 8e73 2036
00000120: f26d 4336 0e28 fc35 3f65 8835 b51f ff36
00000130: 1d97 0c36 cef6 bc34 080f 9b37 f1bf 4836
00000140: 6ddf 4f3a 441b 513a b0fb bf39 e286 be38
00000150: 786a af37 f885 1737 98fc dd37 ebfc 0338
00000160: 8fc4 a83a fc0e cc3a 5e57 da38 348d 0538
00000170: 158d 893a 2a5c a13a 2e0c 2a38 973d e637
00000180: 2f24 1e38 0ec5 8b37 ab16 883a f11c 443a
00000190: 9864 393a 27aa 363a d5e9 2a37 f8ee a136
000001a0: f851 2c37 2393 7e36 2a3d 9e39 ea6f 7739
000001b0: 2ea9 9f38 3fab 3f38 a593 5b37 16ec c436
000001c0: c6b9 8b37 61f1 2a38 991a 7339 9253 2139
000001d0: d28e 4c39 4dd0 4a39 d7dd 0d39 973e 8139
000001e0: 78d0 8538 4679 e438 0217 ca39 f7f8 b639
000001f0: 38b7 5b37 b696 dc37 48f6 813a c8dc a93a
1.7748021e-05 6.4710243e-06 0.000116751646 8.29142e-05 4.280688e-06 1.9895902e-05 0.0011621894 0.0015788323
2.536968e-05 5.081037e-06 0.00034393487 0.00055400166 6.7685883e-06 3.3863398e-06 0.0009333967 0.00079469214
0.0006693159 0.0009281235 6.9206595e-05 8.710759e-05 0.0003806484 0.000434211 0.0001240909 9.148487e-05
1.9768424e-05 8.096357e-05 4.3608226e-05 4.8425303e-05 0.000123174 0.00016513259 1.6750366e-05 5.321171e-06
0.00036457888 0.00017360013 9.73067e-06 1.150676e-05 0.00013763033 0.00012042919 5.2332907e-05 1.035363e-05
5.8266714e-06 1.9419956e-06 0.0014109047 0.0012993093 2.6620946e-05 4.4913482e-05 0.00040790337 0.00046287887
3.61108e-05 2.2160339e-05 2.6159443e-05 5.789121e-05 9.800941e-05 0.00026903837 3.2379874e-05 1.8816043e-05
5.7014768e-05 6.175762e-05 9.855319e-05 0.00014541266 0.0006984397 0.0009185897 1.4195572e-05 1.6115273e-05
0.00056869717 0.000622898 8.9869005e-05 0.00019379499 7.136247e-07 1.2828779e-06 5.474831e-06 2.390912e-06
2.912126e-06 1.878712e-06 1.0162256e-06 7.6032834e-06 2.0949585e-06 3.5197303e-07 1.848444e-05 2.9914047e-06
0.00079297164 0.000797678 0.0003661788 9.08503e-05 2.0911204e-05 9.031493e-06 2.6462876e-05 3.1468382e-05
0.0012875962 0.001556843 0.000104113235 3.1841177e-05 0.0010494316 0.0012310792 4.05425e-05 2.7446817e-05
3.7703834e-05 1.6661852e-05 0.0010382732 0.0007481119 0.00070721796 0.00069681037 1.0187233e-05 4.8259935e-06
1.0271084e-05 3.7934594e-06 0.0003018168 0.00023597447 7.613223e-05 4.5697434e-05 1.3087793e-05 5.868739e-06
1.6656599e-05 4.075596e-05 0.00023184194 0.00015385289 0.00019508161 0.0001934182 0.0001352945 0.0002465143
6.3807645e-05 0.00010894476 0.00038545585 0.00034899238 1.3096076e-05 2.6296224e-05 0.0009915316 0.0012959475

exp_avg f4 [64]
00000000: fe7e 2a3b b5b1 bb3a 1d0d 8a3b 8bbc 07ba
00000010: 4eb1 79bb 1734 8abb 98ec fcba 9b9d 21bc
00000020: 28fd 02bc da66 103c bfc5 ef3b d487 1abb
00000030: 33d0 2c3a 3498 df3b f0b9 c73b 3273 853a
00000040: 0c19 c5bb d688 66bb f65e a1bb e1f6 39bb
00000050: 8831 93ba e635 e73a ccfb c5ba a122 8838
00000060: 0eec 64bb 1086 88bb 51fd 683b 4fea 0abb
00000070: 1f06 0f3b 5ecf a1bb f3e5 b3ba 0c08 d3b9
00000080: 819f d5b9 5596 d8ba dbcf 99ba 66fd 69bb
00000090: ce24 043b aa0d 0fba c55b 7935 dc45 fc3a
000000a0: 4949 6d39 ee67 093c 2263 e23a 1b1c 413b
000000b0: c1a9 b93b 8cac 953b 8c32 47b9 1366 55bb
000000c0: aca2 7bbb 15fd 03bc dad2 83bb 8186 d93a
000000d0: ebcd 7c3b 6fae b63b eb55 cebb 9cc4 6dbb
000000e0: 0332 3b38 8283 d83a e595 faba 1007 a53b
000000f0: f7c5 9739 cdc0 213b c322 803b 86b9 853b
0.0026015635 0.0014319929 0.004212989 -0.00051779364 -0.0038100067 -0.0042176354 -0.0019296585 -0.009864236
-0.0079949275 0.008813584 0.0073172743 -0.0023579495 0.00065923034 0.006823564 0.0060951635 0.0010181426
-0.0060149487 -0.0035176775 -0.0049246503 -0.002837591 -0.0011229971 0.0017639964 -0.0015104949 6.4914355e-05
-0.0034930739 -0.004166372 0.003555138 -0.0021196788 0.0021823717 -0.00493805 -0.0013725146 -0.00040251052
-0.00040745366 -0.0016524295 -0.0011734919 -0.0035704016 0.002016354 -0.0005457053 9.289327e-07 0.0019246894
0.00022629382 0.008386595 0.0017271976 0.0029466215 0.005665988 0.0045676883 -0.00018996949 -0.0032562062
-0.003839652 -0.008055945 -0.004022938 0.0016595871 0.0038574885 0.0055749933 -0.0062968633 -0.0036280518
4.463085e-05 0.0016518685 -0.0019118158 0.0050362423 0.0002894846 0.0024681569 0.003910394 0.004080954

exp_avg_sq f4 [64]
00000000: f64d 0338 5c67 9837 644b e237 b507 7138
00000010: ef00 c937 e11b 5b38 32c9 f736 be53 7039
00000020: c776 0f39 0e6e fb38 2ca3 bb38 6668 f737
00000030: da8f a137 12d2 9638 ba24 be38 00aa f636
00000040: ac04 b338 7d7c a137 c765 4638 9e64 1538
00000050: 7039 4c36 aa30 9d38 3219 e537 a6a2 d937
00000060: 8886 1d38 a773 9d38 495d 8f38 45d6 bc37
00000070: eaf0 1637 2ad4 2638 a61d 3438 5980 9c37
00000080: ea59 c337 63e3 1f38 c75e 5436 cfb0 a037
00000090: 1492 2537 a1e1 bb36 0b3b 7e35 6e6f 3337
000000a0: 8fcc 1338 527b 0f39 2899 a437 f820 9938
000000b0: 331b e238 2e36 5538 af19 2e38 527f 2138
000000c0: 6271 0338 2b5c 2139 0da4 bd38 3f24 0d37
000000d0: 962b ba37 aabf 6338 6bb2 c738 5c4a d537
000000e0: 76e3 f637 c04f de37 b52e 7f38 4de3 1639
000000f0: 06a4 8737 f5aa 0438 ff67 2538 fe95 9c38
3.130544e-05 1.8167942e-05 2.6976406e-05 5.7466055e-05 2.3961502e-05 5.2239633e-05 7.384596e-06 0.0002291938
0.00013681791 0.00011989112 8.947248e-05 2.9493309e-05 1.9259682e-05 7.191686e-05 9.066747e-05 7.351162e-06
8.536255e-05 1.9250665e-05 4.7301666e-05 3.5618075e-05 3.0431802e-06 7.495408e-05 2.731066e-05 2.5944155e-05
3.755701e-05 7.507885e-05 6.836147e-05 2.2511123e-05 8.996789e-06 3.9775077e-05 4.2942956e-05 1.8656416e-05
2.3287681e-05 3.8120324e-05 3.164563e-06 1.915582e-05 9.868778e-06 5.599301e-06 9.470829e-07 1.0695176e-05
3.523804e-05 0.00013683483 1.9621642e-05 7.3017494e-05 0.00010781586 5.0833616e-05 4.1508752e-05 3.8503968e-05
3.133843e-05 0.00015388492 9.042779e-05 8.412694e-06 2.2193224e-05 5.429952e-05 9.5222924e-05 2.5426205e-05
2.9431405e-05 2.6501599e-05 6.0840237e-05 0.00014389791 1.6169633e-05 3.163047e-05 3.943592e-05 7.466598e-05

exp_avg f4 [4, 64]
00000000: 73e8 f83a cee2 23bb 6190 c8ba 2b0e 96ba
00000010: 4956 633b 3781 ce3a a40f 283b 6b15 ad3a
00000020: f47c 823a 121e d4ba 0ee8 90ba e478 58ba
00000030: 69d8 61ba c771 e3ba d8f6 2dbb 8602 783a
00000040: 2b3e 003a 033e 013b 7a76 733a 605b 2e3b
00000050: 6b00 003b ca73 adba 657a 35ba 7016 d2b9
00000060: 8f4e 093b 6537 fc3a 82fc 1fba a254 0c3b
00000070: ac08 adba d4e2 b73a 87f2 a4b8 5840 ca3a
00000080: 97ab 613a 15cf 8238 91cf c73a c67b 7f3b
00000090: f85c f23a 0348 54ba 7856 fbba 4322 013b
000000a0: 1bfc 3b3a 8d2e 23bb cb0e 2abb 0149 0dbb
000000b0: 11ad c5ba df5e 43bb d608 543a 3cdb c03a
000000c0: 51e7 3cb9 8023 4db8 f733 4eb8 4c36 f6ba
000000d0: 5aa8 69bb c1c4 adba 279b 213b 42ef 5b3b
000000e0: b9f1 34ba d753 2abb 458a 953a 18a1 dcba
000000f0: 8ebd 15b9 349a 443a 3380 d2ba e073 74ba
00000100: 044d 8bba acdb 103b bac3 ac39 dec6 3c3a
00000110: e178 53bb 8b87 e3ba dad8 edba 190f b8b9
00000120: 1412 bbb9 6580 6e39 a850 653a 9ff9 8039
00000130: 25e7 48ba 3fb6 cc39 782c c83a 1f94 9039
00000140: 21ca 3bba dba9 4fba b8c9 90ba f6aa 01bb
00000150: e000 84ba 27d9 5f3a b10b 62ba 53c7 5f39
00000160: 22b0 b2ba a760 62ba e534 83ba f0f7 d5ba
00000170: d62e 8d3a f745 13ba 4c5a 7a39 7d41 c4b9
00000180: 63e6 fab9 7572 d0ba 0c03 8cb9 9fbc 87bb
00000190: e9d4 a9ba 1ffb afb9 0301 883a eda1 9fba
000001a0: a212 86b9 923f d73a f183 003b b259 b73a
000001b0: 0470 943a 5a61 223b 9bd8 f0b9 dbae 14ba
000001c0: c291 8aba a0e8 fdb9 04a5 3dba a304 413a
000001d0: fb88 623b b9ce 5f3a 13e0 d2ba a657 52bb
000001e0: f574 7aba 8e63 1f3b 4f29 46ba ed26 e539
000001f0: 0a5c 83ba 9a24 43b9 0a1f 8539 8eac 6f3a
00000200: b579 dbba 33fb 0c3a 08a5 8d3b c6ad 01ba
00000210: 3f43 33bb 5792 d239 d78d 41bb 939d 17bb
00000220: 76e0 faba 9f8c 663b 4254 9f3a 57f8 3738
00000230: ee0c 5b3b 79bd 6e3b ac07 433a bca9 d2ba
00000240: 9d1b e3b9 14c0 69bb c3e4 85b9 5500 26bb
00000250: 08c7 09bb 3e37 563a 226b 2d3b 8c6f afb5
00000260: 1b23 daba e653 5ebb 216b 4e3b 6795 90ba
00000270: 9801 3a3a ebb1 13bb 627a 4cba b3ba 2fbb
00000280: 3e61 b0b9 849d 1e3b 8061 6fbb d0b6 48bb
00000290: 9810 0cbb db68 7e3b 8335 cd3a f116 92ba
000002a0: 16cb 8db9 34b9 1d3b 461f 2e3b b327 4f3b
000002b0: b482 5b3a 3730 db3a 3f71 d0b8 b6c7 fbba
000002c0: 49c4 a63a 1178 68b9 b8ff 373a 104c 3a3b
000002d0: 2692 3a3b 8c98 c93a c2a7 40bb b7d2 48bb
000002e0: 9f51 4b3b b53d 3a39 692a a2b9 6d5d 403b
000002f0: fc8e 073b 7049 27b9 2ca3 633b 4bf3 8839
00000300: dbbc 5b3a 98bd 81b9 579a 4cbb 4d03 713a
00000310: d665 233b 69f2 7cb9 986a 103b 8229 b03a
00000320: 0228 a73a a165 0bbb 9714 81ba 757c 0c3a
00000330: 12ba e0ba 5f9b 16bb 56f5 c839 cd0d ca39
00000340: ca19 2d3a 8c6c 1c3b 9d1e e239 b19f f23a
00000350: 1f8e 973a 8d51 b6b9 3213 8fba 6dc4 4539
00000360: 2b6c 743a 63d0 183b 19a3 c9ba 54c8 1b3a
00000370: c39b f4b9 ff23 b93a 2282 223a 6b45 c63a
00000380: fc7c 40b8 27eb 69ba 17fa 1c3b 40b4 583b
00000390: 3a99 cf3a 7557 33bb fcbf 33ba acd1 bd39
000003a0: ed34 48b9 e654 ccba 6d94 04bb 828b 1dbb
000003b0: 3711 f2b9 4f35 99ba be1c 83b9 e343 853a
000003c0: bbb6 12b8 8be4 453a fb43 9438 20e4 deba
000003d0: bf72 33bb 37bb 8bba a17c 083b 143b 3f3b
000003e0: eaef beba a690 33b7 92b0 9eb8 7963 ddba
000003f0: 6c14 72ba 85fd d3b9 f306 0bbb fac8 7eb9
0.0018990174 -0.0025007012 -0.0015301817 -0.0011448314 0.003468888 0.0015755062 0.0025644088 0.0013205236
0.0009955452 -0.0016183278 -0.0011055486 -0.000825776 -0.00086153165 -0.0017352634 -0.0026544835 0.0009460825
0.0004892076 0.00197208 0.0009287369 0.0026604757 0.00195315 -0.001323336 -0.000692284 -0.00040071039
0.0020951366 0.0019242583 -0.0006102995 0.002141275 -0.0013201437 0.0014029392 -7.8653036e-05 0.0015430553
0.0008608638 6.237455e-05 0.0015244355 0.0038983687 0.0018490842 -0.0008097889 -0.001917555 0.001970426
0.00071710505 -0.0024899573 -0.0025948759 -0.0021558406 -0.0015081485 -0.0029811186 0.0008088475 0.0014713774
-0.00018015249 -4.890887e-05 -4.9162623e-05 -0.0018784492 -0.0035653324 -0.001325749 0.0024659128 0.0033559357
-0.00069024746 -0.0025989914 0.0011409005 -0.0016832678 -0.00014280362 0.00074997847 -0.0016059935 -0.0009325128
-0.0010627811 0.002210359 0.00032952224 0.00072012644 -0.0032268094 -0.001735912 -0.0018146292 -0.00035106463
-0.0003568089 0.0002274528 0.00087476755 0.00024600045 -0.0007663838 0.00039045696 0.0015272042 0.0002757618
-0.00071636034 -0.0007921734 -0.0011046445 -0.0019785739 -0.0010071062 0.0008539133 -0.0008622958 0.00021341191
-0.0013632814 -0.0008635618 -0.0010010271 -0.0016324501 0.0010771404 -0.00056180306 0.00023875496 -0.00037432826
-0.00047855367 -0.0015903251 -0.0002670515 -0.0041423584 -0.0012957129 -0.000335657 0.0010376278 -0.0012178995
-0.00025572354 0.0016422144 0.0019609893 0.0013988523 0.0011324887 0.0024777264 -0.0004593775 -0.00056718074
-0.0010572004 -0.0004842924 -0.0007234367 0.00073630566 0.003456651 0.0008537579 -0.0016088508 -0.00320957
-0.0009554171 0.0024320814 -0.0007559256 0.00043707286 -0.0010021937 -0.00018610284 0.00025390863 0.0009142839
-0.0016744646 0.0005378008 0.004322652 -0.0004946854 -0.0027353314 0.00040163353 -0.0029534006 -0.0023134693
-0.0019140381 0.0035179032 0.0012155848 4.3861884e-05 0.0033424455 0.0036428852 0.0007439803 -0.0016072313
-0.00043317387 -0.0035667466 -0.00025538178 -0.0025329788 -0.0021023173 0.0008171684 0.0026461561 -1.307098e-06
-0.0016642542 -0.003392452 0.003149696 -0.0011030853 0.00070955744 -0.0022536467 -0.0007800219 -0.0026814162
-0.00033641787 0.0024202773 -0.003652662 -0.0030626543 -0.0021372195 0.0038819823 0.0015656207 -0.0011145753
-0.00027044927 0.0024066688 0.0026568933 0.0031609356 0.00083736633 0.0016722743 -9.9393066e-05 -0.0019209299
0.0012723292 -0.00022169972 0.0007019001 0.0028426684 0.002846846 0.0015380546 -0.0029396866 -0.0030643174
0.0031023992 0.0001776133 -0.00030930646 0.002935256 0.002068459 -0.00015953719 0.003473471 0.0002612121
0.00083823287 -0.00024746056 -0.0031219923 0.0009193912 0.0024932525 -0.00024122898 0.002203619 0.0013440105
0.0012753012 -0.0021270292 -0.0009848055 0.0005359122 -0.0017145297 -0.0022980792 0.00038329762 0.00038538725
0.0006603269 0.002386841 0.00043128888 0.0018510727 0.0011562741 -0.00034774505 -0.0010915755 0.00018860558
0.00093239796 0.0023317568 -0.001538369 0.0005942632 -0.00046655358 0.0014125108 0.0006199201 0.0015126889
-4.5892768e-05 -0.0008923285 0.0023952776 0.0033066422 0.0015838512 -0.002736536 -0.0006856916 0.00036205107
-0.00019093203 -0.0015589267 -0.002023007 -0.0024039452 -0.00046170663 -0.0011688861 -0.00025007682 0.0010167327
-3.4979294e-05 0.0007549009 7.069852e-05 -0.0017005242 -0.0027381626 -0.0010660653 0.0020826238 0.00291795
-0.001456735 -1.070291e-05 -7.566916e-05 -0.0016890607 -0.00092346105 -0.00040433943 -0.002121386 -0.00024298197

exp_avg_sq f4 [4, 64]
00000000: f88e 2d38 b507 9937 e071 8b38 3fda b837
00000010: c820 5e38 4e66 e137 2a96 4938 18ea 8b37
00000020: 7a6b f936 ae80 1238 40c8 0936 881a 2d37
00000030: 843b 1c38 a8ec 2738 0780 f237 d4a9 f737
00000040: f162 b736 9256 3738 a27e 5f37 fbd1 2b38
00000050: 0a2c a537 c01c e736 ab62 1e38 b071 3c36
00000060: 5862 6737 2e40 5038 1f2a 1f38 7c47 6937
00000070: 1d05 d836 ac3c 1437 8525 4737 e70d 3038
00000080: 203e 9b36 6ab2 e037 2d62 5c38 34b0 9e38
00000090: 8932 8638 29a6 9338 08db e137 2fc3 0638
000000a0: 18ad 8436 c4c2 b337 bbfe 5238 4946 7b38
000000b0: cea5 e536 3595 bb37 a9be e236 a2e9 4437
000000c0: 32cb ef37 61b4 f736 d2d5 4337 a215 1838
000000d0: da79 7738 d31a 8636 d476 2a38 26df 8a38
000000e0: ca58 1e38 f035 b737 ca77 3b37 303c 0a38
000000f0: 1bd7 9737 4704 1937 d5a0 2738 57c5 3337
00000100: f71f 4339 5316 f438 584e 6739 9a88 b738
00000110: 374f 5739 ed4b ca38 07b0 4b39 c369 e038
00000120: f3a8 7a38 3feb 2d39 0658 8a37 5564 a538
00000130: 0baa 3339 f86c 3a39 cfb5 ec38 fef3 2639
00000140: fa37 c337 7f71 4239 2778 2d38 5f5b 4439
00000150: 91dc 1639 55cb 7238 892c 3439 1d48 0637
00000160: ba4c 0839 571a 4c39 d976 2b39 1014 fc38
00000170: cac5 8537 15d1 a538 8aff 3538 42dc 3f39
00000180: 1133 a337 e47d 0e39 4aa2 4f39 842a 7639
00000190: d770 6139 80e3 6b39 0d74 2f39 df1f 3b39
000001a0: 10b9 0b38 0048 2139 239d 4f39 a2dd 5a39
000001b0: 4df2 d437 a040 2c39 a162 f337 4642 db38
000001c0: b737 1639 181c 5e38 b3b4 a638 2c00 3639
000001d0: e663 5f39 0fef 3438 023d 4139 ec2e 6739
000001e0: 8dbd 3239 e748 1539 0e55 0538 ea04 2e39
000001f0: 3f97 d838 eafa 9238 4851 3a39 ee44 d837
00000200: 405a 5b39 1548 0a39 e5fa 6239 b862 8838
00000210: 7bdd 6d39 ab2c a138 697f 5e39 60d8 ec38
00000220: 951c 6838 7849 2e39 9ff3 8837 0c96 c138
00000230: 0ba4 3039 ef8c 3a39 d555 c338 e872 3c39
00000240: ce56 ed37 ba1a 4839 9047 2538 f8cb 5b39
00000250: 232d 2e39 e05e 9138 56b9 3d39 dee0 b236
00000260: 96bc 1e39 916e 5639 1a59 2939 f92f 1339
00000270: 51e7 5737 1b4c a738 2552 1538 9f7d 4f39
00000280: 61a3 9737 23f7 0439 96f2 5439 65d9 8139
00000290: 7b54 6f39 38d4 6b39 00b6 4b39 46a3 5839
000002a0: 6aef 1a38 ef20 3a39 6cbc 6339 b1ec 6739
000002b0: ac28 cd37 9280 4939 3cb6 e337 3801 f638
000002c0: 84a8 2739 7d90 8338 f81e b538 9c12 4739
000002d0: e14a 7339 ad26 4538 f60c 5439 5fc5 7639
000002e0: a3bc 3339 d73d 2b39 a951 c137 bb19 3a39
000002f0: a396 c338 04fc ad38 0cda 3e39 91f4 b037
00000300: 0cfd 9c37 51aa 5837 a656 e837 d054 2337
00000310: 4aed d737 f95f 0e37 0f13 ac37 7b56 d136
00000320: 24a7 4e36 52a7 4d37 9813 bb35 83fd 0437
00000330: e1cb 4337 d494 7037 c32c 8537 9b3d 4337
00000340: b67f 3736 d648 8837 d5e5 5336 1637 9e37
00000350: ea0c 2b37 8544 ad36 59d0 4637 fba5 6735
00000360: 19c7 1737 063d 9d37 46f2 4337 493d 2837
00000370: 8c04 2336 3269 7e36 eec0 3c36 16c8 7e37
00000380: 5513 0f36 881a f136 2e9b a237 2c7f 1638
00000390: 65a2 e137 e589 f737 227d 7437 e8bd 9837
000003a0: 4807 4436 1b8e 4e37 1209 b837 4563 ce37
000003b0: b033 4936 62b7 8237 f2f1 7d36 f9f9 b736
000003c0: 06b0 2637 9223 b536 458b 7736 3fc3 6e37
000003d0: 18d7 e937 7ba4 2636 b40e 8f37 e112 fe37
000003e0: 6e12 4137 2f1f 8637 8da4 7d36 f1a3 4437
000003f0: beb7 a336 1545 eb36 941b 6a37 7106 2036
4.1379564e-05 1.824261e-05 6.6492474e-05 2.2036138e-05 5.2959454e-05 2.686973e-05 4.8061986e-05 1.66791e-05
7.43329e-06 3.4928955e-05 2.0531152e-06 1.0317781e-05 3.7248727e-05 4.0036306e-05 2.8908265e-05 2.9523777e-05
5.4653433e-06 4.3711225e-05 1.332132e-05 4.0965137e-05 1.969004e-05 6.8876834e-06 3.7762027e-05 2.8080358e-06
1.379157e-05 4.9650836e-05 3.7947782e-05 1.3904526e-05 6.437897e-06 8.835614e-06 1.187006e-05 4.1974617e-05
4.6265923e-06 2.6785961e-05 5.254352e-05 7.5668475e-05 6.399031e-05 7.040456e-05 2.6924085e-05 3.212987e-05
3.9540573e-06 2.1429158e-05 5.0305138e-05 5.990852e-05 6.844034e-06 2.2361617e-05 6.7575206e-06 1.1736907e-05
2.858564e-05 7.3821725e-06 1.167269e-05 3.625977e-05 5.9002872e-05 3.996634e-06 4.0641826e-05 6.6219174e-05
3.7752827e-05 2.1840417e-05 1.1173959e-05 3.2957818e-05 1.8100769e-05 9.120507e-06 3.996569e-05 1.0715178e-05
0.00018608557 0.00011638985 0.00022059062 8.751564e-05 0.00020533508 9.646253e-05 0.00019425164 0.00010700852
5.976199e-05 0.00016586202 1.6491871e-05 7.8865014e-05 0.00017134116 0.00017778936 0.000112872214 0.00015921888
2.3271878e-05 0.00018543562 4.1358315e-05 0.00018726055 0.00014387282 5.7886664e-05 0.00017182728 8.003813e-06
0.00012998554 0.00019464768 0.00016352105 0.00012020033 1.5946938e-05 7.906758e-05 4.3391752e-05 0.00018297232
1.9454894e-05 0.00013589073 0.00019801516 0.00023476226 0.00021499708 0.00022496097 0.00016732533 0.00017845583
3.3312535e-05 0.00015380979 0.00019799596 0.00020872665 2.53852e-05 0.00016427273 2.9013785e-05 0.00010455078
0.0001432587 5.295509e-05 7.949155e-05 0.00017356937 0.00021304152 4.3137985e-05 0.00018428641 0.00022047356
0.00017046016 0.00014236906 3.1788884e-05 0.00016595764 0.000103278544 7.008559e-05 0.00017768622 2.5781304e-05
0.00020919088 0.00013187558 0.00021646505 6.503373e-05 0.00022684589 7.685398e-05 0.00021219034 0.0001129366
5.533973e-05 0.00016621302 1.6325908e-05 9.2309056e-05 0.00016845779 0.00017790844 9.314312e-05 0.00017971883
2.8293023e-05 0.00019083443 3.9405713e-05 0.00020961452 0.00016610748 6.931811e-05 0.00018093488 5.3309914e-06
0.00015138308 0.0002044982 0.00016150289 0.00014036884 1.2868856e-05 7.977356e-05 3.560087e-05 0.00019787856
1.8076682e-05 0.00012680567 0.00020308266 0.0002476677 0.00022824288 0.00022490404 0.00019427389 0.0002066019
3.6939433e-05 0.00017750611 0.000217186 0.00022118051 2.4456844e-05 0.0001921675 2.7145368e-05 0.00011730421
0.00015989138 6.27348e-05 8.636521e-05 0.00018985051 0.0002320218 4.700448e-05 0.00020222724 0.00023533915
0.00017141043 0.00016330868 2.3045419e-05 0.00017747928 9.326383e-05 8.2962244e-05 0.00018201041 2.109472e-05
1.8714483e-05 1.2914258e-05 2.7696904e-05 9.735304e-06 2.5740494e-05 8.486205e-06 2.0512873e-05 6.238753e-06
3.079368e-06 1.22579095e-05 1.3938288e-06 7.926838e-06 1.1670375e-05 1.43397665e-05 1.587568e-05 1.1637249e-05
2.7343463e-06 1.624638e-05 3.157523e-06 1.886072e-05 1.0195401e-05 5.1637785e-06 1.1850229e-05 8.629574e-07
9.046657e-06 1.8744275e-05 1.1679314e-05 1.0027849e-05 2.429154e-06 3.7910181e-06 2.8126483e-06 1.5186166e-05
2.1319913e-06 7.1854483e-06 1.9384166e-05 3.5881225e-05 2.6897711e-05 2.9508907e-05 1.4572668e-05 1.8208244e-05
2.9210514e-06 1.2311643e-05 2.1938733e-05 2.460334e-05 2.998142e-06 1.5582602e-05 3.7840769e-06 5.4829256e-06
9.935355e-06 5.3983613e-06 3.6886934e-06 1.4231365e-05 2.7875925e-05 2.4831668e-06 1.7053775e-05 3.028795e-05
1.1507987e-05 1.5988566e-05 3.779572e-06 1.1720681e-05 4.879169e-06 7.011588e-06 1.3953908e-05 2.3845607e-06

exp_avg f4 [4]
00000000: dcfc 1c3c 6cf5 22bc 21ef 00bc b2e7 063c
0.009581771 -0.009946208 -0.007869513 0.008233951

exp_avg_sq f4 [4]
00000000: 4efc 9639 7d6d 013a ef73 eb39 7aa1 6839
0.0002879821 0.00049372745 0.0004490907 0.00022185399

exp_avg f4 [64, 2]
00000000: 5a01 b7c0 06f3 94c0 a7a7 663f 924d a23f
00000010: d3ad 8cbf 4803 9fbf f639 a540 1584 e140
00000020: f39c 00c1 b3fa 12c1 174c af3e f6a6 da3e
00000030: 36ae 9a3f 3fd5 a73f d1c0 23c1 94e2 2ac1
00000040: 0188 0e41 561c 1d41 b9f0 7cc1 949a 86c1
00000050: 1a53 ba3f 2d7d db3f 2160 32c1 1f4a 44c1
00000060: 6ba6 1ac1 a1fa 41c1 97d7 96c0 9e2d a0c0
00000070: 8b89 b13f 8d42 c23f 9d29 a140 19c6 ac40
00000080: c7b3 cf40 9610 f340 d668 bc3f 7222 fd3f
00000090: 7bce 1140 51bf 2540 dbc3 a140 35ff ba40
000000a0: 53b2 05c1 8cf7 17c1 3140 1541 09ef 2d41
000000b0: 8421 1ac0 136a 92c0 7efe 29bf 5be0 53bf
000000c0: 2dd2 7c41 d137 8841 0112 bd40 8391 ee40
000000d0: 4312 5440 52ed a140 da60 92c0 b21a aac0
000000e0: 73c2 c740 7ef9 c340 4198 5740 727d 8440
000000f0: adc7 07c1 f43d 1ac1 8bc1 95c1 702d a6c1
00000100: c473 5241 767d 9541 d1bf ae3f 02c0 b73f
00000110: 167e 033f 52e9 da3e 73c2 f440 e7ba 1641
00000120: dca7 a1be bf50 bdbe 5dfd 3041 4ca8 4f41
00000130: 770a 5641 5d65 7541 1f1c 1b41 2545 4141
00000140: 03e5 89be 787e aebe 2c2e 9fbe 7679 b4be
00000150: 374e 68c1 ac87 85c1 ed22 65c0 12c4 9dc0
00000160: 87ad 0ac1 d645 e7c0 e018 e140 e471 cc40
00000170: 915b 91c1 652e a6c1 ca07 99c1 a7df 8ec1
00000180: 2493 33c0 d6fc 3bc0 9d35 9ac1 38e2 a0c1
00000190: 02da c0bf 8ca5 23c0 d47c 02c1 e610 03c1
000001a0: 2aeb f740 72c2 0f41 a769 193f 758f 153f
000001b0: bb71 52c1 d104 70c1 b381 37c0 bfd6 61c0
000001c0: 4dff 79c0 7724 92c0 8f75 663e 24e9 8d3e
000001d0: 4b21 fd3f 285c 4640 210e 11c1 06c7 24c1
000001e0: 8dff 943f 0e0b 973f 6651 9ac0 564f 88c0
000001f0: 5898 62c1 6f14 7cc1 6916 0c3f 8b78 243f
-5.718915 -4.654666 0.9009957 1.2679923 -1.0990547 -1.2422876 5.1633253 7.0473733
-8.038318 -9.186206 0.3423774 0.42705506 1.2084415 1.3111953 -10.234574 -10.680317
8.908204 9.819418 -15.80877 -16.825478 1.455661 1.7147576 -11.148469 -12.268096
-9.665629 -12.123689 -4.713817 -5.0055685 1.38701 1.517656 5.0363297 5.399182
6.4906955 7.5957747 1.4719493 1.9776137 2.2782276 2.589802 5.055158 5.843653
-8.356036 -9.497936 9.328172 10.870858 -2.4082956 -4.5754485 -0.6640395 -0.82764214
15.801312 17.027254 5.9084477 7.4552627 3.3136146 5.06022 -4.5743227 -5.3157587
6.2424865 6.1242056 3.3686678 4.140313 -8.486249 -9.640125 -18.719503 -20.772186
13.153263 18.68626 1.3652288 1.4355471 0.51364267 0.42756134 7.6487365 9.42063
-0.3157338 -0.36975667 11.061856 12.978588 13.377555 15.337247 9.6943655 12.079381
-0.26932535 -0.34080863 -0.31089914 -0.35248917 -14.519095 -16.691246 -3.5802567 -4.9301844
-8.667365 -7.227275 7.0342865 6.3889027 -18.16971 -20.772654 -19.128803 -17.859205
-2.8058558 -2.937307 -19.276178 -20.110458 -1.5066531 -2.5569792 -8.155476 -8.191626
7.7474566 8.984972 0.5992684 0.58422023 -13.152766 -15.001176 -2.8672912 -3.528732
-3.9062073 -4.5669513 0.22505783 0.27716935 1.9775785 3.0993748 -9.065949 -10.29859
1.1640488 1.1800249 -4.8224363 -4.2596846 -14.162193 -15.754989 0.54721695 0.64246434

exp_avg_sq f4 [64, 2]
00000000: 0028 bc42 c375 f041 e0a7 e83e 6e59 553f
00000010: e3fd 7a40 f003 c03f fdd9 2842 ab3a 6f43
00000020: 6bf1 da44 3f61 4944 2d6f 5e40 c7ee 9d40
00000030: 58ce 1341 c937 0840 53fb 9743 6a33 eb43
00000040: c38d 7344 65ba 1444 b082 f344 08bc fc44
00000050: ed18 e540 9b88 9040 8fe3 ef44 1b0f 5344
00000060: 584a 5b44 54f0 a844 6c07 b543 87a4 cd41
00000070: cfa2 3641 fcea 4741 63ba d543 2ba2 a442
00000080: ed3a 1644 c603 a143 d7cd b940 cc77 3641
00000090: cb34 4542 0da5 5241 2d19 9c43 e0bd b142
000000a0: 4f1e a044 71b8 0244 12ce 2744 ead8 8643
000000b0: 6a1f 8541 211c 1443 73c2 8240 bf17 4d41
000000c0: 60a3 6945 0ada cd44 111e bf42 afb1 b843
000000d0: 5691 2342 3982 5c43 a0b3 1f43 451f ef42
000000e0: f60c be44 67f7 9842 ade6 ff41 8b5f ba41
000000f0: ed27 ca44 f35f 7644 3529 cd45 4817 6b44
00000100: 7125 7e44 043f 7345 4891 3c42 e1b7 2241
00000110: f6f9 ad3f 86b8 553e 66f8 f542 856e c742
00000120: e828 5640 4cff 383f 8114 fa44 cf95 8644
00000130: 2b06 2345 31a6 3744 8cd4 5c44 44bc 9444
00000140: f45d bd3f f976 523f 3ad0 8341 692c c740
00000150: ff30 8545 b908 a044 83fa 3042 9058 a742
00000160: dcd0 3d45 ab23 da42 47ed 3244 fd86 9242
00000170: e325 1145 a766 8045 735a d644 9469 5944
00000180: ccd9 be43 e5b1 7841 a7ba c445 6b9e e544
00000190: bb4f b040 a1bb 1b42 963b a043 da34 6d43
000001a0: 13f6 af43 eb28 4043 9a5d 5442 8f1f 2140
000001b0: 066b 0445 bd75 7c44 c3fa 6242 f014 ec41
000001c0: 87a7 d042 bc67 5943 03ae 2640 9eca ab3f
000001d0: 39b7 3641 d841 6f42 a67c ad44 89ac 2f44
000001e0: bc52 9140 0b6b 443f 798f 8643 8b52 d441
000001f0: 636e 5945 0a87 d444 a6a2 6641 1a66 9f41
94.078125 30.0575 0.45440578 0.83339584 3.921746 1.5001202 42.21288 239.22917
1751.5443 805.5195 3.4755356 4.9353976 9.237877 2.1284049 303.96347 470.40167
974.215 594.9124 1948.084 2021.876 7.1592927 4.5166755 1919.1112 844.236
877.1616 1351.5103 362.05798 25.705336 11.414748 12.494869 427.45615 82.316734
600.9207 322.02948 5.806377 11.404247 49.301556 13.165296 312.1967 88.87085
1280.9471 522.8819 671.21985 269.69464 16.640339 148.10988 4.0862365 12.818297
3738.211 1646.8137 95.55872 369.38815 40.89193 220.50868 159.70166 119.56107
1520.405 76.48321 31.987635 23.296652 1617.2477 985.4992 6565.151 940.3638
1016.585 3891.9385 47.141876 10.169892 1.3591907 0.20871171 122.98515 99.71586
3.3462467 0.7226455 2000.6407 1076.6815 2608.3855 734.59674 883.32104 1189.8833
1.4794297 0.8221279 16.476673 6.224171 4262.1245 1280.2726 44.24464 83.67297
3037.0537 109.069664 715.70746 73.26365 2322.368 4108.8315 1714.8265 869.64966
381.70154 15.543431 6295.3315 1836.9506 5.5097327 38.93323 320.4655 237.20645
351.92245 192.15984 53.091408 2.5175512 2118.689 1009.83966 56.744884 29.510223
104.3272 217.40521 2.6043708 1.3421209 11.419732 59.8143 1387.8953 702.69586
4.5413494 0.76725835 269.12088 26.540304 3478.8992 1700.22 14.414709 19.924854

exp_avg f4 [64]
00000000: e757 a1c0 853c 6d3f 98eb 72bf 1cfa ae40
00000010: c0d6 c7c0 8e72 aa3e 373f e43f cb50 09c1
00000020: a1d9 d940 5f58 41c1 e3c3 db3f c7ec 0bc1
00000030: f26d 0ac1 728b a6c0 4559 893f e4c3 9340
00000040: b6ed a340 290c fa3f 23b8 6840 b115 ec40
00000050: 6400 ccc0 ed71 f640 7964 c7c0 9117 10bf
00000060: 12cd 4241 cade 9f40 162c 9440 cfc3 64c0
00000070: 547f 0b41 f750 6a40 f51f d2c0 28e5 61c1
00000080: 3a95 7441 70d4 873f 2f27 be3f 650a 0441
00000090: 8f1b d9be 550c 0c41 e26b 2a41 6b8f 0441
000000a0: 4e7a c1be 5af7 75be 2b1f 37c1 e6f3 58c0
000000b0: c403 1dc1 e1bf d440 132b 63c1 47fa 6ac1
000000c0: a06f 1ac0 d12b 73c1 03a2 1fc0 d47b c4c0
000000d0: 80bc c540 f014 f23e 0b4b 20c1 accf a4c0
000000e0: 2b08 43c0 5862 833e a8dc 5640 2c65 edc0
000000f0: bec1 943f 6ac7 98c0 1b90 30c1 f1b2 da3e
-5.0419803 0.9267047 -0.9489074 5.468031 -6.2449646 0.33290523 1.7831792 -8.582225
6.807816 -12.084075 1.7169155 -8.745307 -8.651842 -5.204522 1.0730368 4.6176624
5.1227674 1.9534961 3.6362388 7.377648 -6.3750477 7.701407 -6.2310147 -0.5628596
12.175066 4.995946 4.6303816 -3.5744512 8.718586 3.6611917 -6.566401 -14.118446
15.286432 1.0611706 1.4855708 8.252538 -0.42403838 8.753011 10.651339 8.285014
-0.37788624 -0.24020138 -11.445109 -3.3898864 -9.813419 6.6484227 -14.198016 -14.686103
-2.413063 -15.198197 -2.4942634 -6.1401157 6.1792603 0.472816 -10.018321 -5.1503506
-3.0473735 0.25660968 3.3572178 -7.4186 1.1621625 -4.7743425 -11.035182 0.42714646

exp_avg_sq f4 [64]
00000000: 8113 ed41 3b31 863e 13e0 053f 899d 6642
00000010: 2d6a 1043 c37a db3f 227d 5740 8dc2 e342
00000020: 6946 c642 48f9 a743 0bb7 2640 c22d 3343
00000030: b09e 3543 82ae 8242 925a e93f 0fef 2942
00000040: 1f1b 6e42 569a 8240 f442 ad41 1394 db42
00000050: f629 0643 cb71 f242 4c80 8542 6d13 cc3f
00000060: 6026 b443 22a9 4e42 3428 1842 73e8 0b42
00000070: 9625 4443 e9f5 c841 ceb9 1d43 81b4 0b44
00000080: 6ff8 0844 00ea e940 4a94 1740 4b15 d442
00000090: e89a dc3f 857b 4a43 14c1 9243 0ff1 1f43
000000a0: 71ab b23f af43 803f bcbc c543 80f5 6a41
000000b0: 7e88 8143 802f a242 f71f 0244 f190 be43
000000c0: bcb3 e141 f08c 1444 b0ea fc40 90e6 7342
000000d0: 76e1 a742 4170 5b40 9aa8 8a43 b76d 3642
000000e0: 17c7 de41 2e54 a93f f0b9 8941 4b60 0d43
000000f0: 93f3 2d3f 4523 0842 9320 9f43 b7cb 2440
29.634523 0.26209435 0.52295035 57.653843 144.41475 1.7146839 3.3670125 113.87998
99.13752 335.9475 2.604922 179.17874 181.61987 65.340836 1.8230765 42.483456
59.526485 4.08134 21.657692 109.78921 134.16391 121.22225 66.75058 1.5943428
360.2998 51.66517 38.03926 34.977 196.14682 25.120073 157.7258 558.8204
547.8818 7.3098145 2.3684258 106.04159 1.7234774 202.4825 293.50842 159.94164
1.395857 1.0020655 395.4745 14.684937 259.06635 81.09277 520.49945 381.13235
28.21276 594.20215 7.9036484 60.97516 83.94035 3.4287264 277.3172 45.607143
27.847212 1.3228815 17.21579 141.37614 0.6794979 34.034443 318.2545 2.5749338
